visualization/policy_nns/Overcooked/mapA/agent_state_dict_2.pt (torch, 43073 bytes, 12 tensors)

fc1.weight f4 [32, 32]
-0.22437154 0.26885283 0.19738913 -0.23097551 -0.4226851 -0.21702655 -0.15632726 0.49356243
0.052258365 0.36406177 -0.20692666 -0.06171359 0.2324333 -0.35375324 0.09269074 0.038800023
0.26273704 -0.10817157 -0.17735821 -0.30800533 0.15227118 -0.3430194 -0.3108732 -0.30557618
0.18057463 -0.4216383 0.23493937 0.31757918 0.12598404 0.099439144 -0.24812151 0.3185553
-0.161286 0.27426732 -0.05089407 0.2002416 0.52248406 -0.3004007 -0.08163545 0.20919836
-0.23108655 -0.1688446 0.2940964 -0.00028643495 -0.25317007 -0.35673147 0.30229783 0.066763416
-0.11960119 -0.2988919 -0.14804655 0.40077978 0.24418303 0.13087489 0.34921348 0.58804685
0.30399993 0.122821696 -0.17393799 0.079169884 0.032570977 0.43151885 0.1949228 0.35314882
-0.45418122 0.09317365 -0.3504939 0.020075817 0.3705546 -0.16651642 0.23141474 0.33465758
-0.24416062 -0.2726994 0.17283311 0.10873077 0.2524542 0.16050701 -0.3971541 0.23254849
-0.36853108 -0.37076336 0.32170066 0.30305988 -0.25879294 0.1746327 -0.37001988 -0.05618086
0.3845286 -0.29711202 0.41855907 -0.4050014 0.16483748 -0.25162658 0.10106114 0.35584432
-0.12256998 -0.17660439 0.38416994 0.3812341 0.037804887 0.13170913 -0.23322615 0.68294287
-0.00023300001 0.24767493 -0.14561614 -0.12953435 0.27807188 -0.010610112 0.08501299 0.3672298
-0.12546994 0.41336837 0.07857568 0.17974046 -0.09875799 -0.34861878 0.21416034 0.3705926
-0.064291544 0.31081715 -0.151875 -0.023430716 0.11925763 -0.26720065 -0.08178396 -0.39599323
-0.07895567 0.015261161 0.27688447 -0.010971656 0.28538683 0.14777353 0.025751336 -0.50730467
0.33404687 -0.31699994 -0.17790274 0.07068043 0.19320014 0.046164334 -0.03377901 -0.18443209
-0.107662894 0.36646664 0.25495622 0.21801935 -0.0049621547 -0.1502741 0.39205202 0.587206
-0.23548138 -0.07419802 -0.4137193 0.2561878 -0.102387585 -0.057923947 -0.105733626 0.12709457
0.017551525 0.09764614 0.20900697 -0.3105213 0.23721284 0.31587434 -0.035555612 0.27953264
-0.04661208 -0.026070764 0.39799494 -0.278387 -0.27486062 0.001564412 0.14645176 -0.49526006
0.371458 -0.0106456075 0.18745539 -0.21448375 -0.26543075 0.3880439 0.22869131 0.37652916
0.34161782 -0.08741166 -0.117673874 0.12174818 0.4120796 -0.16896778 0.19493638 0.24469727
-0.39650324 -0.42951828 0.092984 0.36564118 -0.14753628 -0.40502724 -0.07668469 0.2101884
-0.43277532 -0.39972892 -0.31076735 -0.3365886 -0.4268019 0.31204066 0.024508264 -0.057875887
0.24343653 0.038379446 -0.2882805 0.18348362 0.19819844 -0.054506157 -0.35745963 -0.48307782
-0.20519167 -0.15916564 0.27395368 0.39676934 -0.29116452 -0.09876988 -0.29336372 -0.049064916
0.21378358 -0.33248672 0.12563497 -0.35988194 0.47026557 -0.42448303 0.17971511 0.052113127
0.15275435 -0.36424717 0.18743739 -0.15048528 -0.354882 -0.26016447 -0.3358163 0.4422304
0.38594586 -0.11126368 -0.023875032 -0.093349166 -0.05443182 0.14627264 0.28149757 -0.19442064
-0.4196619 0.2702177 -0.052049775 0.33267757 0.41271937 0.4317469 -0.31813163 0.38261607
00000000: a7c1 65be 14a7 893e 6020 4a3e d884 6cbe
00000010: 2e6a d8be 353c 5ebe 4114 20be 37b4 fc3e
00000020: de0c 563d 4e66 ba3e 95e4 53be 64c7 7cbd
00000030: ff02 6e3e 251f b5be a5d4 bd3d c6ec 1e3d
00000040: 7885 863e 0e89 ddbd 649d 35be e0b2 9dbe
00000050: faec 1b3e 3da0 afbe c62a 9fbe 7b74 9cbe
00000060: 8ee8 383e fae0 d7be f293 703e bd99 a23e
00000070: f601 013e c0a6 cb3d 9113 7ebe ae19 a33e
00000080: 2828 25be c46c 8c3e 4d76 50bd 220c 4d3e
00000090: 84c1 053f 1fce 99be 7d30 a7bd 1838 563e
000000a0: f4a1 6cbe 99e5 2cbe ce93 963e a62c 96b9
000000b0: 829f 81be 82a5 b6be c8c6 9a3e 42bb 883d
000000c0: 78f1 f4bd 5c08 99be 8499 17be 0233 cd3e
000000d0: 1e0b 7a3e 1104 063e 1ccc b23e 3d8a 163f
000000e0: e1a5 9b3e f189 fb3d cd1c 32be d223 a23d
000000f0: 2569 053d 0af0 dc3e d899 473e eccf b43e
00000100: 718a e8be d4d1 be3d f073 b3be 0a76 a43c
00000110: 55b9 bd3e 4883 2abe fcf7 6c3e 3d58 ab3e
00000120: 3e05 7abe 419f 8bbe 2afb 303e 3dae de3d
00000130: ad41 813e f35b 243e c857 cbbe 3121 6e3e
00000140: 1bb0 bcbe b2d4 bdbe f3b5 a43e aa2a 9b3e
00000150: 8280 84be ead2 323e 3f73 bdbe e71d 66bd
00000160: efe0 c43e 111f 98be 604d d63e 585c cfbe
00000170: 28cb 283e 33d5 80be 25f9 ce3d 3a31 b63e
00000180: f805 fbbd c8d7 34be ecb1 c43e 1e31 c33e
00000190: 4cd9 1a3d c2de 063e d6d2 6ebe 58d5 2e3f
000001a0: 7751 74b9 7f9e 7d3e 661c 15be a7a4 04be
000001b0: 705f 8e3e 09d6 2dbc 4a1b ae3d 8b05 bc3e
000001c0: 317b 00be 05a5 d33e 49ec a03d e20d 383e
000001d0: a141 cabd 297e b2be d94c 5b3e 50be bd3e
000001e0: 49ab 83bd 6d23 9f3e 1f85 1bbe c6f1 bfbc
000001f0: 583d f43d 86ce 88be 597e a7bd a0bf cabe
00000200: 83b3 a1bd f309 7a3c cdc3 8d3e 76c2 33bc
00000210: 391e 923e f251 173e 77f4 d23c b8de 01bf
00000220: 3108 ab3e d14d a2be 232c 36be e7c0 903d
00000230: 42d6 453e d016 3d3d dc5b 0abd c4db 3cbe
00000240: 5d7e dcbd 84a1 bb3e 9f89 823e 7740 5f3e
00000250: 9299 a2bb 74e1 19be 0bbb c83e 2253 163f
00000260: 0822 71be 22f5 97bd 04d3 d3be 0c2b 833e
00000270: 95b0 d1bd a941 6dbd df8a d8bd 1425 023e
00000280: 37c8 8f3c b3fa c73d ec05 563e a6fc 9ebe
00000290: ece7 723e 48ba a13e c3a2 11bd e71e 8f3e
000002a0: 4fec 3ebd 5b92 d5bc fec5 cb3e be88 8ebe
000002b0: 88ba 8cbe f50c cd3a 73f7 153e ba92 fdbe
000002c0: be2f be3e ea6a 2ebc 4ef4 3f3e a1a1 5bbe
000002d0: 8ae6 87be b1ad c63e 0e2e 6a3e 6ec8 c03e
000002e0: 88e8 ae3e e204 b3bd 00ff f0bd 1c57 f93d
000002f0: 19fc d23e e405 2dbe 679d 473e ec91 7a3e
00000300: 7902 cbbe d2e9 dbbe 656e be3d 5235 bb3e
00000310: c013 17be bb5f cfbe dd0c 9dbd a13b 573e
00000320: ba94 ddbe 45a9 ccbe e61c 9fbe 5755 acbe
00000330: c785 dabe cbc3 9f3e 8ec5 c83c 440f 6dbd
00000340: 6d47 793e c433 1d3d 8099 93be 21e3 3b3e
00000350: 88f4 4a3e d941 5fbd f304 b7be fa55 f7be
00000360: c41d 52be 51fc 22be a843 8c3e 5a25 cb3e
00000370: 8413 95be dd47 cabd c533 96be 4bf8 48bd
00000380: 15ea 5a3e b33b aabe 74a6 003e 7242 b8be
00000390: a6c6 f03e d755 d9be 3d07 383e 9374 553d
000003a0: a36b 1c3e 9b7e babe 96ef 3f3e d018 1abe
000003b0: 18b3 b5be 4734 85be 1df0 abbe 066c e23e
000003c0: b29a c53e 36de e3bd 9295 c3bc d92d bfbd
000003d0: e6f3 5ebd 7fc8 153e 7320 903e 3416 47be
000003e0: eddd d6be f959 8a3e 2532 55bd b754 aa3e
000003f0: f44f d33e ee0d dd3e 26e2 a2be 41e6 c33e

fc1.bias f4 [32]
-0.0444878 0.12862805 -0.06775538 0.015617057 0.0203535 -0.013767477 -0.12826622 0.012960143
0.044834886 0.009331402 0.04822689 0.093050726 8.381003e-05 -0.07004682 -0.021570705 -0.06097675
0.019955797 0.12836345 0.16287129 0.0330616 0.061074555 0.0387986 -0.022583302 0.0751192
0.095214255 0.07312445 0.010526896 0.07894724 0.018756077 0.023138316 -0.013565751 0.051967885
00000000: d738 36bd 12b7 033e 55c3 8abd afde 7f3c
00000010: 62bc a63c fc90 61bc 3858 03be c856 543c
00000020: c9a4 373d bde2 183c 8f89 453d 6191 be3d
00000030: 2bc3 af38 b574 8fbd 0cb5 b0bc c2c2 79bd
00000040: 577a a33c b571 033e bbc7 263e 9a6b 073d
00000050: 5029 7a3d 48eb 1e3d 9e00 b9bc 18d8 993d
00000060: b1ff c23d 46c2 953d 0179 2c3c 17af a13d
00000070: 58a6 993c 918c bd3c e242 5ebc 47dc 543d

fc2.weight f4 [32, 32]
0.08089843 0.45903865 0.33110708 0.32774445 0.29145268 -0.20248902 -0.14181541 0.41683078
-0.26287273 -0.12372067 0.40378866 -0.5431813 0.35389692 0.3195298 0.2054749 0.13607447
-0.23599875 0.4007164 -0.19012922 -0.17481951 -0.167897 -0.04763347 -0.15483584 0.123847924
0.0884407 0.40220436 -0.33274722 0.033302534 -0.10456255 0.2844248 -0.20196734 -0.0060627623
-0.32704479 0.15225156 -0.23944265 -0.16925646 -0.13551463 0.044403315 0.3445853 0.4488124
0.15189838 0.3930055 0.018251834 -0.13429402 0.14664327 0.22350906 0.21135162 0.034598794
0.08873969 0.28135163 0.17005521 -0.44087932 0.3344395 -0.106685646 -0.21971458 -0.08571025
0.4472681 0.56682056 -0.1383401 0.17484279 -0.020701427 -0.23427632 0.27833635 -0.30125412
-0.4022581 0.3245706 0.3209981 -0.15963034 -0.0005049589 -0.14172862 -0.47908583 -0.40332228
0.507342 0.016218906 0.41132018 0.039421387 0.15508221 -0.202501 0.5295385 0.23040052
0.2988646 0.4780378 0.5320033 -0.41478363 0.5641223 0.24014299 0.13463995 0.257549
0.30486223 -0.16915204 0.25327623 -0.13301282 -0.041115828 0.43938625 -0.07834373 0.030345852
0.27489814 0.11118071 -0.052502614 0.024154255 0.38397595 0.13638236 -0.25963393 0.0841991
-0.36885577 0.19814748 -0.032018702 0.3663778 -0.31906864 0.5847773 -0.14226712 0.07669517
-0.37400147 0.28184104 0.09745285 -0.09947099 -0.23494221 -0.36945644 0.26448935 0.03627325
-0.11975231 -0.5191541 0.21842766 -0.2396658 0.39847094 0.28052106 0.06783672 0.09257707
-0.31482035 -0.25104094 -0.045150585 0.33757326 -0.13943818 0.17654213 0.30242553 -0.17374156
-0.013582516 -0.087665886 -0.44510767 -0.19121705 -0.17695619 -0.0404377 0.32928425 0.44445702
-0.46991915 0.44069093 0.25745648 0.0628412 0.19032368 -0.10991153 -0.31327695 -0.36640972
0.001141836 0.34621975 0.102974504 -0.26487616 0.027479418 -0.028367437 -0.42072406 -0.072890535
0.027570082 0.3085694 0.17922898 0.27259606 0.33772776 0.35678223 -0.26578677 -0.010155489
-0.36018342 0.002934136 0.19837297 0.35167745 0.17068249 -0.11642347 0.38449243 -0.043277632
-0.17965887 -0.33764827 -0.39216813 0.099532574 -0.40268996 0.22763354 -0.45635095 -0.09654814
-0.31534645 -0.5293307 -0.16579446 0.02039125 0.4257109 0.11910642 -0.012575623 0.20008092
0.23939611 -0.043653175 0.33255813 -0.061551627 -0.04951437 0.12174894 -0.2947392 0.07409761
0.06271951 0.48732483 0.13608754 0.32917055 -0.09843566 -0.32616207 0.252825 -0.090200715
0.253431 -0.19851716 -0.26116797 0.23140071 0.41419673 0.1475765 0.09972055 0.33258268
0.21334793 -0.29177606 0.3733816 0.064831264 0.12419395 0.5675762 0.19219384 -0.21926881
-0.02524252 0.2358205 -0.39264634 0.16454577 0.06734272 0.0034041004 0.005421109 -0.10473747
-0.30001846 -0.18478325 0.21473671 0.33033264 0.3434972 -0.22659485 0.119964495 -0.03045222
0.44047415 -0.26359516 -0.029788377 -0.2605396 -0.10037286 -0.27759153 -0.17585425 0.09633428
-0.27158597 0.39411873 0.2889652 0.34614602 -0.04501679 -0.25781527 0.33456537 -0.1964998
00000000: 13ae a53d 1d07 eb3e de86 a93e 1fce a73e
00000010: 4939 953e 4859 4fbe 0f38 11be d86a d53e
00000020: 4197 86be 4361 fdbd 63bd ce3e ee0d 0bbf
00000030: fa31 b53e 6999 a33e 0368 523e 1b57 0b3e
00000040: a8a9 71be b32a cd3e 3cb1 42be e303 33be
00000050: 31ed 2bbe 501b 43bd 498d 1ebe fba3 fd3d
00000060: 6620 b53d bbed cd3e d85d aabe 3d68 083d
00000070: e424 d6bd 21a0 913e 87d0 4ebe 23aa c6bb
00000080: 6a72 a7be d5e7 1b3e 7430 75be 9151 2dbe
00000090: 59c4 0abe 40e0 353d 7c6d b03e bdca e53e
000000a0: 408b 1b3e 0438 c93e df84 953c 5f84 09be
000000b0: a729 163e 8fdf 643e 8f6c 583e 77b7 0d3d
000000c0: 28bd b53d 520d 903e f422 2e3e efba e1be
000000d0: a73b ab3e 017e dabd dcfc 60be db88 afbd
000000e0: 5300 e53e 271b 113f 07a9 0dbe fd09 333e
000000f0: 0a96 a9bc 22e6 6fbe 1a82 8e3e fb3d 9abe
00000100: c6f4 cdbe 1e2e a63e dd59 a43e 2376 23be
00000110: 385f 04ba 4f21 11be bd4a f5be 4280 cebe
00000120: 2ae1 013f 83dd 843c 8f98 d23e 5278 213d
00000130: dfcd 1e3e 6c5c 4fbe d68f 073f 1dee 6b3e
00000140: c804 993e 5fc1 f43e 5e31 083f 855e d4be
00000150: 526a 103f 0be8 753e 0edf 093e 76dd 833e
00000160: e716 9c3e 3136 2dbe 6cad 813e 8334 08be
00000170: 1269 28bd 3cf7 e03e ad72 a0bd dd97 f83c
00000180: 73bf 8c3e b6b2 e33d fb0c 57bd 25df c53c
00000190: 7f98 c43e d1a7 0b3e bdee 84be 9470 ac3d
000001a0: aada bcbe 2ce7 4a3e 0b26 03bd df95 bb3e
000001b0: f75c a3be f7b3 153f 79ae 11be 5b12 9d3d
000001c0: 1f7d bfbe 784d 903e 5c95 c73d 72b7 cbbd
000001d0: b194 70be 6529 bdbe 266b 873e 4293 143d
000001e0: b340 f5bd 48e7 04bf 80ab 5f3e f46a 75be
000001f0: 6204 cc3e 75a0 8f3e faed 8a3d 0c99 bd3d
00000200: 2230 a1be 7088 80be d2ef 38bd 67d6 ac3e
00000210: e2c8 0ebe 76c7 343e 85d7 9a3e 4fe9 31be
00000220: 3489 5ebc 2c8a b3bd 27e5 e3be 67ce 43be
00000230: 0134 35be 00a2 25bd f297 a83e df8f e33e
00000240: 3e99 f0be 3ea2 e13e 56d1 833e e3b2 803d
00000250: 36e4 423e 4c19 e1bd d665 a0be 0e9a bbbe
00000260: a9a9 953a b743 b13e 4ce4 d23d d99d 87be
00000270: 841c e13c d462 e8bc 2569 d7be a247 95bd
00000280: a7da e13c cffc 9d3e cd87 373e b691 8b3e
00000290: a7ea ac3e 29ac b63e 3415 88be 3563 26bc
000002a0: f669 b8be a24a 403b 4922 4b3e 110f b43e
000002b0: 64c7 2e3e 6e6f eebd 31dc c43e e343 31bd
000002c0: 7ff8 37be 3ce0 acbe 43ca c8be bcd7 cb3d
000002d0: 612d cebe c418 693e d5a6 e9be 08bb c5bd
000002e0: 1775 a1be 3782 07bf 06c6 29be 8d0b a73c
000002f0: c7f6 d93e 11ee f33d fc09 4ebc 03e2 4c3e
00000300: 4124 753e accd 32bd 0f45 aa3e 8f1d 7cbd
00000310: 94cf 4abd 8257 f93d 0ee8 96be 7dc0 973d
00000320: 1673 803d a482 f93e 885a 0b3e 0b89 a83e
00000330: a398 c9bd b7fe a6be 4772 813e 27bb b8bd
00000340: b5c1 813e 1548 4bbe cfb7 85be 4ff4 6c3e
00000350: 9811 d43e 4b1e 173e 4a3a cc3d 4748 aa3e
00000360: e177 5a3e ac63 95be e02b bf3e 41c6 843d
00000370: 6659 fe3d ad4c 113f 76ce 443e 0188 60be
00000380: 67c9 cebc ee7a 713e f108 c9be b07e 283e
00000390: fbea 893d 5417 5f3b 8fa3 b13b 9980 d6bd
000003a0: 059c 99be d237 3dbe f1e3 5b3e 5c21 a93e
000003b0: ddde af3e 7b08 68be f2af f53d ef76 f9bc
000003c0: d485 e13e f2f5 86be c106 f4bc 7265 85be
000003d0: 4990 cdbd 7a20 8ebe 2313 34be e84a c53d
000003e0: 510d 8bbe eec9 c93e 3ff3 933e 0d3a b13e
000003f0: 8763 38bd 5d00 84be 274c ab3e 3e37 49be

fc2.bias f4 [32]
0.016198335 0.01924578 -0.012094003 0.007476378 -0.06463795 0.0033136983 0.03997816 -0.019678995
-0.024811018 -0.047245946 -0.010466866 0.056863625 0.037853263 0.060382355 0.017480802 0.075199686
0.026321653 0.053906687 0.0759665 0.105588526 0.08373758 -0.011843949 -0.0070554335 0.04327254
0.047992136 0.062045105 0.021460852 0.018090617 0.0130902305 0.017955704 0.08720114 0.026587227
00000000: 5fb2 843c 53a9 9d3c ed25 46bc 68fc f43b
00000010: e760 84bd a22a 593b 24c0 233d d835 a1bc
00000020: 7a40 cbbc f784 41bd 387d 2bbc d5e9 683d
00000030: 060c 1b3d 7d53 773d e633 8f3c 4b02 9a3d
00000040: 82a0 d73c 42cd 5c3d 5394 9b3d cc3e d83d
00000050: 9c7e ab3d 1f0d 42bc 4431 e7bb 8c3e 313d
00000060: 6793 443d 0223 7e3d abce af3c c632 943c
00000070: 6878 563c d717 933c 8396 b23d 75cd d93c

gru.weight_ih_l0 f4 [96, 32]
0.0025926623 0.12813109 -0.047213078 0.1851451 0.11431796 0.020618899 -0.12093076 -0.05597125
0.024035636 0.054495126 -0.060847532 0.01922304 0.0513348 0.18779722 -0.12629211 0.18021676
-0.050721295 -0.038178463 0.02151053 0.15242769 0.13937499 0.20277458 0.021032995 -0.24310723
-0.14416754 -0.0034878498 0.19832693 0.08873768 0.16843396 0.0977296 0.04932521 0.08835239
-0.037151963 0.07884309 -0.13055886 0.050226845 -0.06565661 0.15825628 0.071418546 0.19654837
0.016644578 -0.09652129 0.1033777 -0.014352441 0.3145201 0.0058925743 0.1611189 0.12997764
0.19266583 0.10422104 -0.040597856 0.1274622 -0.12891173 -0.022752376 -0.05620385 -0.030042818
-0.18854292 -0.07775524 0.08701963 0.20408605 0.170099 0.12803428 -0.079828955 0.11648066
-0.10965408 -0.17960697 -0.08432884 0.10394328 0.010327552 0.100879826 -0.023485811 -0.0021959443
-0.1419712 -0.14453962 -0.12928763 0.039323438 -0.09659315 0.17204285 0.04686522 0.22549947
0.10017482 -0.15110974 0.24341723 -0.19108877 0.3639989 -0.114822984 0.1403763 -0.0980248
-0.22098099 -0.1862627 0.1708169 0.017250778 -0.09296353 0.25233597 -0.3322652 -0.0520909
0.15037072 -0.076904014 -0.04923702 0.16446267 0.002633287 -0.025435803 0.027622923 0.11253207
0.21960701 -0.020790383 -0.097328454 -0.042133912 -0.08596668 0.13135849 -0.13654819 0.084766634
-0.22766392 0.08860863 -0.017574904 0.07152336 -0.050579194 -0.14072423 0.034403116 0.075829595
0.13762987 -0.021161076 -0.06656945 0.13905434 0.087028645 0.14880367 -0.09256243 0.06133891
-0.28632247 0.04355465 -0.12772243 0.21746306 -0.24806522 0.1548603 0.22647335 -0.080883406
-0.13676985 -0.09908177 -0.058359414 0.1831612 0.0833574 0.19199952 0.07899119 0.21348217
0.010485357 -0.16164438 -0.066413365 0.118082546 -0.11467335 0.20625705 -0.21329853 0.10449124
0.25968337 0.15002134 -0.042214256 0.050257493 -0.027959313 0.12654865 0.23646973 0.21979831
-0.11083456 -0.01190508 -0.12794212 0.060016084 0.02786287 0.047215987 -0.14566834 0.013007461
-0.097059645 -0.076761544 0.11747469 0.026156692 0.09184728 -0.026252791 -0.04665647 0.04477556
0.10704169 -0.07020624 -0.10618763 -0.049150474 -0.19834647 -0.09767466 0.12679823 -0.09198358
0.03810711 -0.07320435 0.036317803 0.038065307 -0.100756936 0.11012099 -0.10570967 0.16073899
-0.09555038 -0.24865 0.10081562 -0.043757744 -0.17662716 0.16616176 0.07582818 -0.002289298
0.191393 -0.13248196 -0.05058527 0.22584413 0.05400383 0.28060952 0.22437301 -0.2119069
0.02319077 -0.08070675 0.10165095 0.34179774 0.04744394 -0.09938672 0.06725482 -0.031175183
0.1007623 -0.32721746 0.010824999 0.05557964 -0.101352684 -0.08825138 -0.07475436 -0.18525201
0.019158835 0.1396784 -0.07983263 0.030355666 -0.12308693 0.023218263 0.04769988 -0.08901787
0.17389315 0.05310793 0.10028176 0.08408626 -0.06392729 -0.0022106955 -0.13366294 0.0050150044
-0.07155729 -0.057065055 -0.0743183 -0.066083215 0.20296158 -0.13508287 -0.17090508 -0.09753417
-0.14792837 0.11767259 0.1858807 0.14532435 -0.18940654 -0.07288724 -0.0049472684 -0.010336574
00000000: a8e9 293b cc34 033e 8062 41bd ad96 3d3e
00000010: 891f ea3d f7e8 a83c 8caa f7bd 1c42 65bd
00000020: 62e6 c43c 4836 5f3d 433b 79bd a379 9d3c
00000030: 7044 523d ea4d 403e b852 01be be8a 383e
00000040: 22c1 4fbd 0561 1cbd da36 b03c 0116 1c3e
00000050: 51b8 0e3e 24a4 4f3e 634d ac3c 1af1 78be
00000060: a8a0 13be 6994 64bb 3716 4b3e 1abc b53d
00000070: f479 2c3e 7526 c83d 3b09 4a3d 19f2 b43d
00000080: a82c 18bd 7c78 a13d 39b1 05be aaba 4d3d
00000090: f976 86bd ef0d 223e e343 923d fa43 493e
000000a0: 365a 883c f4ac c5bd b0b7 d33d 8026 6bbc
000000b0: c708 a13e 7f16 c13b 5afc 243e dc18 053e
000000c0: 314a 453e d771 d53d f049 26bd 7385 023e
000000d0: 7001 04be 3163 babc 0236 66bd 5b1c f6bc
000000e0: 6511 41be 243e 9fbd 5937 b23d effb 503e
000000f0: 6f2e 2e3e 6b1b 033e 5d7d a3bd 6a8d ee3d
00000100: 5192 e0bd e4ea 37be 99b4 acbd 37e0 d43d
00000110: e534 293c 159a ce3d 5165 c0bc d5e9 0fbb
00000120: e660 11be 3202 14be fa63 04be 9d11 213d
00000130: a1d2 c5bd 002c 303e bff5 3f3d 55e9 663e
00000140: 7528 cd3d 83bc 1abe 5e42 793e c6ac 43be
00000150: 105e ba3e 5028 ebbd cebe 0f3e 3ac1 c8bd
00000160: d748 62be a6bb 3ebe a0ea 2e3e 8151 8d3c
00000170: aa63 bebd 2e32 813e aa1e aabe 445d 55bd
00000180: c8fa 193e da7f 9dbd c2ac 49bd e768 283e
00000190: 3a93 2c3b bf5e d0bc 7849 e23c 3777 e63d
000001a0: a9e0 603e 9850 aabc 2454 c7bd 9c94 2cbd
000001b0: 4c0f b0bd d782 063e 4ad3 0bbe 219a ad3d
000001c0: bb20 69be 7178 b53d 3ff9 8fbc d77a 923d
000001d0: 212c 4fbd 031a 10be 48ea 0c3d 8c4c 9b3d
000001e0: d8ee 0c3e fe59 adbc 9055 88bd 4364 0e3e
000001f0: 133c b23d fd5f 183e 5f91 bdbd 823e 7b3d
00000200: dc98 92be 5c66 323d abc9 02be a3ae 5e3e
00000210: cf04 7ebe b393 1e3e a1e8 673e 33a6 a5bd
00000220: 650d 0cbe 62eb cabd 480a 6fbd 9c8e 3b3e
00000230: 49b7 aa3d 869b 443e 22c6 a13d 129b 5a3e
00000240: c6ca 2b3c 1b86 25be bb03 88bd 43d5 f13d
00000250: dcd9 eabd 0c35 533e ee6a 5abe 81ff d53d
00000260: 38f5 843e 329f 193e dbe8 2cbd cdda 4d3d
00000270: ee0a e5bc f895 013e 1f25 723e cf12 613e
00000280: 3bfd e2bd 860d 43bc 4203 03be 6dd3 753d
00000290: ac40 e43c 8d65 413d 152a 15be 3f1d 553c
000002a0: 35c7 c6bd 2835 9dbd 9296 f03d 8f46 d63c
000002b0: 6d1a bc3d 1810 d7bc db1a 3fbd 9466 373d
000002c0: ac38 db3d 4ac8 8fbd e678 d9bd 0252 49bd
000002d0: 561b 4bbe a709 c8bd 65d7 013e e361 bcbd
000002e0: 3316 1c3d 2aec 95bd fac1 143d 5eea 1b3d
000002f0: a759 cebd 1d87 e13d 507e d8bd c398 243e
00000300: ebaf c3bd 1b9e 7ebe 6b78 ce3d 523b 33bd
00000310: c0dd 34be 4f26 2a3e ce4b 9b3d 0c08 16bb
00000320: 87fc 433e 5aa9 07be 8032 4fbd af43 673e
00000330: 1f33 5d3d 0dac 8f3e 0ac2 653e 1ffe 58be
00000340: 92fa bd3c 9549 a5bd 602e d03d 1d00 af3e
00000350: 9454 423d 448b cbbd e5bc 893d 1963 ffbc
00000360: 775c ce3d 0c89 a7be 565b 313c 7aa7 633d
00000370: ff91 cfbd 24bd b4bd d018 99bd b4b2 3dbe
00000380: fdf2 9c3c db07 0f3e 4a7f a3bd 72ac f83c
00000390: 0015 fcbd 3a34 be3c f360 433d 004f b6bd
000003a0: 0c11 323e b387 593d 8660 cd3d 6b35 ac3d
000003b0: 50ec 82bd 51e1 10bb f0de 08be e854 a43b
000003c0: a18c 92bd 0cbd 69bd 3134 98bd a356 87bd
000003d0: 29d5 4f3e 2a53 0abe be01 2fbe ffbf c7bd
000003e0: 897a 17be 54fe f03d 8357 3e3e e8cf 143e
000003f0: caf3 41be e845 95bd b21c a2bb bc5a 29bc

gru.weight_hh_l0 f4 [96, 32]
0.026450742 -0.060378183 0.20112167 0.06894444 0.09286714 -0.32315943 0.073718615 -0.07662385
-0.058987197 -0.048112538 0.0055993674 -0.070528746 0.285206 0.2029174 -0.08158949 -0.20908909
-0.19917932 -0.05327167 0.29143095 0.15843202 -0.30911246 0.08342274 -0.23043379 0.018218385
-0.0027930376 0.08582289 -0.16718754 -0.28692463 0.055631798 0.16514753 0.030014798 0.11274624
0.25346616 0.24640882 0.19705668 -0.010589926 0.09853488 -0.102863535 -0.047449622 -0.11727116
0.21919261 0.22814995 -0.058610734 -0.28617895 0.22397605 0.2412968 -0.24424082 -0.29963386
-0.20515834 0.21273576 0.090593524 -0.112232685 0.033131856 -0.021275332 -0.16893145 -0.28995705
0.0052287895 0.27935764 -0.25420725 0.06588656 -0.025575483 0.07999024 -0.042441007 0.2502759
-0.11618425 0.15221553 -0.044279408 0.046688948 0.11237516 0.05174539 0.018936293 0.065413706
0.14353622 -0.10100024 -0.066484 0.076295644 0.0886952 0.16586116 -0.18985139 -0.0735572
0.1255349 -0.061078023 -0.0364189 -0.06938494 -0.22321832 -0.1439794 -0.21595147 0.09749632
-0.055399634 0.021325205 -0.16187795 -0.15678538 0.046239886 0.103788495 -0.07227454 0.084452085
-0.26460424 0.07915887 -0.08958847 0.020700825 0.112115495 -0.14521468 0.22595985 0.09851025
0.067821324 -0.014084365 0.16373353 0.07865791 -0.102686554 -0.04856138 0.24940777 0.023570059
-0.084168755 0.037369523 0.082340226 -0.17507496 -0.21855667 -0.16142437 0.021047397 0.11400337
0.30721843 -0.1574538 -0.044716906 0.06983953 0.19515148 0.13373706 0.016898192 -0.07534274
0.0093920315 0.19060023 0.073160194 -0.1401976 0.1354146 -0.15263589 0.09696094 0.066876374
0.13949236 -0.06736995 0.0013803161 -0.23330344 0.1809053 0.016721558 -0.06668945 -0.14496726
0.08273996 -0.06789848 0.20375167 0.032468863 -0.22406496 0.21422765 -0.20007628 -0.003274634
0.18465106 0.18637583 -0.18151942 0.09001933 -0.16304685 -0.0017531435 -0.083744265 0.25688162
-0.030811395 -0.15798509 0.028004449 0.033473942 0.1523072 0.17916459 0.01876737 0.09377995
-0.060933996 0.017323505 0.009132198 0.13221118 -0.17276141 0.10063499 0.15512231 0.02083997
-0.09773836 0.11293339 0.10415548 -0.16580062 0.024845395 0.0046031526 -0.026028752 0.13895558
-0.29162022 0.06930532 -0.070069775 0.031048322 -0.12837954 -0.11582257 0.0019596512 0.19785945
0.14603926 0.26581073 0.29276258 -0.08056307 0.24575871 0.009779072 -0.3356335 -0.016688501
0.0671899 0.27454537 0.037306447 -0.26189843 0.04554319 0.16264023 0.06120488 -0.060348213
-0.18373607 0.2536716 0.17763072 -0.1562365 -0.19864723 0.15509649 -0.15442117 -0.10894665
0.029292818 0.24019511 0.08596521 0.26159033 -0.115787916 0.029061856 -0.0251689 0.067255445
-0.23541914 -0.002623822 -0.14480421 -0.056618985 -0.07434274 0.008363683 -0.13518748 -0.024172135
0.07645884 0.024267647 -0.037260734 -0.11771348 0.115110986 0.16922455 -0.057648715 -0.15056734
-0.08878312 -0.077436455 0.102810405 0.10463658 -0.21386674 -0.06636407 0.08468445 -0.021939455
0.12499585 0.04753112 0.0090049235 0.04259568 0.14137104 -0.05066361 0.11287358 -0.0019942636
00000000: 3aaf d83c 1d4f 77bd d7f2 4d3e be32 8d3d
00000010: 2131 be3d 2775 a5be c9f9 963d f7ec 9cbd
00000020: 8f9c 71bd a711 45bd e67a b73b 6071 90bd
00000030: 8506 923e 94c9 4f3e 6418 a7bd 731b 56be
00000040: aaf5 4bbe 6533 5abd 7036 953e 013c 223e
00000050: fd43 9ebe 8bd9 aa3d d6f6 6bbe b93e 953c
00000060: 650b 37bb e9c3 af3d 3633 2bbe c9e7 92be
00000070: 2bde 633d 6f1c 293e 98e1 f53c 80e7 e63d
00000080: 51c6 813e 9852 7c3e 3ac9 493e 5e81 2dbc
00000090: a8cc c93d 1eaa d2bd 895a 42bd dd2b f0bd
000000a0: 0774 603e 24a0 693e cf11 70bd 0c86 92be
000000b0: fa59 653e 8216 773e 441a 7abe 9c69 99be
000000c0: 0715 52be 67d7 593e 1989 b93d 40da e5bd
000000d0: 45b5 073d 9b49 aebc 5efc 2cbe 4075 94be
000000e0: 4456 ab3b f707 8f3e 7427 82be 88ef 863d
000000f0: ad83 d1bc ecd1 a33d 9fd6 2dbd 2a24 803e
00000100: 02f2 edbd 63de 1b3e 535e 35bd e93c 3f3d
00000110: f324 e63d f9f2 533d 4920 9b3c 9ff7 853d
00000120: 29fb 123e 37d9 cebd c328 88bd e440 9c3d
00000130: d4a5 b53d 82d7 293e 6768 42be 28a5 96bd
00000140: 398c 003e f32c 7abd fc2b 15bd b119 8ebd
00000150: 5893 64be 566f 13be 6222 5dbe 27ac c73d
00000160: baea 62bd 32b2 ae3c 55c3 25be 598c 20be
00000170: 0966 3d3d 108f d43d ad04 94bd 37f5 ac3d
00000180: 357a 87be 0c1e a23d 297a b7bd c794 a93c
00000190: cf9c e53d 28b3 14be 0562 673e bebf c93d
000001a0: e8e5 8a3d 1cc2 66bc c3a9 273e 6617 a13d
000001b0: 544d d2bd 4ce8 46bd c064 7f3e ff15 c13c
000001c0: ab60 acbd c910 193d fea1 a83d da46 33be
000001d0: 52cd 5fbe 6e4c 25be 976b ac3c 997a e93d
000001e0: bc4b 9d3e 923b 21be 1329 37bd 0708 8f3d
000001f0: cad5 473e 5ef2 083e 146e 8a3c 4b4d 9abd
00000200: 09e1 193c b52c 433e 03d5 953d f68f 0fbe
00000210: 20aa 0a3e 954c 1cbe 7593 c63d 7bf6 883d
00000220: 16d7 0e3e 42f9 89bd b9eb b43a 19e7 6ebe
00000230: 3d3f 393e a6fb 883c 7a94 88bd 4c72 14be
00000240: 9173 a93d 5c0e 8bbd 47a4 503e 12fe 043d
00000250: 4971 65be 7e5e 5b3e cce0 4cbe 3e9b 56bb
00000260: 2b15 3d3e 4ed9 3e3e 3ae0 39be 0e5c b83d
00000270: c1f5 26be bcc9 e5ba 1d82 abbd fd85 833e
00000280: 2e68 fcbc d8c6 21be 9669 e53c f91b 093d
00000290: 6bf6 1b3e ec76 373e 07be 993c b40f c03d
000002a0: ed95 79bd 06ea 8d3c 379f 153c 5e62 073e
000002b0: 5ee8 30be b819 ce3d 62d8 1e3e 96b8 aa3c
000002c0: 0d2b c8bd 9f49 e73d 784f d53d a3c7 29be
000002d0: 9288 cb3c 0bd6 963b 403a d5bc 5f4a 0e3e
000002e0: 3f4f 95be f3ef 8d3d be80 8fbd 0d59 fe3c
000002f0: ed75 03be 6234 edbd 7e6d 003b ab9b 4a3e
00000300: 518b 153e 5818 883e fae4 953e 40fe a4bd
00000310: 2ca8 7b3e 6738 203c 27d8 abbe 53b6 88bc
00000320: dc9a 893d 3691 8c3e a5ce 183d 8d17 86be
00000330: 7f8b 3a3d 298b 263e f8b1 7a3d b02f 77bd
00000340: 4f25 3cbe 3ee1 813e d4e4 353e 76fc 1fbe
00000350: 2e6a 4bbe 9dd1 1e3e 9520 1ebe 6c1f dfbd
00000360: 7ef7 ef3c b5f5 753e 870e b03d 2bef 853e
00000370: 3722 edbd 2113 ee3c 022f cebc 39bd 893d
00000380: b711 71be 6ef4 2bbb 8e47 14be 4fe9 67bd
00000390: 0241 98bd d407 093c 966e 0abe a404 c6bc
000003a0: 7496 9c3d f2cc c63c b69e 18bd c413 f1bd
000003b0: 4fbf eb3d 3349 2d3e 0f21 6cbd 532e 1abe
000003c0: edd3 b5bd 0197 9ebd 438e d23d b44b d63d
000003d0: e2ff 5abe e3e9 87bd 0a6f ad3d 5fba b3bc
000003e0: d3fd ff3d feaf 423d 6389 133c cf78 2e3d
000003f0: 92c3 103e a584 4fbd 432a e73d 31b2 02bb

gru.bias_ih_l0 f4 [96]
0.18465881 -0.04732556 0.019180438 0.0728844 0.26500365 0.089092046 -0.0944009 0.0365245
0.08603497 -0.09307176 0.12980714 -0.04855526 0.1257674 0.19333714 0.17261691 -0.04184769
-0.10895771 -0.04275553 0.1300896 0.1572873 -0.055006735 0.045194875 -0.09519642 0.1828027
0.010490136 -0.14878018 0.015188761 0.13634567 -0.12307866 0.12396583 0.1252634 -0.11865784
-0.23825005 0.04383137 -0.18268414 -0.24952513 -0.033335567 -0.3163283 -0.105324775 -0.18740766
0.1049591 0.13584113 0.080856904 -0.11018011 -0.14581093 0.06069274 -0.38493112 -0.083015904
-0.04055188 -0.34134397 0.0811936 -0.21726939 -0.07726937 -0.040811863 0.025726426 0.1462531
-0.22263749 0.1064565 -0.057020195 -0.25254086 -0.011880463 -0.2634522 -0.31914854 -0.0685376
0.02867539 -0.0772113 -0.06321669 0.015237629 0.20760177 0.036555402 0.07152318 0.050996307
-0.1446511 0.12789536 0.11389738 0.15777725 0.1288562 0.06277532 -0.14136437 -0.10381001
0.0786404 -0.034493048 -0.10238475 -0.13127038 -0.04011855 -0.1551529 -0.054405972 -0.054401156
-0.1709671 0.09442639 -0.05906508 0.12336852 -0.05342669 0.0093994755 0.11330221 0.23332603
00000000: 3317 3d3e 72d8 41bd 4b20 9d3c 6b44 953d
00000010: 8fae 873e e475 b63d 4255 c1bd b79a 153d
00000020: 1a33 b03d 689c bebd 2aec 043e e1e1 46bd
00000030: 2bc9 003e 2cfa 453e 7dc2 303e 7c68 2bbd
00000040: 3825 dfbd 6c20 2fbd 3536 053e ec0f 213e
00000050: be4e 61bd 431e 393d 57f6 c2bd a230 3b3e
00000060: d2de 2b3c d559 18be 48da 783c 339e 0b3e
00000070: aa10 fcbd cce1 fd3d 0c45 003e e202 f3bd
00000080: d2f7 73be 8688 333d 8d11 3bbe 8483 7fbe
00000090: e08a 08bd c8f5 a1be 84b4 d7bd cbe7 3fbe
000000a0: ccf4 d63d f019 0b3e 4e98 a53d 1ca6 e1bd
000000b0: 764f 15be f398 783d b115 c5be 3e04 aabd
000000c0: ba19 26bd a3c4 aebe d548 a63d de7b 5ebe
000000d0: 673f 9ebd 572a 27bd 3ac0 d23c 5fc3 153e
000000e0: 15fb 63be de05 da3d 028e 69bd 094d 81be
000000f0: 46a6 42bc 35e3 86be 7067 a3be 715d 8cbd
00000100: a7e8 ea3c f520 9ebd c177 81bd 40a7 793c
00000110: 8f95 543e 1ebb 153d bf7a 923d 81e1 503d
00000120: 6b1f 14be 00f7 023e 0843 e93d 5c90 213e
00000130: e1f2 033e 5990 803d d2c1 10be 589a d4bd
00000140: 380e a13d 9548 0dbd 19af d1bd be6b 06be
00000150: 5953 24bd 67e0 1ebe ccd8 5ebd bfd3 5ebd
00000160: 0012 2fbe a062 c13d 3aee 71bd a2a8 fc3d
00000170: f2d5 5abd 4200 1a3c fd0a e83d 05ed 6e3e

gru.bias_hh_l0 f4 [96]
-0.11678297 -0.0704592 -0.04044962 -0.11034536 0.023662126 -0.14908884 0.12842369 -0.102931745
0.048625298 -0.038883064 0.10845585 -0.06690197 0.12678555 0.080715716 -0.101370834 0.101630434
-0.2007261 0.03275656 -0.09193091 0.12423568 0.084366575 0.04125128 -0.15835324 -0.010622583
-0.005502864 -0.103232145 0.17461312 -0.12783362 0.16391331 0.024012214 -0.17174777 -0.06676503
-0.23433526 0.0141006755 -0.03655847 -0.05569778 -0.12982076 0.014998912 -0.12160911 -0.22057958
-0.0014368466 -0.038990047 0.14074394 0.06881207 -0.08598937 -0.15589286 -0.10546095 0.17215087
-0.017124275 -0.09963792 0.015265326 -0.11352945 -0.019090632 0.099304944 0.02375547 0.1703297
-0.3083822 0.03276031 0.019440882 -0.26540756 -0.23630022 -0.056609787 -0.15953895 -0.27343476
-0.010462163 -0.10681761 0.1741654 -0.15394141 0.1529161 -0.052829377 -0.12138023 -0.0615001
0.19982 -0.025140982 -0.07509216 0.0065831062 0.17187607 -0.058321916 0.025162188 -0.044424854
0.030200409 0.09744517 -0.06984069 -0.14894061 -0.11314552 0.09485194 0.12034087 -0.09841715
0.1539145 -0.13410072 0.031164527 0.080359064 -0.13753346 -0.047263134 0.07657644 0.05088365
00000000: e92b efbd ea4c 90bd 80ae 25bd c0fc e1bd
00000010: 13d7 c13c bfaa 18be 8081 033e e1cd d2bd
00000020: 522b 473d d943 1fbd 1a1e de3d e603 89bd
00000030: 12d4 013e 484e a53d 839b cfbd 9e23 d03d
00000040: 258b 4dbe be2b 063d 4646 bcbd 476f fe3d
00000050: 62c8 ac3d 1af7 283d 5a27 22be 580a 2ebc
00000060: 5e51 b4bb 606b d3bd c8cd 323e d1e6 02be
00000070: e4d8 273e 43b5 c43c a6de 2fbe 1bbc 88bd
00000080: 95f5 6fbe 8506 673c 56be 15bd 5b23 64bd
00000090: bcef 04be ffbd 753c 320e f9bd 9ddf 61be
000000a0: 9254 bcba 07b4 1fbd 2e1f 103e 58ed 8c3d
000000b0: 321b b0bd 61a2 1fbe e9fb d7bd 5148 303e
000000c0: 3548 8cbc f70e ccbd 6b1b 7a3c 2182 e8bd
000000d0: f563 9cbc 6460 cb3d d59a c23c e96a 2e3e
000000e0: 46e4 9dbe ad2f 063d 7c42 9f3c 80e3 87be
000000f0: aff8 71be aadf 67bd 2e5e 23be a4ff 8bbe
00000100: 7e69 2bbc 31c3 dabd 6a58 323e d1a2 1dbe
00000110: 0a96 1c3e 9e63 58bd 3396 f8bd 87e7 7bbd
00000120: 9d9d 4c3e 76f4 cdbc ebc9 99bd 19b7 d73b
00000130: 4800 303e f6e2 6ebd ef20 ce3c d6f6 35bd
00000140: d966 f73c 5591 c73d a308 8fbd e383 18be
00000150: d7b8 e7bd bc41 c23d 4675 f63d ee8e c9bd
00000160: c39b 1d3e b351 09be c04c ff3c 4b93 a43d
00000170: 92d5 0cbe fd96 41bd 1cd4 9c3d 606b 503d

fc3.weight f4 [32, 32]
0.2918099 -0.32620502 -0.5587857 -0.16235898 0.2554422 0.16748704 0.35292006 -0.0058776
-0.028499294 0.13546622 -0.18153782 0.24289213 0.39008066 0.051700838 0.07207746 -0.28099275
-0.27070817 0.03176073 0.114049375 -0.026924254 -0.34467968 0.33943942 0.05195986 -0.12640244
-0.35893264 -0.3408299 0.10843024 0.03428009 0.17705482 0.5084938 -0.3375672 -0.047169045
0.35372984 -0.39683715 -0.42064118 -0.4598691 0.106719024 0.17106946 0.32112512 -0.4504087
-0.09581373 0.36205658 -0.23279358 0.06278061 0.29635808 0.18976548 -0.1368289 0.060909323
0.40582815 -0.22418611 0.52331734 -0.08215541 -0.49853536 -0.3956305 -0.46794567 0.1909314
0.08713312 0.18035546 -0.179391 -0.3925064 0.00024772427 0.5415444 0.19453253 0.3439123
0.20479847 0.29524294 -0.24455167 -0.09014309 -0.09700452 -0.47433063 0.3366512 0.35189673
0.3616772 -0.0007621597 -0.275539 -0.12983498 -0.18210872 -0.0053564766 0.41039386 0.09559281
-0.4631709 -0.02013832 -0.17700763 -0.4276947 -0.49363396 0.0044988715 0.4534493 -0.23265019
0.7130994 0.4196376 -0.2654504 -0.49031994 0.1735472 -0.18372028 -0.019792708 0.16936523
0.22966611 0.21357532 -0.42417836 0.37498167 -0.10190423 -0.584934 -0.09899132 0.2650209
0.18335569 0.0828038 0.31760964 -0.37181258 0.005744404 -0.15279345 -0.33135715 -0.33643374
0.3370746 -0.01540752 0.13376263 0.101843424 -0.5715598 0.48031628 0.06879546 0.1161576
0.63239765 0.13833511 -0.029838316 -0.15977065 -0.22475524 0.17103739 -0.4967553 -0.2545028
0.34012538 0.19292651 0.43244386 -0.08605035 0.3071565 0.23682363 -0.34970915 0.18346232
0.22930661 -0.06227868 0.06480258 -0.54270935 0.25105765 0.24641636 0.23233381 0.17210998
0.07740409 0.26015255 -0.2499462 -0.12129332 -0.117070645 0.42341244 -0.22057508 0.0646863
-0.004652379 -0.26411036 0.058487356 -0.21225007 -0.5033088 0.4118905 -0.4777673 0.03625309
0.19456455 -0.5055473 -0.25516188 -0.35684255 0.32740766 -0.14073606 0.3181707 0.19930701
-0.09490146 0.33613065 -0.501134 -0.25709972 0.11747495 0.2710159 -0.3147884 0.22839421
0.2555013 -0.4057554 0.15040965 0.3990654 0.48443988 -0.39824873 -0.15814857 0.31519565
0.3830709 -0.4887544 0.3316091 -0.24622747 -0.15967943 -0.053066485 0.30726367 0.24770556
0.29238087 0.30514592 -0.2801573 -0.34557176 0.088207535 0.05900215 0.10015707 0.40036353
-0.40599144 -0.266679 0.26207203 -0.2261587 0.46356496 -0.24536759 0.55393577 0.12808403
0.38492453 -0.37124944 0.41005778 0.2721637 0.01297169 -0.39397156 -0.35077387 -0.18172671
-0.14830686 -0.13025518 -0.077823974 0.3540934 -0.2953422 0.0772484 0.49781117 0.10975392
-0.35897118 -0.45608535 -0.09542124 -0.46146485 -0.22428036 -0.06200114 -0.12446206 -0.55889046
0.1253956 -0.2593646 0.069169 0.050769504 0.43790928 0.20128445 0.07699728 -0.07966974
-0.011956306 0.08355642 -0.36602363 0.20354074 0.29305568 0.111633286 0.29383048 0.13572012
-0.10787844 -0.062509775 0.22373122 0.03035295 0.371814 0.2930048 0.2855005 0.1163793
00000000: 1b68 953e 5804 a7be 940c 0fbf 6f41 26be
00000010: 52c9 823e b981 2b3e f0b1 b43e e298 c0bb
00000020: 5a77 e9bc a8b7 0a3e 0de5 39be b7b8 783e
00000030: a7b8 c73e 42c4 533d 599d 933d 48de 8fbe
00000040: 439a 8abe 8a17 023d b892 e93d 4190 dcbc
00000050: db79 b0be 01cb ad3e ddd3 543d a46f 01be
00000060: 05c6 b7be 4281 aebe ac10 de3d 4869 0c3d
00000070: dc4d 353e a62c 023f 9cd5 acbe 5434 41bd
00000080: 141c b53e 3d2e cbbe 485e d7be f673 ebbe
00000090: 818f da3d d52c 2f3e 836a a43e f89b e6be
000000a0: fd39 c4bd 7b5f b93e 7161 6ebe 1f93 803d
000000b0: 3fbc 973e e251 423e e01c 0cbe 0e7c 793d
000000c0: b5c8 cf3e 0b91 65be 20f8 053f 1841 a8bd
000000d0: 0740 ffbe 1590 cabe 9396 efbe 8583 433e
000000e0: d972 b23d 1aaf 383e 46b2 37be 99f6 c8be
000000f0: fde0 8139 a7a2 0a3f 8933 473e 4615 b03e
00000100: b1b6 513e 152a 973e c16b 7abe f19c b8bd
00000110: 4eaa c6bd 77db f2be 8c5d ac3e cf2b b43e
00000120: c12d b93e accb 47ba 7313 8dbe 76f3 04be
00000130: b57a 3abe 6285 afbb 251f d23e 2ac6 c33d
00000140: bc24 edbe 1ef9 a4bc 7d41 35be cdfa dabe
00000150: 97bd fcbe 456b 933b 822a e83e da3b 6ebe
00000160: af8d 363f bdda d63e 1de9 87be 370b fbbe
00000170: 5bb6 313e 2b21 3cbe 5124 a2bc 146e 2d3e
00000180: 982d 6b3e 7db3 5a3e e82d d9be 99fd bf3e
00000190: 2ab3 d0bd 3cbe 15bf f6bb cabd d2b0 873e
000001a0: 98c1 3b3e 0a95 a93d bb9d a23e 385e bebe
000001b0: 8e3b bc3b e375 1cbe a5a7 a9be 0b41 acbe
000001c0: 0b95 ac3e d36f 7cbc 12f9 083e 4993 d03d
000001d0: be51 12bf 04ec f53e a2e4 8c3d 09e4 ed3d
000001e0: d0e4 213f b8a7 0d3e 7c6f f4bc eb9a 23be
000001f0: 3d26 66be 6d24 2f3e b656 febe 314e 82be
00000200: ea24 ae3e 878e 453e 4869 dd3e 2a3b b0bd
00000210: 9e43 9d3e e581 723e 140d b3be 8cdd 3b3e
00000220: 5acf 6a3e ee17 7fbd 37b7 843d 00ef 0abf
00000230: a18a 803e 9254 7c3e eae8 6d3e 993d 303e
00000240: 0986 9e3d b732 853e e6f1 7fbe a268 f8bd
00000250: bcc2 efbd 84c9 d83e 6fde 61be 407a 843d
00000260: fc72 98bb 7939 87be 7090 6f3d 1558 59be
00000270: d8d8 00bf 50e3 d23e ea9d f4be 1f7e 143d
00000280: ee3b 473e 8c6b 01bf 94a4 82be 11b4 b6be
00000290: faa1 a73e 1d1d 10be 45e7 a23e 2317 4c3e
000002a0: b25b c2bd 5119 ac3e 514a 00bf 93a2 83be
000002b0: b596 f03d 99c2 8a3e f22b a1be 2ce0 693e
000002c0: 11d1 823e 2cbf cfbe fd04 1a3e 4d52 cc3e
000002d0: 8108 f83e 42e7 cbbe b3f1 21be 5361 a13e
000002e0: de21 c43e 043e fabe abc8 a93e 0e23 7cbe
000002f0: 0183 23be 3e5c 59bd aa51 9d3e 87a6 7d3e
00000300: f2b2 953e 163c 9c3e c770 8fbe c8ee b0be
00000310: 27a6 b43d 3dac 713d 261f cd3d 73fc cc3e
00000320: 1cde cfbe 268a 88be 4e2e 863e 2596 67be
00000330: 6358 ed3e a441 7bbe bcce 0d3f 7628 033e
00000340: d414 c53e 6814 bebe 18f3 d13e 0a59 8b3e
00000350: 3687 543c a4b6 c9be a298 b3be 9116 3abe
00000360: c1dd 17be 9d61 05be 2d62 9fbd bb4b b53e
00000370: 1837 97be 6934 9e3d 1be1 fe3e aac6 e03d
00000380: 12cb b7be 0584 e9be 366c c3bd 1f45 ecbe
00000390: c0a9 65be e8f4 7dbd f7e5 febd 7213 0fbf
000003a0: b467 003e 70cb 84be 7aa8 8d3d aff3 4f3d
000003b0: a535 e03e 831d 4e3e c0b0 9d3d e329 a3bd
000003c0: 62e4 43bc a11f ab3d 7367 bbbe fc6c 503e
000003d0: 650b 963e fe9f e43d f370 963e 37fa 0a3e
000003e0: 5fef dcbd 2005 80bd cc19 653e c0a6 f83c
000003f0: 685e be3e ba04 963e 1f2d 923e 4558 ee3d

fc3.bias f4 [32]
0.08131023 0.07554296 0.04278577 0.02753425 0.07402801 -0.057990067 0.06898115 0.07549733
-0.04071794 0.050339986 0.017771177 0.06065006 0.047181934 0.08895267 -0.10190236 0.012351787
0.027234044 0.05916855 0.06008794 0.05581502 -0.05964245 0.03918458 0.06265893 0.07657982
-0.03322306 0.14100601 0.017366132 0.022218598 -0.09375941 0.061108124 0.10174451 0.13321114
00000000: fa85 a63d 44b6 9a3d 2240 2f3d 828f e13c
00000010: ff9b 973d fe86 6dbd fd45 8d3d 589e 9a3d
00000020: dbc7 26bd 4d31 4e3d dc94 913c 336c 783d
00000030: d841 413d d12c b63d 2fb2 d0bd 265f 4a3c
00000040: ee19 df3c b95a 723d c61e 763d 4a9e 643d
00000050: a44b 74bd 0380 203d 5353 803d e1d5 9c3d
00000060: e714 08bd e163 103e 6b43 8e3c c703 b63c
00000070: ef04 c0bd 834c 7a3d 6d5f d03d 8068 083e

fc4.weight f4 [14, 32]
-0.11833086 -0.21752012 -0.16600291 0.20630467 -0.45027596 -0.14490905 0.30701292 0.2569571
0.33859032 0.08826726 0.11721155 -0.10455922 0.22304198 -0.22042693 0.19160466 -0.15114175
-0.19549131 -0.20717283 -0.18426195 0.21552046 0.031985972 0.31157112 -0.17788108 0.20147017
-0.09886469 -0.48294702 -0.3802769 0.22570947 0.09599201 -0.43345052 -0.09670685 -0.23336393
0.11950048 0.0094348 0.27407143 -0.24384195 -0.2783502 -0.088422455 0.21733472 0.17957523
-0.111987405 0.108912334 0.04470859 -0.32842082 -0.16177027 -0.22336876 0.09621933 0.27995214
-0.41293567 -0.38651872 0.10848846 0.3213808 0.40156624 -0.2772693 -0.07570646 0.18568933
0.08196932 -0.3868438 -0.48217452 -0.39547044 0.09240445 -0.013645031 -0.22639729 -0.56668115
-0.11399132 0.285358 -0.029742833 -0.3002362 -0.046888884 0.30860728 -0.21709695 -0.19853163
0.34470087 -0.11719545 0.32182303 -0.45334217 -0.18681356 -0.3513655 -0.18180017 0.06192421
-0.17032574 -0.21563718 -0.017034348 -0.3616139 -0.16724831 0.29677987 -0.4182035 -0.0019978823
-0.2658673 -0.060677096 -0.2987132 -0.11737426 0.19781579 0.094105005 -0.32498142 -0.27665302
0.44721517 0.42523164 -0.011066241 -0.3407089 -0.23033641 -0.1484533 0.50059587 0.3708362
0.13712199 0.013820236 -0.25602293 0.015085481 0.32826757 0.24997665 -0.071666524 0.15642542
-0.2756517 0.21937671 -0.20784193 -0.07331815 -0.11374562 -0.41971478 -0.19479722 0.26193163
-0.38032442 0.34908137 0.08173146 0.026159529 -0.25508332 -0.17786364 0.024833191 0.054944575
0.00031543043 -0.45395425 -0.22332646 0.11977203 -0.44227448 0.11677825 -0.34225598 -0.2782003
0.16739373 -0.19387344 0.24637388 -0.52805406 -0.07431357 0.04592062 0.06996727 -0.0142915305
-0.079162665 -0.6441125 -0.4632592 -0.11268976 0.26645923 0.124992244 -0.57442045 -0.48842418
-0.080005504 -0.15502302 -0.60358864 0.121570624 0.503566 -0.4104308 0.0823477 -0.43794063
0.026822083 -0.60091233 0.4639793 0.16004409 -0.10256356 -0.3891004 -0.17418374 0.1589732
0.41845107 0.24255426 0.19949691 -0.39074358 -0.32649294 -0.4641387 -0.24772362 -0.3696365
0.07223076 -0.09784194 -0.12982124 -0.15783983 0.5048224 0.65072083 -0.21462087 -0.1142946
-0.3541901 -0.4998994 -0.44617724 0.09076853 0.10626746 0.04612999 0.52062637 -0.15093184
-0.31174764 -0.28744674 0.25268233 0.18898802 0.48641437 -0.264611 -0.11112269 -0.32279706
-0.012677149 0.043454394 -0.48200777 0.027957086 0.42707178 -0.5576667 0.24567945 -0.22275747
-0.22320409 0.41679278 -0.103261344 0.100748464 0.062171504 -0.3826124 0.35580376 -0.12836888
0.1862962 0.06971068 -0.16844064 0.28893694 -0.35520816 0.094207704 -0.6001129 -0.7085337
0.19225761 -0.20390502 -0.2705563 -0.28544313 0.115666576 -0.3134368 0.28392422 -0.37029973
-0.23677342 0.06886056 0.028381234 0.08551408 0.3694309 -0.29300633 0.00093710236 -0.16953206
-0.014101263 0.33857763 0.2998335 0.3675744 0.12078959 0.00076815754 0.4729977 0.40279016
-0.1163453 0.33201694 -0.17699812 -0.2803303 -0.111489765 -0.028426815 0.14158505 -0.1766793
00000000: 7357 f2bd 98bd 5ebe abfc 29be 8841 533e
00000010: 928a e6be 0a63 14be cc30 9d3e e28f 833e
00000020: b65b ad3e 77c5 b43d 9c0c f03d 2523 d6bd
00000030: 1e65 643e 99b7 61be 0334 443e e7c4 1abe
00000040: e02e 48be 1d25 54be 2aaf 3cbe 65b1 5c3e
00000050: b903 033d 4086 9f3e 7526 36be 324e 4e3e
00000060: 9279 cabd d544 f7be a7b3 c2be 6220 673e
00000070: 7597 c43d 3aed ddbe 3e0e c6bd f4f6 6ebe
00000080: abbc f43d 6b94 1a3c 1753 8c3e b4b1 79be
00000090: eb83 8ebe d516 b5bd fe8c 5e3e 92e2 373e
000000a0: a759 e5bd 6e0d df3d 5b20 373d c626 a8be
000000b0: 1ba7 25be c8ba 64be a40e c53d e355 8f3e
000000c0: 4e6c d3be c8e5 c5be 332f de3d 068c a43e
000000d0: 179a cd3e 3ef6 8dbe fd0b 9bbd 5825 3e3e
000000e0: 88df a73d 6410 c6be 94df f6be 1a7b cabe
000000f0: 8b3e bd3d 688f 5fbc b1d4 67be 0412 11bf
00000100: 4874 e9bd 721a 923e 3ea7 f3bc 8fb8 99be
00000110: 8f0e 40bd c601 9e3e aa4e 5ebe e04b 4bbe
00000120: a27c b03e 2b04 f0bd fdc5 a43e 771c e8be
00000130: 0e4c 3fbe 2ee6 b3be d329 3abe 3ea4 7d3d
00000140: df69 2ebe fecf 5cbe 9e8b 8bbc 7525 b9be
00000150: 2443 2bbe 88f3 973e c51e d6be e7ee 02bb
00000160: c21f 88be 8c88 78bd f0f0 98be eb61 f0bd
00000170: 3990 4a3e 20ba c03d f763 a6be 77a5 8dbe
00000180: 63f9 e43e f6b7 d93e 2e4f 35bc 6671 aebe
00000190: 4fdd 6bbe 2404 18be 0d27 003f 3ede bd3e
000001a0: b569 0c3e 456e 623c 7015 83be 1829 773c
000001b0: b012 a83e e1f9 7f3e e6c5 92bd fc2d 203e
000001c0: 3822 8dbe 4aa4 603e 84d4 54be d427 96bd
000001d0: 77f3 e8bd dbe4 d6be ec78 47be e71b 863e
000001e0: e2b9 c2be cbba b23e d362 a73d 824c d63c
000001f0: 489a 82be e321 36be fa6e cb3c 900d 613d
00000200: 5b60 a539 b16c e8be b1af 64be 0a4b f53d
00000210: cd71 e2be 6f29 ef3d 2d3c afbe 4570 8ebe
00000220: 4369 2b3e c286 46be 6f49 7c3e 8d2e 07bf
00000230: b731 98bd 4317 3c3d 004b 8f3d 0627 6abc
00000240: 0920 a2bd 8fe4 24bf 4f30 edbe e4c9 e6bd
00000250: 586d 883e effb ff3d 380d 13bf bc12 fabe
00000260: edd9 a3bd 5bbe 1ebe c984 1abf 05fa f83d
00000270: b4e9 003f fc23 d2be e9a5 a83d c139 e0be
00000280: fcb9 db3c 64d5 19bf b28e ed3e 99e2 233e
00000290: d80c d2bd 2b38 c7be 395d 32be dfc9 223e
000002a0: 383f d63e 2560 783e eb48 4c3e 8b0f c8be
000002b0: 152a a7be 96a3 edbe 43ab 7dbe ff40 bdbe
000002c0: b8ed 933d 5b61 c8bd dcef 04be c4a0 21be
000002d0: 0a3c 013f a495 263f 93c5 5bbe 4a13 eabd
000002e0: 6858 b5be d0f2 ffbe 5871 e4be dae4 b93d
000002f0: c1a2 d93d cdf2 3c3d c547 053f e08d 1abe
00000300: 639d 9fbe 382c 93be 945f 813e 1386 413e
00000310: 4e0b f93e 187b 87be 4b94 e3bd a845 a5be
00000320: d1b3 4fbc 3cfd 313d b9c9 f6be 4206 e53c
00000330: 27a9 da3e 3fc3 0ebf 6593 7b3e 891a 64be
00000340: 9d8f 64be dd65 d53e af7a d3bd 3655 ce3d
00000350: 8ca7 7e3d c6e5 c3be e92b b63e 2273 03be
00000360: 6ec4 3e3e 79c4 8e3d b47b 2cbe 8bef 933e
00000370: d8dd b5be f8ef c03d 00a1 19bf 7762 35bf
00000380: 2edf 443e 7acc 50be 5b86 8abe 9a25 92be
00000390: 99e2 ec3d ca7a a0be 845e 913e ed97 bdbe
000003a0: bb74 72be c406 8d3d c37f e83c 0222 af3d
000003b0: 0c26 bd3e ed04 96be e0a7 753a d099 2dbe
000003c0: fc08 67bc 0c5a ad3e c783 993e b632 bc3e
000003d0: 8860 f73d 2e5e 493a c12c f23e 833a ce3e
000003e0: 7246 eebd 20fe a93e ff3e 35be 7487 8fbe
000003f0: bf54 e4bd 5adf e8bc acfb 103e 6beb 34be

fc4.bias f4 [14]
-0.08564527 -0.06247893 -0.09741368 0.08995406 -0.24735312 -0.0635944 0.058258127 0.09600794
-0.16563974 0.054622542 -0.0009828344 -0.094969265 -0.12085964 -0.11732114
00000000: ca66 afbd e8e9 7fbd d380 c7bd d639 b83d
00000010: 234a 7dbe c83d 82bd 13a0 6e3d d09f c43d
00000020: 779d 29be e3bb 5f3d 73d2 80ba 3f7f c2bd
00000030: 4285 f7bd 1146 f0bd
