visualization/policy_nns/Overcooked/mapA/agent_0.pt (torch, 44289 bytes, 12 tensors)

weight f4 [32, 32]
-0.18468113 0.4320418 -0.08261622 -0.2791104 -0.16146833 0.042659193 -0.26200992 0.19661167
-0.3531353 0.25156066 0.18274613 0.16140813 -0.11585394 -0.489584 -0.2641746 -0.51397645
0.024087021 0.13975057 -0.3937267 -0.31826377 0.26432255 0.38080838 -0.17654915 -0.3025515
0.34241122 0.19238317 0.008306084 -0.28876814 0.12803198 0.071670465 0.037169755 0.15548322
-0.21506727 -0.4473904 -0.484271 -0.24425447 -0.41611394 -0.017282505 -0.016308354 0.23792812
-0.3251748 0.15219945 -0.5495378 -0.31123027 -0.0206697 0.26572585 0.11912621 0.25844714
0.22296974 0.6019873 0.10372605 0.24732971 -0.100401245 0.43095896 0.21307902 -0.29109585
0.03687397 -0.1497993 -0.15122557 0.39836276 0.22156242 -0.036658492 -0.0045834985 0.46344963
-0.24748 -0.20737267 0.38942125 0.39076823 0.46921742 -0.09594433 0.112081975 0.45783213
0.10279483 -0.24903773 0.11144433 0.086675316 0.19691801 -0.19605291 0.43080544 0.28750688
0.3728395 0.3938921 0.41336256 0.5489821 -0.27127102 0.17237304 -0.28353757 -0.33380035
0.49103278 -0.3673928 0.032481473 -0.03764669 -0.3234472 -0.36289954 -0.42316714 0.37990776
-0.41033527 0.3321156 -0.08340951 -0.12156097 0.43734133 -0.20448211 0.26079497 0.5499525
0.16448021 -0.19963884 -0.002593763 -0.1767714 0.52059305 -0.19717196 -0.4002633 0.23760621
0.069167115 0.25410873 -0.41664115 0.09665582 0.46099287 0.3368758 -0.056045357 0.19911946
0.3518819 -0.18772364 -0.18213542 0.054485817 -0.27571866 -0.41108066 -0.28392586 -0.03428983
0.006645331 0.35247195 0.004012071 0.28857198 -0.095021054 -0.46809316 -0.29479566 0.049000755
-0.11523433 0.35843286 -0.3790798 0.079085924 0.1602541 0.07649869 0.24484515 -0.2945509
0.23444621 -0.47433734 0.28966686 -0.40720186 -0.17593223 -0.31683946 -0.5970274 0.37806
0.15359923 0.05351161 0.12347945 0.21111858 0.41176334 0.1715724 0.036207777 -0.48229483
-0.026670873 -0.022817606 -0.4001344 -0.26446396 0.12111875 -0.29659566 0.15263729 -0.2374234
0.29805812 -0.2690662 0.048825443 -0.24380949 0.44967252 -0.07710402 -0.08704146 -0.03764523
-0.08062898 0.4334488 0.16376674 -0.112481825 -0.3024043 -0.035070084 -0.13821004 0.20605062
0.4685639 0.25160202 -0.011441945 0.18919425 0.08818337 -0.12628455 -0.040833652 -0.2876473
-0.23528315 0.09700128 0.2960702 -0.3743611 -0.5100723 -0.2026763 -0.20545514 -0.07235454
-0.34611815 -0.18846382 0.34103546 0.039590366 -0.27928168 -0.00029867882 0.109139696 0.40317798
0.27201527 0.08164413 -0.05560497 0.1230202 0.26631424 0.1664915 -0.0556143 0.51993
-0.23607267 -0.013813313 -0.16226402 0.35785145 0.29967663 0.0450356 -0.31024045 0.26669258
0.10752162 0.3691157 0.10015008 -0.28626642 -0.2461888 -0.29860634 -0.40995866 0.40810785
0.2018231 0.26270908 -0.1609742 -0.025373718 -0.06743708 0.1381291 -0.066531576 0.13152502
0.2796757 0.38230777 -0.017384352 0.034655128 0.52943116 0.14507557 0.21405342 -0.2908105
0.19229893 -0.2714368 0.0009010186 -0.3854989 0.337803 -0.17020214 0.36908048 0.24156609
00000000: 0d1d 3dbe 9534 dd3e b132 a9bd 8fe7 8ebe
00000010: f457 25be 68bb 2e3d 2a26 86be 9254 493e
00000020: 26ce b4be 8fcc 803e cd21 3b3e 2c48 253e
00000030: d544 edbd c1aa fabe e541 87be f693 03bf
00000040: 2552 c53c c61a 0f3e 8c96 c9be 78f3 a2be
00000050: 4955 873e 51f9 c23e 4dc9 34be 08e8 9abe
00000060: 8650 af3e 1800 453e 3e16 083c 6bd9 93be
00000070: d11a 033e f7c7 923d 503f 183d fe36 1f3e
00000080: 983a 5cbe 5b10 e5be 5ef2 f7be d81d 7abe
00000090: e30c d5be 0a94 8dbc 1999 85bc 6ea3 733e
000000a0: 507d a6be 2cda 1b3e 82ae 0cbf 9359 9fbe
000000b0: 8153 a9bc 380d 883e 71f8 f33d 2f53 843e
000000c0: 2e52 643e d71b 1a3f 536e d43d 0044 7d3e
000000d0: 2b9f cdbd a7a6 dc3e 6331 5a3e 840a 95be
000000e0: 2909 173d fd64 19be e0da 1abe 34f6 cb3e
000000f0: 42e1 623e 3727 16bd 2c31 96bb 4549 ed3e
00000100: 666b 7dbe 8059 54be 3962 c73e c612 c83e
00000110: 443d f03e 767e c4bd 3c8b e53d f968 ea3e
00000120: 1986 d23d bf03 7fbe ed3c e43d d482 b13d
00000130: e0a4 493e 18c2 48be 8892 dc3e 1a34 933e
00000140: d2e4 be3e 3aac c93e 42a4 d33e 178a 0c3f
00000150: 09e4 8abe 8f82 303e d62b 91be e1e7 aabe
00000160: a668 fb3e e91a bcbe 4b0b 053d 6a33 1abd
00000170: df9a a5be f8cd b9be 5da9 d8be 4583 c23e
00000180: 7717 d2be 0e0b aa3e 9bd2 aabd f5f4 f8bd
00000190: 34eb df3e c263 51be eb86 853e b0c9 0c3f
000001a0: 806d 283e 206e 4cbe 1ffc 29bb 9003 35be
000001b0: 9645 053f 72e7 49be 50ef ccbe 0b4f 733e
000001c0: 7da7 8d3d 8a1a 823e fd51 d5be 7df3 c53d
000001d0: 4207 ec3e fc7a ac3e d18f 65bd f9e5 4b3e
000001e0: dd29 b43e a03a 40be b581 3abe 852c 5f3d
000001f0: ff2a 8dbe 2a79 d2be bb5e 91be 7e73 0cbd
00000200: 14c1 d93b 3477 b43e b177 833b b5bf 933e
00000210: 669a c2bd e8a9 efbe 75ef 96be 04b5 483d
00000220: faff ebbd 8384 b73e bf16 c2be cdf7 a13d
00000230: a719 243e 58ab 9c3d b0b8 7a3e 60cf 96be
00000240: ab12 703e 58dc f2be 374f 943e c37c d0be
00000250: 9427 34be c838 a2be cad6 18bf 1591 c13e
00000260: 1e49 1d3e fd2e 5b3d cbe2 fc3d 782f 583e
00000270: a5d2 d23e adb0 2f3e 9b4e 143d 59ef f6be
00000280: e07c dabc fdeb babc 6bde ccbe d267 87be
00000290: 1b0d f83d 63db 97be f34c 1c3e 1f1f 73be
000002a0: 139b 983e 0cc3 89be 30fd 473d 32a9 79be
000002b0: 7a3b e63e b6e8 9dbd cb42 b2bd e231 1abd
000002c0: cf20 a5bd 00ed dd3e 78b2 273e df5c e6bd
000002d0: bdd4 9abe a6a5 0fbd ef86 0dbe effe 523e
000002e0: 9ce7 ef3e fbd1 803e ff76 3bbc 23bc 413e
000002f0: 7c99 b43d bd50 01be 3041 27bd 8246 93be
00000300: 11ee 70be 9ba8 c63d 8396 973e 42ac bfbe
00000310: 1994 02bf 608a 4fbe d562 52be 9e2e 94bd
00000320: 6636 b1be a9fc 40be 339c ae3e 8229 223d
00000330: 02fe 8ebe fe97 9cb9 a284 df3d 586d ce3e
00000340: 9645 8b3e 0a35 a73d 09c2 63bd 04f2 fb3d
00000350: 575a 883e bf7c 2a3e d2cb 63bd 221a 053f
00000360: 09bd 71be 3c51 62bc 8a28 26be 4e38 b73e
00000370: 376f 993e 4077 383d d6d7 9ebe ee8b 883e
00000380: 4c34 dc3d bcfc bc3e 7c1b cd3d 8391 92be
00000390: eb18 7cbe eee2 98be 1ae6 d1be 83f3 d03e
000003a0: b7aa 4e3e ce81 863e 6cd6 24be 8bdc cfbc
000003b0: 741c 8abd b771 0d3e b541 88bd 7fae 063e
000003c0: a731 8f3e d8bd c33e a169 8ebc 89f2 0d3d
000003d0: cd88 073f b18e 143e d230 5b3e 1de5 94be
000003e0: 03ea 443e c4f9 8abe 5632 6c3a 1d60 c5be
000003f0: 84f4 ac3e 7849 2ebe 1ef8 bc3e 1a5d 773e

bias f4 [32]
0.02937709 0.111491434 0.10422662 0.13758707 -0.068620235 0.051746726 0.117198154 0.0636554
-9.823857e-05 0.039332822 0.07309172 -0.017852042 0.07658675 -0.025097914 -0.027219923 -0.011954878
0.09090831 0.023754226 0.014412052 0.02894176 -0.053614095 0.0017936435 0.11603899 0.10521713
0.017130058 -0.0058054063 0.08464618 0.12922798 0.07041384 0.09187491 0.12633446 0.044174034
00000000: 39a8 f03c 9f55 e43d c474 d53d a0e3 0c3e
00000010: c488 8cbd 60f4 533d 9605 f03d c35d 823d
00000020: 6e05 ceb8 741b 213d 1db1 953d 723e 92bc
00000030: 84d9 9c3d 249a cdbc 51fc debc 65de 43bc
00000040: 232e ba3d 3998 c23c 8720 6c3c 4517 ed3c
00000050: 749a 5bbd b018 eb3a daa5 ed3d 147c d73d
00000060: 5654 8c3c 473b bebb fa5a ad3d 5754 043e
00000070: 2235 903d ea28 bc3d d25d 013e d5ef 343d

weight f4 [32, 32]
-0.4972597 0.2755219 -0.14046904 0.19767494 0.11390554 -0.18586823 -0.4136435 -0.12811396
0.060018606 -0.3191221 -0.00598449 -0.1241211 -0.0036051767 -0.42382666 -0.33195367 -0.5506994
0.13433653 -0.25217915 0.23384178 -0.019236282 0.37697062 0.36380652 -0.057427924 -0.030179683
-0.34764168 -0.4560177 -0.26567712 -0.056802467 0.06995658 0.29490355 0.412468 -0.06266269
-0.19046207 0.39758965 0.0922067 0.1459761 -0.3511592 0.4616741 0.33900696 -0.123246714
-0.23967169 0.29560998 0.19532865 -0.3690329 -0.31220886 -0.34437582 0.09364285 0.38095158
0.14541316 -0.38513756 -0.05570886 -0.14370358 0.010427325 0.19543783 -0.45874977 -0.51338583
-0.31977263 -0.16600902 -0.5218396 -0.17177215 -0.011114555 0.15500619 -0.5435804 -0.15406352
0.52162683 -0.1282859 -0.18930799 0.20425446 0.22764009 -0.3028615 0.021082638 0.11620091
0.25238842 -0.143823 0.036711592 -0.28524816 -0.34524077 -0.033255644 0.39538002 0.46583477
-0.1665454 0.3638151 0.17567694 0.23928282 0.12173893 0.28201166 -0.2765858 0.050896835
0.115049474 0.04079622 -0.36693582 0.4640253 0.20649539 0.26424792 -0.37913752 0.32826748
-0.20282619 -0.4734825 -0.28619412 0.008755508 0.24202229 0.28247944 0.020540006 -0.28830174
0.44478714 -0.40018 0.15449344 -0.12866576 0.026977755 -0.2141565 -0.16969447 -0.11324206
0.30861488 0.3996422 -0.08781028 0.0017333677 -0.42263284 -0.02253806 0.035823733 -0.20443057
0.32010168 0.30293453 -0.029269563 0.12021032 -0.05813475 0.04233024 0.23107263 -0.093665436
-0.016016215 -0.3188829 -0.18603162 0.14160718 -0.24205719 0.10825719 0.06668042 0.23452964
-0.057349402 -0.35469106 -0.12743452 -0.007831181 -0.31523004 0.43781012 -0.5145898 -0.1512031
0.03559968 -0.15555505 -0.036373623 -0.110782474 0.29286492 0.5480032 0.21542142 0.37527055
0.3928554 0.09454191 -0.3131168 -0.18623342 0.33078346 0.34463805 0.13640076 0.33305696
0.13554552 0.56805176 -0.3173799 0.41310754 -0.26066127 0.117690235 0.12822448 0.13114846
-0.43860188 0.15233177 0.10969438 -0.035645403 -0.21557492 -0.56818986 -0.5259048 -0.27168047
0.12646724 0.14575799 0.32247585 -0.26554874 -0.2927919 -0.12075378 0.002602186 -0.3859074
-0.2799424 0.43344223 0.14000735 -0.51342523 -0.51426625 -0.4610091 -0.042139955 0.22172782
0.20822778 -0.41792488 0.11831 0.30724844 -0.37708172 -0.50074446 0.4760085 -0.31772956
0.27017716 0.30096123 0.39125502 -0.22773577 -0.31654885 0.41253233 -0.058544412 0.3896939
-0.12914361 0.083407186 0.23205441 -0.17938514 0.34242198 -0.31649545 -0.22564055 0.11227526
0.021024454 0.099789955 0.049239177 0.05603154 -0.03707762 -0.18519881 0.53516185 -0.031090554
-0.29626915 -0.007635628 0.3829624 0.0690807 0.3212124 0.41293165 -0.30716076 -0.08922939
0.171112 0.056726407 -0.24660124 -0.07435921 -0.053033806 -0.081258066 -0.31449315 -0.08316688
-0.11112957 0.07070632 0.1745718 -0.117245056 0.2682376 0.41293085 0.26389018 0.36208197
0.23923986 -0.29563132 0.41661423 -0.28032428 0.41033402 -0.016849605 0.361095 0.008224512
00000000: d398 febe 3511 8d3e 1ed7 0fbe 4d6b 4a3e
00000010: 4f47 e93d 3e54 3ebe 15c9 d3be 4e30 03be
00000020: 12d6 753d f963 a3be 8a19 c4bb 3433 febd
00000030: d444 6cbb cfff d8be d5f5 a9be a3fa 0cbf
00000040: 848f 093e a01d 81be 3874 6f3e 6895 9dbc
00000050: 4b02 c13e d944 ba3e 8b39 6bbd 623b f7bc
00000060: 17fe b1be 277b e9be d506 88be b4a9 68bd
00000070: 6545 8f3d 99fd 963e 012f d33e 4c55 80bd
00000080: 7d08 43be df90 cb3e ded6 bc3d c27a 153e
00000090: 23cb b3be 8c60 ec3e 5292 ad3e c668 fcbd
000000a0: 7f6c 75be 315a 973e 3c04 483e e1f1 bcbe
000000b0: d7d9 9fbe 0752 b0be d3c7 bf3d 160c c33e
000000c0: 30e7 143e c030 c5be f92e 64bd 0827 13be
000000d0: 5fd7 2a3c db20 483e 40e1 eabe 416d 03bf
000000e0: 3db9 a3be 45fe 29be 4897 05bf 0ae5 2fbe
000000f0: d319 36bc f1b9 1e3e 1628 0bbf d4c2 1dbe
00000100: 5689 053f 615d 03be f4d9 41be 1528 513e
00000110: 7c1a 693e aa10 9bbe 7fb5 ac3c befa ed3d
00000120: 0e39 813e 5646 13be e55e 163d 0c0c 92be
00000130: 66c3 b0be 1237 08bd 406f ca3e e581 ee3e
00000140: e18a 2abe f945 ba3e a8e4 333e 8e06 753e
00000150: 4352 f93d d563 903e a79c 8dbe 3379 503d
00000160: 0f9f eb3d f019 273d 03df bbbe b994 ed3e
00000170: 8773 533e 814b 873e 501e c2be ad12 a83e
00000180: abb1 4fbe 4c6c f2be 0988 92be 4373 0f3c
00000190: b1d4 773e 25a1 903e 8443 a83c 499c 93be
000001a0: 24bb e33e 65e4 ccbe 8733 1e3e f5c0 03be
000001b0: 7400 dd3c d74b 5bbe 63c4 2dbe 74eb e7bd
000001c0: c502 9e3e e79d cc3e e0d5 b3bd 2b32 e33a
000001d0: 5563 d8be bda1 b8bc e8bb 123d 3f56 51be
000001e0: 5ee4 a33e 3c1a 9b3e b9c6 efbc d430 f63d
000001f0: b41e 6ebd 7962 2d3d 4e9e 6c3e aad3 bfbd
00000200: 7034 83bc 9f44 a3be 137f 3ebe 7901 113e
00000210: d7dd 77be f2b5 dd3d be8f 883d 8a28 703e
00000220: 35e7 6abd 119a b5be 327e 02be 5b4e 00bc
00000230: d565 a1be a628 e03e 28bc 03bf fcd4 1abe
00000240: f8d0 113d d349 1fbe 82fc 14bd ece1 e2bd
00000250: 64f2 953e f049 0c3f 6f97 5c3e 7623 c03e
00000260: 5824 c93e 309f c13d d850 a0be f9b3 3ebe
00000270: 735c a93e 6674 b03e a4ac 0b3e 7186 aa3e
00000280: 72cc 0a3e d76b 113f 9e7f a2be d582 d33e
00000290: 6575 85be 9407 f13d 474d 033e c84b 063e
000002a0: 6d90 e0be dcfc 1b3e 72a7 e03d ea00 12bd
000002b0: acbf 5cbe e474 11bf b2a1 06bf b419 8bbe
000002c0: a180 013e 9541 153e 8e1b a53e 01f6 87be
000002d0: d2e8 95be c24d f7bd 7089 2a3b a895 c5be
000002e0: 9c54 8fbe 24ec dd3e 165e 0f3e d66f 03bf
000002f0: f4a6 03bf 6209 ecbe f29a 2cbd 9e0c 633e
00000300: aa39 553e 40fa d5be 834c f23d ab4f 9d3e
00000310: db10 c1be ca30 00bf 63b7 f33e 73ad a2be
00000320: a954 8a3e 9717 9a3e 9452 c83e 9133 69be
00000330: b112 a2be 7037 d33e 44cc 6fbd f585 c73e
00000340: 393e 04be 63d1 aa3d ac9f 6d3e bdb0 37be
00000350: ef51 af3e b10b a2be 510e 67be 92f0 e53d
00000360: 7a3b ac3c ad5e cc3d 05af 493d 5481 653d
00000370: b4de 17bd c2a4 3dbe 5e00 093f 9eb1 febc
00000380: 97b0 97be 4a34 fabb a613 c43e 2f7a 8d3d
00000390: f475 a43e c76b d33e 2d44 9dbe e6bd b6bd
000003a0: fc37 2f3e f359 683d 0985 7cbe a449 98bd
000003b0: fa39 59bd a16a a6bd 3f05 a1be 6653 aabd
000003c0: e697 e3bd 7ace 903d f3c2 323e 2d1e f0bd
000003d0: 7056 893e ac6b d33e 9d1c 873e cf62 b93e
000003e0: 4bfb 743e fd5c 97be 764e d53e aa86 8fbe
000003f0: 4d17 d23e 2f08 8abc 72e1 b83e 1bc0 063c

bias f4 [32]
-0.0025997197 0.17082673 0.036948208 -0.006678548 0.10171792 0.16380677 8.271137e-05 0.06590165
0.01265658 -0.009257073 0.0429363 0.016734464 0.071735 0.044456314 0.13175417 0.070492275
0.048758533 0.0954398 0.037659243 -0.00521884 -0.015975488 0.0222302 0.10846517 0.058108475
0.10608055 0.016552579 0.0049285255 0.07250121 0.052184246 0.04134501 0.015826525 0.051797956
00000000: 0f60 2abb 34ed 2e3e 0157 173d b9d7 dabb
00000010: 7c51 d03d f6bc 273e 5475 ad38 72f7 863d
00000020: 8b5d 4f3c faaa 17bc f9dd 2f3d b716 893c
00000030: cde9 923d d317 363d 91ea 063e 415e 903d
00000040: 07b7 473d f175 c33d 9440 1a3d ce02 abbb
00000050: 07df 82bc 1c1c b63c fd22 de3d 2703 6e3d
00000060: c240 d93d 4699 873c 787f a13b 847b 943d
00000070: 26bf 553d 6359 293d a1a6 813c 182a 543d

weight_ih_l0 f4 [96, 32]
-0.13459367 0.07534395 0.052349918 0.09456262 0.09235809 0.0863618 -0.1303878 -0.2549505
-0.095064044 -0.18257473 -0.111612834 0.085564494 0.09086945 0.21447921 -0.19056758 -0.047399376
0.121300764 0.26161993 0.16367862 0.08070884 0.07661831 0.030365445 0.27225858 0.09307482
-0.068192236 -0.10472125 0.09519668 0.0837304 0.04671506 0.08825713 -0.03311451 0.19350573
-0.10085993 0.22623138 -0.12908562 0.0046032444 -0.002985695 -0.016696673 0.20944712 0.20996773
0.16051166 -0.011457009 0.044308037 0.1822228 0.13521235 -0.099379964 0.07986785 0.278578
-0.057851117 -0.13344653 -0.022343636 0.18345025 -0.046581566 -0.017953876 0.037352093 -0.08744485
0.07480289 0.19393967 0.11953008 -0.07740853 -0.05994151 -0.14975488 0.20485307 -0.06674126
0.01987401 0.028114654 0.039608132 0.031021116 0.009064038 0.13833901 0.07105066 -0.08911831
0.11712788 -0.019617625 -0.07844295 -0.10168886 -0.13831884 0.145558 0.007985943 -0.17968546
0.24974759 0.32613254 0.023351522 0.13688128 -0.10662748 -0.24820225 0.14099562 0.016218977
0.042904798 0.091039054 -0.06054671 0.01654687 -0.0070504798 0.13957936 0.17070596 0.051892016
0.23070757 0.29962167 -0.038120124 0.052658748 -0.11162213 0.11846752 -0.04468901 -0.0018495062
-0.1273523 0.062037725 0.19965342 -0.1514777 -0.005813821 -0.04769277 0.054829646 -0.07757712
-0.024568865 0.14508477 0.17814521 0.0095510995 -0.13788289 0.065770574 0.22639526 -0.29109752
0.020785034 -0.28385 0.09428382 0.009184992 -0.111454844 0.09865629 -0.058332175 -0.12410706
0.12627573 -0.13058065 0.18285443 0.09473596 0.16566579 -0.023789493 0.26715386 0.0044989074
0.124622084 0.21291853 0.18528229 0.08509062 0.16535398 0.1483684 -0.020054413 0.17527005
0.0680707 -0.0046683513 -0.06781516 0.16633038 0.14224912 0.12857054 0.13276613 -0.1027884
0.10535593 0.0346684 0.09268044 -0.09167569 0.29424334 -0.046370715 0.19554774 -0.15535995
0.07474631 -0.0045509627 -0.018666148 -0.120494075 0.02428526 0.094498836 0.24807516 -0.14249642
0.13379386 -0.0960458 0.15102085 -0.119569026 0.0027422663 0.13864176 -0.09485309 0.07079972
0.09747432 0.07855235 0.17689575 -0.025437528 0.0038215704 -0.020211527 0.022504082 0.029055584
0.119744144 0.14832409 -0.076902375 -0.029666362 -0.15953283 -0.014762259 -0.08913678 0.1497019
0.0051840483 0.10252474 -0.012578371 -0.107147165 -0.004865144 0.08022667 0.03579992 -0.060797267
0.020626705 -0.17021227 -0.077800885 0.16983856 -0.0010868213 -0.062851 0.19214222 -0.07117118
0.020548973 0.12694255 -0.05610302 -0.016350344 0.10054362 -0.023693232 0.09739744 0.02211686
0.22659218 0.097562686 0.20480593 0.018112952 0.019394843 -0.14957534 -0.048832946 0.018838678
-0.07210067 0.123498686 -0.01714877 0.004346909 -0.018140659 0.4165935 -0.030611442 0.09055168
0.096204445 -0.17161913 -0.16175938 0.11486814 -0.04503251 0.15014262 -0.15387651 -0.090586826
-0.07053091 0.051513948 0.12860677 -0.004412684 -0.08021103 -0.20463292 0.097352214 -0.16216542
-0.12292542 -0.025528593 -0.012680585 0.21526878 -0.15014936 0.09057646 0.1515001 0.14162
00000000: ecd2 09be ee4d 9a3d de6c 563d 0caa c13d
00000010: 3d26 bd3d 75de b03d 6184 05be df88 82be
00000020: f0b0 c2bd dff4 3abe 4595 e4bd 703c af3d
00000030: c319 ba3d 70a0 5b3e 2624 43be d925 42bd
00000040: 896c f83d 0cf3 853e 5e9b 273e ad4a a53d
00000050: 0fea 9c3d f4c0 f83c 7a65 8b3e 039e be3d
00000060: 5fa8 8bbd 1878 d6bd 7af6 c23d d87a ab3d
00000070: 4a58 3f3d 27c0 b43d 15a3 07bd 5e26 463e
00000080: a78f cebd 33a9 673e 052f 04be d0d6 963b
00000090: a6ab 43bb 76c7 88bc 4e79 563e c801 573e
000000a0: 2b5d 243e 2eb6 3bbc 587c 353d 9d98 3a3e
000000b0: 1b75 0a3e b987 cbbd c191 a33d c7a1 8e3e
000000c0: 4bf5 6cbd 35a6 08be 000a b7bc 62da 3b3e
000000d0: 50cc 3ebd 0214 93bc 82fe 183d 4916 b3bd
000000e0: 4232 993d 1f98 463e 30cc f43d 5d88 9ebd
000000f0: 3b85 75bd 5859 19be 01c5 513e a4af 88bd
00000100: d2ce a23c b450 e63c 233c 223d ff1f fe3c
00000110: 5581 143c bea8 0d3e 0283 913d a983 b6bd
00000120: bee0 ef3d 24b5 a0bc b3a6 a0bd 4042 d0bd
00000130: 74a3 0dbe 280d 153e 79d7 023c 77ff 37be
00000140: d5bd 7f3e d8fa a63e b14b bf3c 9b2a 0c3e
00000150: 825f dabd bb28 7ebe 2861 103e a9dd 843c
00000160: f1bc 2f3d af72 ba3d d4ff 77bd 4d8d 873c
00000170: b607 e7bb e4ed 0e3e 8bcd 2e3e b98c 543d
00000180: 9b3e 6c3e 0368 993e d923 1cbd b3b0 573d
00000190: 259a e4bd 199f f23d d30b 37bd 216b f2ba
000001a0: a468 02be 451b 7e3d f271 4c3e f81c 1bbe
000001b0: de81 bebb 7e59 43bd 0d95 603d c1e0 9ebd
000001c0: a544 c9bc 1a91 143e b36b 363e 377c 1c3c
000001d0: 2c31 0dbe b9b2 863d 29d4 673e bc0a 95be
000001e0: 6045 aa3c ca54 91be e017 c13d a67c 163c
000001f0: 7042 e4bd 4f0c ca3d b8ed 6ebd d82b febd
00000200: 6d4e 013e efb6 05be 313e 3b3e ed04 c23d
00000210: 4ba4 293e 2fe2 c2bc 64c8 883e 926b 933b
00000220: dd39 ff3d 5107 5a3e a4ba 3d3e fe43 ae3d
00000230: 8e52 293e e3ed 173e 2749 a4bc fe79 333e
00000240: a768 8b3d f8f8 98bb ade2 8abd 8352 2a3e
00000250: c1a9 113e ffa7 033e d8f3 073e ba82 d2bd
00000260: dac4 d73d 7400 0e3d 3ecf bd3d 77c0 bbbd
00000270: 10a7 963e 38ef 3dbd ab3d 483e ae16 1fbe
00000280: 9814 993d 3e20 95bb c0e9 98bc 99c5 f6bd
00000290: e2f1 c63c 9b88 c13d 6a07 7e3e 95ea 11be
000002a0: 4201 093e a9b3 c4bd 36a5 1a3e 9be0 f4bd
000002b0: 98b7 333b 1bf8 0d3e 5642 c2bd 72ff 903d
000002c0: 9ea0 c73d 0ee0 a03d 2924 353e 5d62 d0bc
000002d0: 5073 7a3b a592 a5bc 7b5a b83c fa05 ee3c
000002e0: 6b3c f53d 45e2 173e fe7e 9dbd df06 f3bc
000002f0: 935c 23be 67dd 71bc 588d b6bd 744b 193e
00000300: f3de a93b 7ef8 d13d 8315 4ebc f96f dbbd
00000310: c96b 9fbb e14d a43d f0a2 123d 8e06 79bd
00000320: 56f9 a83c 204c 2ebe 1256 9fbd 29ea 2d3e
00000330: ac73 8eba 06b8 80bd eec0 443e 32c2 91bd
00000340: 5256 a83c 3afd 013e 48cc 65bd 28f1 85bc
00000350: d0e9 cd3d 4f18 c2bc 4f78 c73d 6b2e b53c
00000360: c807 683e f2ce c73d a5b8 513e 9d61 943c
00000370: efe1 9e3c 472a 19be 0e05 48bd 9253 9a3c
00000380: 84a9 93bd e1ec fc3d 947b 8cbc 8470 8e3b
00000390: b89b 94bc be4b d53e d9c4 fabc 2973 b93d
000003a0: d606 c53d edbc 2fbe 40a4 25be fd3f eb3d
000003b0: 0274 38bd fdbe 193e ce91 1dbe 9685 b9bd
000003c0: 8272 90bd 4a00 533d 7eb1 033e 4798 90bb
000003d0: ae45 a4bd 4b8b 51be 9960 c73d b10e 26be
000003e0: 53c0 fbbd 5721 d1bc 3ac2 4fbc 6b6f 5c3e
000003f0: c1c0 19be 2780 b93d d822 1b3e d504 113e

weight_hh_l0 f4 [96, 32]
-0.21482603 0.06911596 0.09756941 -0.05596527 0.1421614 -0.08513716 0.052197114 -0.10251786
-0.04236372 -0.07353503 0.07909096 0.14770593 0.0239177 -0.027619472 -0.17247729 -0.026749423
0.14299585 0.17894322 -0.055885438 -0.10659003 -0.12060863 -0.08759861 0.030280977 0.110616356
-0.16641872 -0.15143612 -0.066710345 0.13689807 -0.018499004 0.1996129 -0.098230444 0.10277557
0.20536461 -0.077836 0.14329395 0.14595468 0.08467682 -0.05503863 -0.025808461 0.18358268
0.0012767246 0.07973377 -0.09000123 0.01020926 -0.02046928 0.09637527 -0.0043727583 -0.0005181116
0.070990324 -0.046076436 0.11834697 -0.28616753 -0.23666215 0.031181954 -0.06570144 -0.25965837
0.157558 0.3406066 -0.10545186 -0.38353184 0.14931585 0.0067915483 0.048651394 0.043118402
0.017455477 0.16084872 -0.037951697 0.07074866 0.15260182 0.110622786 0.058728345 -0.09681527
-0.055427853 -0.04153575 -0.13733847 -0.04681234 0.01800415 -0.12733117 0.11231558 -0.11419513
0.032927427 0.13742833 -0.112279296 0.036682267 -0.0026466039 -0.036428533 -0.12494921 -0.07399876
-0.092350915 0.028335929 0.076206185 -0.011135173 0.19504505 -0.088936165 -0.12111667 -0.0644095
0.14848395 -0.04649053 -0.062099002 0.24001847 0.06810802 0.091885224 0.0010121986 -0.024255753
0.04806024 -0.07077789 -0.083175756 -0.01865024 -0.082595706 0.0665501 0.0969888 0.14029059
0.06378826 -0.1432737 0.020327916 -0.22531909 0.019142043 0.045605134 -0.18995918 0.102805614
0.07997383 0.0936593 -0.015911007 -0.17855966 0.16382898 0.21520184 0.1899701 -0.1289945
0.0692269 -0.085420825 0.05318164 0.09633349 0.22885844 -0.11816384 0.074395426 -0.06036271
-0.08490366 0.1550342 -0.12160032 0.08532271 -0.19923173 0.28252062 0.12659597 0.118625194
-0.19025156 0.11936045 -0.0934956 -0.047418408 -0.18487051 0.20055932 0.04319881 0.15270993
-0.028653456 0.12865143 0.07991153 0.008862998 0.2808679 -0.026699012 0.21038029 0.031645615
0.0020840012 0.09527705 -0.1647406 -0.049087185 -0.079689175 -0.17858416 -0.05542267 0.059247702
0.115794994 0.022308577 0.0031028502 -0.18854299 -0.093752824 0.022941582 -0.05117286 -0.004315582
-0.15274374 0.090462215 -0.23773962 0.043105192 -0.013711502 -0.1532652 0.0518289 0.1686976
-0.017635256 0.106441654 -0.10754392 -0.13799964 -0.09532196 0.1589746 0.050775114 -0.14043176
0.036316007 -0.20778625 -0.0074864975 0.015414218 0.072352655 0.03898833 -0.21020061 -0.060730815
0.086614184 0.104668476 0.13405663 0.17790994 0.07898283 0.007949116 0.15294258 -0.10780731
-0.19060732 0.03463763 0.1913658 -0.18635465 -0.011932198 -0.046043452 -0.09403817 0.07824328
-0.085561156 0.17525671 -0.08055503 -0.19010419 -0.07381954 0.06631004 -0.05283442 -0.20428862
-0.10920412 0.051804572 0.16579095 0.07991406 0.0152488835 0.0135612795 -0.21957298 0.09844912
-0.1953337 0.15743424 0.20248476 0.23117395 -0.12976329 -0.027286166 -0.13781084 0.08702188
0.058356803 -0.012010072 -0.021205714 -0.22034226 0.0313523 0.033915382 -0.09504091 -0.16139828
0.08253804 0.26792437 -0.27811047 -0.14464559 0.013024768 0.08293726 -0.04752495 0.0933672
00000000: 5bfb 5bbe ab8c 8d3d 79d2 c73d d73b 65bd
00000010: c292 113e 645c aebd a4cc 553d e2f4 d1bd
00000020: 9485 2dbd 8999 96bd 71fa a13d 3940 173e
00000030: 0def c33c 3b42 e2bc e39d 30be 9b21 dbbc
00000040: 816d 123e e43c 373e 21e8 64bd e04b dabd
00000050: a801 f7bd e666 b3bd d00f f83c d48a e23d
00000060: ab69 2abe 1212 1bbe 6f9f 88bd 022f 0c3e
00000070: 398b 97bc 5367 4c3e 0b2d c9bd ff7b d23d
00000080: 1a4b 523e 7b68 9fbd a6bb 123e 2575 153e
00000090: 0a6b ad3d 3070 61bd 446c d3bc 19fd 3b3e
000000a0: c557 a73a 754b a33d 9152 b8bd bd44 273c
000000b0: 31af a7bc 6660 c53d 5b49 8fbb e2d1 07ba
000000c0: 6063 913d a5ba 3cbd e55f f23d 8d84 92be
000000d0: 9057 72be 4c71 ff3c 7a8e 86bd f1f1 84be
000000e0: e256 213e fd63 ae3e 25f7 d7bd 495e c4be
000000f0: 41e6 183e a38b de3b af46 473d ec9c 303d
00000100: cafe 8e3c 87b5 243e 3d73 1bbd ace4 903d
00000110: a743 1c3e 338e e23d 228d 703d 1647 c6bd
00000120: 5108 63bd 6421 2abd 75a2 0cbe 4cbe 3fbd
00000130: 707d 933c 1a63 02be b605 e63d 23df e9bd
00000140: e9de 063d 03ba 0c3e b0f2 e5bd 2540 163d
00000150: a572 2dbb 1636 15bd 5fe5 ffbd a98c 97bd
00000160: 7a22 bdbd c020 e83c fd11 9c3d 4d70 36bc
00000170: e4b9 473e 2a24 b6bd 040c f8bd 21e9 83bd
00000180: 2d0c 183e db6c 3ebd 865b 7ebd 67c7 753e
00000190: 387c 8b3d 522e bc3d c0ab 843a 00b4 c6bc
000001a0: d0da 443d 00f4 90bd 0d58 aabd 63c8 98bc
000001b0: f027 a9bd 6b4b 883d 10a2 c63d 56a8 0f3e
000001c0: 6ba3 823d 57b6 12be bb86 a63c 0cba 66be
000001d0: c6cf 9c3c 73cc 3a3d a984 42be c08b d23d
000001e0: 52c9 a33d 72d0 bf3d cd57 82bc 58d8 36be
000001f0: c9c2 273e df5d 5c3e 8687 423e 2217 04be
00000200: d5c6 8d3d 1df1 aebd fed4 593d 7e4a c53d
00000210: de59 6a3e e2ff f1bd a15c 983d e43e 77bd
00000220: f8e1 adbd 49c1 1e3e 9709 f9bd acbd ae3d
00000230: 6703 4cbe 8ba6 903e 60a2 013e c4f1 f23d
00000240: 4ed1 42be 4073 f43d 9f7a bfbd ce39 42bd
00000250: b24e 3dbe 6c5f 4d3e 3cf1 303d fe5f 1c3e
00000260: a7ba eabc 33bd 033e a8a8 a33d 1c36 113c
00000270: ebcd 8f3e e3b7 dabc ee6d 573e d59e 013d
00000280: bd93 083b 9d20 c33d c3b1 28be a50f 49bd
00000290: 1434 a3bd c4de 36be e202 63bd b8ad 723d
000002a0: ed25 ed3d 7ac0 b63c 3059 4b3b 6a11 41be
000002b0: 7b01 c0bd fcef bb3c a29a 51bd ba69 8dbb
000002c0: db68 1cbe 4144 b93d 0472 73be 128f 303d
000002d0: 35a6 60bc 8df1 1cbe 8a4a 543d 10bf 2c3e
000002e0: d077 90bc 15fe d93d fd3f dcbd c74f 0dbe
000002f0: 2938 c3bd 3dca 223e 91f9 4f3d 58cd 0fbe
00000300: 18c0 143d ebc5 54be 4b51 f5bb eb8b 7c3c
00000310: a12d 943d 3ab2 1f3d d43e 57be e0c0 78bd
00000320: c762 b13d 6d5c d63d 2446 093e 062e 363e
00000330: c0c1 a13d 023d 023c fb9c 1c3e 14ca dcbd
00000340: 912e 43be 30e0 0d3d 65f5 433e c1d3 3ebe
00000350: 447f 43bc 0f98 3cbd 1697 c0bd 033e a03d
00000360: b03a afbd 7f76 333e 09fa a4bd acaa 42be
00000370: b32e 97bd 8fcd 873d e868 58bd 0931 51be
00000380: 69a6 dfbd 0831 543d 1ac5 293e fca9 a33d
00000390: 74d6 793c 2130 5e3c bdd7 60be b19f c93d
000003a0: 8f05 48be 7136 213e 2a58 4f3e ddb8 6c3e
000003b0: abe0 04be 3d87 dfbc 491e 0dbe 8738 b23d
000003c0: 8b07 6f3d e5c5 44bc 9bb7 adbc 67a1 61be
000003d0: 456b 003d dbea 0a3d cfa4 c2bd 9745 25be
000003e0: b409 a93d 622d 893e 7f64 8ebe f91d 14be
000003f0: d665 553c 03db a93d 86a9 42bd 4d37 bf3d

bias_ih_l0 f4 [96]
0.027170407 0.003194921 0.0954118 0.032666977 -0.08187004 -0.014270748 0.085094295 -0.029106691
0.19525918 -0.061678696 0.10271254 -0.12049942 0.047413647 0.15937324 0.020442914 -0.017736143
0.17436215 -0.07874817 0.13209473 0.022582402 -0.010978168 0.083434515 -0.13708065 -0.064153455
0.007581044 0.19806714 0.09112478 0.24581136 0.18620378 0.25499666 0.050074767 0.07767444
-0.41608316 -0.05051614 -0.25264177 -0.15655595 0.0017650422 -0.23660502 -0.04845088 -0.34926036
-0.41528597 -0.182989 -0.32242295 -0.053065382 0.10954994 -0.19996488 -0.36114022 0.04957681
0.11553932 -0.28009593 -0.36194807 -0.039271425 -0.36482662 -0.27847448 -0.061738636 -0.07414326
-0.47191226 -0.38341376 -0.36156112 -0.35697186 0.22488841 -0.40019533 -0.08293929 -0.290238
-0.19158192 -0.004155562 -0.092315435 0.16990407 0.14281888 0.11599104 0.0051856935 0.029108278
0.099041514 -0.06301543 0.099041775 0.14154503 -0.1534015 0.16635108 -0.07644756 0.12886237
0.0068619465 0.0010254725 0.040366597 0.11193912 -0.08523853 -0.047787666 0.06958689 -0.06114747
0.13030384 0.09061624 -0.14942467 0.099424995 -0.111862846 0.18538994 0.049164016 0.0014842596
00000000: 7994 de3c e161 513b 4367 c33d cfcd 053d
00000010: 7bab a7bd dbcf 69bc eb45 ae3d 2871 eebc
00000020: 06f2 473e cda2 7cbd f45a d23d 66c8 f6bd
00000030: d034 423d bd32 233e e677 a73c 634b 91bc
00000040: fe8b 323e b846 a1bd d743 073e bbfe b83c
00000050: c6dd 33bc b7df aa3d df5e 0cbe e362 83bd
00000060: 686a f83b 1dd2 4a3e a19f ba3d f9b5 7b3e
00000070: 34ac 3e3e ec8e 823e 331b 4d3d c713 9f3d
00000080: da08 d5be 03ea 4ebd 435a 81be 3450 20be
00000090: fd58 e73a 9648 72be 6e74 46bd 41d2 b2be
000000a0: 5da0 d4be 7861 3bbe 9f14 a5be 165b 59bd
000000b0: b85b e03d 98c3 4cbe 5fe7 b8be 0e11 4b3d
000000c0: e19f ec3d bc68 8fbe 4251 b9be 13db 20bd
000000d0: 8eca babe 3594 8ebe a7e1 7cbd 6cd8 97bd
000000e0: 7c9e f1be cf4e c4be 8a1e b9be 04c5 b6be
000000f0: 2649 663e 67e6 ccbe 13dc a9bd 139a 94be
00000100: 0d2e 44be 612b 88bb e00f bdbd 55fb 2d3e
00000110: 1d3f 123e b68c ed3d c0ec a93b 7c74 ee3c
00000120: 47d6 ca3d 3c0e 81bd 6ad6 ca3d 2ef1 103e
00000130: 4815 1dbe f057 2a3e 8a90 9cbd 7ff4 033e
00000140: 2eda e03b 2669 863a 7257 253d 5640 e53d
00000150: 8a91 aebd 00bd 43bd 9283 8e3d c575 7abd
00000160: 5f6e 053e 0295 b93d c802 19be 559f cb3d
00000170: 5918 e5bd dcd6 3d3e 3560 493d 7d8b c23a

bias_hh_l0 f4 [96]
0.06697369 0.1065079 0.08222843 -0.011934954 0.04735152 0.1459082 0.09192513 0.19142418
0.1712258 -0.10904387 0.13768218 -0.07991119 0.08688985 -0.021119308 0.29269984 -0.090123005
0.01147332 -0.16684382 -0.10065399 -0.14506398 0.037116207 0.06924864 0.10075359 0.044545103
0.10546901 0.08206719 0.19777006 0.25072998 0.18633953 0.21078703 0.041983586 0.1758056
-0.19485582 -0.04235526 -0.0792809 -0.37583777 0.09600583 0.048654143 0.027483359 -0.26334694
-0.28356758 -0.2725937 -0.42607072 -0.07403035 0.15035935 0.003775945 -0.27503365 0.045077503
0.18296786 -0.33160707 -0.12885351 -0.1345931 -0.21761467 -0.27549827 -0.10306075 -0.09865002
-0.29446068 -0.41342548 -0.13446508 -0.10475277 -0.06666183 -0.41196725 -0.20700258 -0.2831435
-0.15153787 -0.068604924 -0.062540635 0.10248446 0.16384792 -0.11677768 -0.0468589 0.08774029
-0.072364494 -0.15613101 -0.082702406 0.08819559 -0.07684921 0.154972 -0.07018611 -0.08596522
-0.11100427 -0.031188615 -0.1375325 0.07307307 0.14457135 0.20096855 -0.06508472 -0.04621101
0.055812053 -0.120271824 0.1364035 0.08656535 -0.07542644 0.06720256 0.16434531 0.09596303
00000000: 8129 893d d020 da3d 6167 a83d d38a 43bc
00000010: abf3 413d f668 153e 3e43 bc3d b304 443e
00000020: d155 2f3e 6452 dfbd 8ffc 0c3e 7aa8 a3bd
00000030: 4ef3 b13d 6602 adbc c1dc 953e 6992 b8bd
00000040: 98fa 3b3c 1bd9 2abe ae23 cebd a78b 14be
00000050: 2a07 183d 3bd2 8d3d e657 ce3d ed74 363d
00000060: 2300 d83d d812 a83d 3c84 4a3e ae5f 803e
00000070: cacf 3e3e 8ed8 573e fbf6 2b3d 6206 343e
00000080: 4988 47be b67c 2dbd 065e a2bd cf6d c0be
00000090: b49e c43d 9149 473d c824 e13c 69d5 86be
000000a0: c52f 91be 6791 8bbe f125 dabe 399d 97bd
000000b0: cdf7 193e d875 773b 36d1 8cbe 30a3 383d
000000c0: ed5b 3b3e 67c8 a9be 2df2 03be c6d2 09be
000000d0: 61d6 5ebe 1c0e 8dbe 8411 d3bd 0609 cabd
000000e0: 8dc3 96be 81ac d3be 37b1 09be 9f88 d6bd
000000f0: ff85 88bd 5fed d2be 7cf8 53be 2ff8 90be
00000100: be2c 1bbe bd80 8cbd 4e15 80bd 5fe3 d13d
00000110: c0c7 273e 2329 efbd 1eef 3fbd 2eb1 b33d
00000120: d633 94bd cfe0 1fbe e15f a9bd e49f b43d
00000130: 1e63 9dbd fbb0 1e3e bcbd 8fbd 890e b0bd
00000140: 3556 e3bd 447f ffbc 52d5 0cbe 55a7 953d
00000150: 830a 143e b3ca 4d3e 234b 85bd c247 3dbd
00000160: 2e9b 643d 1351 f6bd 5cad 0b3e 2d49 b13d
00000170: 2d79 9abd 7fa1 893d 234a 283e 4488 c43d

weight f4 [32, 32]
0.04134897 -0.11527011 0.1886146 0.49536067 -0.30351806 -0.24007362 0.24755329 -0.21307355
0.1745304 0.6239287 -0.042936534 -0.084304534 0.065328546 0.14410527 0.17366922 -0.35290068
-0.13258874 -0.25093314 0.20025112 -0.51696575 -0.54060477 0.14903891 0.3440689 0.30294302
0.5419802 -0.15549558 0.10880575 -0.39152515 -0.025913434 0.25808072 0.30739206 -0.46898434
-0.12153517 0.24081609 -0.19170903 -0.2175184 0.12570415 -0.014573589 -0.439276 0.022776363
0.15706986 0.40813917 0.37353262 -0.045225617 -0.11782215 0.43257606 0.26713395 0.20118538
-0.31765503 -0.3138559 -0.3261805 0.1540712 -0.501875 0.022682618 -0.563789 0.23714794
-0.05448384 -0.7077381 -0.1760537 0.3837298 0.24050583 -0.31606078 0.21524541 -0.22415048
-0.099419706 -0.05187846 0.49833015 -0.001779043 -0.297533 0.29454818 -0.45874292 -0.22783211
-0.27048618 0.43247184 -0.25470948 0.55176276 -0.11869366 -0.36853656 0.3915291 0.24981321
0.25634512 0.44526577 0.5347919 0.27718043 -0.19968459 0.4807477 -0.26478052 -0.06214361
-0.112477615 -0.17473593 -0.08658581 0.041770354 -0.027385188 0.27293292 0.251691 -0.25935787
-0.29062665 -0.025870686 -0.20538387 0.48216844 -0.5106619 0.24286799 -0.28719604 -0.2864561
0.11246116 0.35518238 0.36376894 0.4032044 0.40192923 0.025267426 -0.2940323 -0.102023125
0.5053592 0.11849071 -0.11020423 -0.021595139 -0.31547007 -0.3473541 -0.15632702 -0.2659333
-0.08779114 0.4004465 0.29552943 -0.38825026 -0.25478908 -0.3325539 -0.377101 0.19884932
-0.31663954 -0.12386079 -0.43515596 -0.10338931 -0.29063523 -0.5213441 0.30570403 0.046860404
-0.34705073 0.10053246 0.18511817 -0.08065355 -0.01777705 -0.13849099 -0.083145015 -0.22580443
0.31123024 0.04773646 -0.28861287 -0.16994022 0.5262901 0.14466043 0.21357636 0.0045509352
0.12878326 -0.44096702 0.38487762 -0.3041969 0.19664074 0.071040004 0.01622321 0.48421547
0.20707451 0.5280942 0.37869334 -0.40680277 0.22731641 0.43749762 -0.061247103 -0.10368277
0.27295962 -0.23334393 0.2421269 -0.12226522 -0.29544055 0.34733143 -0.20112143 0.12725177
-0.13188185 -0.055846106 0.1693716 -0.12465062 -0.12021366 0.42256108 -0.38426116 -0.2780494
0.2391111 0.27646083 -0.18409844 -0.03414927 0.25731954 -0.117281646 0.49435765 0.26093122
0.10587365 -0.26909113 0.0708143 -0.4886717 0.41369638 -0.27818355 -0.49952343 0.012827849
0.17904969 0.31819227 0.011523461 -0.3072038 -0.53852093 0.4123783 0.3264714 -0.23809324
-0.2612121 0.3299065 -0.40177098 -0.3469893 0.29425707 -0.088055775 0.073790185 -0.017942106
0.015955921 0.30607152 0.24870837 -0.078365825 0.5415634 -0.12139113 0.2513153 0.2732744
0.35794973 -0.37158152 -0.22626361 0.44796765 0.12103575 -0.26317158 -0.16539699 -0.16732857
-0.49660364 -0.13921967 0.21417353 0.122480996 0.25760487 0.09635687 0.3738064 -0.16071878
-0.18555288 -0.06712622 0.19242921 0.14842375 -0.24208295 -0.26925597 0.24076511 -0.3554317
0.27279058 0.21166319 -0.5196683 -0.46540084 0.44263682 -0.3218815 0.4379161 0.16690981
00000000: 8a5d 293d bc12 ecbd 3024 413e ea9f fd3e
00000010: b866 9bbe dcd5 75be 9c7e 7d3e f42f 5abe
00000020: 19b8 323e cbb9 1f3f 38de 2fbd dba7 acbd
00000030: f9ca 853d 5590 133e 58d6 313e 66af b4be
00000040: 58c5 07be 4f7a 80be a10e 4d3e de57 04bf
00000050: 1365 0abf a89d 183e cd29 b03e 591b 9b3e
00000060: 37bf 0a3f 3c3a 1fbe 8dd5 de3d fc75 c8be
00000070: 6948 d4bc 2823 843e 7e62 9d3e b71e f0be
00000080: 6ee7 f8bd 7e98 763e 5f4f 44be 25bd 5ebe
00000090: 97b8 003e 10c6 6ebc c9e8 e0be 7f95 ba3c
000000a0: ecd6 203e 9ef7 d03e ab3f bf3e 7f3e 39bd
000000b0: bd4c f1bd 9c7a dd3e c8c5 883e 8a03 4e3e
000000c0: aea3 a2be b8b1 a0be 2101 a7be d7c4 1d3e
000000d0: e17a 00bf e6d0 b93c 7a54 10bf e9d6 723e
000000e0: 722a 5fbd 532e 35bf 6c47 34be 3b78 c43e
000000f0: 2947 763e b8d2 a1be 4b69 5c3e b487 65be
00000100: 8f9c cbbd 827e 54bd 2125 ff3e c72e e9ba
00000110: 3f56 98be 05cf 963e 5ae0 eabe d24c 69be
00000120: 2a7d 8abe f36c dd3e 4869 82be 5340 0d3f
00000130: a915 f3bd d3b0 bcbe 8176 c83e 09cf 7f3e
00000140: ab3f 833e e0f9 e33e 1fe8 083f 98ea 8d3e
00000150: 1e7a 4cbe 9024 f63e 5091 87be 4c8a 7ebd
00000160: aa5a e6bd faed 32be e753 b1bd 6417 2b3d
00000170: e756 e0bc ddbd 8b3e a5dd 803e 8eca 84be
00000180: 04cd 94be c3ee d3bc 2650 52be c8de f63e
00000190: bdba 02bf 63b2 783e 5c0b 93be 60aa 92be
000001a0: 0952 e63d 77da b53e ec3f ba3e cf70 ce3e
000001b0: abc9 cd3e a2fd ce3c 678b 96be 80f1 d0bd
000001c0: 385f 013f 42ab f23d c1b2 e1bd 4ae8 b0bc
000001d0: 4b85 a1be 66d8 b1be 3114 20be 6928 88be
000001e0: d7cb b3bd 5307 cd3e a24f 973e bdc8 c6be
000001f0: b773 82be 8144 aabe 6213 c1be 289f 4b3e
00000200: 941e a2be baaa fdbd c3cc debe c6bd d3bd
00000210: 24ce 94be cf76 05bf 3d85 9c3e b2f0 3f3d
00000220: a2b0 b1be f6e3 cd3d 9e8f 3d3e b02d a5bd
00000230: 2da1 91bc 95d0 0dbe ef47 aabd 4739 67be
00000240: 9259 9f3e 4e87 433d 11c5 93be cf04 2ebe
00000250: f3ba 063f dd21 143e c3b3 5a3e 0320 953b
00000260: c2df 033e 6ec6 e1be ae0e c53e b2bf 9bbe
00000270: 315c 493e 6c7d 913d 8ae6 843c 17eb f73e
00000280: 570b 543e 2e31 073f 18e4 c13e 7448 d0be
00000290: a2c5 683e b0ff df3e 3ede 7abd a257 d4bd
000002a0: 5dc1 8b3e b6f1 6ebe 1df0 773e 3066 fabd
000002b0: fc43 97be 6dd5 b13e c7f2 4dbe 4a4e 023e
000002c0: 090c 07be e3be 64bd c06f 2d3e d348 ffbd
000002d0: 9432 f6bd ed59 d83e e1bd c4be 7e5c 8ebe
000002e0: 8ad9 743e 468c 8d3e 4d84 3cbe 1be0 0bbd
000002f0: 63bf 833e 5c31 f0bd 721c fd3e c798 853e
00000300: 49d4 d83d 50c6 89be 1607 913d 2d33 fabe
00000310: 03d0 d33e 136e 8ebe 89c1 ffbe e62b 523c
00000320: cd58 373e 19ea a23e e6cc 3c3c d149 9dbe
00000330: 82dc 09bf 4023 d33e 4227 a73e b7ce 73be
00000340: 98bd 85be 81e9 a83e edb4 cdbe 95a8 b1be
00000350: dda8 963e 9656 b4bd 4f1f 973d 53fb 92bc
00000360: feb5 823c 68b5 9c3e 68ad 7e3e 437e a0bd
00000370: e6a3 0a3f ea9b f8bd 66ac 803e 9fea 8b3e
00000380: 3045 b73e ef3f bebe a6b1 67be 045c e53e
00000390: 97e1 f73d 6dbe 86be d45d 29be 2e58 2bbe
000003a0: d542 febe 9a8f 0ebe 4e50 5b3e 51d7 fa3d
000003b0: c9e4 833e c056 c53d 8d63 bf3e 7793 24be
000003c0: 9301 3ebe 7979 89bd 2a0c 453e 65fc 173e
000003d0: 98e4 77be ebdb 89be 218b 763e 25fb b5be
000003e0: 35ab 8b3e 3cbe 583e fb08 05bf 0549 eebe
000003f0: 4ba1 e23e a7cd a4be 8a36 e03e 68ea 2a3e

bias f4 [32]
0.08279771 0.015265709 0.1544717 -0.052914016 -0.070385836 0.018003548 0.12006568 0.049852733
0.021050036 0.14939594 0.06392519 0.08096108 0.0041374513 -0.015107633 -0.015727399 0.02990601
-0.064829305 -0.0008379003 0.036672268 0.02092708 0.1509536 0.038982484 0.033904787 -0.05394808
-0.03722555 0.03226863 0.060182996 0.14658867 0.07850158 0.034879643 0.10522807 0.029131217
00000000: d991 a93d 061d 7a3c d42d 1e3e 5ebc 58bd
00000010: 7326 90bd 2d7c 933c ffe4 f53d 6132 4c3d
00000020: 2071 ac3c 40fb 183e 36eb 823d ecce a53d
00000030: 7593 873b 0186 77bc bfd6 80bc 73fd f43c
00000040: 3ac5 84bd 8aa6 5bba a935 163d 456f ab3c
00000050: 9593 1a3e 19ac 1f3d bfdf 0a3d a9f8 5cbd
00000060: d179 18bd 1c2c 043d 7282 763d 571b 163e
00000070: 70c5 a03d f5dd 0e3d d081 d73d 97a4 ee3c

weight f4 [14, 32]
0.20583062 0.18806389 0.101577565 0.11672751 0.17156614 -0.08757348 -0.3525047 -0.34223193
0.26533496 -0.16240676 -0.44512442 0.33420715 -0.3974028 -0.31258923 -0.068132564 0.024213184
0.37804264 0.046315454 0.14351137 -0.43075266 0.1748014 0.2159779 -0.107131466 0.093239814
0.3333509 -0.25859785 0.21814255 -0.29857522 -0.21929346 -0.4694015 -0.36015415 -0.33226246
0.26137772 -0.29657796 0.26452547 0.042164963 -0.11935134 0.0014830676 -0.1807429 -0.34686533
0.005877032 0.3280148 0.43493417 0.4441595 -0.10462978 -0.13143423 -0.107002 0.17110233
-0.07255847 -0.43104964 -0.3297703 -0.3658764 0.40746278 0.4518638 0.01688813 0.1669595
-0.05951711 -0.5886014 -0.34163588 0.3829388 0.3429246 -0.17179903 -0.08649141 -0.076141514
-0.17558675 -0.27297255 0.18702362 0.09137521 -0.17126037 0.39130723 0.096266545 0.076482214
-0.41147274 -0.23835364 0.41398728 -0.093055345 -0.028530132 0.04000328 0.08109618 -0.086893074
-0.2166215 -0.1641919 -0.19709715 0.03643008 -0.111204036 0.34027794 0.26749936 -0.144626
0.14995216 -0.30278343 -0.4346823 -0.07906954 -0.1616306 -0.19582808 0.28145358 0.44456083
-0.3015691 -0.27709988 0.06396191 0.23306334 -0.19268933 -0.43285742 -0.16067487 -0.19398585
-0.070584685 0.18730767 -0.30970877 0.100247696 0.019134868 -0.24052289 0.23225929 -0.06311383
0.263284 -0.26998925 -0.03067657 0.30359727 -0.36764666 0.048074465 -0.21006718 -0.34619504
-0.10376644 -0.23589426 0.14354643 -0.019947445 -0.5129238 0.008487484 -0.14522056 -0.034812726
0.047018908 -0.110959254 -0.58022404 0.4193984 0.35882077 0.043190688 0.222004 -0.26842827
0.07824806 -0.33957672 -0.6208195 0.005098891 -0.47437823 -0.20598851 0.076563835 -0.04228323
0.5112989 -0.4810389 0.15907674 -0.24730843 -0.10005705 -0.49963614 0.17613225 0.18031883
0.31785366 -0.16491543 -0.22191566 -0.30564842 -0.24600644 -0.13387892 -0.11936968 -0.61389256
-0.07381497 0.05487841 -0.6161275 0.51550615 -0.04968863 -0.5188708 -0.001979237 -0.0015489436
-0.17097412 -0.31831145 -0.12096434 -0.21870837 -0.47105825 -0.39953637 -0.014074027 -0.37839594
0.1138157 -0.58011705 -0.2170304 -0.19234255 -0.075217634 -0.5223431 0.12812714 0.20974392
0.11364229 0.19026089 -0.17426424 -0.46162507 -0.11498986 -0.5215425 -0.34783146 -0.2705308
0.22578272 -0.026095506 0.07670883 -0.06499997 0.2004683 0.3727489 -0.24060903 0.37368906
-0.17560261 0.04154928 0.1294175 -0.18416929 0.45035967 0.20102489 0.4633592 -0.17146912
-0.11363105 -0.063004956 0.38595876 -0.03324095 -0.07186022 0.35647583 -0.262814 -0.17488995
-0.26141366 -0.038097776 -0.2409396 -0.5214307 0.4422381 -0.4446439 -0.30145264 -0.37711897
-0.22041741 -0.33300447 0.16998821 -0.2981532 -0.042351343 0.13331197 0.34075713 -0.15645295
0.04067854 0.122777954 -0.24103118 -0.09435198 -0.116258554 -0.09665653 -0.16374026 -0.0129157975
0.10650682 -0.044400737 0.26862293 -0.015596148 0.31472355 0.2736759 0.055784915 -0.30031943
0.22089396 0.23536482 0.028179327 -0.113018736 -0.22831404 -0.27815703 0.3922347 -0.013167551
00000000: 43c5 523e d293 403e e607 d03d d50e ef3d
00000010: 09af 2f3e ba59 b3bd 7f7b b4be 0639 afbe
00000020: fcd9 873e f54d 26be 59e7 e3be 331d ab3e
00000030: 6178 cbbe b20b a0be 1689 8bbd ba5a c63c
00000040: ce8e c13e 46b5 3d3d a5f4 123e 9d8b dcbe
00000050: 23ff 323e 5029 5d3e be67 dbbd 84f4 be3d
00000060: f8ac aa3e f066 84be c360 5f3e dade 98be
00000070: 778e 60be 6555 f0be 2066 b8be 4e1e aabe
00000080: 4dd3 853e 11d9 97be e26f 873e 2bb5 2c3d
00000090: 7a6e f4bd 7e63 c23a ab14 39be 5598 b1be
000000a0: 1e94 c03b 8ef1 a73e b1af de3e e068 e33e
000000b0: 2348 d6bd b296 06be dd23 dbbd 7335 2f3e
000000c0: 8999 94bd 8ab2 dcbe a7d7 a8be 2754 bbbe
000000d0: f69e d03e b15a e73e fa58 8a3c 6ef7 2a3e
000000e0: 37c8 73bd 95ae 16bf e6ea aebe 8e10 c43e
000000f0: d093 af3e 16ec 2fbe 6922 b1bd 15f0 9bbd
00000100: 03cd 33be 0fc3 8bbe 1f83 3f3e ed22 bb3d
00000110: e15e 2fbe 6c59 c83e 6527 c53d b5a2 9c3d
00000120: 8eac d2be fa12 74be 24f6 d33e cd93 bebd
00000130: 06b8 e9bc 7bda 233d c115 a63d fff4 b1bd
00000140: 07d2 5dbe ec21 28be d6d3 49be b537 153d
00000150: f1be e3bd e938 ae3e adf5 883e d718 14be
00000160: 0f8d 193e 6e06 9bbe ae8e debe 36ef a1bd
00000170: 7e82 25be 2887 48be af1a 903e 7a9d e33e
00000180: 4467 9abe 09e0 8dbe 76fe 823d 28a8 6e3e
00000190: 5a50 45be 7d9f ddbe f487 24be 3aa4 46be
000001a0: b48e 90bd 95cd 3f3e 2692 9ebe aa4e cd3d
000001b0: bac0 9c3c a24b 76be 61d5 6d3e d341 81bd
000001c0: 29cd 863e 083c 8abe 6e4d fbbc 1a71 9b3e
000001d0: 2f3c bcbe bbe9 443d da1b 57be 7a40 b1be
000001e0: 8083 d4bd 448e 71be d6fd 123e d368 a3bc
000001f0: f94e 03bf 170f 0b3c b3b4 14be ca97 0ebd
00000200: e696 403d 9b3e e3bd 9089 14bf 63bb d63e
00000210: 5bb7 b73e b8e8 303d 0455 633e 6e6f 89be
00000220: 8540 a03d 00dd adbe 07ee 1ebf 9914 a73b
00000230: b4e1 f2be a7ee 52be 80cd 9c3d 2e31 2dbd
00000240: 7ce4 023f bb4a f6be 03e5 223e 6c3e 7dbe
00000250: b6ea ccbd 4fd0 ffbe 035c 343e 80a5 383e
00000260: b7bd a23e 97df 28be dc3d 63be f37d 9cbe
00000270: 1de9 7bbe 8e17 09be 1778 f4bd 1028 1dbf
00000280: 4e2c 97bd 2fc8 603d 88ba 1dbf 36f8 033f
00000290: 4e86 4bbd b7d4 04bf 16b6 01bb ec05 cbba
000002a0: d713 2fbe b8f9 a2be 27bc f7bd 16f5 5fbe
000002b0: 8c2e f1be 0890 ccbe bf96 66bc 1dbd c1be
000002c0: 3518 e93d 8d82 14bf 383d 5ebe 72f5 44be
000002d0: b40b 9abd 47b8 05bf c333 033e 1cc7 563e
000002e0: 4abd e83d c0d3 423e 5372 32be 1f5a ecbe
000002f0: ce7f ebbd cf83 05bf f716 b2be 0383 8abe
00000300: 9633 673e 3ec6 d5bc 8519 9d3d b41e 85bd
00000310: 9047 4d3e f2d8 be3e 3762 76be 2c54 bf3e
00000320: 2cd1 33be 942f 2a3d 0586 043e e096 3cbe
00000330: 8b95 e63e 78d9 4d3e 6b3d ed3e 9a95 2fbe
00000340: 65b7 e8bd be08 81bd 639c c53e aa27 08bd
00000350: 732b 93bd 0084 b63e 8e8f 86be 5a16 33be
00000360: 03d8 85be 6a0c 1cbd dfb8 76be 7b7c 05bf
00000370: 086d e23e 5ea8 e3be 0058 9abe bd15 c1be
00000380: 1ab5 61be 907f aabe 6411 2e3e 89a7 98be
00000390: 9a78 2dbd ef82 083e b877 ae3e 3435 20be
000003a0: 8a9e 263d 0273 fb3d e1d0 76be 9c3b c1bd
000003b0: f718 eebd dcf3 c5bd 87ab 27be c89c 53bc
000003c0: 3f20 da3d 8cdd 35bd f288 893e fc86 7fbc
000003d0: 7223 a13e 3f1f 8c3e b97e 643d 78c3 99be
000003e0: 0732 623e 7a03 713e 55d8 e63c 5e76 e7bd
000003f0: 28cb 69be 996a 8ebe fdd2 c83e b6bc 57bc

bias f4 [14]
-0.10066847 0.1315096 0.056515057 -0.0551586 -0.2318243 -0.22455709 -0.027262721 0.08420949
-0.15779832 0.07763287 -0.07753648 0.038868517 -0.088737786 -0.08300703
00000000: 452b cebd 74aa 063e 557c 673d fced 61bd
00000010: 5963 6dbe 4bf2 65be 1256 dfbc 0676 ac3d
00000020: e295 21be fbfd 9e3d 72cb 9ebd 9834 1f3d
00000030: 28bc b5bd 97ff a9bd
