visualization/policy_nns/Overcooked/mapA/agent_1.pt (torch, 44353 bytes, 12 tensors)

weight f4 [32, 32]
00000000: 861e a3be aeb9 023f 72ae 88be 8cfd 3e3e
00000010: 662d 0f3f 8d44 d7be 78d2 923d b780 213f
00000020: 9db8 cd3e 60e3 adbe 4736 343d 55aa 833d
00000030: ff4a 443e a8a7 b13d 8f32 c9be cff0 d6be
00000040: 479b 8d3e a2f9 7cbd 0775 7e3e ef43 6dbd
00000050: c0c4 a7be d0b7 593d 007c b0bd 7757 a03d
00000060: c505 3abe 8b27 a93c fc7b 86be 47c8 dd3c
00000070: 643b 9dbe c905 afbe d552 b9bb cf95 e43e
00000080: 9e2f c0bc 28dd 80be f652 b63e 6559 483e
00000090: dc2f 393e 6b9f babe 0557 96be afad 063c
000000a0: 3ea7 cb3e d106 e0be 6668 0abe 4f23 253e
000000b0: 5c0d 4a3d 5042 c33e 10d8 9ebe 5952 913e
000000c0: 0516 893e 17ed f13d 249e d8bc e6e2 33be
000000d0: 1118 c73e 92b7 53be 725b bf3e 4f64 b1be
000000e0: 2824 e5bd 0157 5cbe 536c 8bbe 15f9 9b3e
000000f0: 41df 993d 9443 b2be 3e4b 2e3e 19fb 703e
00000100: 475c 673e ad43 81bb c640 ab3e b21f 053a
00000110: 030f f83d 1f28 813d 5088 b73c 3907 eabe
00000120: a250 bebe e6b2 c23b 8b2a 7a3d 69ee cd3d
00000130: d9ad edbd 11ca b33e e27c b23e c7ed 163e
00000140: e7bf 44be 9a84 02be 61f8 c63e 5d7a c5bc
00000150: c92f 313d 1204 89be 2de2 343e a035 a33d
00000160: 484c afbd af7a 65be 79d1 c03e bf40 b1be
00000170: d293 c73e 8a91 b9be 2ed4 d03e ae9e 8fbd
00000180: 4797 d83d d32f c6be 0d07 8abb 5926 edbe
00000190: 68bd 933e da39 783e 903a 7e3e 4e4b 943e
000001a0: ef83 ef3c 112c 7bbe 9d84 ccbc f052 00bf
000001b0: 473c b03d 3a4e 59bd e580 b9be bb2b 943e
000001c0: 208c a23e 5c9f 9bbe 2eea d43e b07b 66be
000001d0: 1d65 b63e b4c4 963e afe6 313e 359f debe
000001e0: d859 e93e 64cf d83e 176c 92be 2466 57be
000001f0: 4e04 3fbe fbe6 dbbd 2d51 58bc fbc6 123e
00000200: 90e9 e93e 3de2 cd3e 09a2 43be 6af4 383d
00000210: eb24 2dbe 1d78 cf3e d342 f93d 4030 13bf
00000220: e003 1f3d 8624 e03e 86da c83e 3c2d 273e
00000230: 8dd9 be3e 0aad bbbe 497e bf3e 3005 1fbe
00000240: 1b61 19be c874 a23e a193 873e 7a78 833e
00000250: ebe1 2f3e 5959 c83d d268 933c 0142 9bbe
00000260: 0393 593e a93e db3e c4c4 913e e007 ccbe
00000270: 96b7 7ebb 4dd8 ba3e 61f3 23be da04 63be
00000280: e31c d53e 92fc c03e 9bf5 af3d c8dd b8be
00000290: 3458 9dbe 6237 b03d 11e7 ffbc 7f46 7f3e
000002a0: eb08 c4be 996a 793c 85f7 fcbe ba8b e23d
000002b0: 942d 43be c249 103e fde7 863d 9ea2 12be
000002c0: 16c6 ebbd ea6f cd3e 53c5 0f3d ffad 90be
000002d0: b60d 23be 2636 353d e263 8dbe cd05 13be
000002e0: 29d0 1cbe c142 4dbe d0d6 0e3e c640 3a3e
000002f0: 88f5 83bd cf50 c1be 4ac0 16be 943a bf3e
00000300: 9363 813e 0975 fd3e ebb3 a33e 8ff1 a1be
00000310: 3f1a 55bd 7eda 893e 09da 95be be4d 0c3f
00000320: f07a dd3e 48ad 0d3e bb20 443e d327 7dbe
00000330: c0c6 7c3e 03e0 583e 9d2a 3bbe 1778 5bbe
00000340: 65e0 bbbe 2b31 b4be 8a0e c4be 6075 30be
00000350: a037 d93e 55d9 2b3d dd5d b6be 2e5d 323e
00000360: 67aa 8e3e e146 443c ca09 b93d 4feb 10be
00000370: c810 c53e 94aa 20bd 7a67 c63c 6077 b2be
00000380: d4f0 a0be 8c61 213f 3931 643e ecbf 5f3e
00000390: 1ddd 1d3f 0bee d0be 4a94 88bd 6739 173c
000003a0: 429a f93d dfa9 5fbe 185d a6bd ced0 cdbe
000003b0: 78dd af3e 467f 113e 59b1 c7be 6825 d8be
000003c0: 70f5 7c3e fe76 bebe e832 c83e 16c2 f73d
000003d0: 523c 243d 2a32 393e 9809 003f 4997 8f3c
000003e0: f067 f7bd 5036 9fbb 4827 99be 377e 70be
000003f0: 73ff eebd b9fb b3be b7d9 2d3e f144 bc3e
-0.31859225 0.51064575 -0.2669559 0.18651408 0.5592865 -0.42044488 0.0716905 0.6308703
0.4017991 -0.33962536 0.043997075 0.06428973 0.19169234 0.08674556 -0.39296386 -0.41980597
0.2765753 -0.061761506 0.2484933 -0.057926115 -0.32767296 0.053153813 -0.08617401 0.078291826
-0.18166263 0.020648738 -0.26266468 0.027073039 -0.30709374 -0.341841 -0.0056556263 0.44645545
-0.023460206 -0.2516873 0.3561017 0.19565351 0.18084663 -0.3644975 -0.29363266 0.00822012
0.39776033 -0.437552 -0.13516387 0.1612675 0.049329147 0.3813653 -0.31024218 0.2838314
0.26774612 0.118127994 -0.026442595 -0.17567024 0.3888555 -0.20675495 0.37374455 -0.34646842
-0.11188537 -0.21517564 -0.27231082 0.30463472 0.075132854 -0.34817183 0.1702089 0.23533286
0.22593795 -0.003944835 0.33447856 0.00050782703 0.12112238 0.063064806 0.022403866 -0.45708635
-0.37170893 0.0059417365 0.06107573 0.10055239 -0.116054244 0.35115102 0.34860903 0.14739142
-0.1921383 -0.12745896 0.38861373 -0.024106199 0.043258462 -0.26760918 0.17664404 0.079692125
-0.08559471 -0.22410081 0.37659815 -0.3461971 0.38979965 -0.3624385 0.4078688 -0.070126876
0.10575729 -0.38708362 -0.0042122663 -0.4631832 0.28855443 0.24240819 0.24827027 0.28963703
0.029237716 -0.24528529 -0.024965579 -0.5012655 0.08605247 -0.05305312 -0.3623115 0.28939614
0.31747532 -0.3039502 0.41584915 -0.2250812 0.35624018 0.29446948 0.17373155 -0.4348084
0.45576358 0.42345726 -0.2859809 -0.21035057 -0.18653986 -0.107374154 -0.013202948 0.14333718
0.45686007 0.4021167 -0.1910478 0.045154966 -0.16908614 0.40521327 0.12170949 -0.574955
0.038822055 0.43777865 0.3922922 0.1632585 0.37275353 -0.36655456 0.37401035 -0.15529323
-0.14978449 0.31729722 0.2647982 0.25677854 0.17176025 0.09782667 0.017994318 -0.30323794
0.21247487 0.42821243 0.28470433 -0.39849758 -0.003886675 0.3649315 -0.1601081 -0.2216982
0.416236 0.37692696 0.085917674 -0.36106706 -0.30731356 0.086043134 -0.03123811 0.24929236
-0.38288054 0.015223169 -0.49407592 0.11061807 -0.19060355 0.14090636 0.06587217 -0.14319846
-0.11512391 0.40124446 0.035100292 -0.28257748 -0.15923199 0.044241093 -0.27615267 -0.14357682
-0.15313782 -0.20044996 0.13949132 0.18188772 -0.06443316 -0.37756965 -0.1472179 0.3734938
0.25271282 0.49503353 0.31973204 -0.31629607 -0.052026983 0.2692451 -0.2926791 0.54806125
0.43257856 0.13835633 0.1915311 -0.24722223 0.24685192 0.21179204 -0.18277974 -0.2143253
-0.36694637 -0.35193762 -0.38292342 -0.17232275 0.4242525 0.04195531 -0.35618487 0.17418358
0.27864382 0.0119797895 0.0903507 -0.14152263 0.38489366 -0.039225176 0.024219263 -0.348567
-0.31433737 0.6303947 0.22284402 0.21850556 0.6166552 -0.40806612 -0.06668909 0.009229994
0.121876255 -0.21842144 -0.08123225 -0.40198368 0.34348655 0.14208707 -0.39002493 -0.4221604
0.24703002 -0.3720016 0.39101338 0.12097566 0.04009659 0.18085542 0.5001464 0.017528193
-0.120803714 -0.0048587695 -0.29912782 -0.23485647 -0.11669817 -0.35152987 0.16977583 0.36771348

bias f4 [32]
00000000: c9a1 d53d cc38 3abc 14ac 0c3d 122b 84bc
00000010: 7c30 e63c d74b 8b3d 167d a0bb 8488 f93b
00000020: ea4c a03c 1839 023d 3dfb f93c 5389 213d
00000030: 28c1 61bd 3b6f a43d 25db 5abc 3cbb d33d
00000040: 0a39 093e da4e 453d 70f6 553d b056 b63d
00000050: 9f41 6a3c 63c5 aebc c605 8b3d f104 2cbc
00000060: 3a04 bb3c 0497 133d 69de 8f3c 0f85 713c
00000070: 623e 55bc 75a7 b53c f7a4 593d 111f bd3d
0.10431249 -0.0113660805 0.034343794 -0.016133819 0.028099291 0.06801575 -0.004897724 0.007615151
0.019567925 0.03179273 0.030515308 0.039437603 -0.05511585 0.08029028 -0.013357912 0.103384465
0.13400665 0.0481709 0.052236974 0.08903253 0.014297872 -0.021334356 0.067882106 -0.010499225
0.022829164 0.03603269 0.017562108 0.014741196 -0.0130153615 0.022174576 0.05313584 0.09234441

weight f4 [32, 32]
00000000: de1a babe 41ca 18be 8a8c f73c dea8 e93e
00000010: 5b33 1dbe 37a0 9a3e a47f 7dbe 440a 7c3e
00000020: 8ced 013f e5fe f73e e53b 40be e5cb 713e
00000030: 4dce bebe c3a2 0b3d d231 e8be 0322 6a3e
00000040: 8d56 933e 5c16 a33e 9fc5 adbe a186 883e
00000050: 49fc 10bf 2ead 573e 8bca b03e 9981 1fbe
00000060: a55f da3e 6a9f 62be 7f7f adbe e6b8 6abe
00000070: 609d 853d 9830 4cbd 265c 7ebd 4710 c7be
00000080: 73c2 87be 4eab bcbe 359a 7b3e 92d2 c8be
00000090: 4f01 f33e 5199 f43d 01c6 dbbe 1cd8 b83e
000000a0: e82c b2be 3c2f b0bd 4cca d7bd 7eb0 a4be
000000b0: e878 0dbe cf6f da3e 0462 d4be 769a 85bd
000000c0: ab8c 693e 5ee7 ec3e 19d0 f13e d4c8 5bbe
000000d0: 746a 903e 3e67 063e bd58 b0bd 870f e23d
000000e0: 3125 5dbd db3b cd3d 4cac d03e 2140 103f
000000f0: e30c f3bc f6f5 813e 1148 0fbd 3035 c33e
00000100: e790 9f3e fa17 b63e 12b5 b93d 399f c2be
00000110: 1bd9 36be 3344 513e e5fa 4b3e 2bb2 8c3e
00000120: 3743 cfbe e807 a23e f0e0 e03d c47c bd3e
00000130: 1827 afbd 0b85 2fbe e4f8 b73b e09f 093f
00000140: 76aa 0b3e a7e6 913e 6b6a 9ebd b287 f4be
00000150: 762d 653e e6dc 5e3d cd04 043e e424 7c3e
00000160: 7421 babe aa2b 213d cf87 5b3e 6a63 223e
00000170: 8554 923e 4e32 f23e 580e 563e bd53 e4be
00000180: dca1 dd3e 1267 f53d 206a 79be 24d9 fe3d
00000190: 1cbc 9bbe 01a9 8d3e 0839 05be 7807 5e3e
000001a0: 620b 20be 76ff 08be 984d 8c3e 6a5b 39bc
000001b0: e689 d4be 46f5 db3e 4a29 4ebe 9f2e 1f3e
000001c0: 13ee 2d3e d5e3 9b3e 912a db3e d94c abbe
000001d0: 4bce af3e b194 5cbe 6bff 663e f66a 2abe
000001e0: 0353 8fbd 5b5f da3e 8aea 8f3b 886e 033f
000001f0: b3ce 913e c589 4fbe 3d8d 733e 75cc 1bbe
00000200: 6c9d f5bd 829c 233d aa77 fd3e a9ae 0ebe
00000210: ac10 053f d2e7 c73c b7d8 933e c739 083e
00000220: caf1 ad3d 37d0 95be 3dfa 60be 23b3 97be
00000230: 7d48 6d3e 200d 953d 02d6 81be 74f5 e53d
00000240: 82a0 813e 4ba4 9b3e b6d1 debe e3e1 2c3e
00000250: e2ff 273e f0dd e93d 8f48 e33e 1064 6f3e
00000260: 0f53 8fbe 8699 f73e c2e3 153e 49f8 8e3e
00000270: 89cd a5be befb ef3e dec3 49be d1e6 043f
00000280: 147b 9e3e cdee b2be c9b0 edbe f992 053f
00000290: 1b2c 06bf 0acf 203e a55b 233c a5c2 67be
000002a0: ed9d bc3e f722 f13e f12d 25bd 5249 b83e
000002b0: 2f2e 523e e39e e9bd ae1e c5bd a653 77bd
000002c0: 88e3 5bbe 1d63 df3d b9c8 9d3e 7e1a 2e3c
000002d0: 4140 c9be b61d 473d 04fd 1cbe a282 d03e
000002e0: 85fe 8bbe bb37 1d3e bf7e 703e 4df8 d3be
000002f0: 8457 383e 5e37 8bbe 4248 4fbe 8183 d7bc
00000300: 3a81 cfbd e2ba 6b3d f110 4abd ea92 2b3e
00000310: 2f03 82bd fac0 5cbd c3c5 f53d b84f bebe
00000320: f530 bb3c 496e ff3e 2973 fd3d 2c40 42be
00000330: b1e9 1abe b968 e53d 7fdd 99be 6a7a 213e
00000340: bac9 5e3e 4440 0b3e 8ab0 71bc 5455 813e
00000350: 22e0 febe e6d0 193e 3cb7 e03e cd0f ff3b
00000360: 2617 c03e 2802 4fbe 3177 f53d 35e1 943e
00000370: 1a65 83be 6fc1 7e3e 1796 26be 75a0 7f3e
00000380: 7c4a 68bd aa9f e63d 6b91 9a3e ce8d 09be
00000390: 3e96 52be 529b c2be d20a d73e 04a1 be3e
000003a0: e3b5 2cbe 1da9 46be 8a04 ed3e 73c5 753e
000003b0: 6ac8 96be 807f d0bd 5cdc a33e e453 70be
000003c0: f19a b5be d591 e63d b40b ce3e c0eb 823e
000003d0: 2608 6b3e 618d 24bd 4a01 d53d 5d71 5c3e
000003e0: 47a0 9a3e 856b 403e d6c8 b4be ee9f d3bc
000003f0: c0ff a7be 6b6b e63e 048b 813e c88a ba3e
-0.36348623 -0.14920904 0.030218381 0.45636648 -0.15351622 0.3020036 -0.24755722 0.24613291
0.5075309 0.48436657 -0.18772848 0.23612936 -0.3726677 0.03409077 -0.4535051 0.22864537
0.2877697 0.31852996 -0.33939835 0.26665214 -0.56634957 0.21062157 0.34529528 -0.15576781
0.42651096 -0.22131124 -0.33886334 -0.22922096 0.065241575 -0.04985103 -0.0620996 -0.38879606
-0.2651554 -0.36849445 0.24570544 -0.39223152 0.47461936 0.11943305 -0.42924502 0.36102378
-0.34799886 -0.08602759 -0.10536632 -0.32165903 -0.13815653 0.42663428 -0.4148103 -0.06523602
0.22807567 0.4627027 0.47229078 -0.21463329 0.28206217 0.13125321 -0.086106755 0.11038118
-0.053990547 0.10021182 0.40756452 0.5634785 -0.02966923 0.25382966 -0.034980837 0.38126516
0.3116524 0.35565168 0.090677395 -0.38012102 -0.17856257 0.20436172 0.19919927 0.2747968
-0.40480968 0.31646657 0.109804034 0.3700925 -0.085523784 -0.17140596 0.005614387 0.53759575
0.13639244 0.28496286 -0.07735141 -0.47759777 0.22380623 0.054409884 0.12892456 0.24623448
-0.36353648 0.039348282 0.21438526 0.15858236 0.28580108 0.47304004 0.20903909 -0.44595137
0.4328755 0.1198255 -0.2435689 0.1244376 -0.30416954 0.27668002 -0.13010037 0.21682537
-0.15629342 -0.133787 0.2740295 -0.011313299 -0.41511458 0.42960566 -0.20132938 0.15545128
0.1698535 0.3044726 0.42805913 -0.33457068 0.34337077 -0.21541096 0.22558372 -0.16642365
-0.06998255 0.42650875 0.004391973 0.5134053 0.2847801 -0.20267399 0.23784347 -0.15214713
-0.119929165 0.03994418 0.4950536 -0.13933815 0.51978564 0.024402533 0.28876278 0.1330329
0.08493383 -0.29260418 -0.21970458 -0.29628858 0.23172183 0.07277894 -0.25358588 0.11228457
0.2531777 0.30398783 -0.43519372 0.16883044 0.16406205 0.11419284 0.44391295 0.23378015
-0.27993056 0.48359317 0.14637664 0.27923802 -0.32383373 0.46871752 -0.19703624 0.519147
0.30953276 -0.34947816 -0.4642394 0.5217739 -0.5241105 0.15703979 0.00997058 -0.22632845
0.36839238 0.4709699 -0.040327016 0.3599344 0.2052543 -0.11407258 -0.09624992 -0.060382508
-0.21473515 0.10907576 0.30817202 0.010626433 -0.39306834 0.04861232 -0.15330893 0.40724665
-0.2734262 0.1535329 0.2348585 -0.41400376 0.18002135 -0.2719068 -0.20242408 -0.026307823
-0.1013207 0.057551272 -0.049332563 0.16755262 -0.063482635 -0.053894974 0.12000611 -0.37170196
0.022850493 0.49888828 0.12375481 -0.18969792 -0.15128209 0.11201615 -0.300518 0.15769354
0.2175664 0.13598734 -0.014751563 0.25260413 -0.49780375 0.15021095 0.43889797 0.007783866
0.3751766 -0.20215666 0.119856246 0.2907807 -0.25663072 0.24878477 -0.16268192 0.24963553
-0.05671166 0.11260922 0.3018907 -0.13433 -0.20565125 -0.38009125 0.42000443 0.3723222
-0.1686626 -0.19400449 0.46292526 0.24001102 -0.2944978 -0.10180569 0.32004058 -0.23469502
-0.35469773 0.11258284 0.40243304 0.25570488 0.22952327 -0.040173892 0.104006365 0.2152762
0.30200407 0.18791015 -0.35309476 -0.025833096 -0.3281231 0.45003828 0.25301373 0.36434007

bias f4 [32]
00000000: e0ff 113d 6451 7b3d cb5b ce3c 0ddb ee3d
00000010: 8d8b a33d 71ff b93d f4f8 6d3d 3ff9 5e3d
00000020: b221 25bd 6b0d 043d 8383 bb3c c2a6 39bd
00000030: 8fbe 9c3d 04b4 0e3d 7809 2c3c f6b6 863d
00000040: f52c 863d 65cd b03c 93ef e63a 7354 623c
00000050: 6127 663d 1257 dd3d c485 5f3d c69a 843d
00000060: e5e3 a83b cce5 06ba 63a7 1dbb 7a65 173d
00000070: 7dee 243d 080f aa3d 7ee4 79bd 5d89 763d
0.035644412 0.061356917 0.025190255 0.11662874 0.079856016 0.09081925 0.05809875 0.05443692
-0.040315337 0.03223936 0.022889858 -0.04532505 0.07653534 0.034839645 0.010500304 0.06577866
0.065515436 0.021582315 0.0017619006 0.01381408 0.0561899 0.10807623 0.05457093 0.06474833
0.0051541203 -0.0005145937 -0.002405607 0.03696201 0.040266503 0.08303648 -0.061008923 0.060189594

weight_ih_l0 f4 [96, 32]
00000000: 57a1 c13d dc47 563e bfbc 7b3e 648c 353e
00000010: bc3e 57be 3a14 1b3d 15b2 47be e8f0 1c3e
00000020: 694b 443e 54e8 94bc f9f7 023e 8e9f e2bd
00000030: c7fd 9f3d cd2b bebd f6c7 59bd dbf9 463e
00000040: 1ab8 1a3e 8436 0f3d 7576 aa3c f777 3fbc
00000050: 2163 e9bd 28c5 77be f411 493e 3cba 7dbe
00000060: 9cec 333d 54bc 28bd 803f db3d 5e58 bc3c
00000070: eb2b c3bc 269a c43e ae7f fc3d f217 4f3e
00000080: a11e 8ebc 4ba5 bc3d 4ce5 9bbd c588 613e
00000090: 9875 963c b601 a23d 742c 0f3d a792 25bd
000000a0: 837d 57bd e4dc 60bc b741 1f3e 3012 51be
000000b0: d3ce 793e da8f a8bb e88f e3bd d16b d7bc
000000c0: 8d50 24be 133a f1bd c2cf 1cbe 1e24 45be
000000d0: 607b e7bd 6e25 c0bb 8961 2dbd 6ea5 ddbd
000000e0: 67bd 873d 206c 4ebe aea6 bbbc e2ee 213e
000000f0: d3f5 5b3c b808 9d3d 045a 8dbc 217a 033e
00000100: 520c ca3c ea68 acbd b8da 103b 664f 93be
00000110: 8e4f b1bd 2d5a 2f3e 5fb9 a63d eb6c 54be
00000120: 9f53 bfbd c852 d8bd 2787 c93c ff16 1f3e
00000130: 700b 78be 7435 13be 0a17 1dbe a1bb d6bd
00000140: 5237 34be 652f db3d edf4 4f3e 1538 47bd
00000150: d5e0 b83d 5810 26bd 3fa9 74be 1294 1e3d
00000160: f8b2 36be 2d27 38be c0e8 ea3b 3d1d c23d
00000170: c44e 993d 25c7 d1bc c2f4 00be ded6 b03b
00000180: b1a4 f03d 68ce 13bc 6b48 693d 5ad9 81be
00000190: c53d 313e 1441 623d 0bde d33b c4b2 a1bd
000001a0: 6e82 063e 274c 3b3d 8b3d 263e 7082 303c
000001b0: 8100 60bd ae25 923c 6a52 39be cb4c 603d
000001c0: deeb 5bbe 5f39 0f3d 6cb8 89bd 5c7e 913e
000001d0: 15c5 06bc 5e01 4a3e 760a 80be e4bc 983b
000001e0: 4820 ecbd 115c 5bbe 8d3a 543e e6ab 23be
000001f0: 0d4d 8f3d c254 a0bc 0cc3 ba3d e89a 75be
00000200: bc50 7fbe 892b d9bc d16d 9fbd 6443 b13e
00000210: 2aeb 65be 8bde 7bbd 7b98 0dbe 90bf 5e3d
00000220: b7d9 43be 5284 9abe 3657 58be 5e20 84be
00000230: 6f09 a13e ea24 c23d fe84 dbbc 0076 d2bd
00000240: 50ff 45bd 54b0 1cbe b865 1bbd c0b9 2c3d
00000250: 76c0 c73c 943a 17be 3fac c83e 72cb 8bbe
00000260: 594b 423d 659c 333e 66d4 01be 9c1a 063e
00000270: 1a75 c73d 1996 e73e 6a09 6c3e a127 423e
00000280: 2546 9f3d 3a97 2b3e 4e05 623d 3d7f 4e3e
00000290: cce7 063e 2c34 843e c22f 99bc 7cb8 683d
000002a0: a1ef 593e ceae 5ebd f40b 423e 288a 4ebe
000002b0: a4e2 b6bc e94c 53bd 4a37 fabd 9ef1 2d3e
000002c0: 8aba 09be dfa6 7e3d d576 8bbd ff8f b2bd
000002d0: 4f8c 4f3e 64bf 0dbe c224 32bc 083c 9338
000002e0: e64b 553e 2df1 103d c6f0 833d 5145 853e
000002f0: 0c2d 833e ad9b a13e 0da6 733e a71e 203d
00000300: b7e5 4ebe 2afc 30be 921c 95bc c100 173d
00000310: f776 80be 89e6 ea39 44ac cfbd c6fe 4abd
00000320: 57da 14bd 80ec d6bd 9f30 c5bd ee4e 23be
00000330: 1bcb 853d c044 00be ce2a 8ebd df15 a03b
00000340: a7bf efbc 4847 233d 1de6 973d 3ab4 103e
00000350: 92f6 173e 867e e9bd d9d1 6c3e a894 7ebd
00000360: 7f8e 513e 9d0a 24bd 4f2c 7a3d fb51 103e
00000370: b3ca 04bd 545c fa3d df23 bb3c a6da 343e
00000380: 5bcf b3bd 943b 29be 52ea 9abb 733e 04be
00000390: 452a a4be 4765 a8bd 5644 9abd 3058 06be
000003a0: fac1 1fbe 528c bebd ea37 e1bd cd4c 2dbe
000003b0: 5fc1 5f3d 7d3c 783d 9b3c 98bd b167 f1bd
000003c0: 7dc5 3cbe 3eb4 7e3b c8dd 44bc 7e9d 0c3e
000003d0: 40b3 3abd 6d7d a1bd b428 b0bd e055 55be
000003e0: 8a64 a2bd 4d47 3a3d 6120 663e 3fa4 b5bd
000003f0: 2b0b 813d cfd0 b43d 7ded d43c fab1 93ba
0.09454601 0.2092585 0.2458372 0.17729336 -0.21020025 0.037861086 -0.19501527 0.15326273
0.19169392 -0.018177189 0.12789907 -0.11065589 0.07812076 -0.09285698 -0.053169213 0.1943125
0.15109292 0.0349641 0.020808438 -0.011686317 -0.113958605 -0.24196303 0.19635755 -0.24778074
0.04392682 -0.04119523 0.10705471 0.022991356 -0.023824653 0.38398856 0.123290405 0.20223978
-0.01734859 0.09211215 -0.07612094 0.2202483 0.01836662 0.079104826 0.034954503 -0.04042306
-0.05260993 -0.013724539 0.15552412 -0.20417094 0.24395303 -0.0051441016 -0.11111432 -0.026296528
-0.16046353 -0.11778655 -0.15313628 -0.19252059 -0.11302829 -0.005863837 -0.042329345 -0.10822569
0.066279225 -0.20158434 -0.022906628 0.15813783 0.013425308 0.076676786 -0.017254837 0.12839557
0.024664078 -0.08418448 0.0022103023 -0.28771514 -0.08657752 0.17124243 0.081408255 -0.20744674
-0.09342121 -0.10562664 0.024600578 0.15536116 -0.24223113 -0.1437586 -0.1534082 -0.10485006
-0.17599228 0.10702399 0.20308276 -0.04863747 0.09027258 -0.04054293 -0.23892687 0.03871543
-0.17841709 -0.17983694 0.0071688592 0.09478233 0.074857265 -0.025607655 -0.12593368 0.005396708
0.117501624 -0.009021379 0.05695383 -0.2536114 0.1730872 0.055237845 0.0064656786 -0.07895425
0.13135692 0.04572692 0.16234414 0.010773286 -0.05468798 0.017840233 -0.18097845 0.054760735
-0.21476695 0.034966823 -0.06724629 0.28416717 -0.008225699 0.19727084 -0.2500798 0.0046611894
-0.11529595 -0.2142184 0.2072546 -0.15983543 0.06997118 -0.019571666 0.091192335 -0.23984873
-0.24933141 -0.026510017 -0.07784618 0.34621727 -0.22452989 -0.06149153 -0.13827698 0.054381907
-0.1912602 -0.30179077 -0.21127018 -0.25805944 0.3145251 0.09479697 -0.026796814 -0.10276413
-0.048339188 -0.15301639 -0.037938803 0.042169333 0.024383765 -0.1476844 0.39193913 -0.27303654
0.04743514 0.17540129 -0.1267868 0.13096088 0.09739132 0.45231703 0.23050466 0.1896043
0.07777051 0.16756907 0.05518084 0.20165725 0.13174361 0.25821054 -0.01869953 0.056816563
0.21282817 -0.054365925 0.18949872 -0.2016989 -0.022324868 -0.05158702 -0.12217577 0.16986701
-0.13450065 0.06217086 -0.06809775 -0.08718871 0.20268367 -0.13842541 -0.010873022 7.020688e-05
0.20829734 0.035386253 0.06442408 0.26029447 0.25620306 0.31564084 0.23793812 0.039091732
-0.20204817 -0.17283693 -0.0182021 0.036865953 -0.25090763 0.0004480372 -0.10140279 -0.049559377
-0.036341038 -0.104943275 -0.09628414 -0.15948078 0.0653288 -0.12526226 -0.06941758 0.0048854197
-0.029266192 0.0398629 0.074169375 0.14131251 0.14840153 -0.114010856 0.23126926 -0.06215349
0.20464514 -0.040049184 0.061077412 0.14093773 -0.03241987 0.122246414 0.022844253 0.17661533
-0.08779784 -0.16526634 -0.00472764 -0.12914447 -0.320635 -0.08222442 -0.07532565 -0.13119578
-0.1560134 -0.09304108 -0.10996993 -0.16923828 0.054627772 0.06060456 -0.074334346 -0.11787356
-0.18434711 0.0038864757 -0.012015767 0.13731954 -0.045581102 -0.07885251 -0.086015135 -0.2083354
-0.079293326 0.045478154 0.22473289 -0.08869218 0.06300958 0.088288896 0.02599215 -0.0011268251

weight_hh_l0 f4 [96, 32]
00000000: 24ae 24bd ae96 a1be 9012 443e 6aa5 f0bd
00000010: 2e13 d73d 2702 82be c532 803e f6e2 4cbe
00000020: a836 083e 2ad0 a93e db62 403e f4df 753e
00000030: ac2c 74bb 687b 92be d805 b73d f696 a93d
00000040: 96bd 883e b4c6 3abe 1c0e e43c 9e79 003e
00000050: 561e a8be 46df a2bd bb9b ed3d 2c78 aebd
00000060: d3e6 163c 76cc c3bd e0e9 8bbc 9d04 453e
00000070: 0049 e2bc da90 4c3d f43a 6a3e 1e5c 70bd
00000080: e505 bbbd 48d7 33be c8e8 90be c6c2 34bd
00000090: cdf4 b0bd 8578 96bd 8ab4 063c 5c80 6abe
000000a0: 2489 d1be 8d6a d9bd e5b3 a7be 687f b73d
000000b0: 4d46 04be a4fd f0bd 596d 95bd c898 89bd
000000c0: f923 35be 6dc5 a13d eb6b 3e3e 04a6 04be
000000d0: 5e34 a33d 13b4 103c 9c6c c63d 448a dbbc
000000e0: 29ef 483d 8acd b6bc 50e0 7b3e 046f f03d
000000f0: 7747 9fbd a833 ce3d d2d0 513e 620e 4ebe
00000100: 7e6b 5c3d 2cfc 57be db13 7b3e 8973 d9bd
00000110: 7408 623d f295 993d 392a eebc a306 3abd
00000120: 1207 753e c052 703d 4c10 50bd 254d 3d3e
00000130: d364 b1bd 46c6 423e 431f 1cbe f04e 3ebe
00000140: 49b2 a73c bfa8 bcbd 242f 4a3d 0e9b 493c
00000150: e81b e3bd e05a 0ebe e0fe 463e 4739 873d
00000160: d4b4 213e fb00 c33d 1b35 0bbe 7b32 21be
00000170: 2c79 01be 81ba 3e3e 2389 d63d 9f7f abbd
00000180: 40a5 b5bd 63f4 a3bc e825 a43b 2fa6 c03d
00000190: 6c49 443e 98bd 1ebe 8f19 b7bd daff 74be
000001a0: 9c70 eb3c b8df afbd 63fa 1bbb 5eef a4bd
000001b0: 863a 26bd 0775 70be 9437 313b 1a76 b93c
000001c0: 8bde bcbd 8893 25bd 5ac6 343d 807a 75be
000001d0: df2d 293e e1a8 ad3d 1e57 7bbd f1d2 5c3d
000001e0: 2328 a63c 8792 3f3d ca91 083e b422 59bd
000001f0: c16a 07be b702 9e3d 6cfa 443e 3e66 05be
00000200: 605d 3c3e e5a8 3fbe dbd5 b2bc e1da 513d
00000210: 30c2 a23c 0874 0ebe 9f4e 9dbd 4d51 3cbd
00000220: f0f4 293d e055 473e 736b 25be d39f 99bd
00000230: 9933 103e 6a79 0d3e fd3f 1b3e 5e24 77be
00000240: c4c5 9b3d e54b 6cbd ada0 00be 419e 98bd
00000250: fa5a 093e cfac 5cbc 5e00 af3e 3a80 32be
00000260: 08ce 26be 808c ad3a 49d4 8b3d 37c8 643e
00000270: dd98 853d cf53 483d 5411 3b3e 01c6 91ba
00000280: f326 5dbe abcd 05bd 9411 0a3d ac6e 42be
00000290: 10a9 613e 8885 85bd c2d8 b83d 8b39 1fbd
000002a0: aaa0 95bd 080a 883c eaba 21be 59aa ed3b
000002b0: ddbe 993d a7bc a73d 6a2c 5f3e 7ac1 163e
000002c0: 30e4 603d 953a 403c 6e57 9d3e a2e9 913e
000002d0: 727a 82be fcf4 883d d472 bf3d 25f6 e23d
000002e0: 2b69 15be 17af 953d 63c4 7cbd a37e c9bd
000002f0: f07a 53bd 5f3d 953e 7990 a53d bc34 44be
00000300: d2f2 c7bd 7a47 c3bc 357d 0fbe 540e 8abe
00000310: 33a6 863d 18d0 74be 279c 83bd ba1e 443d
00000320: 708f c3bc ca8c 643e 4c82 443d ca10 bcbc
00000330: 2859 863e 3068 71bd 08bc 0e3d 7b07 1abe
00000340: e7ca 4fbd 112e 153d 827e 82bd e77f ba3d
00000350: edf6 11be 6d61 fe3c e15b 593e 3013 5fbd
00000360: b7f4 efbd d8fc e83c 3f0c 903d 720e b9bd
00000370: 9c8b 41bd 3156 a73d 8a1c 77bd b72d 0fbe
00000380: 8c18 1c3d 9ee4 ae3c 7f9a b9bd e259 de3c
00000390: 92cc 463e f88f 0bbd 9f71 983e ed15 2fbd
000003a0: 7e33 90be 902f 913e 77ef 2c3c a3db 583d
000003b0: 564f 543e 5e2c f93b 057b 713d 5cda 073d
000003c0: 852c b13d 99b7 a6be 03cf 553d 757f 18bd
000003d0: 1644 ddbd 83a3 88be b2a7 903d 0064 28be
000003e0: b8c3 e6bc 73ca 27be a9ef 05bd a4f7 5a3e
000003f0: ee5b 9fbd aefb 683d 286b 1f3e dd62 00bf
-0.040205136 -0.31560272 0.19147706 -0.117503 0.10501705 -0.25392267 0.25038734 -0.20008454
0.133021 0.3316663 0.1878771 0.24011213 -0.0037258072 -0.28609776 0.089366615 0.08280747
0.26707143 -0.18239862 0.02783876 0.12546393 -0.32835644 -0.07952742 0.11601969 -0.08519015
0.009210306 -0.09560482 -0.017079294 0.19240041 -0.0276227 0.04994283 0.22874051 -0.0586816
-0.09131984 -0.17562592 -0.28302598 -0.044131063 -0.08640442 -0.07347206 0.008221755 -0.22900528
-0.40924942 -0.10616026 -0.32754436 0.08959848 -0.12917443 -0.11767128 -0.07296247 -0.06718594
-0.17689504 0.07898984 0.18595855 -0.12953955 0.079689726 0.008831996 0.09688684 -0.026799329
0.049056206 -0.022314806 0.24597287 0.117399246 -0.07777303 0.100684464 0.20489815 -0.20122674
0.05381345 -0.2109229 0.24519293 -0.1061774 0.055183843 0.07499303 -0.029072868 -0.045416486
0.23928478 0.058672667 -0.050796792 0.1848646 -0.08661809 0.19020948 -0.152463 -0.185848
0.020470755 -0.09211873 0.049361363 0.012305034 -0.11089307 -0.13901854 0.19433165 0.06602722
0.15791637 0.095216714 -0.13594477 -0.15741913 -0.1264388 0.18625833 0.104753755 -0.08373951
-0.088694096 -0.020013994 0.0050094016 0.09406697 0.19168633 -0.15502012 -0.08940422 -0.23925725
0.02874022 -0.08587593 -0.0023800365 -0.08053468 -0.040583156 -0.23482142 0.0027041184 0.022639323
-0.09222134 -0.0404239 0.044134475 -0.23972511 0.16521405 0.08479477 -0.06136238 0.053912107
0.02028281 0.0467706 0.13336864 -0.05301161 -0.13224317 0.077153616 0.19236153 -0.13027284
0.18394995 -0.18716772 -0.02183049 0.05123413 0.019867986 -0.1391145 -0.076810114 -0.045975972
0.041493356 0.19466352 -0.1615427 -0.07501187 0.14082183 0.13815847 0.15161128 -0.24134967
0.0760608 -0.057689566 -0.12561293 -0.074520595 0.13413611 -0.013468935 0.34179968 -0.17431727
-0.16289532 0.0013240725 0.068275996 0.22342001 0.06523297 0.04890805 0.18268329 -0.0011121632
-0.21596889 -0.032666843 0.03370817 -0.1898753 0.22037148 -0.0651961 0.09025718 -0.038873237
-0.07306035 0.016606346 -0.15793958 0.007252973 0.075071074 0.081902795 0.21794286 0.14722243
0.054905117 0.011732717 0.30730766 0.2849856 -0.25484043 0.06687352 0.093480736 0.110821046
-0.145909 0.07308786 -0.061710726 -0.09838607 -0.051630914 0.29148385 0.080841966 -0.19160742
-0.09763111 -0.023837794 -0.14012606 -0.26964056 0.06574669 -0.23907506 -0.06426268 0.047880866
-0.023872107 0.22319332 0.047975823 -0.022957224 0.26239896 -0.05893725 0.03484729 -0.15041916
-0.050730612 0.036420885 -0.06371786 0.09106427 -0.14254351 0.031052316 0.21226455 -0.054461658
-0.117165975 0.028440878 0.07033586 -0.09035958 -0.047252283 0.081707366 -0.06032995 -0.13982283
0.038109347 0.021349248 -0.09062671 0.027142469 0.19413975 -0.034072846 0.29774186 -0.04274552
-0.28164285 0.283566 0.01055514 0.052943837 0.2073339 0.007604166 0.05895521 0.033167228
0.086510696 -0.3256195 0.052199375 -0.037230927 -0.10804002 -0.2668725 0.07063235 -0.16444397
-0.028169498 -0.16385822 -0.03269926 0.2138353 -0.07781206 0.056880645 0.1556822 -0.50150853

bias_ih_l0 f4 [96]
00000000: b045 1e3e 1921 cf3d e601 b13b 4632 f23d
00000010: a001 92bd c34e 413e cae8 bb3d 081d 26bd
00000020: 94dc fa3d 3f45 373e bb73 d43d 34bc 293e
00000030: d87a 0cbd 0ddd ec3d cba5 153c 78e7 143e
00000040: d323 aabd 0cb7 503d 876c 15be 3730 f0bd
00000050: aef6 d6bd dd8a e3bb 9fb2 c3bd 655f d8ba
00000060: 73d8 3abc 3306 3abe 3e17 023e d0e8 8f3d
00000070: 920d 08bc 54da 263e b312 ba3c c5a0 b0bd
00000080: c4dd 06be dd41 80bd 828a 07be bd88 073b
00000090: bad7 82be 49e1 2ebc 0427 083e 0df7 52bd
000000a0: 3b41 25be fede 32be 6e2b b8be 0f68 18bd
000000b0: 7b73 bbbd 8601 643d 6952 01be 2268 aebe
000000c0: e5d3 0dbe ac2b 16be 0659 aebe f349 efbe
000000d0: 7e95 a9be febc b2bd fc97 a2be fe65 85bd
000000e0: f5fe 1abe eee9 9dbd 5366 55be 65aa 553e
000000f0: 157a 45be 9a53 23be 1dab e53d 3e7c 54bc
00000100: e546 223d 3064 103e e84e 2bbe 9287 51bd
00000110: 8920 11bc 792a a1bd 7473 903d 70e3 c03d
00000120: ab42 16be 6a6f 94bd 6bbc 973c 48fe 7d3d
00000130: b22b e33d 343d debd 2070 82bc b91c 043e
00000140: 3852 243e 240d 73bc ac93 d83d 7cd8 afbd
00000150: 0d28 b2ba ffb0 4dbd 9084 4ebc 0386 04be
00000160: 6ea3 d63a 32d9 383d 5bf3 ccbd d05e 8ebd
00000170: 5d19 19bd 12ea bab9 c5c8 8c3d 3590 b93b
0.15456271 0.10113735 0.0054018376 0.11825995 -0.07129216 0.18877701 0.0917526 -0.04055503
0.12249103 0.17897509 0.10373636 0.165757 -0.03429684 0.115655996 0.009133766 0.14541423
-0.08307614 0.050955817 -0.14592181 -0.11727946 -0.10496269 -0.006944044 -0.09555554 -0.0016507922
-0.011404145 -0.18166427 0.12704179 0.07026827 -0.008304017 0.16294223 0.022713995 -0.08624414
-0.13170534 -0.062625624 -0.1323643 0.0020680868 -0.2555521 -0.010673829 0.13296133 -0.051505137
-0.16138165 -0.17467877 -0.35970634 -0.037208613 -0.091528855 0.055665515 -0.12629093 -0.34063822
-0.13850363 -0.14665097 -0.34052294 -0.46736106 -0.33121866 -0.08727454 -0.3175658 -0.06513594
-0.15136321 -0.07710634 -0.20839815 0.20865782 -0.19284852 -0.1594986 0.11214278 -0.012969075
0.03961839 0.14100718 -0.16729319 -0.05115468 -0.008857855 -0.07869429 0.07053271 0.0941838
-0.1467387 -0.07247813 0.018522462 0.06201008 0.110923186 -0.10851517 -0.015922606 0.12901582
0.16046989 -0.014834676 0.10575041 -0.08586213 -0.0013592258 -0.050217625 -0.012604848 -0.12941746
0.001637561 0.04512901 -0.10007354 -0.06951678 -0.037377704 -0.0003565108 0.06874231 0.005662943

bias_hh_l0 f4 [96]
00000000: ea5a 2239 1a25 d43d 67ba 40bd 558c 273e
00000010: 287e cbbd f39d 84bd 5609 4b3e 5af6 453e
00000020: 807f b73c b562 063c 65e5 d23d 363a 0c3e
00000030: 90a1 adbd 4b08 503d e4c2 eb3c 6101 b53d
00000040: e41b 253e f19e 2bbe 7137 b6bc 0dab eabd
00000050: e187 363e 5ee2 813e 339d cfbd a412 3c3e
00000060: f48b 3abc ca43 2b3d 415e e73d bdc0 dc3d
00000070: 2f70 db3d 5ae4 bcbd 3cd6 533e 064d c53d
00000080: 8d03 dcbc aab0 aabe 2d93 69be 0217 d93d
00000090: e62b 64bd b451 7b3d 0cf3 413e 4a60 fabc
000000a0: f87b debe 463c febd aa3d c1be 8f66 0fbe
000000b0: 3d16 23be 68ed 1cbe c57d 51be 1bda 66be
000000c0: 0438 8ebe 9a5d 20be 8ded 98be 61b6 9fbe
000000d0: 9f2d 0cbe 3b9f edbb 5f63 4dbe c75c 34be
000000e0: 1215 43be a39d 88be 44e7 88be a2a8 9b3d
000000f0: 116f bd3d 206a 0b3e 7e28 133e 1836 febd
00000100: e01e 60bd fe5c cebb 40e4 9dbd a572 b73d
00000110: 7be8 b8bd e9f4 4d3c 9e2f 9cbd c9a6 12be
00000120: 6b85 c6bd f8bf 03be d011 a5bd 4e8b c0bd
00000130: 1f05 14be f47b e63d 50be 163e 98ba 2b3e
00000140: 8389 353e 041f a43d c156 d5bd b148 463d
00000150: 53e4 11be 2150 733d c3ba d53d 03d5 4d3d
00000160: 36ca a2bc 5cbd b4ba d281 c5bd e260 2cbd
00000170: 6085 463e 834a 15be 93ee 94bd abdd b9bd
0.00015483392 0.10358639 -0.047052767 0.16362126 -0.09936172 -0.06475439 0.1982778 0.19332257
0.022399664 0.0082022445 0.1029766 0.1369408 -0.08478081 0.05078916 0.028779455 0.08838154
0.1612392 -0.1675985 -0.022243233 -0.114584066 0.17825271 0.25368017 -0.10137405 0.18366486
-0.0113859065 0.041812696 0.112972744 0.107789494 0.10714757 -0.09223242 0.20687193 0.09633832
-0.026857162 -0.3333791 -0.2281005 0.106000915 -0.055705927 0.061357215 0.18940371 -0.030563492
-0.43453956 -0.1241384 -0.37742358 -0.14003967 -0.15926452 -0.15324938 -0.20458134 -0.22544138
-0.27777112 -0.15660706 -0.29868737 -0.31193832 -0.13689278 -0.0072516478 -0.20057438 -0.17613517
-0.19051006 -0.26682767 -0.26738942 0.076005235 0.092497 0.13614702 0.14370915 -0.12412661
-0.054716945 -0.0062977066 -0.07709551 0.089574136 -0.09028717 0.012570598 -0.0762627 -0.14321436
-0.09693416 -0.12866199 -0.08060038 -0.0940157 -0.14455079 0.11254111 0.14721036 0.16770399
0.17728238 0.08013728 -0.104169376 0.048409168 -0.14247255 0.05940259 0.104360126 0.050251972
-0.019871812 -0.0013789344 -0.09643902 -0.042084582 0.19386816 -0.14579205 -0.07272067 -0.09075483

weight f4 [32, 32]
00000000: 92b8 3bbe a22c cbbe e6df dcbe 7336 6f3e
00000010: cc19 493e 34f4 c8be 830c bebd 80ce eabe
00000020: 7c08 0cbf e4de 87be e466 b8be 6170 a53e
00000030: 5010 8ebe e3bb 95be 2b81 1bbd c001 423e
00000040: 6986 9e3e 30a0 d13d 330d bdbe 96f1 29be
00000050: 33d8 f63e 47c6 efbe aa80 afbd 127c b13e
00000060: 5c2a 833e 6370 d2bd 16dc da3e 1321 ab3d
00000070: 6db2 873e 66cd 653c 9a9e 6c3e cafe df3e
00000080: c6b3 e1be d3ff 98be 39d1 b63e 6356 483d
00000090: baf4 59be 5da0 98be 2041 c63e 345d 37be
000000a0: 1b8d a73e 65fd 193c 5a72 1abe c310 673e
000000b0: f8a3 183f 3156 bdbe 17bf 023f eca0 943e
000000c0: 4d62 48be 8e89 f2be b0f1 53bc 99e0 e5be
000000d0: d3c0 3d3e f1d9 6abe 109e 1a3e fc03 40be
000000e0: 9a96 95be cfae c0be 41d9 993e 1f9f d1be
000000f0: 01e8 9cbe f97e cc3e 63ec 9e3e 3ef2 05bf
00000100: 371c 89be 98e0 b6bd 8877 a4be d463 1dbf
00000110: 81e2 1f3e 515a 5dbe 1b40 bc3e c486 f23e
00000120: 0289 a03d fe22 56bd ec41 333e dfc1 be3e
00000130: 119d 2e3e 1ee1 0abf 9eb8 c23e da13 913e
00000140: de40 503c 5aec e93d 9d93 a03e 669b dbbc
00000150: db94 c9be 403b f43e 5f36 78be bec4 88bd
00000160: 34eb ea3c 1bbe 10bf 30a7 e0be 3c2f cbbe
00000170: d5f8 723e 6dda f53e b039 ab3e b83b fd3d
00000180: c443 943e 07c5 e53e 083a edbe 314e 57be
00000190: aff3 02be 4e86 b1be ab29 4e3d 92dc b8bd
000001a0: 17b0 f5be 823a 303e 1e08 a5be 1a3c 25bd
000001b0: e9f2 653e 1354 963e 5b74 3b3e 9d1b 573e
000001c0: 68ad 84be ad78 01bf d2e2 debd 080f 42be
000001d0: 0a37 07bf 5240 8ebd b7d2 33be 9e1d 9fbe
000001e0: 7b9b 7fbe 1172 153e 8a01 b53e bc95 cd3e
000001f0: ae61 87be b2dd a83e 4038 c43e 6617 f7be
00000200: 5215 b9be cf64 133e 892b 12bf 251f 063f
00000210: 2ee7 673e 2ca0 a43e e3ec a53e e06d 3b3e
00000220: 5539 c3be 414f dcbe 2603 f9be c2fa ba3d
00000230: f839 973e 672b f1be f1d4 e13d f23e f93e
00000240: e62a 993d 26e5 1d3e bf06 cc3d 5c4e 9dbe
00000250: c1df 743e e1a7 cabe 5215 b53e 1871 a73e
00000260: a935 8b3e 5c79 97be 3e24 b03e c5c1 00be
00000270: 475e a8be 09e5 37bc 306b 573e 1a4a b2be
00000280: 05ab 663d e28a 553e c495 583e fe07 d6be
00000290: 64cc f1be 6287 803e f38e b7bd e722 153f
000002a0: c81c ea3d 33b3 b63e fce8 893c 39c7 a03e
000002b0: 57cc 9ebe 263a 593e a781 06be cb1a 7abd
000002c0: 3ddc 94be 1a12 a4bd dc9c 113e f453 ee3d
000002d0: 1221 8e3e abce 653e c075 063f f8dd 33be
000002e0: f7b4 90be 0a9b 2a3f 2761 ba3e b08e 11bd
000002f0: 5d20 543e 527c 5dbc 154d 713d 5329 b13e
00000300: 2838 9dbe a375 c2bd 7ad6 5dbd 9a42 7fbe
00000310: 812a c53e 7f76 b13c a491 e23e 9972 e63e
00000320: aaf5 673e e55e 2fbe 1218 c2bd 0378 60bd
00000330: d552 0ebe adef d4bd 7c78 c03e 24dd ccbd
00000340: 6578 123d 2d46 43be 6ded 23be 6366 b7be
00000350: 9d57 a1bd 24ac eebe 4cbd 87be ae7a 373c
00000360: 3535 18be 859c 63be 1317 c3be 9bc0 17be
00000370: 2af5 013e c8cc ac3e df98 30be 1885 9dbe
00000380: c264 793d 3fd0 31be fd7d c1bd f9b6 b33e
00000390: 06c1 0ebe 196a e6be 9fa2 0b3f 46ce 42be
000003a0: 507f 21bf c791 813e ca3f 21be c381 8e3e
000003b0: c487 753d f4bc e5be 438d c23c 2d5d 5d3e
000003c0: a9da 8abd 6513 c33e 2385 2fbe f699 c03e
000003d0: 2f21 a8be aa71 e1be 35d6 f43e be62 f6be
000003e0: a85b c03e 7feb a73e 554b d93d 6e61 5abe
000003f0: 48c7 a13d 0520 d4bb 4955 c43e 0716 e4ba
-0.18332127 -0.3968249 -0.4313957 0.23360614 0.19638747 -0.39248812 -0.0927973 -0.45860672
-0.54700446 -0.2653724 -0.36016 0.323123 -0.2774682 -0.2924491 -0.03796498 0.1894598
0.30961922 0.102356315 -0.36924133 -0.16596064 0.48211822 -0.4683096 -0.085694626 0.3466497
0.25618255 -0.10275342 0.42746037 0.08355918 0.26503316 0.014026022 0.23107377 0.43749076
-0.4408247 -0.29882678 0.357065 0.04891051 -0.21284762 -0.29809847 0.3872156 -0.17906648
0.32724842 0.009398793 -0.15082684 0.22564988 0.59625196 -0.3697982 0.5107283 0.29029024
-0.19568749 -0.4737057 -0.012936041 -0.44897917 0.18530588 -0.229347 0.15099359 -0.1875152
-0.29216462 -0.37633368 0.30048564 -0.40941712 -0.30645755 0.39940622 0.31039724 -0.5232276
-0.2677934 -0.089295566 -0.32122445 -0.6148045 0.15613748 -0.21616484 0.3676766 0.47368443
0.07838632 -0.052279465 0.17505616 0.37257287 0.17052104 -0.5424975 0.38031477 0.28335458
0.012710778 0.114220336 0.3136262 -0.026807498 -0.3937138 0.47701454 -0.24239491 -0.066781506
0.028676607 -0.5654008 -0.43877554 -0.39684474 0.23727734 0.48018208 0.3344245 0.12364906
0.2895795 0.44876882 -0.46333337 -0.21025921 -0.1278827 -0.3467278 0.050332706 -0.090264454
-0.47985908 0.17209819 -0.32232755 -0.04034052 0.22455944 0.2936102 0.18306105 0.21006627
-0.25913548 -0.5057476 -0.10883106 -0.18951046 -0.5281836 -0.06945862 -0.1756085 -0.31077284
-0.24961655 0.14594294 0.35352737 0.401533 -0.2644171 0.3298164 0.38324165 -0.4826004
-0.3614908 0.14393924 -0.5709768 0.5239127 0.22646782 0.3215345 0.32407293 0.18303633
-0.38129678 -0.43029216 -0.48635215 0.091298595 0.29536414 -0.47103426 0.110269435 0.48680836
0.07478885 0.15419444 0.09962224 -0.30723846 0.2391348 -0.39581206 0.3536783 0.3270347
0.27189377 -0.29584777 0.3440265 -0.12573917 -0.32884428 -0.01122404 0.21036983 -0.3482216
0.05631544 0.20853761 0.21150881 -0.41802973 -0.4722625 0.2510329 -0.08962812 0.5825638
0.11431271 0.35683593 0.016834728 0.31401995 -0.31015274 0.21213588 -0.13135396 -0.061060708
-0.29074278 -0.08011265 0.14219993 0.116371065 0.27759606 0.22442119 0.5252342 -0.17565143
-0.28263065 0.6664282 0.36402246 -0.035536468 0.2071547 -0.01351841 0.0589114 0.3460184
-0.30706906 -0.09495094 -0.05415962 -0.2492775 0.3850899 0.021662949 0.4425174 0.45009306
0.22652307 -0.17126043 -0.09477247 -0.054801952 -0.13898785 -0.10397277 0.37591922 -0.10003117
0.03575935 -0.19069739 -0.1600854 -0.35820302 -0.07878039 -0.46615708 -0.2651161 0.011198683
-0.14864047 -0.22227676 -0.38103542 -0.14819567 0.12691179 0.33749986 -0.17245816 -0.30765605
0.060887106 -0.17364596 -0.094478585 0.35100535 -0.1394082 -0.4500282 0.54545015 -0.19024
-0.6308489 0.25306532 -0.1574699 0.27833375 0.05994393 -0.44870722 0.023749 0.21617575
-0.06779987 0.38100734 -0.17140631 0.37617463 -0.32837817 -0.4403203 0.47819677 -0.4812221
0.37569928 0.32796857 0.106100716 -0.21326229 0.07899338 -0.0064735436 0.38346317 -0.0017401584

bias f4 [32]
00000000: 6c32 f03d d20f ad3c 25c7 d93c 1a2a df38
00000010: aa2e c43b f904 b03d 6991 113e 785d 633e
00000020: 474c a63d 1fc8 003e 81f0 ac3d 6569 1c3e
00000030: 0238 913d 29d0 6b3d f3b1 cc3c 2215 95bc
00000040: 8ef8 dc3d 0aea fa3a a616 aa3d f522 7dbd
00000050: e33a 6a3d ea58 c0bc b913 e4bc 1185 ca3b
00000060: 7218 8e3d 0a28 30bd 406c 073d 014f f83d
00000070: 40fa 883d e7fc f03b 8a8d ee3d 1670 a33d
0.11728367 0.021125708 0.026584217 0.00010641311 0.005987008 0.085946985 0.14215626 0.22203624
0.081200175 0.1257634 0.0844431 0.1527458 0.07090761 0.057571564 0.024987197 -0.018198553
0.107895955 0.0019143235 0.08305101 -0.061800916 0.057185065 -0.023479898 -0.027841436 0.0061804135
0.06938256 -0.043006934 0.03306222 0.12124444 0.066883564 0.007354367 0.1164809 0.07980363

weight f4 [14, 32]
00000000: 0105 ed3c 0360 ccbe 4ced 143e 7a06 783e
00000010: 2dc2 a2bd 7785 993e 2f81 a9be 324c 06bf
00000020: ca0c 303e 686b 863d 2c92 84bd fcb7 dbbe
00000030: bdab 853e 169b 34be a729 febe 025f acbd
00000040: 35f1 61bd fc4a f6be abc8 cd3d 1870 8ebd
00000050: 3bd4 b2be 1ad7 aa3e a158 28bd 8981 6fbe
00000060: 1784 43be e110 63be 1438 433e 8ffc cabe
00000070: c0b3 cbbe 6607 433e 54a7 d3be 57e4 9ebe
00000080: 3397 d13e d615 36bd 57b3 76be adaf 64bd
00000090: 1277 703e c6c6 6d3e 65ed 1cbe f299 313e
000000a0: 1311 d7be 664a 5f3e 45c8 1d3f c63c 8bbd
000000b0: 34d4 263e 2ea9 33bd ba50 863d 7410 02be
000000c0: 9889 a53c 306e ce3c d8b9 62bc 10df 063e
000000d0: 1cde 443c e3d1 2fbe 2309 aa3e 17ec 703e
000000e0: af60 7ebe 124e 43be cfad 53be f0bb e43d
000000f0: 5913 0c3e 2d7c c63c ec49 98be a436 63bd
00000100: 2d0f e33e 0820 4abe 4c59 c9be c38c 9ebe
00000110: 6fcd d7b9 a724 d13e 5c61 1ebe 9c5e e63e
00000120: 7334 463e 255a 92be de94 a03e 4cfe f23e
00000130: 2fd3 70be d5b9 96be 65cf 92bd e488 43bc
00000140: 772f a63d bd74 893e 1357 b2bd ed80 80be
00000150: 2b42 debc cb89 0abf 4af7 733e 6609 c0be
00000160: 24e0 a83e d572 8abe 56e4 183f 3181 ca3e
00000170: dd1e 8ebe a039 ecbe bfe6 0e3f 3c4f a33e
00000180: 97d1 6abe 9800 afbe 8517 863e e893 393e
00000190: 9fe5 12bd b132 87be 94cc d1be 1b49 d8be
000001a0: 90a2 5fbe 877c 9b3e 5642 9d3d 5b6d 903e
000001b0: 7818 983d f45e 113e 3fe6 e43c 9a6b ac3d
000001c0: 4be7 3a3e 6129 873e 829a 0b3c c69f 96be
000001d0: 16df 35be caff 2a3d 637c 973e 2013 00bd
000001e0: 4691 b73d 5fc5 4cbe 8a0d 0abd e10f 083e
000001f0: f648 d53e 163e cdbe 494f 3bbe 561b 8b3e
00000200: 7807 8b3e 2064 d1be 759e fdbe 3d3c f63c
00000210: 8b9c 423e 2718 cbbe 1871 a23d 015a 5e3e
00000220: 88dc a43c 1a86 873e 79a0 ffbe d005 e5be
00000230: 989b 973d ee3d db3e 761e c43d d42e 06be
00000240: 5d02 08bf cad0 c23d 37df 963e 78d6 c73e
00000250: 156b 723d 73e7 e53e 4b06 abbe 3d2f 7bbd
00000260: 8658 f33e feb8 793d cca7 a3be 55e3 5c3e
00000270: de10 993d 3d4f f03e a5a8 92bd 439f ff3d
00000280: 3716 ccbe ba84 a1be 2c61 71bd dc5a df3d
00000290: db69 fc3d fc1c e1be 383a 6f3c 5a23 32be
000002a0: a122 d2be cad9 43be edb1 92be 59b9 afbe
000002b0: 0ac4 b6be a34d aabe ee01 06bf 86eb 9dbc
000002c0: 9f40 00bf 817d 43bd a25c 19be 7674 8ebd
000002d0: e0a2 163c 0ab3 c13e 0d3f b9be 247e c7bd
000002e0: 444f 243e 7377 f93d 5464 fcbe a475 c3be
000002f0: b030 9abe f019 84be 33f6 9cbe 71d7 c4be
00000300: c76a a8bd fba1 14be a4c5 553d 9062 553e
00000310: 6612 cabe 57c1 89be 7eb3 b3be 8c96 b2bd
00000320: 0f40 213e 6a01 3abe bdfd 98be e913 8abe
00000330: 7bc9 36bd 1b24 37be 336d 9bbd 8ec1 903e
00000340: 57ba a0be 0b15 5dbe da62 c9be 8213 053e
00000350: f40c c6be f0ad f6bd 0ad3 d23d 842c 98be
00000360: dcd0 ab3e 3ee1 e0bd d266 97be 8c3f fbbc
00000370: 79d1 bcbe a41c febe e96d 8b3d 297e 0ebf
00000380: 179f ccbc 60fc 863e 79b4 973e 294d 4dbe
00000390: b32f d6be 57ab aabe 13a9 b33e b0fc 023e
000003a0: 4f92 ab3d 46ca 45be 2757 97bd 0907 d23e
000003b0: 36e5 133e 956d c03d 5a72 43be 94aa fcbd
000003c0: 53e0 a53e 3255 003f d018 2f3e 8668 e2bb
000003d0: 8344 41bd 6a31 bdbd 9dbd 3dbd b6d0 df3d
000003e0: 1f23 84bb b675 8dbe 909c a9be e50b 16bf
000003f0: d8b6 5bbd 3560 26be c886 23bc b2d5 11bf
0.02893305 -0.39917 0.14543647 0.2422122 -0.07947192 0.29984638 -0.33106372 -0.52460015
0.17192379 0.06563455 -0.064731926 -0.42913806 0.26107588 -0.17637286 -0.49641153 -0.08416559
-0.055161674 -0.48104084 0.1004804 -0.06954974 -0.34927544 0.33367234 -0.041100148 -0.23389257
-0.19093357 -0.22174408 0.19064361 -0.39645812 -0.39785576 0.19045791 -0.413386 -0.31033584
0.40935668 -0.044454418 -0.2409185 -0.0558316 0.23482922 0.23220357 -0.15324934 0.17343882
-0.42005214 0.21805725 0.6163371 -0.06798701 0.16291887 -0.043862514 0.06558366 -0.12701589
0.020207211 0.025199026 -0.013838254 0.13171029 0.012015846 -0.17169909 0.33210096 0.23527561
-0.2484157 -0.1907275 -0.20671771 0.11168659 0.13679256 0.024229134 -0.29743898 -0.05547203
0.44347516 -0.19738781 -0.3932594 -0.30966768 -0.00041161056 0.40848276 -0.15466827 0.44994056
0.19355945 -0.285844 0.31363577 0.47459638 -0.2351806 -0.29438654 -0.071684636 -0.011934493
0.08114522 0.26846877 -0.08708014 -0.25098363 -0.02713116 -0.54116505 0.23824802 -0.3750717
0.32983506 -0.27040735 0.59723413 0.3955169 -0.27757922 -0.46137714 0.5582084 0.3189639
-0.22931515 -0.3418014 0.2618982 0.18122828 -0.035863515 -0.26405862 -0.40976393 -0.42243275
-0.21839356 0.30368444 0.07678668 0.28208432 0.07426542 0.14196378 0.027941821 0.08418961
0.18252294 0.26398757 0.008520724 -0.29418772 -0.17760882 0.041747846 0.29587087 -0.03126824
0.089632556 -0.19997166 -0.033704318 0.13287307 0.41657227 -0.4008643 -0.18291964 0.27169293
0.27154136 -0.40896702 -0.49534956 0.03005802 0.19005029 -0.39666864 0.07931727 0.21714021
0.020124689 0.264695 -0.49927118 -0.44730997 0.07402724 0.42820686 0.095761225 -0.13103801
-0.53128606 0.095124796 0.29467174 0.39030814 0.059184153 0.44903144 -0.3340324 -0.061324347
0.47528476 0.060967438 -0.31963956 0.21571095 0.0747392 0.46935454 -0.07161073 0.12481549
-0.398607 -0.31546575 -0.05893056 0.10906002 0.12324878 -0.43967426 0.014601283 -0.17396298
-0.41042045 -0.19126049 -0.28651372 -0.34321097 -0.3569644 -0.33262357 -0.52346694 -0.019277345
-0.50098604 -0.04772711 -0.14976743 -0.06955807 0.009194106 0.37831908 -0.36180916 -0.09740856
0.16045862 0.12180986 -0.49295294 -0.3817569 -0.3011527 -0.2580104 -0.30656585 -0.3844562
-0.08223491 -0.14514916 0.052190438 0.2083838 -0.39467162 -0.2690532 -0.3509788 -0.08720121
0.15747093 -0.18164602 -0.29881087 -0.26968315 -0.04462574 -0.17884867 -0.075891875 0.2827267
-0.31392166 -0.21590059 -0.3933323 0.12995723 -0.38681757 -0.12044895 0.10294159 -0.29721463
0.33557785 -0.109804615 -0.29570633 -0.03066995 -0.36878565 -0.49631226 0.06808073 -0.55661255
-0.024978204 0.26364422 0.29629877 -0.20048966 -0.41833267 -0.33333847 0.3508993 0.12791705
0.083775155 -0.19315442 -0.0738967 0.41020992 0.14442906 0.09395901 -0.1908659 -0.12337223
0.32397708 0.5013 0.17099309 -0.006909433 -0.04718448 -0.092379406 -0.046323407 0.1092848
-0.004032507 -0.2762887 -0.3312726 -0.586119 -0.05364117 -0.16247638 -0.009980865 -0.569667

bias f4 [14]
00000000: 01a4 30be b7c5 7d3d 5989 0a3e a56e 843d
00000010: f6ee a0bd 0331 39be 546a 2bbe 1a1e b33d
00000020: 5657 21bd 05ee 8cbb 3df5 433d 393e 13be
00000030: 9d54 76be 735c 9cbd
-0.17250063 0.061956134 0.13528956 0.06466416 -0.07858078 -0.18085103 -0.1673978 0.08745976
-0.03938993 -0.004300835 0.0478413 -0.14379205 -0.24055715 -0.07634821
