visualization/policy_nns/OSD_T/40/agent_state_dict0.pt (torch, 40769 bytes, 12 tensors)

fc1.weight f4 [32, 23]
00000000: d162 94be 95a6 093f 7c4e f93e 9c48 99be
00000010: 7a24 f0bd ffc0 02bf 2c68 fabe 8f47 e9be
00000020: a38d 96be 5d39 ed3d 5c5f 6cbe d7ac cc3e
00000030: a9f0 a5bd 6ed4 45be ad2d df3e 97bd f3bd
00000040: b3f6 7d3e 0a7a a6bd 2268 c5bc 8122 91be
00000050: 4057 3b3e c895 573e 5a36 39be 772c 34be
00000060: e34e 30be 2d28 1a3e ba48 3d3d c2f4 bdbe
00000070: b37a 19bf fc0f cebe ba2a 13be f366 27be
00000080: 8c57 423e 0db2 523e 8894 6d3e 5e17 b53e
00000090: 4d2f 58be b6c2 fb3e b672 813e db46 733e
000000a0: 7e97 6cbd f39c ec3d 493e a73e edb3 3c3e
000000b0: 5c1e ef3e b5c7 59be 10cb 8f3e 3ad5 143e
000000c0: baca 96be 0022 b4be d637 aa3e 2abb 03bf
000000d0: 1d43 983e 8a71 943d a569 1cbe 2123 293d
000000e0: 4f3d 593e ee9c 96be 7960 593e e2e0 02be
000000f0: 309a f23d f8ad 103e 5e55 98be 6f74 03be
00000100: 881b ba3e 2533 f03e d818 e93e b05b 1abf
00000110: 451c 15be fb37 333e 3ae8 82bb 9839 033e
00000120: a3f2 88be fd41 e6be 439f 063f eeb2 b6be
00000130: e25a e1be b742 88bd 6a47 233d 7379 0b3f
00000140: 43d5 d3be 314c fbbe 7afd 45bd 3b2a fb3e
00000150: db49 fcbd 9c31 bebd e608 2a3d 6b66 dc3d
00000160: 058c 463d 2e92 8abe 17a0 0ebf 60bc eebd
00000170: 41fe 31bc 2680 a1be 2288 b13d fc77 b5be
00000180: 1037 8e3e 39ab 03bf 72fd 243e 58c9 a1be
00000190: 85f5 563e f110 cdbe 3aa5 ba3e f20d b03e
000001a0: 9e83 7e3e 39bf 893e c192 68bd c78a c63d
000001b0: 9985 933e a090 be3e 8fdc 8d3e d937 41bc
000001c0: 839a ca3e f9cf 5cbe 2fdc febe 4f21 adbe
000001d0: acbd 48be 490a 623e a0fa 25bd 5790 793e
000001e0: 88b9 27bf 79f8 a1be ec3f 8b3d 05cf bd3e
000001f0: a508 f4bd 5d67 88be cb05 b7be 4aff e1bd
00000200: 7360 393e d1a7 7e3d 59b5 a5bd cc13 233e
00000210: af75 e5bc 4f46 d93d ee97 e3bc 91d0 623e
00000220: edd5 f3be 931e e1ba 6413 80be f5d5 c93d
00000230: 5dad d83e 3dc9 ba3e 4298 c03c 44b9 a7bd
00000240: 1f7c 643e f432 b03e 3ba2 993e 5211 aebe
00000250: ca31 e43d c5b1 43bd 9a98 553e 4485 8d3e
00000260: 17f9 f8bd 9b05 3bbd 2a26 fc3d c7f0 e9bc
00000270: cda0 a13e beb4 813e 270f 873e 6cf1 e4be
00000280: f330 cebe 69e4 633e eda0 ae3e 79e5 47be
00000290: 419b f9bd ee53 503e ac28 0f3f 7e3c 9a3e
000002a0: 264b 2fbe 3728 103e c187 2abe 94a4 dabd
000002b0: ecc7 6fbe 2c9a 91be f328 02bd ac43 963d
000002c0: 4b61 52be 19ad 473e 5dd1 a3be 31da c2be
000002d0: c7d6 a33e 44c6 603e ab11 2c3f 2a48 b7be
000002e0: da7b 8b3e e9f9 843e 5dcd 8ebc 6ff6 4ebc
000002f0: a7e2 e33e 80c6 06bf 9a67 a3be b449 c6be
00000300: 5e52 083f 19b5 8d3d d618 0f3d f2ec 3dbe
00000310: ad85 4abe 0e94 3abe 8205 a23d 9c34 433e
00000320: 413d 2f3e 76c5 a53e f867 c13e 7ae0 a43e
00000330: 81d7 6c3d e67e d4be 5798 ecbe 1f01 a43e
00000340: c18b ad3e 7b9c 9bbe 41ed d8bd 61b7 dc3d
00000350: 6ada 513e 43b5 ce3d 567b 5a3e bb64 a53e
00000360: b627 edbe fcc9 da3e 87f4 863e 471b 7fbe
00000370: b21b dabe 0a2f 0c3f b139 b03d eacc 99bd
00000380: 75b5 fcbd 99b4 243e ff1a 133e 29c5 9d3e
00000390: 697d 1bbd e1b3 613e e202 72be ebbc c83e
000003a0: 200d fd3d e00a 0a3f f143 743e 40ad 70be
000003b0: 53e4 d73e e22d 94be 3424 aebe 1daf e4be
000003c0: 629f c03e f794 ff3d 7c79 6b3e d9e9 2abe
000003d0: 1c47 ca3e 9ff3 f5bb 32d8 1bbe 0cd7 2d3e
000003e0: c7b3 bebe 64ce 7dbe 2372 78be 7886 703e
000003f0: e906 0e3f 7255 8cbe b826 e43d 73f7 9c3e
-0.2898164 0.5376981 0.4869269 -0.2993821 -0.11725707 -0.5107574 -0.48907602 -0.45562407
-0.29404935 0.11583207 -0.23083252 0.39975616 -0.08102543 -0.19319317 0.43589535 -0.11901396
0.2480114 -0.08128746 -0.024097506 -0.28346637 0.18295002 0.21053231 -0.1808714 -0.17595087
-0.17217593 0.15054388 0.046211936 -0.37100798 -0.5995285 -0.4024657 -0.14371768 -0.16347866
0.18978709 0.20575733 0.23201191 0.3536939 -0.21111794 0.4917199 0.2528283 0.23757498
-0.05776166 0.11553373 0.32664707 0.18428011 0.4670285 -0.21267588 0.28084612 0.14534464
-0.29451543 -0.3518219 0.33245724 -0.51457465 0.29738703 0.07248218 -0.15274675 0.041293267
0.21214794 -0.29416603 0.21228208 -0.12781098 0.11845815 0.14128864 -0.2975263 -0.12837385
0.3634913 0.4691402 0.45526767 -0.60296154 -0.14561565 0.17501824 -0.0039949687 0.12814939
-0.26747617 -0.4497222 0.52586764 -0.35683388 -0.4401465 -0.0665335 0.039863028 0.5448219
-0.41373643 -0.49081567 -0.048337437 0.49055657 -0.12318774 -0.09286806 0.041512392 0.10761722
0.048473377 -0.2706465 -0.5571303 -0.116570234 -0.0108638415 -0.31543082 0.086685434 -0.35443103
0.27776384 -0.5143314 0.16112307 -0.31598926 0.20992096 -0.40051988 0.36454183 0.3438564
0.24854895 0.26903704 -0.05678058 0.096944384 0.28812864 0.37219715 0.27707335 -0.0117931
0.39571008 -0.2156371 -0.49777362 -0.33814475 -0.19603604 0.22074236 -0.040522218 0.24371468
-0.65517473 -0.31634882 0.067993015 0.37072006 -0.11915711 -0.2664136 -0.35746607 -0.11035021
0.18103199 0.06217176 -0.0809123 0.1592552 -0.028010217 0.106091134 -0.027782407 0.22149874
-0.4762415 -0.001717525 -0.25014794 0.09855262 0.42319766 0.36481658 0.023510102 -0.081896335
0.22312973 0.34413874 0.30006585 -0.3399759 0.11142309 -0.047776956 0.20858994 0.27640736
-0.12156885 -0.045659643 0.12311967 -0.028557194 0.31567994 0.25333208 0.26378748 -0.4471544
-0.4027172 0.222551 0.34107152 -0.1952113 -0.121878155 0.20344517 0.55921435 0.30124277
-0.1711851 0.14077841 -0.16653349 -0.10675922 -0.23416108 -0.28437936 -0.031777333 0.07337126
-0.20544927 0.19499625 -0.3199567 -0.38057092 0.319998 0.21950632 0.6721446 -0.35797244
0.2724293 0.25971916 -0.01743191 -0.012631997 0.4450886 -0.52646637 -0.3191498 -0.38728106
0.5325068 0.06919307 0.034935795 -0.18547419 -0.19777556 -0.18220541 0.07911207 0.19063038
0.1711321 0.32377213 0.37774634 0.32202512 0.057822708 -0.41503066 -0.46209976 0.32032105
0.33895686 -0.30392823 -0.105921276 0.10777164 0.20493475 0.10093167 0.21336111 0.32303414
-0.4631936 0.42732227 0.26358435 -0.24912749 -0.42599255 0.54759276 0.08604754 -0.075097874
-0.12339298 0.16084518 0.14365767 0.30814484 -0.037961397 0.22041275 -0.23633912 0.39206633
0.12356019 0.53922844 0.23854043 -0.2350359 0.42166385 -0.28941256 -0.34011996 -0.4466485
0.376216 0.12479585 0.22995561 -0.16690768 0.39507377 -0.0075058485 -0.1521919 0.16976565
-0.37246534 -0.24785763 -0.2426229 0.23488796 0.55479294 -0.2740894 0.111401975 0.3065754

fc1.bias f4 [32]
00000000: 8f8e b73d adf3 12bd f747 cd3c 0587 263d
00000010: 17e8 c83c 5c48 6d3c 7b70 443d 4bf5 a8bd
00000020: 9211 b83d 8461 5e3d 4f92 373e 2f9e 5cbd
00000030: d7dc 9d3d 96f8 d63d 9fac e2bc 0e45 06bd
00000040: 6542 103c c2c3 66bd b01b bd3c aa63 2d3e
00000050: 9c55 0a3c 010e 713b 1389 863d 52fc cdbd
00000060: e1ef ae3d 968a f1bb 87ef f83d ebfd fc3d
00000070: 3591 b13d b6c7 c23a da88 193e fddb 003e
0.08962738 -0.03587692 0.02505873 0.04065611 0.024524732 0.014482584 0.047958832 -0.08249911
0.08987726 0.054292217 0.17926906 -0.053861793 0.077081375 0.10496633 -0.027670203 -0.0327807
0.008804892 -0.056339033 0.023084491 0.1693255 0.008443262 0.0036782029 0.065691136 -0.10057892
0.08541847 -0.007371257 0.12155061 0.123531185 0.08670274 0.0014860544 0.14993611 0.12583919

fc2.weight f4 [32, 32]
00000000: 6981 293e 9ede b93e 423f c5be 9145 b4bd
00000010: 6910 b1be 143f 87be 8c9a aebe 713c 833e
00000020: e02e 543e d96a ea3d 637c 2fbe ea4f 873e
00000030: d7df 093f a6af a53e f7d5 bc3d ea47 d93d
00000040: e8ee 373d 22c1 cc3e 16a5 0abe 5bc7 873e
00000050: 03b8 b6be 4961 f9bd f467 99bd 1924 8c3d
00000060: 7ba8 013f 1422 693e c3b7 f13d 323f 323e
00000070: 84a9 86be b164 493e 6bf2 07be 7be0 ef3d
00000080: 0df0 8b3e b6c6 cebe 828f a53d da88 1b3e
00000090: 807b d1be 250b a93e bb4a ea3d b2fb cabe
000000a0: c296 b3be 6a94 c0be fea6 a63b 3b1a 80be
000000b0: 1570 c43e 19ef 573c 178d 8cbe 5002 993e
000000c0: 48d2 84be d06d 32be 70ff b03e 88c7 efbc
000000d0: 4947 573e 5b85 0e3d 8c20 253d 3067 f43d
000000e0: dac8 f7bd 2b94 a13d c76d 31be 646e 103f
000000f0: 5786 e73e 2c16 b6be 5f7a 003f 9822 523e
00000100: 4aca 013f df2c 053e a637 b03e ce09 f53e
00000110: 6ec8 ebbd e1a9 c7bd f011 ae3d 2152 d3bd
00000120: a986 f53c 672a 3d3e 2801 5d3e d771 743e
00000130: dec4 85bd b7da dbbe 11f8 ffbe bfe3 283e
00000140: 96df f03e b3e7 55be ea23 d6bc 67c0 6e3e
00000150: 649a 873e 1443 9a3e 7eb8 2fbe 3b9f 98be
00000160: 22d1 bf3d a78b edbd b36f a8be f2a8 fcbd
00000170: 4239 9e3e 804b a8be 4b3b be3e c2a9 263e
00000180: 99a3 713e 650d 61be 1f0b 63be 536f 1cbe
00000190: 7786 313e 7057 c63d ee84 0c3f f78f f93c
000001a0: a632 083f 2560 073e 90f7 7dbe b97c 023e
000001b0: c9c5 4bbd 2db2 83be 570b 6ebe f0da ac3e
000001c0: 792b 3bbe b128 58be cc1c f4be 0206 fb3d
000001d0: ccab bc3e 51e5 6cbc af1b 8ebd 2c29 36be
000001e0: cb02 98be a2af cfbe af06 6ebe 739a 24bd
000001f0: cda2 a63e befa 61bd 6c95 46be 862d d93e
00000200: dedb 913e a9d1 cbbe dbe5 f13e f36e 28be
00000210: 1e16 84be d0ca bbbe 6351 2dbe 3dce 153e
00000220: 4ba8 503e 78d4 75bc b8b1 d8be f2ea f5be
00000230: 6c3f ee3e 3948 373e fea5 463d 4bf2 c83e
00000240: 3c98 0ebd c190 74bd 36b0 d83e 3054 d63e
00000250: 7d2f 653d d6c7 a9be cd58 f0be cbdc d7be
00000260: 2fcb e0be 38d8 4c3e 73de 71be b61a 833d
00000270: 25be 223e a1a9 2e3d deb8 3abe 07aa 84be
00000280: 93d6 84be 8dc0 0a3e 1f91 0dbe 924a 82bc
00000290: fcc3 9abd baef a3be 6f5d 54be f6fa 51be
000002a0: 3beb 87b8 8326 d43d 7a33 3fbe 792b d43c
000002b0: d95b 0f3e 60ce c93e 8a16 4a3e f0a6 b83e
000002c0: d51a e5bd 244a 29be 1f21 b0bd c916 8f3e
000002d0: 147f 9bbc 917c bf3e 9727 a53d ca43 0f3e
000002e0: dd54 df3e 51d5 45be 1468 46be fc6e 903e
000002f0: 7840 ea3e a909 bdbe 313c 853e 4428 39be
00000300: 2824 10bd 8ea1 76be b449 a2be ee48 06be
00000310: 42e3 c03d 0602 713e e039 f7be ef41 433e
00000320: 2b6d 8abe cfc5 84be e89a 7abe bdc4 2e3e
00000330: bf27 a0be f191 01be 75b5 b43e 4e22 373c
00000340: e6bc 813d 4107 9bbe f903 d73e 5b0c 2bbe
00000350: f51d c4bd 42b4 bd3e eedd 02be 82a9 9a3d
00000360: 7e83 633e cf45 40be b114 0ebe 81fc 46bc
00000370: 42df 103e b307 a8be 8d1f c2be 7e74 9d3e
00000380: 511f a13e f763 eebd 4065 d93e cf4f b1be
00000390: a31a 0ebe 2a2a c5be c749 b53d 5cd9 96be
000003a0: 3fea d9ba ea1d 213e e388 323e 4097 1cbe
000003b0: cb81 bebd c0eb 4cbe 380c 223e ef67 b73c
000003c0: 646c e03e 5161 b93e b6aa f53e 997c b1be
000003d0: b094 dcbe c22f 6ebe d421 083d ca63 a6be
000003e0: 4067 9bbe b8a2 f93e bf99 c83e 6d27 eabd
000003f0: 3eea 263e 2b8d bf3d 4c06 77bd 5db6 9ebe
0.16553272 0.36302656 -0.38524824 -0.08802331 -0.34582832 -0.26415312 -0.34102285 0.2563205
0.20721006 0.11446161 -0.17137294 0.26428157 0.5385718 0.32360572 0.09220498 0.1060942
0.044905573 0.399911 -0.13539538 0.26519284 -0.35687265 -0.12176759 -0.074905306 0.068428226
0.50647706 0.22766906 0.11802628 0.1740692 -0.26301205 0.19667317 -0.13276069 0.11712738
0.27331582 -0.4038598 0.080840126 0.15188923 -0.40914536 0.33016315 0.11440035 -0.39645153
-0.35075957 -0.3761323 0.005085825 -0.25020012 0.38366762 0.013179564 -0.27451393 0.29884577
-0.25941682 -0.17424703 0.34569883 -0.029269949 0.21023287 0.034795146 0.040314242 0.11933744
-0.12098856 0.07889589 -0.17327033 0.5641844 0.4521968 -0.3556379 0.50186723 0.20521009
0.50699294 0.13005398 0.34417456 0.47859043 -0.11512838 -0.09749199 0.08499515 -0.10318399
0.029971438 0.18473206 0.21582472 0.23871551 -0.0653169 -0.42940304 -0.49993947 0.16493128
0.47045583 -0.20889167 -0.026140172 0.23315583 0.26484978 0.30129302 -0.17160222 -0.29808983
0.09366061 -0.11598902 -0.3289772 -0.12336911 0.3090306 -0.32870102 0.37154612 0.16275695
0.23597564 -0.21977766 -0.22172211 -0.15276842 0.1733645 0.09684646 0.54890335 0.030464156
0.53202283 0.1322027 -0.24801469 0.1274289 -0.04974917 -0.25721875 -0.23246513 0.33760786
-0.18278302 -0.21109273 -0.4767822 0.12257005 0.3684982 -0.01445897 -0.06938874 -0.17789143
-0.2968963 -0.40563685 -0.23244737 -0.040186357 0.32546082 -0.055170767 -0.19392937 0.42417544
0.28488058 -0.39808396 0.47245678 -0.16448574 -0.25798124 -0.3667817 -0.16925578 0.14629455
0.20376699 -0.01500427 -0.4232309 -0.48030812 0.46532762 0.17898645 0.048498146 0.39247355
-0.03481315 -0.05970836 0.42321938 0.41861105 0.05595349 -0.33160275 -0.4694275 -0.4216064
-0.43905017 0.20004356 -0.23620014 0.06401579 0.15892847 0.04264224 -0.18234584 -0.2591097
-0.25944957 0.13550015 -0.1382489 -0.015904699 -0.07556912 -0.32018834 -0.20738767 -0.2050589
-6.481117e-05 0.10358908 -0.1867198 0.025899636 0.13999881 0.39415264 0.1973516 0.36064863
-0.111867584 -0.16532189 -0.08600067 0.2794707 -0.018981494 0.37399724 0.08064192 0.13990703
0.43619433 -0.19319655 -0.1937564 0.28209674 0.4575231 -0.36921433 0.26022485 -0.18081766
-0.03519073 -0.24085066 -0.31696856 -0.13113758 0.09418346 0.23535928 -0.48286343 0.1906812
-0.27036414 -0.25932166 -0.24473155 0.17067237 -0.31280324 -0.12653328 0.3529469 0.0111776125
0.06334858 -0.30278972 0.41995218 -0.16703932 -0.09576026 0.37051588 -0.12779972 0.07551862
0.22218129 -0.1877663 -0.1387508 -0.012145163 0.14147666 -0.32818374 -0.37914696 0.3075294
0.31469205 -0.116401605 0.4246006 -0.34631202 -0.13877349 -0.3850873 0.088519625 -0.29462707
-0.0016625597 0.15734068 0.1743503 -0.15292072 -0.093021 -0.20011806 0.15824974 0.022388427
0.43832695 0.3620706 0.47981805 -0.34665373 -0.4308219 -0.23260406 0.033235386 -0.32498008
-0.3035221 0.48756957 0.391798 -0.11433301 0.16300294 0.093530975 -0.06030874 -0.30998507

fc2.bias f4 [32]
00000000: 38c0 ac3c e4c0 893d 12e7 983d cfee c43d
00000010: 669d 853d e61f c83c 9885 28bd ad95 48bc
00000020: 4d88 1c3d 229f 493d 5305 f13c 2e8b 033e
00000030: 57b3 913d 99a9 c1bb 5f6e 6d3d 2d64 373e
00000040: a70f 4c3b ed94 423d c978 a83d 1642 a43d
00000050: 9013 f23d d6b7 d23c 25f0 bd3d c8f8 6e3d
00000060: 1639 ff3d b04a d23d 851c bc3c 5316 cf3d
00000070: c21b 573d 43fc b93d ca06 c73d c068 a73d
0.02108775 0.06726244 0.07465948 0.096158616 0.06524162 0.024429273 -0.04114303 -0.012242717
0.038215924 0.049224027 0.029421484 0.12846062 0.071142845 -0.00591011 0.057966586 0.17909308
0.003113726 0.047505308 0.08226163 0.080204174 0.118201375 0.025722425 0.092743196 0.058342725
0.1246206 0.10268152 0.022962818 0.1011168 0.052516706 0.09081318 0.09718092 0.08174276

gru.weight_ih_l0 f4 [96, 32]
00000000: 407a ef3d b6d4 28be 3709 a8bd 8e5d c7bd
00000010: 107d 29be 9782 d73d 3bfd ae3d d377 2dbe
00000020: 8dbe 42bd 3a9a 07bc 0a6a f43d 7faf 3a3e
00000030: ef5a 15be 156b 293e 1950 f73b 441a 07be
00000040: 79f5 3cbe 124e c0bd 1f6a 423e 71d6 213d
00000050: 6e8f 46bd 4ea5 963d a75b 23be 1f51 17be
00000060: fe0f 273d 1672 163d a083 18be 85a3 833e
00000070: 83be 893a 8c63 4ebe 9e74 d8bd fad2 c0bd
00000080: 10f6 17bc 51e3 a23e 67ac b93d 5c19 563c
00000090: 927c 6b3c ec22 e63d 48e9 2e3e b278 dbbd
000000a0: 5c15 2e3d 59d6 00bd 7fa1 febd de55 883e
000000b0: 9390 153d 7ab3 2c3d f823 37bd 0fe2 d8bd
000000c0: 4c02 dfbd b978 c63d 4af5 0abd fd7a 7ebb
000000d0: a52f 913e 440e 813e 48f3 f13d 63b0 5b3c
000000e0: ebcb 86bd c493 1e3e c614 fbbb 195d 1dbe
000000f0: 2904 773e 0386 183d 25d3 943e f7ba 0cbe
00000100: cd66 a6bd 1802 063e 881a 843d 5342 263e
00000110: 7eb8 063e 5fdf 423d 3586 28be df5c 683e
00000120: 3a7c 2a3e 35c4 393e 2418 9e3e 15b7 853d
00000130: 89bf ec3d b40d da3d c225 8f3e 3946 fcbc
00000140: c31b 9b3e b04a af3c 3397 3cbd aa91 133e
00000150: 1250 be3d 305e 103d ebd8 24bd 8d17 0f3e
00000160: 7fdf 703e be02 4c3e 0dc0 293d 1155 8a3d
00000170: 0b1c c9bc 28bd 4d3d 0495 96bc 838a 8b3e
00000180: 63a3 473e 3fe9 093d fec2 913d c7b1 e03d
00000190: 5d17 1b3e efa4 0d3e e1eb 3fbe fc9b 0dbd
000001a0: d6d7 50be 0d25 443e 7950 37bd 2fed 793e
000001b0: 1374 d73b 09cd 40be 8819 1b3e 67c5 11bc
000001c0: cf72 253d 6dfb 233e 91cb a13d 4351 283e
000001d0: c268 babb 12ef 313e 2b8e 1abe b27d 1c3c
000001e0: 3955 4f3e 9f07 20be 90c1 33bd dc1e 923e
000001f0: c783 163e ddc3 5a3e 2247 b9bd 3884 9e3d
00000200: 6580 143e b4a6 71be 3443 b43d 71fd 98bc
00000210: 1822 92bd 5b1b 923d d8a6 3bbd d624 343e
00000220: 4dd0 fbbc 2402 543e 8ef5 fdbc 2acb 313e
00000230: 1dc5 a33d 1832 c73d 8997 e43c 9525 173e
00000240: 01db 233e 9697 bc3d 27ec 983d ce76 cb3b
00000250: 62c0 19be 0240 933d eb2e 68bd a508 1ebc
00000260: 41ae d3bc 6009 003e 08d3 703c c07e 84bd
00000270: 718c 7f3e 00da c03d 0e0a 80b9 2953 07be
00000280: 5e77 9d3d 23e6 9a3d 384b 4f3e 79d4 adbc
00000290: 7868 f43d 1d8d 423e 7727 483d 8fc1 523e
000002a0: 17be f53d af6f 493e a247 663e 1673 e03c
000002b0: a2c9 9e3e 8281 4d3e 433f f03c 0025 4a3e
000002c0: 82b3 633e 9c0b 6f3e 9ba5 363c a7a4 8cbc
000002d0: 709c ccbb 4c5e 403b ac7d 5a3e b33c 863e
000002e0: 7c84 78bd b229 0a3e d04f 2dbd 4aa7 89bd
000002f0: 923b a4bd 25bb 36bd e677 74bb 5994 c53d
00000300: 2e3d 503e 4e4e d13d db80 023e 546c 59be
00000310: c449 9cbd 7261 93bd a4f8 573c 9d54 8abd
00000320: bc9c 403d 181b 7d3d 7564 b23d 0b87 89bd
00000330: f44b 20be f0c0 e7bc 2041 993e db8e d3bb
00000340: 05cf a6bd 2900 87bd 6513 c6bd d698 843e
00000350: b405 393d b26f 143e cf5d 873d 220f cfbd
00000360: f681 07be ab59 d13d 9a34 543e 2fbf 7c3c
00000370: 5ef9 a4bd 8045 36bd 8568 bc3c 005e 223e
00000380: ce56 8e3e e3da 3bbe 197d 683e 90be 1dbd
00000390: 150d 8fbd 0912 0f3e 1a7b 67bd 957e d33b
000003a0: 836d cfbd d459 813e 53c6 2bbd 54df a03d
000003b0: ff85 623e 9fee 883d 0182 e4bd 80f9 b63d
000003c0: a9fc 8c3e 2c64 783d 03cd 223e dc29 773e
000003d0: 1765 e43d 4c4b 013e 434a a83b 13df 05be
000003e0: ffce af3e d7d2 c73c e243 11bd b1b0 3e3e
000003f0: 7e45 fe3d cc0e 73bd 7c5c 2c3d a4fa ea3c
0.11693239 -0.16487393 -0.082048826 -0.09734641 -0.16551614 0.10522955 0.08544394 -0.1694024
-0.047545005 -0.008276517 0.11934288 0.18231009 -0.1458547 0.16544755 0.00754739 -0.13193613
-0.18453015 -0.09389891 0.18985794 0.039511148 -0.04847663 0.07355748 -0.15952931 -0.14777039
0.040786736 0.036729895 -0.14893961 0.25710693 0.0010509047 -0.20155162 -0.10569118 -0.094152406
-0.009274974 0.31814054 0.09066086 0.01306757 0.014372962 0.112371296 0.17081177 -0.1071638
0.04250084 -0.031454418 -0.12433147 0.2662801 0.03651483 0.04216335 -0.044712037 -0.10589992
-0.1088911 0.09690995 -0.033925332 -0.003883063 0.28356662 0.25206196 0.1181398 0.013408753
-0.06581863 0.15486056 -0.0076623885 -0.15367545 0.2412268 0.03723718 0.2906734 -0.13743196
-0.081250764 0.13086736 0.06450373 0.16236238 0.13156316 0.047576305 -0.16457446 0.22691678
0.16648951 0.18141253 0.30877793 0.06529061 0.1155997 0.10647145 0.27958494 -0.030795204
0.30294618 0.021397918 -0.046042632 0.14411035 0.09292616 0.035246074 -0.04024593 0.13973828
0.23522757 0.19922921 0.04144292 0.067545064 -0.024549505 0.05022922 -0.018381603 0.27254114
0.19495921 0.033669706 0.0711727 0.10971408 0.15145631 0.13832448 -0.18742324 -0.034572586
-0.20394835 0.19154759 -0.04475448 0.24406885 0.0065751164 -0.18828215 0.15146458 -0.008897162
0.040392693 0.1601388 0.07900155 0.16437249 -0.0056887576 0.17376354 -0.15093295 0.0095514525
0.20247354 -0.15627907 -0.043885767 0.2853917 0.14698707 0.21363778 -0.09046771 0.077400625
0.14502104 -0.23598748 0.088018805 -0.018675538 -0.07135409 0.07134124 -0.04581341 0.17592177
-0.030738974 0.20703942 -0.031000879 0.17362657 0.07996581 0.097263515 0.027904289 0.1476043
0.16001512 0.092086 0.074669175 0.006209231 -0.15014794 0.07189943 -0.05668537 -0.009645616
-0.025839927 0.12503576 0.014698751 -0.06469488 0.24955918 0.0941658 -0.00024421554 -0.13215317
0.07688783 0.07563426 0.20243537 -0.021219479 0.11933988 0.18999143 0.04886576 0.20581649
0.119991474 0.1967151 0.22488263 0.027398627 0.3101321 0.20068935 0.02932704 0.19740677
0.22236446 0.23344272 0.011147882 -0.017168356 -0.0062442347 0.002935308 0.21337003 0.26218185
-0.060673222 0.13492468 -0.042312443 -0.06721361 -0.08019175 -0.04461207 -0.003730291 0.09647436
0.20335838 0.102200136 0.12744467 -0.2123273 -0.07631257 -0.071963206 0.013181839 -0.0675442
0.047024474 0.061793417 0.08710567 -0.067152105 -0.15653974 -0.028290242 0.299325 -0.0064562387
-0.081449546 -0.065918274 -0.09671668 0.25897855 0.045171455 0.14495733 0.066096894 -0.10110308
-0.1323317 0.10222181 0.20723191 0.015426441 -0.080553755 -0.044499874 0.022999058 0.1585617
0.27800602 -0.18345217 0.22703971 -0.038511813 -0.06984917 0.13971724 -0.056513883 0.0064542987
-0.101283096 0.25263846 -0.041937184 0.078550965 0.22121428 0.06686138 -0.11157609 0.08934307
0.27536514 0.060642406 0.15898518 0.24137062 0.11152094 0.1262638 0.005135806 -0.13073377
0.34337613 0.024392528 -0.03546513 0.1862209 0.12415598 -0.059340283 0.042080387 0.028683968

gru.weight_hh_l0 f4 [96, 32]
00000000: edc4 263e 933f 04bd f4ab 1b3d 6fa2 c8bd
00000010: d40f 0f3e f856 9cbd f0f1 87bd 839c 8a3c
00000020: 5d72 e0bd fb81 113e cf03 60be 1f75 8abd
00000030: 77cb 5bbe d67d 553d 0af4 85be d647 e4bd
00000040: 3ead 95ba 1d69 42bd fa5d 4fbe 9883 813b
00000050: 92c2 3039 a9a7 65be 62ac 013e 3b7f a03d
00000060: 6827 eb3d beb1 e4bd bd7f 0ebe f17b 1abe
00000070: b1fc b3bd d66a c3bd 777b 83be f17a ef3d
00000080: d5ca c9bc 213e bbbd d7b6 103e 25f4 953e
00000090: d0d9 c33d 16ba 04bd 67b1 7cbe 436b ea3d
000000a0: 5208 8e3d d6c2 2c3d 946a de3d f942 533e
000000b0: 2b93 15be de15 933e 90cf 1bbe 47d0 983d
000000c0: 0053 0f3e 2cbe dc3d e281 18bc 1274 683d
000000d0: d6fa 5a3e 795e 84be 0bce b6bd 2c93 45be
000000e0: 964d 9f3d 04e1 063e cae5 82bd b9f9 573d
000000f0: 1a67 0a3e 8eac 37bd 0958 cfbd f940 073d
00000100: 0c4c fc3c d931 96be 0160 f4bd 8bc8 013e
00000110: 01e5 e3bd 0752 8f3e f66f f73d cadc 263e
00000120: a9b4 323e f82f 153e f006 a1bd dee7 593e
00000130: 3575 b23c 8511 833d fa32 233d 09fa 9dbd
00000140: 2bd1 7cbd 2f0f 933d 6e51 83bd 77e0 d9bc
00000150: 3318 0cbe 4551 a2bb 1dae bdbd c817 5dbe
00000160: f72f bbbd 4d34 473e 515e 053e 9927 bdbd
00000170: 33fc 833e 123c 2a3b 3f40 7dbc 6e63 46bd
00000180: a49e 6abe 40f8 713e 521c ce3d d3e9 1ebe
00000190: 8238 a43d aef8 ca3d c253 fa3a 2ccf 18be
000001a0: f615 6c3c 50bf 28be 6d02 343d 90d1 703d
000001b0: f454 a2bd 40c7 9abc 2b28 483e 51c3 e53d
000001c0: f0d0 1abe a6eb 57be f5ac f83d ea2a a83d
000001d0: 5ff1 12be b707 00be 9c16 523d 5cf1 0d3e
000001e0: 2612 bcbd b267 b2bc 29e6 6d3d 7321 2abe
000001f0: 6d5f 933d 03b4 20be 6276 edba b438 71bc
00000200: 9f05 2f3d 9fe9 5cbe 0293 a73d 5b75 51be
00000210: 88ec 74bd b26c e7bd 4182 f03d 294d 6d3d
00000220: d5a1 ca3b 30df 523e d7b1 073e 38c4 2f3e
00000230: 355c 0abe 3335 153e efc7 393e 100b ec3d
00000240: 6b40 ddbd 7e85 21be 1c56 f3bd 6c59 303e
00000250: 755d fb3a fea3 8dbd 3603 dbba 05a9 213e
00000260: bc2d 823d d9a2 21bd d2f4 0b3d 36c2 0bbe
00000270: efdb d83d 0e5a 3e3e 1436 15bd 6700 13be
00000280: 77ab a2be 18c4 a5be 8915 80be cfea 8fbc
00000290: 1579 eb3c 437c 633c fa09 83bd b680 523d
000002a0: 13ef 113d e386 a0bd a532 ddbd 51ce d73d
000002b0: d028 96bd 7a65 873e 94e0 9bbd 0aff 6cbe
000002c0: e3f3 613d 9e9f 833c 4112 ac3d a94a 593e
000002d0: fc3f 003e fe00 3dbd 22f5 26bd dd16 15bc
000002e0: 3d55 15be bae6 0c3e eaad cebd fc31 a4bc
000002f0: 329c 253e 9ae3 cc3d 61ad c23b 421a a43d
00000300: 2aad 0d3d e58a 77bd 9924 babc a122 5f3e
00000310: 3a5a b73c 935c 263e 3ec0 fabc cd3a 9c3d
00000320: 7a97 d3bc d9ce 7f3e 7f91 edbd 1e0a 8e3e
00000330: 9dce 00be 0d41 8b3e 89bd e1be 6ce3 87bd
00000340: e10d b5bd 2f0d 803c f649 47be 31ac 173e
00000350: db0c 183e faf0 e2bc cd15 923d 9207 99be
00000360: 2fa5 aabd e395 0a3e 695d 04be d17f 283d
00000370: dc22 203e 7d4b 473e 1027 43bc b3c5 cb3d
00000380: 654e 97be bea8 e2bb dc74 d9bd 59ef a83d
00000390: 6cd5 89be 993f b03d 8f68 c3bd 525a 9c3c
000003a0: 282b ab3d 4e61 6e3e 7dc6 f63d 68ee 1bbe
000003b0: d30f 0fbe 72ce 26bd 5535 153e fd1b 163d
000003c0: 0834 cfbd 5938 823d dcf0 6bbe 52d2 03be
000003d0: e342 b6bd d0bc 2ebe f675 27be 6201 7ebc
000003e0: 887f 95bd f760 0d3e 9d04 1d3e 7934 ccbe
000003f0: fcd1 0cbe f7da f93b e7d1 e9bd 0afa a73d
0.16286059 -0.03228719 0.038005784 -0.09796607 0.13970882 -0.076337755 -0.06637943 0.016920334
-0.10959313 0.1420974 -0.21876453 -0.0676062 -0.21464334 0.05212196 -0.2616275 -0.11146514
-0.0011419428 -0.047463525 -0.20250693 0.003952455 0.00016857151 -0.22427239 0.12663415 0.07836767
0.114821255 -0.11166714 -0.13915916 -0.15086342 -0.087884314 -0.09541862 -0.25680134 0.11693371
-0.02463285 -0.091427095 0.14132248 0.2928783 0.09563029 -0.032404028 -0.24677049 0.1144624
0.06935181 0.042177998 0.10860172 0.20631017 -0.14606921 0.2872762 -0.15215898 0.07461601
0.13996506 0.1077846 -0.00930831 0.05675132 0.21384749 -0.25853327 -0.08926018 -0.19294423
0.0777847 0.13171774 -0.06391485 0.05272839 0.13515893 -0.044842295 -0.10124213 0.033020947
0.03079798 -0.29334906 -0.11932374 0.12674157 -0.111276634 0.2799227 0.12081902 0.16295162
0.17451729 0.1456908 -0.07862651 0.21279857 0.021784404 0.06399826 0.039843537 -0.07713706
-0.061722916 0.071806304 -0.06412016 -0.026596291 -0.13681106 -0.0049535357 -0.09261725 -0.21591103
-0.09140008 0.19453545 0.1302426 -0.09236068 0.2577835 0.0025975746 -0.015457212 -0.048434667
-0.22912079 0.23629856 0.100639954 -0.15518884 0.080185905 0.09910713 0.0019098448 -0.1492278
0.014409533 -0.1647923 0.043947626 0.058793604 -0.0792636 -0.018893838 0.19546573 0.11218894
-0.15118766 -0.21085986 0.12142364 0.0821131 -0.14349888 -0.12502943 0.051291093 0.13861603
-0.09183149 -0.021777961 0.058080826 -0.16614322 0.071959354 -0.15693669 -0.0018116946 -0.014722992
0.04272997 -0.21573494 0.081823364 -0.20454924 -0.059795886 -0.11300029 0.11743594 0.057934914
0.0061838427 0.20592952 0.13251434 0.17164695 -0.13511737 0.14571075 0.18142675 0.115255475
-0.108033024 -0.1577358 -0.118816584 0.17221612 0.0019177633 -0.06916045 -0.0016709331 0.15787132
0.063563794 -0.039461944 0.034169026 -0.13648304 0.10588824 0.1858904 -0.036428526 -0.14355622
-0.31771442 -0.3237617 -0.2501643 -0.01756802 0.02874426 0.013884607 -0.06398387 0.05139228
0.03562839 -0.078382276 -0.10800675 0.105373986 -0.07332003 0.26444608 -0.07611194 -0.23144165
0.05516423 0.016067322 0.08401919 0.21219887 0.12524408 -0.046143524 -0.04076112 -0.009099689
-0.14583297 0.1375989 -0.10091765 -0.020043366 0.16172865 0.10004349 0.0059410785 0.08012821
0.03458897 -0.060435195 -0.02272253 0.21790554 0.02238189 0.16246252 -0.030609246 0.07628403
-0.025829066 0.2498125 -0.11600017 0.27742094 -0.12578817 0.27198067 -0.44089916 -0.06635174
-0.08840538 0.015631286 -0.19461808 0.1481178 0.14848654 -0.027702797 0.071330644 -0.29888588
-0.083322875 0.1353374 -0.12926258 0.04113752 0.15638298 0.1946239 -0.011911169 0.099498175
-0.29551998 -0.0069170883 -0.10617992 0.08248777 -0.2692064 0.0860588 -0.09541427 0.019086037
0.08357841 0.23279306 0.120495774 -0.15227664 -0.1397088 -0.040724225 0.14571126 0.036647785
-0.10117346 0.06358404 -0.230411 -0.128732 -0.088994764 -0.17064214 -0.16353592 -0.015503259
-0.07299715 0.1380652 0.15333791 -0.39883783 -0.13751978 0.0076249796 -0.11416989 0.08201988

gru.bias_ih_l0 f4 [96]
00000000: e749 213c c72e 543e a9d1 7a3c 80d6 da3d
00000010: 9593 c33d 04d0 cc3c 61d0 093d 9dca 763d
00000020: 535a 84bd 94af a6bc 0929 8f3d ddbd b5bd
00000030: 5741 f83d 6b5d cdbd 25af dd3d a772 e73c
00000040: 77be 633e b51e e3bb ce39 f73d 6a60 8cbd
00000050: 42f6 213e 8ff6 f13c 35b0 c63d b62e 1abe
00000060: a0ce 313d d065 f83d 7704 cfbc fb79 e43d
00000070: 0fc9 85bd 47aa 163e b57b 783e b24b 843e
00000080: 49ce 41be acf5 90be 178f 09be 2154 c0bb
00000090: 373c acbd d410 84be 9839 bebe d364 84bd
000000a0: 3525 483d ec11 86bc 8ef0 85be 1c27 29bd
000000b0: f8c7 0abe fe5c b2bd 5149 c1bd 8275 a63d
000000c0: c0d7 57be 6ef6 15be cb1d 86be bba6 84bd
000000d0: c1a5 a2be e2f5 ccbd 6618 f7bc b449 23bd
000000e0: f3c8 efbc 778e 213c f14e 96bc 11dc f33c
000000f0: 3c09 e3bd c5a2 2ebd 1bb7 193c a39b 96be
00000100: 00b5 31be 283e 8bbd f67f 1cbe e87b 113d
00000110: 5af3 6bbe 5929 7bbc 31f7 f43d f708 003e
00000120: f543 15bc 4a76 1cbc 1f2c f13d 16c0 fe3d
00000130: 20b1 103e d94b 1dbe 7541 13bd 5e81 023e
00000140: 4dba 16be 6a74 06bc 48d0 1cbc 032a 0bbe
00000150: bac7 d5bd 8ee9 863d 80c5 f0bd 5a58 d6bd
00000160: c072 09be eeb0 7c3d c977 e93b 9ab0 0abd
00000170: 2239 673d 40ca 403d d19b f2bd bd5f 71bd
0.00984428 0.20720969 0.015308776 0.10685444 0.095496334 0.025001533 0.03364599 0.06025182
-0.064625405 -0.020347394 0.06990249 -0.08874104 0.121218376 -0.10027584 0.10824422 0.028252913
0.22240625 -0.006931151 0.12071572 -0.06854327 0.15816596 0.029536514 0.097015776 -0.15056881
0.043409944 0.12128794 -0.025270684 0.111560784 -0.065324895 0.14713393 0.2426594 0.25839
-0.18926348 -0.28312433 -0.1343349 -0.005869404 -0.084099226 -0.2579409 -0.37153316 -0.06464543
0.04886361 -0.016365968 -0.2616009 -0.041297063 -0.13552845 -0.08709143 -0.09437812 0.081278816
-0.21078396 -0.14644787 -0.26194605 -0.06477114 -0.31767085 -0.10007836 -0.030163001 -0.03986521
-0.029270625 0.009860626 -0.01834819 0.029768022 -0.11085746 -0.042635698 0.009382035 -0.29415616
-0.17354202 -0.06798965 -0.15283188 0.035518557 -0.2304205 -0.015329682 0.119612105 0.1250342
-0.0091104405 -0.009549687 0.117759936 0.12438981 0.14130068 -0.15360965 -0.035951097 0.12744662
-0.14719506 -0.008206466 -0.0095711425 -0.13590245 -0.104384854 0.06587516 -0.1175642 -0.104660705
-0.1342268 0.06169217 0.007124875 -0.033859827 0.05645097 0.04706788 -0.11846126 -0.058929194

gru.bias_hh_l0 f4 [96]
00000000: ccaf 013e 17ce a63c 3077 633e 1bb0 c2bd
00000010: 259b 88bc 2a50 983e a7be 473d cb45 da3d
00000020: b3de 253e 27a9 0a3e 59bb 783d 0f81 233d
00000030: 7fc7 0b3e 8530 cdbc 4bd1 8b3e 8f68 033d
00000040: 3c64 4d3e 49d7 663e 7c67 ce3c 1f5b 033e
00000050: b6e4 c0bd 5ac0 d03d 2b0c b23c a55d 0dbe
00000060: 87a6 07bd 9176 e7bd 3eed 573e e70a 263d
00000070: b9ab 6e3c 1581 313e 8d3b 8e3e a4f6 763e
00000080: d794 0fbd 2f44 a9be 82bd e83d d006 3fbe
00000090: a0e8 13be 7060 49be 3662 a6be 2f5d a53d
000000a0: b79b 633d 81ac 6abe e8e2 30bd 6a35 7dbe
000000b0: 51f2 8ebd a417 2bbd a8ef 2cbe 2439 6bbe
000000c0: cd61 cbbe c582 91be ede1 96be fa00 09be
000000d0: 3b8d 26be 5eda a1bd 3286 5e3b 5e2a 3dbe
000000e0: 341c 37be 6d74 e7bc 1236 03bd d3db 74be
000000f0: 1861 01bd 5687 3dbe 2ccb 40be aba9 84be
00000100: e58a bdbd 28f5 49be 6660 f53b 7108 ac3d
00000110: dbdd a2bd cc57 613e 38dc 983c 0f0c a53b
00000120: 6b4d 4a3d 4482 703d 0ad6 14be 1a93 563d
00000130: fb33 91bd 37f2 15bc 125f c83d c8c1 5bbe
00000140: 5a3d a23d 6831 c4bd 11e4 253e 18d4 44be
00000150: 7627 4b3e 6004 d0bd 0bbc c9bd 6d59 90bc
00000160: 3001 53bd 1cc8 db3c da7b 0ebe 23f1 033e
00000170: 5122 ba3d 76e6 293e 92f7 5b3d 415d 4b3d
0.12664717 0.020361943 0.22213435 -0.09506246 -0.016675541 0.2974866 0.048765805 0.10657843
0.16198234 0.13541089 0.060725544 0.039918 0.1365032 -0.02504755 0.27308115 0.032082137
0.20057768 0.22543062 0.02519583 0.12827729 -0.09418623 0.10192938 0.021734318 -0.13805254
-0.033117797 -0.113019116 0.21086594 0.04053774 0.014567309 0.17334397 0.2777981 0.24117523
-0.035054054 -0.33059832 0.11364271 -0.18654943 -0.14444208 -0.19665694 -0.32496804 0.08074414
0.055568423 -0.22917368 -0.043185145 -0.24727407 -0.06979812 -0.041770592 -0.16888297 -0.22971016
-0.39723054 -0.28420082 -0.29469243 -0.13379279 -0.16264813 -0.07902978 0.0033954498 -0.18473193
-0.17881852 -0.028253758 -0.032033987 -0.23911981 -0.031586736 -0.18508658 -0.18827504 -0.25910696
-0.09255008 -0.19722426 0.007488298 0.084000476 -0.07952472 0.22006148 0.018659696 0.005036838
0.049390238 0.05871798 -0.14534774 0.05238638 -0.070899926 -0.009151987 0.09783758 -0.2146064
0.07921858 -0.09579736 0.16200282 -0.19221532 0.19839272 -0.101570845 -0.098503195 -0.017620767
-0.051514804 0.026828818 -0.13914433 0.12884955 0.090885766 0.1659182 0.0537029 0.04964948

fc3.weight f4 [32, 32]
00000000: 3883 fabd df9d 10bc 221a e2bc 4746 853e
00000010: 1338 dabe 7ff2 403e 944c 4b3f 08b7 3dbe
00000020: fa00 0a3e 0306 d83e 003c a43e d4f6 b0be
00000030: 6b19 0b3f 3c6d 0bbf 1a52 213f 9b27 7b3e
00000040: 288a 213b be8b c5be 2426 643d 34f4 763e
00000050: 68a1 2ebf 2a40 cd3e 8da5 e33d 5492 3fbe
00000060: 937e 84bd fbfe 29be 34a1 7dbd 7fab f2be
00000070: ef13 133d 8765 18be ffb4 1b3e 3429 d93e
00000080: f5be 30be c7cb 93be 03d6 1a3c f0ab f1bd
00000090: b532 633d 1964 81be ccc2 cc3e 556d 0a3e
000000a0: 6995 843d d9f9 90be 9fdb cebe 5ab9 c6be
000000b0: 9781 833b 21d9 b9bc bad3 3cbe 5a73 c33e
000000c0: ef90 703e 7056 023f 87b2 2b3e 7136 143e
000000d0: b926 883e 1e00 5b3e fa7e e9bd 90d4 a23e
000000e0: b103 d7bd 2f4b c3be 7fe7 d23c 22e1 8d3e
000000f0: bbc9 3abe f397 a63e fe96 aabe 20a9 083f
00000100: 5df3 96be 9f7e f9be c20f e7be b69b 14be
00000110: 0cf6 90bd 3079 6fbd a6bc 43bf 9794 3cbd
00000120: 6a5a e43c 3205 4dbd 2515 a83e a97f 173f
00000130: 09eb 2b3d 186a 2f3f 5bc9 773e dc1f 323e
00000140: f84e d2be 1a3c 88be 5f84 8d3e 6626 cb3e
00000150: b1ec 6d3e 7025 c43d f303 26bf f253 c33c
00000160: 9a45 8f3e ab8d e5bd 49e1 c63d e1e4 923e
00000170: 3eaa 053e da94 c3be afd9 2cbe 5cef 04be
00000180: c906 92be bc09 94bd 6935 c73e 1ec5 913e
00000190: 0f3a 92be 280b ec3e 1277 ebbe f64e e5bd
000001a0: dc93 e73e 2d99 083e 043e 4ebe d400 32be
000001b0: 8e30 48be e55d adbd 5a58 39bd 0c44 1d3e
000001c0: 32c1 863e dda4 9e3e 2e53 823e c10f cfbe
000001d0: 3731 053e 66f5 fcbd ba43 bbbd 48fd 92be
000001e0: baf1 0d3e 163c c83d c5a1 a3bd 0dbb 513e
000001f0: 4c77 fe3e 46cf 28be 1402 bb3d b4c7 c1be
00000200: a5da cabd ca35 e03e 2859 933e 4456 203d
00000210: d34a c13e 21df c23d afa8 7fbe 23c1 c63e
00000220: dbc7 b1bc 1fb4 d3bd af1e 07be e47a 993c
00000230: 8c3e 893e 1104 243e 9d2b d3be 8e82 ae3e
00000240: 22b1 da3e 049d 033f a308 c6be d274 56be
00000250: 780a 0bbe ccaf e23e 465d 1c3e 5aa3 253d
00000260: 6792 cc3e b030 98be 1d6e b83e f1f5 c53e
00000270: ac2a 5b3e 6b82 333e 44ff acbc 59ac 993e
00000280: 4ba9 b33c cfcd cf3d 76c5 0ebf 2352 85be
00000290: badd 95bd 7477 00be 56b5 ccbe 19a8 943e
000002a0: 181a 23be f2e5 ba3e d90a 42be 7b30 703d
000002b0: f5b4 2e3e 8d62 e3be 8eb5 cdbe 0cbc dfbe
000002c0: b40e 353e 998f 8b3e 6b3c 99bd 2741 bbbe
000002d0: a9f6 833c 4f9d a73e 6f70 d4bd 1762 f3be
000002e0: b9f2 aebe 9bfc 0e3f c4c1 c7bd e0b2 173f
000002f0: b062 943e 5893 d43d 9da6 bb3e a09a 983e
00000300: dcbd 84be 3634 233e c830 d8be 8fbc 913e
00000310: e565 7c3e 26f3 bc3e 917e 22be 8c44 f5be
00000320: f132 96be 4034 cb3e de28 3abd 48e9 c73d
00000330: 51a4 dfbd f674 11bd cd3c c03d b40e a7bd
00000340: 14ef aabe d144 543e 8268 a5be 01a3 9fbe
00000350: d221 8f3e 7bda 5f3e 7ab8 05be 7c2e eebe
00000360: 6684 49be 8ba8 8abe 8544 083f 665b e8be
00000370: 8f20 f4be 1a79 f03e 6f25 f3be 0f5e f3bd
00000380: fd2d 9cbe c459 20be bf4a 27be 10b3 f33e
00000390: 2631 1fbd 73ad be3d 44e3 0dbf 95a6 44be
000003a0: 1de9 ca3e fb73 753e e5ea 41be aa3a af3e
000003b0: c6e3 2bbe 6331 053f d219 acbe 823b 7e3e
000003c0: 213a 933e 7b27 0ebf 14e8 a8be 6584 e4be
000003d0: 541c 153e 8488 ebbe e9bb eabe 7150 a8be
000003e0: 8fa3 7f3e 1704 c03e 221b 3f3d 27ce 853c
000003f0: efb8 473e b5d6 943c f2a5 d5be 1e05 5d3e
-0.12232059 -0.008826702 -0.027600352 0.2603018 -0.42620906 0.18842505 0.79413724 -0.18526852
0.13476935 0.42192087 0.32077026 -0.34563315 0.5433566 -0.54463553 0.630159 0.24526827
0.0024648998 -0.38583177 0.055700436 0.24116594 -0.68215036 0.40088016 0.11115561 -0.18708163
-0.064694546 -0.16601174 -0.061921313 -0.47396466 0.035907682 -0.1488248 0.15205763 0.42414248
-0.17260344 -0.28866407 0.009450438 -0.118003726 0.05546828 -0.2527168 0.39992368 0.1351827
0.0647381 -0.2831562 -0.40401933 -0.38813287 0.004013251 -0.022686543 -0.18440142 0.38173944
0.23492788 0.50913143 0.16767322 0.14473893 0.26592043 0.21386763 -0.11401172 0.31802797
-0.10498751 -0.38143298 0.025745152 0.27710825 -0.18241017 0.32537803 -0.33318323 0.53383064
-0.29482546 -0.48729417 -0.4512921 -0.14512524 -0.0707818 -0.058465183 -0.7645973 -0.046040144
0.027875144 -0.050053783 0.32828632 0.5917917 0.041972194 0.6852126 0.24197905 0.17394966
-0.41075873 -0.26608354 0.27640054 0.39677733 0.23234822 0.09577453 -0.64849776 0.02384374
0.2798279 -0.11208662 0.097109385 0.28690246 0.13053223 -0.38199502 -0.16879915 -0.12981933
-0.28520802 -0.07228419 0.38907936 0.284707 -0.2855992 0.46102262 -0.4598928 -0.11196701
0.45229995 0.13339682 -0.20140845 -0.17383128 -0.19549772 -0.084651746 -0.045250274 0.15357989
0.2631927 0.30985156 0.25454086 -0.40441707 0.13007055 -0.123514935 -0.09143777 -0.28708863
0.13861743 0.097770855 -0.079898395 0.2048151 0.4970039 -0.16485319 0.09131256 -0.37847674
-0.099049844 0.43791038 0.28778958 0.03914477 0.377524 0.09515215 -0.24966691 0.38819227
-0.021701744 -0.1033709 -0.13195299 0.018735357 0.26805532 0.16017176 -0.41244212 0.3408398
0.42713267 0.5141146 -0.38678464 -0.20943001 -0.13578212 0.44274747 0.15269956 0.040438987
0.39955446 -0.29724646 0.3602151 0.386642 0.21402997 0.1753022 -0.021117814 0.30014303
0.021931311 0.10146677 -0.5577005 -0.26039228 -0.073176816 -0.12545568 -0.39982098 0.29034498
-0.15927923 0.3650356 -0.1894945 0.058639985 0.17061217 -0.44411126 -0.40177578 -0.43698156
0.1768139 0.27257994 -0.07482227 -0.36573145 0.016108828 0.32737204 -0.103730075 -0.47535774
-0.34169558 0.55854195 -0.09753755 0.59257317 0.28981543 0.10379666 0.36650553 0.2980547
-0.259261 0.15937886 -0.42224717 0.2846417 0.24648245 0.36904258 -0.15868594 -0.4790386
-0.2933574 0.396883 -0.04544913 0.09761292 -0.10920013 -0.035511933 0.09386597 -0.08157101
-0.33385527 0.20729376 -0.32306296 -0.3117905 0.2795549 0.21860687 -0.13058653 -0.4651984
-0.19679412 -0.27081713 0.5322955 -0.4538223 -0.4768109 0.46967393 -0.47489497 -0.11883175
-0.30503836 -0.15659243 -0.16337107 0.4759755 -0.03886523 0.093104266 -0.55424905 -0.19204171
0.39630976 0.23970024 -0.18937261 0.34224445 -0.16786107 0.52028483 -0.3361345 0.24827388
0.28755286 -0.5552899 -0.32989562 -0.4463226 0.14561588 -0.4600259 -0.4584649 -0.32873872
0.24964736 0.3750312 0.046656735 0.016333653 0.1950414 0.018168787 -0.4172817 0.21583983

fc3.bias f4 [32]
00000000: 9b24 583d a786 d4bc 91a7 403e 7588 823d
00000010: c76e 49bd 581b bc3d 272f bb3d a315 923d
00000020: 8ab0 7c3d 9951 293e dec3 083e b600 fa3c
00000030: 6999 c83c 2433 093d f341 a9bd 143a 463d
00000040: 6d11 fc3d 1444 bc3d 5adc cc3d cbb1 0a3c
00000050: b553 ee3d 9305 983d 34cf 20bd b268 943d
00000060: 03bd e23c c045 183e 4f07 493c 3579 f43c
00000070: 3bbb 0e3d 42f9 773d 66ad 8c3d 048d a23d
0.052769285 -0.025943113 0.18813922 0.06373683 -0.04917791 0.09184903 0.09139853 0.07133033
0.0616918 0.16535033 0.13355967 0.030517917 0.024487214 0.033496037 -0.08264532 0.04839523
0.12308011 0.09192672 0.10002966 0.008465241 0.116370596 0.07422938 -0.039260104 0.072465315
0.027678018 0.14870358 0.012269809 0.029842952 0.034846526 0.060540445 0.068690106 0.07937053

fc4.weight f4 [5, 32]
00000000: 2c1e 813d 93c0 85be d53a b63e 03da de3e
00000010: 42b4 8fbe 3ab8 723d 2afd 88be f487 983e
00000020: 3caa 8bbe 45cd 28bc 78c5 023f c38a 6abe
00000030: f44d e0be 8d39 98be 4c83 13be fb4e 56be
00000040: 0f7b 073f 7bdb c23e 0e0a ef3e 67dd 233d
00000050: 8d2c 2ebf 419b 8f3e 4df3 9cbe 4b5b b33d
00000060: 86fd 893e 8e7f f93e 9215 8f3d 694a 94bc
00000070: 0195 16bf b6a0 debd d256 5dbe e8c8 623e
00000080: b7ce 0b3f f2c2 933e 1d91 14be 16d0 98be
00000090: eef0 bbbd 0314 17bf abac 083e dbbd 78be
000000a0: f8c4 ae3d 9f62 d23e 7af2 3c3e 9333 07bf
000000b0: 6471 f2be 9a5b 1d3e 215f edbe 92c7 1dbe
000000c0: 5523 463e f7db 8abe 7b19 033e 2e4e 6b3e
000000d0: dd8f 1e3f 497d 87bc c2cc 13be 19eb ef3e
000000e0: 9a89 acbe b6f7 08bd 582a cc3e 5904 103e
000000f0: e436 3c3e 8d6f c4bd 10a6 0bbf f4b7 11bd
00000100: 91f3 903e 7b68 a23e 86ef 48bf f8f0 be3d
00000110: 8e2d eb3e 75af 813e 119d d6bc 00b1 553e
00000120: 570e c33e 5754 21bf bf7b 03bc c106 063e
00000130: 3001 c1be 6eb9 cbbd 5941 b43e 5c5b 0abe
00000140: f13c 183e 3bee 38be 6e55 05be 4c96 a43e
00000150: 4072 50bd ce5c 833e 5ca2 b5bd 34b5 e7bd
00000160: 4f94 e93e 86bd 9b3e 8eb6 df3d e17e 0bbf
00000170: 5e94 3f3e fa56 0cbf 4417 cabe 6182 75bc
00000180: e3bf 293e 6558 653e 27eb b13d 88a6 19be
00000190: 8ccf b13d 064c be3d 8b87 5cbe c00f 773e
000001a0: 77d8 ec3e 6746 dfbd 8367 c1bd 68f0 933d
000001b0: 2a32 c2be 6d7b febe 39f5 d6be ae04 07be
000001c0: 0bfa acbd 3d25 a5be df7a 503e 9840 0abe
000001d0: cbed 17bd ea92 a6be 805f ef3e 4451 84be
000001e0: b285 82bd b9d7 ddbe d5a5 343d aef1 7d3e
000001f0: 21dc 83be 9741 253e 2e07 39bd 554a 9ebe
00000200: 70ef bdbd 7708 8d3e d577 ed3d 08c3 8fbe
00000210: b990 7f3e 9b17 36bd 00b4 bf3e d572 023f
00000220: 9d3a 8abe db1c 553d 441d b8be 5688 fb3d
00000230: c9f2 bf3e a750 ccbe fb16 20be 8a9b df3e
00000240: 8e22 e9be 1975 a43d 4fb7 7fbe de55 1dbe
00000250: 3dda e9be ae31 f5bd 0f85 8bbe 41da f7bc
00000260: a738 09bd 6dfb 02be 10e3 d7be 7af7 65be
00000270: 4930 5cbe 0a3c 293f ecee 623e d90e e23e
0.06304583 -0.26123485 0.3559176 0.43525705 -0.28067213 0.059257723 -0.2675565 0.29791224
-0.27278316 -0.010302846 0.51082563 -0.22904496 -0.43809474 -0.29731408 -0.14405555 -0.20928566
0.5292215 0.38058075 0.4668736 0.040006068 -0.6803673 0.28048137 -0.30654374 0.08757647
0.26951236 0.4873013 0.06986536 -0.018101888 -0.5882111 -0.10870497 -0.2161515 0.22146952
0.54612297 0.2885967 -0.14508481 -0.29846257 -0.09176813 -0.5901491 0.13347118 -0.24291174
0.085336626 0.41090867 0.18451872 -0.5281307 -0.47352135 0.15366974 -0.4636164 -0.15408161
0.19349416 -0.27120945 0.12802689 0.22979042 0.6193827 -0.016539233 -0.14433578 0.46859053
-0.33698732 -0.03343936 0.39876056 0.14064158 0.18380314 -0.09591589 -0.54550266 -0.035575822
0.28310826 0.31720337 -0.78490484 0.09323305 0.45933193 0.25329176 -0.026197942 0.20868301
0.38096878 -0.6301932 -0.008025109 0.13088514 -0.37696218 -0.09947477 0.35206106 -0.13511413
0.14866997 -0.18059628 -0.1302087 0.32145917 -0.050890207 0.25656742 -0.08868858 -0.11313859
0.45620963 0.30418032 0.109234914 -0.54490477 0.18708941 -0.54820216 -0.39470875 -0.014984698
0.16577105 0.22397001 0.0868743 -0.15004933 0.086821645 0.09291844 -0.2153608 0.24127102
0.462589 -0.109021 -0.094435714 0.07223588 -0.37928897 -0.4970354 -0.41983965 -0.13185379
-0.084461294 -0.32254973 0.20359372 -0.13501203 -0.03709201 -0.32533962 0.46752548 -0.2584325
-0.063731566 -0.43328646 0.044103462 0.24799225 -0.25753883 0.16138302 -0.045172863 -0.30916086
-0.09274185 0.2754552 0.11595122 -0.28078485 0.24957551 -0.044456106 0.37442017 0.5095647
-0.26997843 0.05202947 -0.35959828 0.122818634 0.37489918 -0.39905283 -0.15633766 0.43673354
-0.45534176 0.08030147 -0.2497227 -0.15364787 -0.45674315 -0.11972366 -0.27249953 -0.030255439
-0.033501294 -0.12791224 -0.42165422 -0.22457686 -0.21502794 0.6610724 0.22161454 0.44151953

fc4.bias f4 [5]
00000000: 2b7d c43d 8166 493d 94c6 48bd 7872 18be
00000010: b7d3 133d
0.095941864 0.04917002 -0.049017504 -0.14887416 0.03609058
