visualization/policy_nns/OSD_T/40/agent_state_dict2.pt (torch, 38593 bytes, 12 tensors)

fc1.weight f4 [32, 5]
0	0x3deeffb8	0.11669868
1	0x3f2d4370	0.67681026
2	0x3f120d9f	0.57052034
3	0x3f1489e3	0.580229
4	0x3ebf0e04	0.3731538
5	0xbe7d1d2f	-0.24718164
6	0xbde8b5a7	-0.113627724
7	0xbe8bad4c	-0.27280653
8	0xbec08954	-0.37604773
9	0x3f1359c6	0.5755886
10	0xbef64ad4	-0.48103964
11	0x3e05420e	0.13013479
12	0x3ef36daa	0.47544605
13	0x3de33b6d	0.11095319
14	0xbda0af8c	-0.07845983
15	0x3f167a14	0.58780026
16	0xbb9e03fd	-0.004822253
17	0xbe81e28b	-0.2536815
18	0xbe1cead5	-0.15323956
19	0x3e5d5648	0.21614945
20	0xbea62af4	-0.32454646
21	0xbb2d1194	-0.0026408182
22	0x3e7419e8	0.23838007
23	0xbebead7e	-0.3724174
24	0xbf145a8e	-0.57950675
25	0xbeb2d17b	-0.34925446
26	0x3e465621	0.19368793
27	0x3f034098	0.5127044
28	0x3f377229	0.7165857
29	0xbe6407e2	-0.22268632
30	0xbf07b69a	-0.53013
31	0xbe9326bb	-0.28740487
32	0xbee67fe3	-0.45019445
33	0xbde12604	-0.10993579
34	0x3efbdff9	0.49194315
35	0xbeae11bf	-0.33997914
36	0xbf2a5e19	-0.6654983
37	0x3e073330	0.1320312
38	0x3ee3af46	0.4446966
39	0xbf2b1795	-0.6683286
40	0x3e3382e3	0.17530398
41	0xbedeb045	-0.43493858
42	0x3f0b56a6	0.5442909
43	0xbeea6e5e	-0.45787328
44	0x3f0a57f8	0.5404048
45	0x3f24900f	0.64282316
46	0xbe997f00	-0.29979706
47	0xbebca5a8	-0.36845136
48	0x3d1bf9e4	0.03808011
49	0xbdb56b19	-0.08858318
50	0x3e49fcbf	0.19725321
51	0xbe518040	-0.2045908
52	0x3effd0be	0.49963945
53	0x3e88d3a3	0.26723966
54	0xbedbaf25	-0.42907062
55	0xbe38ec76	-0.18058953
56	0x3e2ce577	0.16884409
57	0x3c38c0c9	0.011276432
58	0xbed47f51	-0.41503385
59	0x3f0b5725	0.54429847
60	0x3e40a976	0.18814644
61	0xbf0622c3	-0.5239679
62	0x3ea5a890	0.32355165
63	0xbc2a9761	-0.010412068
64	0x3dc6a404	0.09699252
65	0x3f46494c	0.7745559
66	0xbdf4318d	-0.119235136
67	0x3a3bdc1d	0.00071662833
68	0x3ebb4c2f	0.3658156
69	0x3e353d2b	0.17699115
70	0x3ea51bda	0.32247812
71	0x3d3bd1e9	0.045854483
72	0x3ef664fe	0.48123926
73	0x3f3c896f	0.7364721
74	0xbed68de6	-0.41905135
75	0xbea35026	-0.31897086
76	0xbe3a8d76	-0.18218026
77	0xbec383f3	-0.38186607
78	0xbef0b467	-0.47012636
79	0x3f14ea81	0.58170325
80	0xbf1dca51	-0.61636835
81	0x3e7759b4	0.24155313
82	0x3e8750e5	0.26428905
83	0xbea87ccd	-0.32907715
84	0xbd704f14	-0.058669165
85	0xbf1c58cc	-0.61072993
86	0x3e7be3e8	0.24598658
87	0x3eadbf68	0.33935094
88	0xbe8753b8	-0.2643106
89	0xbea1f258	-0.31630206
90	0xbee3a49c	-0.44461524
91	0x3f214db3	0.63009185
92	0xbed76731	-0.42070916
93	0x3e485a90	0.19565797
94	0xbeb9b850	-0.36273432
95	0xbd0961a0	-0.033540368
96	0x3e531793	0.20614462
97	0xbe9e1c4c	-0.30880964
98	0xbef2b9dd	-0.47407427
99	0xbf22261f	-0.6333942
100	0xbed7b397	-0.42129204
101	0xbde0003d	-0.109375454
102	0x3f033e64	0.51267076
103	0xbebcb41a	-0.36856157
104	0x3c5b559f	0.013387113
105	0x3e95ec6f	0.29281947
106	0xbf0d6d12	-0.55244553
107	0x3e5ded9e	0.21672675
108	0x3e5e2314	0.21693069
109	0x3e5ae07c	0.21374696
110	0x3f157e7f	0.5839614
111	0x3f08fe86	0.5351337
112	0x3e1ffc48	0.15623581
113	0x3cfee55c	0.031115226
114	0xbd6f1623	-0.05837072
115	0x3e500785	0.20315368
116	0x3dcad69e	0.09904216
117	0x3ee2bba8	0.44283795
118	0x3ef8664d	0.4851555
119	0xbd5b41f3	-0.05352969
120	0x3f053180	0.52028656
121	0x3f0c4e1f	0.54806703
122	0x3f03b324	0.5144522
123	0xbda7f2ed	-0.08200631
124	0x3f00086b	0.50012845
125	0xbb88cccc	-0.0041748043
126	0x3ed2bfbc	0.41161907
127	0xbe8c6018	-0.27417064
128	0xbd322126	-0.043488644
129	0x3da8d6e4	0.08244112
130	0x3f005dde	0.5014323
131	0xbc1972f8	-0.00936579
132	0xbcb47277	-0.022027237
133	0x3f3fb189	0.7488027
134	0x3d92f852	0.071762696
135	0xbeb8255d	-0.35966006
136	0xbf0c0a4d	-0.5470322
137	0xbeab534c	-0.33461988
138	0x3eb28269	0.3486512
139	0x3f14d9cb	0.58144826
140	0x3ee14b51	0.44002774
141	0x3efb72cf	0.4911103
142	0xbe4560ec	-0.19275254
143	0xbf3e55b6	-0.74349535
144	0xbf07386a	-0.52820456
145	0x3f1cb0d2	0.61207306
146	0x3ec31d26	0.38108176
147	0x3e94580d	0.28973427
148	0xbf0e1d52	-0.5551349
149	0x3f23f9c6	0.64053
150	0x3e4909c0	0.19632626
151	0x3e7d8ac6	0.24759969
152	0x3f1e8ec1	0.61936575
153	0xbf59876b	-0.84972256
154	0x3eab2a1a	0.33430558
155	0xbe993e34	-0.2993027
156	0x3ece35dd	0.4027547
157	0x3e8c01ef	0.27345225
158	0xbf0f7e27	-0.5605187
159	0xbec43a22	-0.38325602

fc1.bias f4 [32]
0	0xbda83dfa	-0.08214946
1	0x3dfad14a	0.1224695
2	0xbcd107ed	-0.025516475
3	0xbdd7a257	-0.10529011
4	0x3c4cfe1c	0.012511756
5	0x3cb4b7f0	0.022060364
6	0x3e18b5a9	0.14913048
7	0x3e37a0aa	0.17932382
8	0xbe0a86c4	-0.13527972
9	0x3c1c3121	0.009533198
10	0x3e6106c1	0.21975233
11	0x3e05e085	0.13073929
12	0xbddda9f5	-0.10823432
13	0x3dd6bcf1	0.104852565
14	0x3da4ff45	0.08056501
15	0x3e5a4e59	0.2131895
16	0x3bf04173	0.007332021
17	0x3ca8071c	0.020511203
18	0xbc1780bf	-0.009247004
19	0x3ea0440a	0.3130191
20	0x3e3a90f3	0.18219356
21	0x3cb8b851	0.022548826
22	0x3d03d141	0.032181982
23	0xbd750d7d	-0.059827317
24	0xbcfa7873	-0.030575013
25	0xbc2600f8	-0.010132067
26	0x3c7abab1	0.0153033
27	0x3d553028	0.05204788
28	0x3e6149d8	0.22000825
29	0xbd203144	-0.039109483
30	0x3cc87fe5	0.024475047
31	0x3daf06bb	0.085462056

fc2.weight f4 [32, 32]
0	0x3ebc08e4	0.36725533
1	0xbebb0306	-0.36525744
2	0xbd4baa7c	-0.049723133
3	0x3ea5e3fb	0.32400498
4	0xbc0ce181	-0.008598686
5	0xbec12cac	-0.37729394
6	0xbef9fda2	-0.4882632
7	0x3e0b290e	0.1358988
8	0x3da689ad	0.08131728
9	0x3e80629a	0.25075227
10	0x3e290916	0.16507372
11	0x3eabd88f	0.3356366
12	0x3b9b421a	0.0047381045
13	0x3e2314f8	0.15925968
14	0x3dd4a68e	0.1038333
15	0xbe241694	-0.16024238
16	0xbea341dd	-0.31886187
17	0xbd5819ff	-0.052759167
18	0xbe908b3a	-0.2823122
19	0x3d6fa861	0.058510188
20	0xbe68d572	-0.22737673
21	0x3eca15ec	0.3946985
22	0x3df57857	0.11985844
23	0xbeb8641e	-0.36013883
24	0x3ef69467	0.48160097
25	0x3e493016	0.1964725
26	0x3e81af07	0.25328848
27	0xbecc27c3	-0.39874086
28	0xbee39048	-0.44446015
29	0x3ed8996a	0.42304546
30	0xbd24c9b2	-0.040231414
31	0xbece39e5	-0.40278545
32	0xbe6f993c	-0.23398298
33	0xbe352ad2	-0.17692116
34	0x3d2b1e96	0.041777216
35	0xbe2ba764	-0.16763073
36	0x3eb8ea85	0.36116424
37	0x3e25db1f	0.1619687
38	0xbe91e352	-0.28493744
39	0xbe0493b3	-0.12946968
40	0xbebe85b0	-0.3721137
41	0xbe6da72d	-0.23208304
42	0xbe9e5bae	-0.3092932
43	0xbf00462a	-0.5010706
44	0x3c57b4f9	0.013165706
45	0x3e8fb1f7	0.28065464
46	0x3efff241	0.49989513
47	0xbf2fb83c	-0.68640494
48	0xbe202a5a	-0.15641156
49	0x3de7e3aa	0.1132272
50	0x3edd056d	0.43168202
51	0x3d78e3fb	0.060764294
52	0xbe1f1882	-0.15536693
53	0xbe5b69ef	-0.21427129
54	0x3dac29ee	0.08406435
55	0x3ee11472	0.4396091
56	0x3f0df299	0.554483
57	0xbe2c0170	-0.16797423
58	0x3c94d943	0.018170005
59	0xbe3385c5	-0.17531498
60	0x3eac4a95	0.33650652
61	0x3e6eaf1c	0.23308986
62	0xbe089ec9	-0.13341822
63	0x3e3d8c8f	0.1851065
64	0xbedca57c	-0.43095005
65	0x3eec2209	0.46119717
66	0x3ee5bac4	0.44869053
67	0xbe623892	-0.22091892
68	0x3f0560d6	0.52100885
69	0xbe9273b8	-0.2860391
70	0x3b2fee15	0.0026844789
71	0x3e5476a1	0.20748378
72	0x3ca675c1	0.020319821
73	0x3e0757fd	0.13217159
74	0x3e868797	0.26275322
75	0x3db87938	0.09007496
76	0x3ef04f5e	0.46935552
77	0xba46e27a	-0.0007586848
78	0x3edf2bc8	0.4358809
79	0x3ebc4022	0.3676768
80	0x3eb5d8ca	0.3551696
81	0x3de6b15a	0.11264296
82	0xbe84aa25	-0.2591106
83	0x3ee64d62	0.44980913
84	0x3eceb738	0.4037416
85	0x3bb9dcfd	0.005672096
86	0xbe57e494	-0.2108329
87	0xbe7b311d	-0.24530454
88	0xbeb3c391	-0.35110143
89	0xbdf301b8	-0.11865562
90	0xbe64a877	-0.22329889
91	0x3d17903b	0.037002783
92	0x3c029366	0.007969713
93	0x3ec36cbe	0.381689
94	0x3d51e9c6	0.051248334
95	0xbe7bc292	-0.24585941
96	0xbe287a78	-0.16452968
97	0xbe363586	-0.17793855
98	0x3e591089	0.21197714
99	0xbda8a035	-0.08233682
100	0x3d1a9f79	0.03774974
101	0x3e9ec1b1	0.3100715
102	0xbe480ed4	-0.19536906
103	0xbe950f15	-0.2911307
104	0xbdc5ce65	-0.09658507
105	0x3e19d79a	0.15023652
106	0xbd9c14e8	-0.07621175
107	0x3ebc335d	0.36757937
108	0xbed0df0c	-0.4079517
109	0x3e8165c4	0.25272954
110	0x3ed3f451	0.41397336
111	0xbf0ea82c	-0.5572536
112	0xbee81b4b	-0.45333323
113	0x3e662c57	0.22477852
114	0x3efd0aa1	0.49422172
115	0xbeb89d18	-0.36057353
116	0x3e68b6a5	0.22725923
117	0xbe48e36e	-0.19618008
118	0x3eff77a8	0.49895978
119	0x3d46c513	0.04852779
120	0x3e63a755	0.22231801
121	0x3d79b2f4	0.06096168
122	0xbe8c2fed	-0.27380314
123	0x3b99d543	0.004694612
124	0xbd1a8bd8	-0.03773102
125	0x3ed01405	0.40640274
126	0xbebb84b2	-0.36624676
127	0xbe20bbc2	-0.15696624
128	0x3e5d088d	0.21585293
129	0x3eac2e71	0.33629182
130	0x3bcbfb82	0.0062250504
131	0xbea0d8fc	-0.31415546
132	0xbeabed96	-0.335797
133	0x3d48573e	0.048911326
134	0xbdab3c64	-0.08361128
135	0xbece5ac7	-0.40303633
136	0x3e8bd20d	0.27308694
137	0x3e328308	0.17432797
138	0xbec0c456	-0.37649792
139	0x3e793721	0.24337436
140	0x3ef0046e	0.4687838
141	0x3d2041b5	0.039125163
142	0xbefc8b2f	-0.4932494
143	0x3ed06537	0.4070222
144	0xbea0b530	-0.31388235
145	0x3dd95a00	0.10612869
146	0x3e85ef27	0.2615902
147	0xbe0d4c19	-0.1379856
148	0xbeace948	-0.3377173
149	0x3d250b0a	0.04029373
150	0x3ec8bfdb	0.39208874
151	0xbe3d5325	-0.18488748
152	0x3e030447	0.127946
153	0x3d64053b	0.05566905
154	0x3cc18be7	0.023626281
155	0x3eaa0ed5	0.3321444
156	0xbeab84e6	-0.3349983
157	0x3e2e76cc	0.17037505
158	0x3ee6a0de	0.45044607
159	0x3eb3c2c3	0.3510953
160	0x3ee0eda3	0.43931302
161	0x3ce75fc9	0.028243916
162	0xbecf73ed	-0.40518132
163	0xbe3d2ec4	-0.18474871
164	0x3dd149ee	0.10219179
165	0x3e02336a	0.12714925
166	0xbca36bb3	-0.019948816
167	0x3ebec71b	0.3726128
168	0xbe9d6151	-0.3073831
169	0xbe4d7099	-0.20062484
170	0xbe6eb103	-0.23309712
171	0xbe1a7713	-0.15084486
172	0x3e4f83fa	0.20265189
173	0xbe8bf2ae	-0.27333587
174	0xbef616ef	-0.48064372
175	0x3ee3af4f	0.44469687
176	0x3e86cad0	0.2632661
177	0x3e0fa385	0.14027222
178	0xbe72fec4	-0.23729998
179	0xbeb65446	-0.3561117
180	0xbe97ed49	-0.29673222
181	0x3ebf5c7f	0.37375256
182	0xbd8e4093	-0.0694591
183	0xbeb4dcd9	-0.35324743
184	0xbd8704bb	-0.06592699
185	0x3ebd8c12	0.37020928
186	0x3e87d681	0.2653084
187	0x3ec67739	0.38762835
188	0x3e1c6e28	0.15276396
189	0x3ed67522	0.4188624
190	0xbe331f5a	-0.17492428
191	0x3e81d86b	0.25360426
192	0xbd2b7995	-0.041863997
193	0xbe85a47b	-0.2610205
194	0xbed7e8ae	-0.42169708
195	0x3d92111f	0.07132172
196	0xbe47d5f2	-0.19515207
197	0x3db44539	0.08802266
198	0xbd10549d	-0.035236944
199	0x3f02ed3f	0.5114326
200	0xbd8420d6	-0.064515755
201	0x3e95bc71	0.29245332
202	0x3d61ffde	0.055175655
203	0xbe7a5884	-0.24447829
204	0xbe9061f5	-0.28199735
205	0x3da6e73b	0.081495725
206	0xbe815ea7	-0.25267527
207	0xbe4ede03	-0.20201878
208	0x3de198a3	0.11015441
209	0xbd50a027	-0.050933983
210	0x3e1a3525	0.15059336
211	0x3e7aef3c	0.24505323
212	0x3e0e10ff	0.13873671
213	0x3eed97c6	0.46404856
214	0x3ebc4572	0.36771733
215	0xbe650919	-0.22366752
216	0xbea2958a	-0.31754714
217	0xbdc1990f	-0.09453022
218	0x3eb6216f	0.35572383
219	0x3edd334f	0.43203208
220	0x3e9e1e75	0.30882612
221	0x3e674472	0.22584704
222	0xbd9ca5c7	-0.07648807
223	0xbe9c01c3	-0.30470094
224	0xbc9aec84	-0.018911608
225	0xbf0bda60	-0.5463009
226	0xbbe786f3	-0.0070656477
227	0xbe9be36b	-0.30446944
228	0xbd5d157c	-0.053975567
229	0x3e90737e	0.28213114
230	0xbe2e6e83	-0.17034344
231	0xbed26860	-0.41095257
232	0xbde77f2b	-0.11303552
233	0xbb9b1b33	-0.004733467
234	0x3ef6b7d7	0.48187134
235	0x3e1dec74	0.15422231
236	0x3e82b587	0.2552912
237	0x3ec0b669	0.37639168
238	0x3ef5324b	0.47889933
239	0x3dbd877b	0.092543565
240	0xbeb72f1a	-0.35778123
241	0xbebf5f54	-0.37377417
242	0x3ed9ab82	0.42513663
243	0x3eef1726	0.46697348
244	0x3eb57edc	0.3544835
245	0xbe916d76	-0.28403825
246	0x3e1999c5	0.15000065
247	0xbe2a0c7e	-0.16606328
248	0x3cb30e5b	0.021857431
249	0x3ecdfae2	0.4023047
250	0x3eaf8e6a	0.3428834
251	0xbee9b4c0	-0.45645714
252	0xbd64adb6	-0.055829726
253	0x3d1519e1	0.036401633
254	0xbeab59cd	-0.3346695
255	0xbe348011	-0.17626978

fc2.bias f4 [32]
0	0xbdb4c6fc	-0.08827016
1	0x3d311a95	0.04323824
2	0x3e882f3d	0.2659854
3	0xbd28b987	-0.041192558
4	0xbc3b0245	-0.011414115
5	0x3ce51820	0.027965605
6	0x3e14112c	0.14459676
7	0x3d6a1f69	0.05715886
8	0xbdf089b7	-0.11745017
9	0x3c1c2c0c	0.009531986
10	0x3c22c81f	0.009935408
11	0x3d918484	0.071053535
12	0xbdd4c9ff	-0.1039009
13	0x3e55953e	0.20857713
14	0x3d7cc28c	0.06170897
15	0x3d14ac42	0.03629709
16	0x3d84236d	0.064520694
17	0x3df5b81e	0.11998008
18	0xbc5e15e4	-0.013555024
19	0xbde528a5	-0.11189393
20	0xbd881803	-0.06645205
21	0x3db5f4e8	0.08884603
22	0x3eade76c	0.33965623
23	0xba11fef0	-0.00055692997
24	0x3d3e629d	0.046480764
25	0x3d5745f6	0.052556954
26	0x3d88cc27	0.06679564
27	0x3eab6942	0.33478743
28	0xbd207670	-0.03917545
29	0xbd5ba69b	-0.053625684
30	0xbb7aae40	-0.0038250834
31	0x3d40a233	0.047029685

gru.weight_ih_l0 f4 [96, 32]
0	0x3e16d3cf	0.14729236
1	0xbcfa9cf7	-0.030592425
2	0x3e896ca0	0.26840687
3	0x3e64537e	0.22297475
4	0x3e5c373b	0.21505444
5	0x3e326584	0.17421538
6	0x3e6abdcb	0.22923963
7	0x3dd958ef	0.10612666
8	0xbd82fa47	-0.06395393
9	0x3e0f1e4f	0.13976406
10	0x3d6656eb	0.056235235
11	0x3bb17cc4	0.0054164845
12	0xbd0182b3	-0.031618785
13	0x3ec91d1b	0.39280018
14	0x3d697283	0.056993973
15	0x3e52a69a	0.20571366
16	0x3e521181	0.2051449
17	0x3df79dc7	0.120906405
18	0x3def94fd	0.11698339
19	0x3ec1d5f1	0.37858537
20	0xbd8a6955	-0.06758372
21	0x3e893b4f	0.2680306
22	0x3e5f06ee	0.21779987
23	0x3dfa08ba	0.12208696
24	0x3dfa7475	0.12229244
25	0xbc6f5b66	-0.014609193
26	0x3e624064	0.22094876
27	0xbcb56c3e	-0.02214634
28	0x3e6475ba	0.22310534
29	0xbd897e86	-0.067135856
30	0x3e3c2ac3	0.18375687
31	0x3d5adcb5	0.05343314
32	0xbe0b0362	-0.13575509
33	0x3e25bb4e	0.16184732
34	0x3d62330e	0.05522447
35	0xbe04612c	-0.12927693
36	0x3d07645b	0.03305469
37	0xbc9f0c6c	-0.019415103
38	0x3db94454	0.09046236
39	0x3d7d5f87	0.06185868
40	0xbd93f47f	-0.07224368
41	0x3bec66aa	0.007214387
42	0xbd95be7d	-0.073117234
43	0xbcd1fd36	-0.025633436
44	0x3d9b044c	0.07569179
45	0x3e61544e	0.22004816
46	0x3d220de7	0.03956404
47	0x3d18125e	0.03712689
48	0x3dfa4b9d	0.12221453
49	0xbdfc7b83	-0.123282455
50	0xbe25520e	-0.16144583
51	0xbe3e1cd9	-0.18565692
52	0x3d4d63df	0.050144073
53	0x3ce8824a	0.02838244
54	0x3eb01d60	0.3439741
55	0xbe04e817	-0.1297916
56	0x3e38386e	0.17990276
57	0xbdb783fe	-0.089607224
58	0xbe1f2559	-0.15541591
59	0x3e7f8853	0.24954347
60	0x3dee72ed	0.11643014
61	0xbe1532d6	-0.14570174
62	0x3cc1b1e1	0.02364439
63	0x3d6962be	0.056978934
64	0xbccb11c8	-0.024788752
65	0x3bea0a2e	0.007142327
66	0xbd8120e4	-0.063051015
67	0x3e0fb57b	0.14034073
68	0x3d1318d8	0.035912365
69	0x3d2af306	0.04173567
70	0x3e0e7c49	0.13914599
71	0x3d989542	0.07450344
72	0xbdd63d0f	-0.10460865
73	0x3e214c97	0.15751873
74	0x3cfdf02d	0.030998314
75	0x3d90a8db	0.070634566
76	0x3d22486f	0.03961986
77	0x3d324ea0	0.043532014
78	0x3e30f6b2	0.17281607
79	0x3cafc135	0.021454433
80	0xbcbb6ee5	-0.022880027
81	0x3e04a315	0.12952836
82	0xbc40244c	-0.011727404
83	0xbcdbdd59	-0.026838945
84	0xbd67687f	-0.05649614
85	0x3e16a3f9	0.14710988
86	0x3e034c85	0.12822159
87	0xbe57012c	-0.20996541
88	0xbe062790	-0.1310103
89	0xbbe29487	-0.0069146785
90	0xbd59ea10	-0.053201735
91	0xbcfc94b8	-0.030832633
92	0x3e20e1bf	0.15711115
93	0x3e42c355	0.19019826
94	0x3dd231b6	0.10263388
95	0x3d651928	0.055932194
96	0xbe394f61	-0.18096687
97	0xbce7bb51	-0.028287562
98	0x3e065c41	0.1312113
99	0x3d4dd68c	0.050253436
100	0xbd858ed0	-0.0652138
101	0x3da41429	0.08011658
102	0x3d8acbe0	0.06777167
103	0x3e07ad51	0.13249709
104	0x3d0de9e9	0.034646902
105	0xbe1d2108	-0.15344632
106	0x3e078103	0.13232808
107	0xbde0279e	-0.109450564
108	0xbd5b85ca	-0.053594388
109	0x3c7dba1f	0.015486269
110	0x3d75f08f	0.060043868
111	0x3c1f96ff	0.00974059
112	0xbcd3eb9d	-0.025869185
113	0x3ca4f75a	0.020137478
114	0x3d67fac2	0.056635626
115	0x3de77769	0.113020726
116	0x3e2af12c	0.16693562
117	0xbd8bd9e6	-0.0682867
118	0x3d14f869	0.036369715
119	0xbc31f560	-0.010861725
120	0x3dad1a99	0.08452339
121	0x3e1ce5b7	0.15322004
122	0xbdf1dae2	-0.11809327
123	0x3e2a0371	0.16602875
124	0xbce50681	-0.027957203
125	0xbe451488	-0.19246113
126	0x3dd079a3	0.1017945
127	0x3e0aecf6	0.13566956
128	0x3d0d45ce	0.0344904
129	0x38e7f340	0.00011060247
130	0x3e5752a8	0.21027625
131	0x3e1c4cfd	0.15263744
132	0x3d10fb4f	0.035395917
133	0x3decd4b9	0.11564011
134	0x3e0902a6	0.13379917
135	0xbdb960f9	-0.09051699
136	0x3de26eb7	0.110562734
137	0xbd7a6e7e	-0.06114053
138	0x3d841d0e	0.06450854
139	0x3d60314a	0.054734506
140	0x3d8d81da	0.06909533
141	0x3ea27389	0.3172877
142	0x3e0b9909	0.13632597
143	0xbe060604	-0.13088232
144	0x3e2a3524	0.16621834
145	0x3e5b3066	0.21405181
146	0x3dc258ec	0.09489617
147	0x3e2dba7b	0.16965668
148	0x3d822cd4	0.063562065
149	0x3dcc9a8e	0.099904165
150	0x3df67b82	0.12035276
151	0xbcc7df8c	-0.024398588
152	0x3d3eb705	0.04656126
153	0x3dabd541	0.08390284
154	0x3d97c6b5	0.07410947
155	0x3d167bb3	0.036739063
156	0x3e1102c7	0.14161216
157	0xbe4ace1d	-0.19805188
158	0xbd01f920	-0.031731725
159	0xbdb6efe3	-0.089324735
160	0xb98fb217	-0.00027407773
161	0xbdfe9cd1	-0.12432254
162	0xbd4a6574	-0.04941316
163	0x3cf7ebf7	0.030263884
164	0x3d6f104c	0.05836515
165	0x3e154793	0.14578085
166	0x3bad7a02	0.0052940855
167	0xbdabac4e	-0.08382474
168	0xbd92d13a	-0.07168813
169	0xbe0d3b9b	-0.13792269
170	0x3dc3c1b4	0.0955843
171	0xbd705bef	-0.058681425
172	0x3ca744be	0.020418521
173	0x3e396981	0.18106653
174	0x3e41247e	0.18861577
175	0x3cc8ee87	0.024527801
176	0x3e19b893	0.15011816
177	0x3e4d5846	0.20053205
178	0x3e2b05f0	0.16701484
179	0x3c874297	0.016511245
180	0x3e66ab79	0.22526349
181	0x3e382aa1	0.17985012
182	0x3e918e2c	0.2842878
183	0x3da76541	0.081736095
184	0x3dadc40e	0.0848466
185	0x3d9aac39	0.0755238
186	0x3db2c7bf	0.08729505
187	0x3e14fd75	0.14549811
188	0x3e0e03ba	0.13868609
189	0x3b8838e5	0.004157173
190	0xbca6731f	-0.020318566
191	0x3dd525c8	0.10407597
192	0xbcf9728e	-0.030450132
193	0xbd3c6cc1	-0.046002153
194	0x3e187166	0.14887008
195	0xbdf9fc0b	-0.122062765
196	0x3cdd5c43	0.027021533
197	0x3da63a30	0.08116567
198	0x3e341095	0.1758445
199	0xbdd2a6d3	-0.102857254
200	0x3d2276fc	0.039664254
201	0x3e9e2b9d	0.3089265
202	0xbe366bdc	-0.17814583
203	0x3bec4633	0.007210517
204	0x3d4f3c68	0.050594717
205	0xbd7794ce	-0.060444646
206	0xbe371461	-0.17878868
207	0xbb85d68c	-0.004084414
208	0x3d06f354	0.0329469
209	0x3e9e6e0b	0.3094333
210	0xbdaca335	-0.08429567
211	0xbe08b93e	-0.13351914
212	0xbe1db60e	-0.1540148
213	0x3c4a8673	0.012361157
214	0x3cae3c79	0.02126907
215	0x3e45eb41	0.19328023
216	0xbda5a07a	-0.08087249
217	0x3e1c07d0	0.15237355
218	0x3e3eba32	0.18625715
219	0x3cf52179	0.029923188
220	0xbcdbdc80	-0.026838541
221	0x3ce2daee	0.027692284
222	0xbe8393d1	-0.25698712
223	0xbd89b794	-0.06724468
224	0x3dbd8704	0.09254268
225	0x3de3a667	0.11115723
226	0x3dc024ca	0.09382017
227	0xbd890d33	-0.06691971
228	0xbd28f1f2	-0.041246362
229	0xbe35549d	-0.17708059
230	0xbdbc0825	-0.09181241
231	0x3e49b611	0.19698359
232	0x3ccf01e6	0.02526946
233	0xbd2cdecd	-0.042204667
234	0x3a1c95ee	0.0005973269
235	0xbad7078f	-0.0016405451
236	0x3e166201	0.14685823
237	0xbdeec7d9	-0.11659212
238	0x3e171572	0.14754274
239	0xbcfba649	-0.03071894
240	0xbe502905	-0.20328148
241	0x3e113146	0.14178953
242	0xbd79ad25	-0.06095614
243	0x3df50af6	0.11964981
244	0xbd77ea9b	-0.06052647
245	0x3d76c8fb	0.060250264
246	0x3d053557	0.032521572
247	0xbdbd6c80	-0.0924921
248	0x3c6614b4	0.014043022
249	0xbce26a0e	-0.027638461
250	0xbe17699d	-0.14786382
251	0xbd3bcc86	-0.045849346
252	0x3e5230c5	0.20526417
253	0xbdac9ecf	-0.08428728
254	0x3dd3017f	0.1030302
255	0xbe10c522	-0.141377

gru.weight_hh_l0 f4 [96, 32]
0	0xbeb7930a	-0.3585437
1	0x3e3b5fb1	0.18298222
2	0xbe08be05	-0.13353737
3	0x3e5ed7a7	0.21761952
4	0xbc0dc814	-0.008653659
5	0x3e4e4af5	0.20145781
6	0x3eaa16f6	0.33220643
7	0xbe07addb	-0.13249914
8	0xbe0258c4	-0.12729174
9	0x3d1691cd	0.03676014
10	0x3db54801	0.08851624
11	0x3e1de015	0.15417512
12	0xbdb1a316	-0.08673684
13	0xbe0e431a	-0.13892785
14	0xbd2ff8d6	-0.042961918
15	0xbd951f5f	-0.07281374
16	0xbe88b8ba	-0.26703435
17	0xbd3ef1fa	-0.046617486
18	0x3dd71d09	0.10503585
19	0x3c1fcaa5	0.009752904
20	0xbe70bc84	-0.23509413
21	0xbda10e68	-0.07864076
22	0xbe7fd179	-0.24982251
23	0x3dec8ba7	0.11550074
24	0x3e4e1efc	0.20129007
25	0xbdac9697	-0.0842716
26	0xbde45994	-0.11149898
27	0xba979ebe	-0.0011567695
28	0x3c2ddfb0	0.010612413
29	0x3df46901	0.119340904
30	0x3c644ae2	0.013933869
31	0x3e562f24	0.2091642
32	0xbcbe1d04	-0.023207195
33	0xbdc42732	-0.095777884
34	0xbb89198c	-0.0041839536
35	0x3d459463	0.048237216
36	0x3bc31dc3	0.0059544756
37	0xbdc784af	-0.09742104
38	0xbd4c0756	-0.049811684
39	0x3e19f7e8	0.15035975
40	0xbd8c7937	-0.068590574
41	0xbd237a55	-0.039911587
42	0xbda985dc	-0.08277485
43	0x3dbe5727	0.09293967
44	0xbe3d5118	-0.18487966
45	0xbde8bd0b	-0.11364182
46	0xbde19be3	-0.11016061
47	0x3e0a3c84	0.13499647
48	0xbac340bf	-0.0014896615
49	0xbda413f4	-0.08011618
50	0x3dbae98a	0.09126575
51	0xbe001f0e	-0.12511846
52	0x3e326993	0.17423086
53	0xbe0fa0c6	-0.14026174
54	0x3d65bbd5	0.056087334
55	0x3d6601f0	0.05615419
56	0x3e440ef8	0.19146335
57	0xbcd470da	-0.025932718
58	0xbc233302	-0.009960892
59	0x3e3da966	0.18521652
60	0xbe485e2b	-0.19567172
61	0xbdb5fb84	-0.088858634
62	0xbdf95375	-0.12174121
63	0x3e265bf3	0.16246013
64	0xbe83fc69	-0.2577851
65	0xbd90f690	-0.07078278
66	0xbec24618	-0.37944102
67	0x3dcc73c6	0.099830195
68	0xbd322bb4	-0.04349871
69	0x3e899001	0.2686768
70	0x3d9bc53f	0.07605981
71	0xbe6969f3	-0.22794323
72	0xbd2f0272	-0.04272694
73	0xbdac749d	-0.0842068
74	0xbd27afce	-0.040939145
75	0x3ded6194	0.11590877
76	0xbdb83cc7	-0.08995967
77	0xbe49bc4e	-0.19700739
78	0x3ef32289	0.47487286
79	0xbe618147	-0.22021972
80	0x3dc428bb	0.09578081
81	0x3e29aa7b	0.1656894
82	0xbd83622a	-0.06415208
83	0xbdb92017	-0.09039324
84	0xbea9822b	-0.33107123
85	0xbebc2577	-0.36747333
86	0xbd0839d7	-0.033258285
87	0x3e299a6a	0.1656281
88	0x3e759409	0.23982252
89	0x3dd35a7a	0.103199914
90	0xbe5e5fb0	-0.2171619
91	0x3e020739	0.12698068
92	0x3df3cab3	0.11903896
93	0x3eae8ca9	0.3409169
94	0xbb100d8e	-0.0021980735
95	0x3dacf18f	0.08444511
96	0x3dac9a07	0.08427816
97	0xbe1cb276	-0.15302452
98	0xbd96adb4	-0.0735735
99	0x3ea843cd	0.32864228
100	0x3dafb7ca	0.08579977
101	0x3dd4fcbc	0.10399768
102	0x3de68b72	0.11257066
103	0x3e20c36c	0.15699548
104	0xbe48db48	-0.19614899
105	0x3e6139b6	0.21994671
106	0x3dc420b2	0.09576549
107	0xbe406fbf	-0.18792628
108	0xbb8fb0e0	-0.004385099
109	0x3d9eccca	0.07753904
110	0xbd8cc5aa	-0.06873639
111	0xbe6ee3bd	-0.23329063
112	0xbd1acd10	-0.03779322
113	0x3e86b3cc	0.2630905
114	0xbe2cca53	-0.16874056
115	0xbe3a2c0a	-0.18180862
116	0x3dddd7fd	0.10832212
117	0x3db778a5	0.08958558
118	0xbdfdb230	-0.12387502
119	0x3e81d00d	0.25354043
120	0xbdfda4f4	-0.12384978
121	0x3d17d97e	0.03707265
122	0xbda9fb7d	-0.08299921
123	0x3d863dce	0.06554757
124	0x3d55b773	0.052176904
125	0xbd8c4098	-0.06848258
126	0x3ddd0063	0.107910894
127	0x3d141d93	0.036161017
128	0xbd99f284	-0.07516959
129	0xbde3a883	-0.111161254
130	0xbd3dbb65	-0.04632129
131	0xbd57ffaf	-0.052734073
132	0x3e60af16	0.2194179
133	0x3e8170ae	0.2528128
134	0x3e4bf9f4	0.19919568
135	0xbdcb590a	-0.09929092
136	0xbe633948	-0.2218982
137	0xbe077b2a	-0.13230577
138	0x3e4ceae1	0.20011474
139	0xbd619054	-0.055069283
140	0xbc6c12d8	-0.01440879
141	0x3c3ae698	0.011407517
142	0x3e1b088a	0.15139976
143	0xbe04969f	-0.12948082
144	0x3e4340a7	0.19067632
145	0x3e4955e5	0.19661672
146	0xbc837f1b	-0.01605182
147	0xbc918a9f	-0.017766295
148	0xbd9e2a24	-0.077228814
149	0xbea086eb	-0.31352934
150	0xbdcfa1b7	-0.101382665
151	0x3df64504	0.120248824
152	0x3e495877	0.19662653
153	0xbe960492	-0.29300362
154	0xbe3ba118	-0.18323171
155	0xba96b050	-0.0011496637
156	0x3e457750	0.19283795
157	0x3e08047e	0.13282964
158	0xbca682d4	-0.020326056
159	0x3e07d027	0.13262998
160	0xbd4d52d0	-0.050127804
161	0x3e01a62a	0.12661043
162	0xbe91e103	-0.28491983
163	0x3d881574	0.06644717
164	0x3e370104	0.17871481
165	0x3e163d36	0.14671788
166	0x3dd2ab36	0.10286562
167	0xbc2b301d	-0.010448483
168	0xbd09728e	-0.033556513
169	0x3e0aed4c	0.13567084
170	0x3e0119e1	0.12607528
171	0x3e38ab3c	0.1803407
172	0xbdd9c81d	-0.10633872
173	0xbe5b4ff2	-0.21417215
174	0x3d1dab76	0.038493596
175	0xbd45e160	-0.048310637
176	0xbcb42b5d	-0.021993333
177	0x3e51f1b1	0.20502354
178	0x3c9a54cb	0.01883926
179	0x3b798040	0.0038070828
180	0xbe402afc	-0.18766397
181	0xbe5ecb6e	-0.2175729
182	0xbe27cb12	-0.16386059
183	0xbd595c47	-0.05306652
184	0x3e432701	0.19057848
185	0xbbd75a08	-0.006572012
186	0x3d775b31	0.0603897
187	0x3e045496	0.12922892
188	0x3d84a42d	0.064766265
189	0xbd04ff65	-0.032470126
190	0x3da27990	0.079333425
191	0x3e897aa4	0.2685138
192	0xbe2573c7	-0.16157447
193	0xbe6bbc67	-0.23021089
194	0xbe1d8aad	-0.15384932
195	0xbc929d6e	-0.017897334
196	0xbc26fa79	-0.010191553
197	0xbd6a40d9	-0.05719075
198	0xbe49a4ad	-0.19691725
199	0xbc73b509	-0.014874705
200	0xbd61d09b	-0.055130582
201	0x3d71d5ed	0.059041906
202	0x3ddf809f	0.109132044
203	0x3dd8f302	0.10593225
204	0xbe1b45bb	-0.15163319
205	0x3cddca2f	0.027073948
206	0x3e4e2987	0.20133029
207	0xbe86849e	-0.26273054
208	0x3dbd3974	0.09239474
209	0xbdd1b4ae	-0.1023954
210	0x3ca13016	0.01967625
211	0x3e042e4b	0.12908284
212	0x3c0c7bd2	0.008574443
213	0x3d7147da	0.058906414
214	0xbdbe30ce	-0.092866525
215	0x3e2c772a	0.16842332
216	0x3df83f85	0.121214904
217	0x3e12b8d7	0.14328323
218	0xbce508df	-0.027958332
219	0xbdd20a27	-0.10255843
220	0x3dbc7ce7	0.09203511
221	0x3e67c7b7	0.22634779
222	0xbb264b6d	-0.0025374547
223	0xbd1cf33e	-0.03831791
224	0xbe9be21e	-0.3044595
225	0xbe864d25	-0.26230732
226	0xbe9e519a	-0.30921632
227	0x3e2c2e3c	0.16814512
228	0xbddba94f	-0.107256524
229	0x3d05bdae	0.032651596
230	0x3e8344cd	0.25638428
231	0xbd8507c7	-0.06495624
232	0xbdd29807	-0.10282903
233	0xbdc4d48b	-0.09610852
234	0x3d8f2a72	0.06990518
235	0x3d2abf87	0.04168656
236	0xbe005f4b	-0.12536351
237	0xbe54fd76	-0.20799813
238	0x3dc0d96f	0.09416472
239	0xbe83d1d0	-0.25746012
240	0xbe9a8fc9	-0.30187824
241	0xbdaf798d	-0.08568106
242	0xbe1a8031	-0.15087964
243	0x3cf8a870	0.030353755
244	0xbdf1b596	-0.11802213
245	0xbefcc230	-0.49366903
246	0x3dabcbe4	0.083884984
247	0x3e449df7	0.19200884
248	0x3e2871d9	0.1644968
249	0x3c21947a	0.00986206
250	0xbe2a8a55	-0.16654332
251	0x3d899e7c	0.067196816
252	0x3dda3258	0.106541336
253	0x3db26cec	0.087121814
254	0x3e8a6f88	0.27038217
255	0x3e358c47	0.17729293

gru.bias_ih_l0 f4 [96]
0	0x3e1ec400	0.15504456
1	0x3d91cf36	0.071196005
2	0x3e26a48a	0.16273704
3	0x3e5dd874	0.21664602
4	0x3c8be154	0.017075218
5	0x3e870a25	0.26374927
6	0xbd080565	-0.03320827
7	0xbd720e62	-0.059095748
8	0x3dd8d6f5	0.10587875
9	0x3dcf9259	0.101353355
10	0x3de5afe6	0.112151906
11	0x3e43da01	0.1912613
12	0x3e3946fb	0.18093483
13	0xbd8051a3	-0.06265571
14	0x3e906725	0.28203693
15	0x3e9b9fd1	0.30395368
16	0x3da482fa	0.08032794
17	0x3e39c163	0.18140177
18	0xbd614cd5	-0.055004913
19	0x3e821674	0.25407755
20	0x3dcb7674	0.099347025
21	0xbc2969b9	-0.010340148
22	0x3d08f49d	0.033436406
23	0xbd1a92e3	-0.03773774
24	0x3e18bf0d	0.1491663
25	0x3daf11f1	0.08548344
26	0x3d232a57	0.0398353
27	0x3e8b40da	0.27197915
28	0x3d130409	0.03589252
29	0x3e0ccd20	0.13750124
30	0xbd090b4b	-0.033458035
31	0x3e0ff4e3	0.1405826
32	0x3d7c7bc5	0.061641473
33	0xbeb8ffca	-0.36132652
34	0x3d09c808	0.03363803
35	0xbe887d9e	-0.26658338
36	0x3c161005	0.009159093
37	0xbdfa4738	-0.12220615
38	0x3d5e2d13	0.054242205
39	0xbeff5a3d	-0.49873534
40	0xbe8d09b2	-0.2754646
41	0xbf29da60	-0.6634884
42	0xbdd35671	-0.10319222
43	0xbe4341ef	-0.1906812
44	0x3e12bcc5	0.14329822
45	0x3e1a2313	0.15052442
46	0xbda7ddaf	-0.0819658
47	0xbe0790df	-0.13238858
48	0xbe2be5dc	-0.16786903
49	0xbe5b52b0	-0.21418262
50	0xbee3f124	-0.44519913
51	0xbefc6693	-0.49297008
52	0x3d4cfaff	0.050044056
53	0x3e020077	0.1269549
54	0xbd69fd6e	-0.057126455
55	0xbdfa06c4	-0.12208322
56	0xbe87af8b	-0.26501116
57	0xbe00a0b0	-0.12561297
58	0xbc6bf2f8	-0.01440119
59	0xbe990978	-0.29890037
60	0xbec22c53	-0.37924442
61	0xbe6d7a3b	-0.23191158
62	0xbe68391b	-0.22678034
63	0xbea1ca83	-0.31599817
64	0x3d9bbbbd	0.076041676
65	0xbe8e3708	-0.2777636
66	0x3e3cb577	0.18428598
67	0x3e5fd61b	0.21859019
68	0xbe09e47f	-0.1346607
69	0x3e2b2c1f	0.1671605
70	0x3c7a4c31	0.0152769545
71	0x3e0dec0e	0.13859579
72	0xbe273462	-0.16328576
73	0xbd91dd2c	-0.07122263
74	0xbe1089c0	-0.14115047
75	0xbd46d97a	-0.048547246
76	0x3c8656d4	0.016398825
77	0x3e541fe5	0.20715292
78	0xbdefe66b	-0.117138706
79	0x3e3fd70a	0.18734375
80	0xbc185159	-0.009296739
81	0xbd6e9c71	-0.058254663
82	0x3d89f6f0	0.06736553
83	0xbe2e7b5c	-0.17039245
84	0x3e08d3d8	0.13362062
85	0x3e3e305b	0.18573134
86	0x3e4293ae	0.19001648
87	0x3dfd7671	0.123761065
88	0x3e43950b	0.19099824
89	0xbe6c41c9	-0.2307197
90	0x3da4e4df	0.08051466
91	0x3e5e9e1e	0.21740004
92	0x3d46e435	0.04855748
93	0x3d0c1072	0.03419537
94	0xbe1280dc	-0.14306968
95	0xbddc2efc	-0.10751149

gru.bias_hh_l0 f4 [96]
0	0x3e4e0eaa	0.20122781
1	0x3d8f73d3	0.070045136
2	0xbe177793	-0.14791708
3	0x3e4a84b9	0.19777192
4	0x3d58acb0	0.052899063
5	0x3e5dbddc	0.21654457
6	0x3d8b826b	0.06811985
7	0xbdf777f0	-0.12083423
8	0x3c8d7fdd	0.017272884
9	0x3e61c5cd	0.22048111
10	0x3e3906d5	0.18069012
11	0x3e7135e0	0.23555708
12	0xbd73891e	-0.059456937
13	0xbd1469ce	-0.036233716
14	0x3ca9e45e	0.020738777
15	0x3d56f164	0.0524763
16	0x3e13d040	0.1443491
17	0x3cf40391	0.029786857
18	0x3dd17424	0.1022723
19	0x3dd2206b	0.102600895
20	0x3d679344	0.056536928
21	0xbdaacc0d	-0.08339701
22	0x3e248c1c	0.16069072
23	0x3e73f9ac	0.23825711
24	0x3bf7a2aa	0.007557233
25	0x3e0d94e5	0.1382633
26	0x3d802236	0.06256525
27	0x3e99e6e9	0.30058983
28	0x3e868ff4	0.26281703
29	0x3e4b4bf0	0.19853187
30	0x3db14c55	0.08657137
31	0x3e20c000	0.15698242
32	0x3db0308a	0.08603008
33	0xbe70af57	-0.23504387
34	0x3cca106a	0.02466603
35	0xbe305fa9	-0.17223991
36	0x3b835302	0.004007698
37	0xbe483a9d	-0.19553609
38	0xbdee8995	-0.116473354
39	0xbe8b9f1b	-0.27269825
40	0xbed10de5	-0.40830913
41	0xbf17738e	-0.591607
42	0x3d3dc0f0	0.046326578
43	0xbebff6b4	-0.37492907
44	0xbb3d7466	-0.002890849
45	0x3e5303c4	0.20606905
46	0xbe2add57	-0.16685997
47	0xbe485c93	-0.19566564
48	0xbdbe9b5a	-0.09306975
49	0xbe357636	-0.17720875
50	0xbeb37416	-0.35049504
51	0xbe977caa	-0.295873
52	0x3e7855d0	0.24251485
53	0xbe4bb9bf	-0.19895075
54	0xbebb463d	-0.36577025
55	0xbecd576b	-0.40105757
56	0xbe9d9b42	-0.30782515
57	0xbe0f3429	-0.13984741
58	0xbe050871	-0.12991501
59	0xbe285989	-0.16440405
60	0xbeda412b	-0.42627844
61	0x3a823673	0.000993444
62	0xbe8da645	-0.27665916
63	0xbefcdd9d	-0.49387828
64	0x3e12a5c8	0.14321053
65	0xbe294449	-0.16529955
66	0xbd928452	-0.07154144
67	0x3e550e69	0.20806278
68	0xbdf94569	-0.12171442
69	0x3cd32e29	0.025778847
70	0x3e3def6e	0.18548366
71	0xbe4a46f7	-0.19753633
72	0xbe63152e	-0.22176048
73	0xbe480290	-0.19532228
74	0x3d012ef2	0.03153891
75	0x3e8ad805	0.27117935
76	0xbcec1030	-0.028816313
77	0x3d5686fd	0.05237483
78	0x3e01ca2b	0.12674777
79	0x3c50cbc7	0.012743897
80	0xba891e8d	-0.0010461375
81	0xbdaa4431	-0.08313788
82	0x3e57d21b	0.21076243
83	0xbba9b3e3	-0.005178915
84	0x3cd27749	0.025691645
85	0xbd3a2586	-0.04544594
86	0x3d351d00	0.04421711
87	0x3d659d09	0.056057964
88	0x3d9d8654	0.07691637
89	0xbe84ea88	-0.25960183
90	0xbe23a5d5	-0.15981229
91	0x3e4df71a	0.20113793
92	0x3e9d6e2f	0.30748126
93	0x3d984b62	0.07436253
94	0xbdf5ec28	-0.12007934
95	0xbd848c3a	-0.064720586

fc3.weight f4 [32, 32]
0	0xbe6d6527	-0.23183118
1	0xbf161687	-0.58628124
2	0xbe4da21d	-0.20081373
3	0x3f04cfea	0.5187975
4	0xbf0e7632	-0.556491
5	0x3f00cac4	0.50309396
6	0x3e79283c	0.24331754
7	0xbda556b1	-0.08073176
8	0xbf321296	-0.6955961
9	0xbe4bf36b	-0.19917075
10	0xbee5f9ae	-0.44917053
11	0x3ef8fba2	0.4862948
12	0x3e5ba975	0.21451361
13	0x3c2c0e4f	0.010501458
14	0x3db2a194	0.08722225
15	0x3da6038e	0.08106147
16	0x3dac29c1	0.084064014
17	0x3cde2c54	0.027120747
18	0x3e8835cc	0.26603544
19	0xbcdfb44f	-0.027307658
20	0x3eec2242	0.46119887
21	0x3ce9afd7	0.02852623
22	0xba0f1a55	-0.0005458941
23	0x3e47a248	0.19495499
24	0x3d55a6a2	0.052160867
25	0xbf03b83d	-0.51453
26	0x3d38bd2d	0.045102287
27	0xbc8fe6b4	-0.017566063
28	0x3f259694	0.6468289
29	0x3ddf5457	0.109047584
30	0xbe2d6783	-0.16934018
31	0x3e8083ee	0.25100654
32	0xbd9d97f6	-0.07695
33	0x3dacdd69	0.08440668
34	0xbe5e0889	-0.21682943
35	0xbe23b173	-0.1598566
36	0xbe98ac7b	-0.29819092
37	0xbbd604ef	-0.00653135
38	0x3d19697d	0.037454117
39	0xbf3b10fc	-0.7307279
40	0x3f0ac150	0.5420122
41	0xbeac4e82	-0.33653647
42	0x3e61d95e	0.22055575
43	0xbd268eaf	-0.040663417
44	0xbe867641	-0.26262096
45	0xbee573f6	-0.44815034
46	0xbcb66d2f	-0.02226886
47	0xbee21a96	-0.44160908
48	0x3ebb3891	0.36566594
49	0x3eacafcc	0.33727872
50	0x3ecb3b73	0.39693794
51	0xbe4121b6	-0.18860516
52	0x3e80b233	0.25135955
53	0xbf1dfe05	-0.6171573
54	0x3e59554b	0.21223943
55	0xbf22bc94	-0.63569
56	0x3dfa3ccc	0.12218627
57	0xbe183590	-0.14864182
58	0xbef90c58	-0.4864223
59	0x3e9c7237	0.3055589
60	0xbefbfd4a	-0.49216682
61	0x3ec4950b	0.3839496
62	0x3ee92ed5	0.45543543
63	0x3ea757f2	0.32684284
64	0x3f07b351	0.5300799
65	0x3ef69929	0.48163727
66	0xbe3fb229	-0.18720306
67	0xbe91c378	-0.28469443
68	0x3ed76102	0.420662
69	0x3f05f181	0.5232163
70	0xbe7dacd5	-0.24772961
71	0x3e7ba15b	0.24573271
72	0x3f09d65c	0.5384271
73	0x3da2ab39	0.079428144
74	0x3ef2deb6	0.4743554
75	0x3e965d0a	0.29367858
76	0x3e2e8496	0.17042765
77	0x3ebdcdf7	0.370712
78	0x3e9856fe	0.2975387
79	0x3f1424ea	0.57868826
80	0x3ef20928	0.4727261
81	0x3dee8945	0.11647276
82	0x3ea6d4ce	0.32584232
83	0x3655d000	3.1860545e-06
84	0xbed44982	-0.41462332
85	0x3e4b1c9d	0.19835134
86	0xbea6f71e	-0.3261041
87	0xbf0c0554	-0.5469563
88	0xbe6080e1	-0.21924163
89	0xbe24f24b	-0.16108052
90	0x3e8b3839	0.27191332
91	0x3eb29559	0.34879568
92	0xbee8310a	-0.45349914
93	0xbe674c98	-0.22587812
94	0xbd287524	-0.04112734
95	0x3e48ad3b	0.19597332
96	0xbd0b5526	-0.03401675
97	0xbe3d8127	-0.18506299
98	0x3ef780bd	0.48340407
99	0xbca58c55	-0.020208517
100	0x3f07be7a	0.5302502
101	0xbce9d16a	-0.02854224
102	0x3e00bf8c	0.1257307
103	0x3f0387d5	0.5137914
104	0xbeaab3c8	-0.33340287
105	0xbbc6579b	-0.006052924
106	0xbebc1d6b	-0.36741194
107	0x3d8a0b61	0.067404516
108	0xbe80664e	-0.25078052
109	0x3e617216	0.22016177
110	0xbe1007d1	-0.14065482
111	0x3e884410	0.26614428
112	0xbef40046	-0.4765646
113	0xbe621575	-0.22078498
114	0x3daef46a	0.08542712
115	0x3dcd24f1	0.10016812
116	0xbdcf52ae	-0.10123192
117	0x3f085275	0.5325082
118	0xbe5d18cf	-0.21591495
119	0x3d882a47	0.06648689
120	0xbdf4bfae	-0.119506225
121	0xbe37df59	-0.17956294
122	0x3daa0e7d	0.08303545
123	0x3f0184d6	0.50593317
124	0x3ecfe70e	0.40605968
125	0x3b288ee8	0.0025719944
126	0xbcf45263	-0.029824441
127	0x3cb767e2	0.022388402
128	0x3de42d24	0.111414224
129	0x3e8618f6	0.2619092
130	0xbe8534c3	-0.26016816
131	0x3e24db64	0.16099316
132	0xbe9ffb4a	-0.31246406
133	0x3dc6aa08	0.097004
134	0x3e5a8fbe	0.21343896
135	0x3e49214f	0.19641612
136	0xbdf67f27	-0.12035971
137	0x3eaaaf60	0.33336926
138	0x3e9f4a72	0.31111485
139	0xbf219de2	-0.63131535
140	0x3e793610	0.2433703
141	0x3e02567e	0.12728307
142	0x3e850c74	0.25986063
143	0xbdf45ddc	-0.11931965
144	0xbec44e8d	-0.3834118
145	0x3ea0f9d9	0.3144062
146	0x3e8caa2e	0.27473587
147	0x3e6cf0e2	0.23138765
148	0x3ed9812c	0.42481363
149	0xbe778182	-0.24170497
150	0xbedf0d30	-0.4356475
151	0x3e167a30	0.14695048
152	0xbe2ca360	-0.16859198
153	0x3cf19cef	0.029493777
154	0x3e1b8f11	0.15191294
155	0x3e3b6525	0.18300302
156	0xbed2b844	-0.4115621
157	0xbdda4839	-0.10658307
158	0x3cce487e	0.025181051
159	0xbc96849e	-0.018373784
160	0xbe90ed21	-0.28305915
161	0xbdfcb60f	-0.123394124
162	0xbe5f4243	-0.2180262
163	0xbeccc530	-0.39994192
164	0xbdaf111d	-0.08548186
165	0x3ea375c8	0.31925797
166	0x3eb33da9	0.3500798
167	0x3e62513a	0.22101298
168	0x3f04d048	0.5188031
169	0x3ea0f916	0.31440037
170	0x3e9091e8	0.28236318
171	0xbec4e7f4	-0.38458216
172	0x3da3bb55	0.07994715
173	0x3ec1a624	0.37822068
174	0x3d9b0649	0.07569558
175	0xbe2ff470	-0.1718309
176	0x3e742587	0.2384244
177	0x3c282b43	0.010264221
178	0xbda9054a	-0.08252962
179	0x3e85eee1	0.26158813
180	0xbe9ef3ad	-0.31045285
181	0x3ea7f28c	0.32802236
182	0xbe9ff6de	-0.31243032
183	0xbe0b10ce	-0.13580629
184	0x3e2e5288	0.1702367
185	0x3eaf42d6	0.3423068
186	0xbebde9e9	-0.37092522
187	0xbdc2a259	-0.095036216
188	0x3d30b4f8	0.043141335
189	0xbdf9a780	-0.12190151
190	0x3e93339a	0.28750306
191	0x3e0a8565	0.13527448
192	0x3ee3cf01	0.4449387
193	0x3eb38c58	0.3506801
194	0x3e90af33	0.28258666
195	0x3ee9b3c8	0.45644975
196	0x3ea03e90	0.3129773
197	0xbdba9d30	-0.091120124
198	0x3e8372b9	0.25673464
199	0x3d60ab6a	0.054850973
200	0xbf047c99	-0.5175262
201	0x3ebe8aaf	0.37215182
202	0xbe76912c	-0.24078816
203	0xbf4d7ab0	-0.8026533
204	0xbe4c4de1	-0.19951583
205	0x3d8d1a79	0.06889815
206	0xbec243a8	-0.37942243
207	0x3e172ca7	0.14763127
208	0xbec7fd3d	-0.39060393
209	0x3de1c171	0.11023224
210	0x3caee00a	0.021347065
211	0xbe2ffdb5	-0.17186625
212	0xbec1b5b5	-0.37833944
213	0x3ddb949c	0.10721704
214	0xbeebb405	-0.46035782
215	0x3cb1adb7	0.021689279
216	0xbe29ee7c	-0.16594881
217	0xbd7048e7	-0.058663275
218	0xbeedc9dc	-0.4644307
219	0xbe1a2242	-0.15052131
220	0xbf540c47	-0.82831234
221	0xbf038d18	-0.51387167
222	0xbe73aaa3	-0.23795561
223	0x3ee27499	0.44229582
224	0xbf030c9f	-0.51191133
225	0x3e4f2a40	0.20230961
226	0xbe5d9f67	-0.21642838
227	0x3f2afe70	0.6679449
228	0xbc33bd4a	-0.010970423
229	0x3ea9b7e1	0.331481
230	0x3d603e96	0.054747187
231	0xbdf5f789	-0.12010104
232	0xbea4d093	-0.3219038
233	0x3eb73d25	0.35788837
234	0x3ea38795	0.31939378
235	0xbf05338e	-0.5203179
236	0xbeb2b734	-0.34905398
237	0x3dfd870b	0.12379273
238	0xbeb92002	-0.36157233
239	0xbe29cde1	-0.16582443
240	0xbe477318	-0.19477499
241	0x3e895929	0.26825836
242	0xbea480cf	-0.32129523
243	0xbecbcf55	-0.3980662
244	0xbec5478d	-0.3853115
245	0xbcfa4760	-0.030551612
246	0xbc84b51b	-0.016199639
247	0x3e8e0e8e	0.2774548
248	0x3ec70822	0.38873392
249	0xbe437d42	-0.19090751
250	0xbd386790	-0.04502064
251	0xbeb8e651	-0.36113217
252	0xbc1e3f4c	-0.009658646
253	0xbcf609c5	-0.030033955
254	0x3e8f06c4	0.2793485
255	0x3d8eb13c	0.069673985

fc3.bias f4 [32]
0	0x3e5b43a5	0.21412523
1	0x3d90c19c	0.07068178
2	0x3dac94b5	0.08426801
3	0x3dc69fd1	0.09698451
4	0xbc1e1e54	-0.0096507855
5	0xbcbc6bd7	-0.02300064
6	0x3ca2c950	0.019871384
7	0x3cd4d065	0.025978277
8	0x3d9b6a1f	0.075886
9	0x3e0a5577	0.13509165
10	0x3de5bc3c	0.112175435
11	0x3c786d7f	0.015162825
12	0x3de3a3db	0.11115237
13	0x3dc7a4bb	0.09748217
14	0x3e03f05f	0.12884663
15	0x3d024afb	0.03180979
16	0x3e423a20	0.18967485
17	0x3d8cde6c	0.06878361
18	0x3dc96fc8	0.09835774
19	0x3b89b881	0.004202903
20	0x3cd92f91	0.02651194
21	0x3e5cdf45	0.21569546
22	0x3d8b58d1	0.0680405
23	0x3dc03fb7	0.09387153
24	0x3dd0e343	0.10199597
25	0x3d885d38	0.06658405
26	0x3bf4fa16	0.0074761016
27	0x3d3c71fa	0.046007134
28	0x3c9dafd1	0.019248875
29	0xbc9adb28	-0.01890333
30	0x3d864f28	0.065580666
31	0xb9958ca4	-0.0002852428

fc4.weight f4 [6, 32]
0	0xbdf1985d	-0.11796639
1	0xbead6d20	-0.33872318
2	0x3e8928de	0.26788992
3	0xbbecfd58	-0.0072323494
4	0x3e5c36e8	0.2150532
5	0x3c1107f5	0.008851995
6	0x3eab2caa	0.33432513
7	0xbec9ff3d	-0.39452544
8	0x3d644117	0.055726137
9	0xbed94690	-0.42436647
10	0x3d59920e	0.053117804
11	0x3eb2fdaf	0.3495917
12	0x3e786cfd	0.24260326
13	0x3e66c7e3	0.22537188
14	0xbeadc4e8	-0.3393929
15	0x3d32d204	0.043657318
16	0xbe5bccce	-0.21464846
17	0xbcb45f4a	-0.022018094
18	0xbe2d8186	-0.1694394
19	0x3e8335f1	0.25627092
20	0x3eabbc21	0.33541968
21	0xbd575961	-0.052575473
22	0x3ed4a328	0.41530728
23	0xbeadafca	-0.3392318
24	0xbf02154d	-0.5081375
25	0xbe2544d7	-0.16139542
26	0xbedcb300	-0.43105316
27	0x3dfc39de	0.12315725
28	0x3e3bbbb3	0.1833332
29	0xbd01753f	-0.031605955
30	0xbda1d04b	-0.07901057
31	0x3ea92a6e	0.33040184
32	0xbf2bb3a7	-0.67071
33	0x3ece6477	0.40311024
34	0x3f1959b0	0.5990248
35	0xbf1bb5d6	-0.60824335
36	0xbe6745b0	-0.22585177
37	0x3ec15753	0.37761936
38	0xbeb06f95	-0.3446013
39	0xbf04169c	-0.51597
40	0xbe89f037	-0.26941082
41	0xbf0c6b04	-0.5485079
42	0xbe324bfa	-0.17411795
43	0xbea4fdfc	-0.32225025
44	0x3e3f0b98	0.18656766
45	0x3ee3f111	0.44519857
46	0x3eb0b43f	0.34512517
47	0x3f0bb132	0.54567254
48	0xbeec9f8b	-0.46215472
49	0x3f0ce85a	0.5504204
50	0xbf09f1d6	-0.5388464
51	0xbd9e6bb8	-0.077353895
52	0x3ec752ca	0.3893035
53	0x3f0de07e	0.5542067
54	0xbef18d58	-0.4717815
55	0x3eb45b54	0.35225928
56	0xbeaa1c9b	-0.3322495
57	0xbee938da	-0.45551187
58	0xbef8aa0b	-0.48567232
59	0x3edb6eaa	0.42857867
60	0xbf16cfa9	-0.58910614
61	0x3e495912	0.19662884
62	0xbf016b6b	-0.5055453
63	0x3e3a0b33	0.18168335
64	0xbdad62d9	-0.08466119
65	0x3e2ca52c	0.16859883
66	0xbe855ca5	-0.26047245
67	0x3e1128d8	0.14175737
68	0x3f1e18ae	0.6175641
69	0x3e2897c9	0.16464151
70	0x3f39c347	0.72563595
71	0x3f013a74	0.5047982
72	0xbe520be5	-0.2051235
73	0xbf38ede6	-0.72238004
74	0xbecd771b	-0.40129933
75	0x3e037f9b	0.12841646
76	0x3bc31c8d	0.0059543313
77	0x3f010efc	0.5041349
78	0xbf1cddff	-0.6127624
79	0xbe9ea06b	-0.30981764
80	0xbe75fad3	-0.24021463
81	0xbeefdf0c	-0.4684986
82	0x3d750c41	0.05982614
83	0x3efe3540	0.49650002
84	0x3e944c3d	0.28964415
85	0xbf3ecbea	-0.745299
86	0x3e85830a	0.26076537
87	0x3f067707	0.5252537
88	0x3e8daf4a	0.27672797
89	0x3ea20e09	0.31651333
90	0x3e949941	0.29023173
91	0x3f2616c9	0.6487852
92	0x3e47da2a	0.19516817
93	0x3e85debd	0.26146498
94	0x3e94632c	0.28981912
95	0xbdcd716f	-0.10031401
96	0x3f046978	0.5172343
97	0xbe8411eb	-0.2579492
98	0x3ea3d16a	0.31995708
99	0x3ed354fd	0.41275778
100	0xbd8a24e3	-0.06745317
101	0xbda924a6	-0.08258943
102	0x3dfffd77	0.124995165
103	0xbee38c80	-0.4444313
104	0x3d8a9969	0.06767542
105	0xbce457b9	-0.02787386
106	0x3e806569	0.2507737
107	0x3cf105a9	0.029421644
108	0x3f2faddb	0.6862466
109	0xbf24a65b	-0.6431634
110	0x3f20d289	0.6282125
111	0xbeba83f8	-0.3642881
112	0x3e8d0d96	0.27549428
113	0xbd86a813	-0.06575026
114	0xbf0fce6a	-0.5617434
115	0xbc37097f	-0.011171698
116	0x3df9efc0	0.12203932
117	0x3ecdddb9	0.40208223
118	0x3e959a87	0.29219458
119	0xbe87b645	-0.26506248
120	0x3ee7434c	0.4516853
121	0xbed84dcc	-0.42246854
122	0xbef9832d	-0.48732892
123	0xbe3bd4cb	-0.18342893
124	0xbe9bb6f4	-0.3041302
125	0xbeecd433	-0.46255645
126	0xbeb64eae	-0.35606903
127	0xbeb1aa7c	-0.34700382
128	0x3e1fc4cb	0.15602414
129	0xbe62b2c1	-0.22138502
130	0xbea2c851	-0.31793454
131	0x3e129ce0	0.14317656
132	0xbe6f7ce6	-0.23387489
133	0xbeb404dc	-0.35159957
134	0xbe3d7a93	-0.1850379
135	0x3d029d2b	0.03188817
136	0xbf0afbe7	-0.5429062
137	0x3c99ff0a	0.01879837
138	0x3e8f4e27	0.27989313
139	0xbca6bbad	-0.020353163
140	0xbdd92125	-0.10602025
141	0x3e0a73fb	0.13520806
142	0xbe33dfc7	-0.17565833
143	0xbe8877ed	-0.26653996
144	0x3ed0d563	0.407878
145	0x3c9efc6d	0.019407475
146	0x3d9d3084	0.07675269
147	0xbebefc3e	-0.3730182
148	0x3f2adb36	0.6674074
149	0x3e3c450f	0.18385719
150	0xbe98da71	-0.29854158
151	0x3da2f589	0.07956988
152	0x3e0fc87f	0.14041327
153	0x3de3074f	0.110853784
154	0x3f0c299b	0.54750985
155	0xbe547a8d	-0.20749874
156	0xbec75595	-0.3893248
157	0xbe791235	-0.24323352
158	0x3ef4a28a	0.47780257
159	0x3e481584	0.19539458
160	0x3ed3b9d1	0.41352704
161	0x3ea676d4	0.32512534
162	0xbf0491ab	-0.5178477
163	0xbedec2e7	-0.43508074
164	0xbe0214d3	-0.12703256
165	0xbe970ce2	-0.29502016
166	0xbe42b6d8	-0.19015062
167	0x3e950c0c	0.29110754
168	0x3e8a56b3	0.2701927
169	0x3ee0faac	0.43941247
170	0xbd577e1e	-0.05261051
171	0x3ecae509	0.39627865
172	0xbec0d008	-0.37658715
173	0xbe92830a	-0.286156
174	0x3da6a553	0.08137002
175	0xbe5f5199	-0.21808471
176	0xbe9a7ee7	-0.30174944
177	0x3ec671ea	0.38758785
178	0xbe2fab8d	-0.17155285
179	0xbe6c4696	-0.23073801
180	0xbd58f591	-0.052968565
181	0xbe2cd9b0	-0.16879916
182	0xbe6b1571	-0.22957398
183	0x3e146bc5	0.14494236
184	0x3e75d16d	0.24005671
185	0xbe3555b8	-0.1770848
186	0xbd7913e2	-0.060809977
187	0xbeaf7d35	-0.34275213
188	0x3eb82778	0.35967612
189	0x3e5225ff	0.20522307
190	0x3ef22fde	0.47302145
191	0x3ee3dfa9	0.44506577

fc4.bias f4 [6]
0	0xbd1c10e1	-0.038102034
1	0x3d17ec89	0.037090812
2	0xbd82e0b0	-0.06390512
3	0x3e0982f3	0.1342886
4	0x3dbd15d8	0.09232682
5	0x3cb962e8	0.02263017
