visualization/policy_nns/OSD_T/40/agent_1.pt (torch, 42049 bytes, 12 tensors)

weight f4 [32, 23]
0	0xbe210572	-0.15724733
1	0x3e3dbf51	0.18530013
2	0xbed91d89	-0.42405346
3	0x3e86ebd4	0.26351798
4	0x3ee9c2f2	0.45656544
5	0xbe1f207f	-0.1553974
6	0xbeaa10d0	-0.33215952
7	0x3e2b5204	0.16730505
8	0xbea915c9	-0.33024433
9	0x3ed5c970	0.41755247
10	0x3e769980	0.24081993
11	0xbed672f3	-0.41884574
12	0xbec93065	-0.39294735
13	0x3be79b02	0.007068039
14	0xbeaa5569	-0.33268288
15	0xbe6bc124	-0.23022896
16	0x3e21b5b6	0.15791973
17	0xbd6df0d8	-0.058091015
18	0xbd2d6188	-0.04232934
19	0x3e754991	0.23953845
20	0x3e0e38e8	0.13888896
21	0xbddf658a	-0.10908039
22	0xbded7675	-0.115948595
23	0xbe2432dc	-0.16035026
24	0xbe2d246a	-0.16908422
25	0x3e86c6ac	0.2632345
26	0x3e28f836	0.16500935
27	0xbd23de6e	-0.040007047
28	0xbe2f770d	-0.17135258
29	0xbe794f6f	-0.24346708
30	0x3e1e81f0	0.15479255
31	0xbcbddd7e	-0.023176905
32	0xbde12e6d	-0.10995183
33	0x3ea5959a	0.323407
34	0x3e10645f	0.14100789
35	0xba4a54a0	-0.00077182986
36	0x3efcbd91	0.49363378
37	0x3e86f196	0.2635619
38	0xbde7443a	-0.1129231
39	0x3ea9085a	0.33014184
40	0x3cff1384	0.031137235
41	0x3f24f968	0.64443064
42	0x3e9c9e0c	0.3058933
43	0xbce1d2ea	-0.027566392
44	0x3eb01df7	0.3439786
45	0xbec7ec1b	-0.39047322
46	0xbc0d9df2	-0.008643614
47	0x3e423c33	0.18968277
48	0x3d82fe82	0.063962
49	0xbee1329c	-0.43983924
50	0xbde01fc1	-0.109435566
51	0xbebdda54	-0.37080634
52	0xbe98b373	-0.2982441
53	0x3ebeef4e	0.3729195
54	0x3ca6aa82	0.020344976
55	0x3ed1b731	0.40960076
56	0x3da44d2f	0.08022534
57	0x3e38bbe7	0.18040429
58	0xbed9db58	-0.42550159
59	0xbe7d6e67	-0.24749146
60	0x3f021291	0.5080958
61	0xbe421e2d	-0.18956824
62	0xbe472a3e	-0.19449708
63	0xbd365d63	-0.044522654
64	0x3e0c6f28	0.13714278
65	0xbdbb2f99	-0.09139938
66	0xbd93f9c0	-0.072253704
67	0xbecbfcae	-0.39841217
68	0x3e8e1ec0	0.27757835
69	0x3ee098e4	0.43866646
70	0xbdc4b4a7	-0.09604769
71	0x3e3ff9af	0.1874759
72	0xbe26b31b	-0.16279261
73	0xbe1e008e	-0.15429899
74	0x3f14fe8b	0.582009
75	0xbe76be99	-0.24096145
76	0x3eadf6a4	0.33977234
77	0x3e58beee	0.21166584
78	0x3ea8c5ee	0.32963508
79	0xbe861d8b	-0.26194414
80	0x3e653f73	0.22387485
81	0x3e64ee89	0.22356619
82	0xbcece564	-0.028917976
83	0x3d8b411b	0.06799527
84	0x3d90fa81	0.0707903
85	0x3ed18a17	0.40925667
86	0xbe825cbf	-0.25461385
87	0x3efc32cc	0.49257505
88	0x3ed616bf	0.4181423
89	0x3ea595db	0.32340893
90	0xbdad65f8	-0.084667146
91	0xbecf80c9	-0.40527943
92	0xbed4d2a6	-0.41566962
93	0x3ec30bea	0.38095027
94	0x3e955a10	0.29170275
95	0xbe9fdbb5	-0.3122231
96	0xbc2d5e90	-0.0105816275
97	0xbead4625	-0.3384258
98	0x3cdecf97	0.027198596
99	0x3e83e5a7	0.25761148
100	0xbd93390c	-0.07188615
101	0x3e5dd918	0.21664846
102	0x3df256df	0.118329756
103	0xbe92b8ee	-0.28656715
104	0xbeb21f5c	-0.3478955
105	0xbe2f9086	-0.17144975
106	0x3e991c38	0.29904342
107	0x3e881615	0.26579347
108	0xbea9f2f8	-0.33193183
109	0x3e67c304	0.22632986
110	0xbea968d8	-0.33087802
111	0x3e832193	0.25611553
112	0x3e1fb898	0.1559776
113	0x3df872e8	0.12131292
114	0x3e4ebc49	0.20189013
115	0xbdc83c43	-0.09777119
116	0x3d6b2316	0.057406507
117	0xbdd83675	-0.10557262
118	0x3e62b211	0.2213824
119	0xbc4681ef	-0.0121159395
120	0x3f058459	0.5215507
121	0x3e8dfdc0	0.27732658
122	0xbe50021d	-0.20313306
123	0x3edae343	0.42751512
124	0x3ec74e73	0.3892704
125	0x3ea8a0d2	0.32935196
126	0x3ea47f3c	0.32128322
127	0x3e99638d	0.29958764
128	0x3ddfc71c	0.10926649
129	0x3ea26229	0.31715515
130	0x3d5cd244	0.053911462
131	0xbe92b258	-0.2865169
132	0xbed56325	-0.41677204
133	0x3ee2f41f	0.44326875
134	0x3f0956e3	0.53648204
135	0x3cc8a155	0.024490992
136	0xbd991dc2	-0.07476379
137	0x3d0161b7	0.03158733
138	0x3d475332	0.048663326
139	0x3e1c8286	0.15284166
140	0x3ed17b50	0.40914392
141	0x3e6744ef	0.2258489
142	0x3d9d8174	0.07690707
143	0x3ed2c60c	0.41166723
144	0x3e346110	0.17615151
145	0x3d7c4a74	0.06159444
146	0x3edb6bbf	0.4285564
147	0xbf092a76	-0.53580415
148	0x3ee34863	0.44391164
149	0x3d067c26	0.03283324
150	0x3e83f43b	0.2577227
151	0xbed8ba97	-0.42329857
152	0xbe612390	-0.21986222
153	0xbe8daebf	-0.27672383
154	0xbedaaa00	-0.42707825
155	0xbec9eddb	-0.39439282
156	0xbe763afb	-0.24045937
157	0xbe345f99	-0.17614593
158	0xbe41239b	-0.18861239
159	0xbe8d4a9c	-0.27595985
160	0xbeae2c0d	-0.34017983
161	0x3ea6c659	0.32573202
162	0x3ee629ee	0.44953865
163	0x3ea0f269	0.31434944
164	0xbec1a079	-0.37817743
165	0xbedaf969	-0.4276841
166	0xbedc85d2	-0.43070847
167	0x3b0df068	0.0021658186
168	0x3e895d89	0.26829174
169	0xb9fb7d92	-0.00047968008
170	0xbd51a63e	-0.05118393
171	0x3e0067e2	0.12539628
172	0x3e0ac4e3	0.13551669
173	0x3dc7dc7d	0.09758852
174	0xbd967955	-0.07347361
175	0x3e2a6902	0.1664162
176	0x3ec0c9cc	0.3765396
177	0x3e8bf775	0.27337232
178	0x3eabfaa5	0.33589664
179	0xbde61e93	-0.112363
180	0xbef1dabe	-0.472372
181	0xbefc3c58	-0.4926479
182	0x3ee5b6fe	0.44866174
183	0xbd7f0f66	-0.062270544
184	0x3ec100e1	0.37695983
185	0x3dc50946	0.096209094
186	0xbe293676	-0.16524681
187	0x3eaaacb3	0.33334884
188	0x3d0ab7ba	0.03386662
189	0x3e525d75	0.20543464
190	0x3ddf3e06	0.10900502
191	0x3e204aaa	0.15653482
192	0x3e17565b	0.14779036
193	0xbc3802dd	-0.011231151
194	0x3eaae5f0	0.33378553
195	0x3ef11909	0.47089413
196	0xbe7579f8	-0.23972309
197	0xbe0fff48	-0.14062226
198	0x3d175b04	0.036952034
199	0xbec92183	-0.3928338
200	0x3e953223	0.29139814
201	0x3e8be5bc	0.2732371
202	0x3edef4c8	0.43546128
203	0x3eadfff9	0.33984354
204	0xbef9d863	-0.48797902
205	0xbdbf1ba1	-0.09331442
206	0x3e868e97	0.26280662
207	0x3df87a0c	0.121326536
208	0x3ec5f017	0.38659737
209	0x3efad1f1	0.48988298
210	0x3e737931	0.237767
211	0x3da90a7b	0.08253952
212	0x3ebaf29b	0.36513218
213	0x3ed271bf	0.41102406
214	0x3eeaf75f	0.45891854
215	0xbcb88c47	-0.022527827
216	0xbeb29083	-0.3487588
217	0xbe68730f	-0.22700141
218	0x3e7abfc6	0.24487218
219	0xbe6c7840	-0.23092747
220	0xbe191238	-0.14948356
221	0x3efa3ac0	0.48872948
222	0x3e926a57	0.28596756
223	0x3e7cbfa8	0.24682486
224	0xbed7c148	-0.4213965
225	0xbe6f4236	-0.23365101
226	0xbea8adcd	-0.329451
227	0xbedfec6f	-0.43735072
228	0xbd260e81	-0.040541176
229	0xbe7901fe	-0.24317166
230	0x3e614b1f	0.22001313
231	0x3bc2008c	0.0059204753
232	0x3e7b4843	0.24539284
233	0x3dbd4137	0.09240954
234	0x3e340d63	0.17583232
235	0xbe77d478	-0.24202144
236	0x3e9adbeb	0.3024591
237	0x3e81d6a6	0.25359076
238	0x3e7f08ea	0.24905744
239	0x3dddf963	0.10838582
240	0x3e9e91e0	0.3097067
241	0xbd9d2e0e	-0.076748
242	0xbe80768c	-0.25090444
243	0x3e35fbca	0.17771831
244	0x3da1f02e	0.07907139
245	0x3d2faf2c	0.042891666
246	0x3f0fc71c	0.5616319
247	0x3e8c34eb	0.27384123
248	0xbe585ddb	-0.21129553
249	0x3e2bf696	0.16793284
250	0x3e94b429	0.290437
251	0xbea02a7b	-0.3128241
252	0x3d3ca45d	0.046055187
253	0xbe90152f	-0.28141162
254	0xbef47580	-0.47745895
255	0x3ec76190	0.38941622

bias f4 [32]
0	0xbac35ef6	-0.001490562
1	0xbd4d64bd	-0.0501449
2	0xbd4fe41a	-0.050754644
3	0x3d9b6177	0.07586949
4	0x3bef2158	0.007297676
5	0x3d2d04c4	0.042240873
6	0x3dfb0617	0.12257021
7	0x3db64cd3	0.08901372
8	0x3af26527	0.001849328
9	0x3df86d8c	0.121302694
10	0x3c6e0c5d	0.014529315
11	0x3d195f13	0.037444185
12	0x3c15efd8	0.0091514215
13	0x3d7aad05	0.06120016
14	0xbc76df85	-0.01506794
15	0x3c8c5ac2	0.01713312
16	0xbd877d99	-0.06615753
17	0x3db91ca3	0.09038665
18	0x3d336891	0.043800894
19	0x3d20fefd	0.039305676
20	0x3dbc2103	0.09185984
21	0x3d2733bc	0.040820822
22	0x3d5704ac	0.05249469
23	0x3d28f170	0.041245878
24	0xbc77f3c0	-0.015133798
25	0xbd1e26b8	-0.038611144
26	0x3c87179c	0.01649075
27	0x3d4a3302	0.04936505
28	0x3c4a7370	0.012356624
29	0xbdcd63f5	-0.10028831
30	0xbce05194	-0.02738265
31	0x3dc98d0c	0.09841356

weight f4 [32, 32]
0	0x3d3e0d0e	0.04639917
1	0x3e1991f4	0.14997083
2	0x3eea27f3	0.45733604
3	0xbee38bc1	-0.4444256
4	0xbe5a81f4	-0.21338636
5	0xbed33451	-0.41250852
6	0x3ea20f73	0.31652412
7	0x3f118ab8	0.56852293
8	0x3e4d2db4	0.20036966
9	0x3e26cfbb	0.1629018
10	0xbd8bb9b3	-0.06822529
11	0x3df3ef35	0.119108595
12	0xbeb43c70	-0.3520236
13	0xbdf93367	-0.12168007
14	0x3d9d34d7	0.07676094
15	0x3e4920dc	0.19641441
16	0xbea4ba39	-0.32173327
17	0xbd781815	-0.06056984
18	0x3e236e36	0.15960011
19	0x3e3b412b	0.18286578
20	0x3e8a4343	0.27004442
21	0x3da9f6ca	0.082990244
22	0x3e27077b	0.16311447
23	0xbec4e73c	-0.38457668
24	0x3ef9150c	0.4864887
25	0x3e62e7bb	0.2215871
26	0xbe238518	-0.1596874
27	0x3e85c650	0.26127863
28	0x3d4cd9c1	0.050012354
29	0x3ee2d2ba	0.44301397
30	0x3eed9915	0.46405855
31	0x3c7abae1	0.0153033445
32	0xbed4ca5b	-0.41560635
33	0xbdee09d6	-0.1162297
34	0x3ec42ae1	0.38313964
35	0xbd98eb77	-0.07466786
36	0x3f0bb45b	0.54572076
37	0x3e0b9f88	0.13635075
38	0x3e80c893	0.25153026
39	0x3e0cd6e8	0.13753855
40	0xbecbbc94	-0.3979231
41	0x3e734df4	0.23760206
42	0x3dac6706	0.08418088
43	0xbdd6df3d	-0.10491798
44	0x3d823901	0.06358529
45	0xbe8ac0a6	-0.27100104
46	0xbe83d11e	-0.2574548
47	0x3eb052aa	0.34438068
48	0xbebe2379	-0.37136438
49	0xbdf09e35	-0.117489256
50	0xbb992a95	-0.0046742656
51	0x3eb8ad4d	0.36069718
52	0xbdce1953	-0.10063424
53	0xbee4727b	-0.44618592
54	0xbea27b0f	-0.3173451
55	0x3e162a7b	0.14664643
56	0xbe1c8bf3	-0.15287761
57	0xbee7a626	-0.4524395
58	0xbde7442d	-0.112923004
59	0x3e49abab	0.19694392
60	0xbebaa676	-0.36455125
61	0xbecdb50e	-0.40177196
62	0x3f00ddba	0.5033833
63	0x3d60fbeb	0.054927748
64	0x3a9f08f4	0.0012133406
65	0x3eab40e1	0.33447936
66	0x3ebb1065	0.36535946
67	0x3e8b9ea8	0.27269483
68	0xbbd421bf	-0.0064737494
69	0x3e662d26	0.2247816
70	0xbe9b1492	-0.3028913
71	0x3d9036b1	0.070416816
72	0xbe73ec78	-0.23820674
73	0xbea62be2	-0.32455355
74	0x3cdfdb77	0.027326329
75	0xbebe9b5e	-0.3722791
76	0x3e9c9412	0.3058172
77	0x3f064b66	0.524588
78	0x3e832cb4	0.25620043
79	0x3e9bf31c	0.30458915
80	0x3e5cc31d	0.21558805
81	0xbdd0356e	-0.10166441
82	0x3ebc8bd1	0.3682542
83	0x3d7e2e13	0.06205566
84	0xbeb6cdd0	-0.35703897
85	0xbd4834a5	-0.04887833
86	0x3e6806f2	0.226589
87	0x3ee9f7cb	0.45696864
88	0x3e2c363e	0.16817567
89	0xbebccc5b	-0.3687466
90	0x3e98d429	0.29849365
91	0xbe8be45c	-0.27322662
92	0xbea0cb77	-0.3140523
93	0x3d8f2f64	0.06991461
94	0xbe01637a	-0.12635604
95	0xbea16f44	-0.315302
96	0x3e0bd6d0	0.13656163
97	0x3e82ac1f	0.25521943
98	0xbe9e9f98	-0.30981135
99	0xbebb92b4	-0.36635363
100	0x3e94c66a	0.29057628
101	0x3e90900e	0.28234905
102	0x3efa40e1	0.48877624
103	0x3d5a0cd3	0.053234886
104	0x3e9d9fb2	0.307859
105	0x3ed6c1cc	0.4194473
106	0x3dba7083	0.09103491
107	0x3e41f19d	0.18939824
108	0x3e2e48fb	0.17020027
109	0x3eb85255	0.36000314
110	0xbe1af4be	-0.15132424
111	0xbe300b46	-0.171918
112	0xbedb1af1	-0.42793992
113	0xbe3ec410	-0.1862948
114	0x3e9897f1	0.29803422
115	0xbc2b0632	-0.010438489
116	0xbe30b881	-0.17257883
117	0x3ec50133	0.38477477
118	0xbe7fe64b	-0.24990194
119	0xbe1271b7	-0.14301191
120	0xbe22eaca	-0.15909877
121	0xbda0843d	-0.078377225
122	0xbd2e5109	-0.04255775
123	0x3e6a997d	0.22910114
124	0x3e843890	0.25824404
125	0xbe7ce197	-0.2469543
126	0xbceac8eb	-0.028660258
127	0xbe417ae4	-0.18894535
128	0xbebba1c7	-0.36646864
129	0xbd0525af	-0.03250664
130	0xbeaff17c	-0.34363925
131	0xbeb3f674	-0.35148966
132	0x3d2583aa	0.040408768
133	0xbe46ceae	-0.1941478
134	0x3e81ac8d	0.25326958
135	0x3eb95841	0.36200145
136	0xbe9f726d	-0.31141987
137	0x3e83275e	0.25615972
138	0x3eb76721	0.3582087
139	0x3bd51b5f	0.006503507
140	0xbe8608ac	-0.2617849
141	0xbec862a2	-0.3913775
142	0x3ea12e04	0.3148042
143	0x3cd07382	0.025445703
144	0x3e21ebef	0.15812658
145	0x3d9823d7	0.07428711
146	0x3e9e9157	0.3097026
147	0x3e548128	0.20752394
148	0x3f0c0ab5	0.5470384
149	0xbdf14194	-0.11780086
150	0x3d801e0d	0.06255732
151	0x3ef2f905	0.47455612
152	0x3cc042a3	0.023469275
153	0xbdd2ecf0	-0.102990985
154	0xbd9548de	-0.07289289
155	0x3eaefe26	0.34178275
156	0xbd3bc862	-0.045845397
157	0xbdf9d3e6	-0.121986195
158	0x3ec748d6	0.38922757
159	0x3eb568cc	0.35431516
160	0xbe319b99	-0.17344512
161	0xbe57e421	-0.21083118
162	0xbd6e97cd	-0.058250237
163	0x3e26bd0c	0.16283053
164	0xbec51f27	-0.3850033
165	0xbea3d5a5	-0.31998935
166	0x3efcf52c	0.494058
167	0x3e7c0a73	0.24613361
168	0xbe4d6a73	-0.20060138
169	0x3f004848	0.5011029
170	0x3e61f50a	0.22066131
171	0x3eb2a60b	0.34892306
172	0x3e283948	0.16428101
173	0x3e0c2b05	0.13688286
174	0x3e14ac01	0.1451874
175	0x3ea316e2	0.31853396
176	0xbde2ef18	-0.1108076
177	0x3e830541	0.25589946
178	0x3db1a1c8	0.086734354
179	0xbe2e6de6	-0.1703411
180	0xbe47adaa	-0.19499841
181	0xbe899de4	-0.26878273
182	0xbf10db50	-0.56584644
183	0x3d4e77d9	0.050407264
184	0x3cf8316e	0.030297007
185	0xbeb921aa	-0.36158496
186	0x3dae614c	0.08514652
187	0xbdb47632	-0.088116065
188	0x3e6386ba	0.22219363
189	0xbe008e15	-0.125542
190	0x3d89ad49	0.06722505
191	0xbe233338	-0.15937507
192	0x3d41c98b	0.047311347
193	0x3d501a42	0.05080629
194	0x3ea1ff18	0.31639934
195	0xbe63b516	-0.22237048
196	0x3ed304cd	0.412146
197	0xbea7bd60	-0.3276167
198	0xbe3507fe	-0.1767883
199	0xbe1ff098	-0.15619123
200	0xbe9af70d	-0.3026661
201	0x3e299b08	0.16563046
202	0x3e168ded	0.14702578
203	0x3e8dccd9	0.2769535
204	0x3ebc9b86	0.36837405
205	0x3dc78693	0.09742465
206	0xbd2a9d73	-0.04165406
207	0xbe92694c	-0.2859596
208	0x3e6870e2	0.22699311
209	0x3ea1e7e0	0.3162222
210	0x3d3c5e51	0.045988385
211	0x3de73e62	0.112911955
212	0x3e5dd98a	0.21665016
213	0xbdae655d	-0.08515427
214	0x3e36f220	0.17865801
215	0x3e92e6a6	0.28691596
216	0xbebfb54b	-0.37443003
217	0x3e9c895d	0.3057355
218	0xbeab8174	-0.33497202
219	0xbd3da60d	-0.046300936
220	0xbebd5e80	-0.3698616
221	0x3ed98afa	0.42488843
222	0xbe961cc8	-0.29318833
223	0x3e162c01	0.14665224
224	0x3dc09461	0.09403301
225	0x3e073bc1	0.13206388
226	0x3e0f549c	0.1399712
227	0x3dd9f478	0.10642332
228	0x3dae3691	0.085065015
229	0x3e5df3d9	0.21675052
230	0x3cf3fdf0	0.029784173
231	0x3e90173b	0.28142723
232	0x3db70ee8	0.0893839
233	0x3e669254	0.22516757
234	0xbeb41ee3	-0.35179815
235	0x3ed617a5	0.41814914
236	0x3da394ad	0.07987342
237	0x3e112184	0.14172941
238	0x3e363fd6	0.17797789
239	0xbe9010a8	-0.28137708
240	0xbbee1c26	-0.007266539
241	0x3ea2cf39	0.31798723
242	0x3dbf863f	0.09351777
243	0xbf07bd5f	-0.5302333
244	0x3dda22af	0.106511466
245	0xbe2b986a	-0.1675736
246	0xbee7ea4f	-0.4529595
247	0x3ddbb14b	0.10727175
248	0xbeca2a22	-0.3948527
249	0xbe6668af	-0.22500871
250	0x3ebad49e	0.3649034
251	0x3eae3426	0.3402416
252	0xbdfd5735	-0.12370149
253	0x3e285e7e	0.16442296
254	0x3e6876d8	0.22701585
255	0x3e1adce7	0.1512333

bias f4 [32]
0	0x3e0e2225	0.13880213
1	0x3d824ff9	0.0636291
2	0x3c5735e6	0.013135409
3	0xbcf32d72	-0.029684756
4	0x3dd8abb7	0.10579627
5	0x3dcac1b9	0.09900231
6	0x3cc6f95e	0.02428883
7	0x3d441669	0.047872934
8	0xbd764130	-0.06012076
9	0xbc6f50b2	-0.014606642
10	0x3da47fb0	0.08032167
11	0xbcb8eb98	-0.022573277
12	0x3dc7996c	0.0974606
13	0x3d3a9c07	0.045558956
14	0xbba1fb2f	-0.0049432735
15	0x3cebbaab	0.028775534
16	0x3d7bbdbc	0.06146024
17	0x3d44f03c	0.048080668
18	0xbc68aa81	-0.014200808
19	0xbc45a3b4	-0.012062956
20	0x3d52fb3f	0.05150914
21	0x3d9eb30a	0.07748993
22	0x3d8ddec7	0.06927257
23	0x3bc5a6d2	0.0060318494
24	0x3d8602ef	0.06543528
25	0x3db5c4cd	0.088754274
26	0x3d83217b	0.0640287
27	0x3de4da51	0.11174453
28	0xbd14b640	-0.03630662
29	0x3d86eca7	0.065881066
30	0xbd8a5b5d	-0.067557074
31	0xbbe47911	-0.00697244

weight_ih_l0 f4 [96, 32]
0	0xbe0c9ec4	-0.1373244
1	0x3dc2dbb2	0.0951456
2	0x3d55bc90	0.05218178
3	0xbe1faa5a	-0.15592328
4	0x3ddda1f8	0.10821909
5	0xbe38151a	-0.179768
6	0xbd99f110	-0.07516682
7	0x3d8b8f51	0.06814445
8	0x3dbdc831	0.09266699
9	0xbe4825a1	-0.19545604
10	0xbe064164	-0.13110882
11	0x3dc98b00	0.09840965
12	0xbdacd0cc	-0.08438262
13	0xbd83373f	-0.06407022
14	0x3e1eb579	0.15498914
15	0xbd6624e3	-0.05618752
16	0xb89358e4	-7.0260634e-05
17	0xbe504b88	-0.20341313
18	0xbd9723c4	-0.073798686
19	0xbd181238	-0.03712675
20	0x3d9fb396	0.07797925
21	0xbc92f60a	-0.017939586
22	0x3e1b05aa	0.1513888
23	0xbdbbfa42	-0.09178592
24	0x3e11cbd2	0.14237908
25	0x3ddb45a7	0.107066445
26	0x3c8a89bb	0.016911378
27	0x3dcd9f31	0.10040129
28	0x3e20f7bf	0.15719508
29	0xbe245235	-0.16046984
30	0xbe1ca870	-0.15298629
31	0x3e830995	0.25593248
32	0xbcc7cb9f	-0.024389086
33	0xbe6c90c5	-0.231021
34	0x3d7c1f4d	0.06155329
35	0xbe13128b	-0.14362542
36	0xbd94ab31	-0.07259215
37	0xbe795168	-0.2434746
38	0xbc2f4d08	-0.010699518
39	0xbe8dba06	-0.27680987
40	0x3e826408	0.25466943
41	0xbb9460ec	-0.0045281556
42	0x3c850fc7	0.016242875
43	0xbe3771c7	-0.17914496
44	0x3c056db1	0.008143828
45	0x3d8461cf	0.06463968
46	0x3dd97288	0.10617548
47	0xbdb4ae1b	-0.088222705
48	0xbdb69948	-0.08915955
49	0xbdec5f11	-0.1154157
50	0xbe273cf0	-0.1633184
51	0xbde8790b	-0.11351212
52	0xbd25dbfc	-0.040492997
53	0xbe6c45f9	-0.23073567
54	0xbc7f50a4	-0.015583191
55	0x3dc1b829	0.09458954
56	0xbc9f229c	-0.019425683
57	0x3ccb511b	0.024818948
58	0xbd776b1d	-0.060404886
59	0xbd234862	-0.03986395
60	0xbcf68b8d	-0.03009584
61	0x3e9b2e59	0.30308798
62	0xbd5f0e26	-0.054456852
63	0xbe183240	-0.14862919
64	0xbdf48b71	-0.11940659
65	0x3cce91f2	0.025216077
66	0xbd418889	-0.04724935
67	0xbdec6e52	-0.115444794
68	0x3d639370	0.05556053
69	0xbdcb3ff5	-0.09924308
70	0x3e7d811a	0.2475628
71	0x3d530806	0.051521324
72	0x3c816832	0.015796755
73	0x3e4ea3ac	0.20179623
74	0x3e31c003	0.17358403
75	0x3cabecc6	0.020986926
76	0x3c505e50	0.012717798
77	0xbe068f10	-0.13140512
78	0xbd31598b	-0.043298285
79	0x3d9194e9	0.071084805
80	0x3cab1141	0.02088225
81	0x3e6c93d2	0.23103264
82	0x3da5b50f	0.08091175
83	0xbe4ba543	-0.19887261
84	0x3db34ee9	0.08755285
85	0x3e1f3ac8	0.15549767
86	0x3e4dda60	0.20102835
87	0x3e1b9acf	0.15195774
88	0xbe3d5adc	-0.18491691
89	0x3e3bb3b1	0.18330266
90	0xbe1d9018	-0.15386999
91	0xbe0dc751	-0.13845564
92	0x3df8987e	0.121384606
93	0x3dc39ed9	0.09551782
94	0x3d828aff	0.06374168
95	0xbc4564d5	-0.012047966
96	0xbd1a99e9	-0.037744436
97	0xbd937ef1	-0.072019465
98	0xbe36c945	-0.17850216
99	0xbd8edd66	-0.06975822
100	0x3d585fcd	0.052825738
101	0xbe39a2df	-0.18128537
102	0xbe24a0b8	-0.16076934
103	0x3e05b800	0.13058472
104	0xbddc3280	-0.107518196
105	0xbe43df62	-0.19128183
106	0x3d79fdf9	0.061033223
107	0x3e039a1f	0.12851761
108	0xbbd08dcc	-0.0063645598
109	0xbe3ebb52	-0.18626145
110	0xbe4985fc	-0.19680017
111	0xbcf847fc	-0.030307762
112	0xbe10b915	-0.14133103
113	0xbe3dca81	-0.1853428
114	0xbcdb2e9a	-0.02675562
115	0xbe1468f1	-0.14493157
116	0x3dc2e6eb	0.095167
117	0x3c80a34f	0.015702872
118	0x3e01d0c0	0.12677288
119	0x3e1e2d1c	0.15446895
120	0xbda3716f	-0.0798062
121	0x3dbb66ef	0.091504924
122	0xbe159096	-0.14605936
123	0xbe14ab5d	-0.14518495
124	0xbd186945	-0.037209768
125	0x3d5380ec	0.05163662
126	0xbb7e7bab	-0.0038831036
127	0xbd3d5242	-0.046221025
128	0x3d69a75a	0.057044365
129	0x3e139161	0.14410926
130	0xbd92da17	-0.071705036
131	0x3cbe8ae6	0.023259591
132	0xbc4f2b1b	-0.0126445545
133	0x3e25f145	0.16205318
134	0xbe089e29	-0.13341583
135	0xbd93560e	-0.07194148
136	0xbd938431	-0.07202948
137	0xbe91dd7c	-0.28489292
138	0x3e343715	0.17599137
139	0xbd8e8f03	-0.06960871
140	0x3dd51fa7	0.10406428
141	0x3db16589	0.086619444
142	0xbde0f7e4	-0.109847814
143	0x3dba91d3	0.09109845
144	0x3dff9911	0.12480367
145	0xbdc29b71	-0.09502304
146	0xbe1b0eb4	-0.15142328
147	0xbe1c45c2	-0.15260985
148	0xbde30a32	-0.11085929
149	0x3e08ffeb	0.13378875
150	0xbd1d976e	-0.038474493
151	0xbde4cbd9	-0.11171693
152	0xbe19a15c	-0.1500296
153	0x3d75f9b9	0.060052607
154	0x3de008c2	0.109391704
155	0x3df13fcb	0.11779746
156	0xbdcefb8c	-0.101065725
157	0x3d621d3f	0.055203672
158	0x3e1aa843	0.15103249
159	0x3d09697b	0.03354786
160	0xbdd7edcc	-0.10543403
161	0xbdd88896	-0.10572927
162	0x3e4a7650	0.19771695
163	0x3ca910c8	0.020637885
164	0xba851af6	-0.001015513
165	0x3c5d8c46	0.013522213
166	0x3d6f0bac	0.05836074
167	0x3d276e04	0.040876403
168	0x3db7b7ed	0.08970628
169	0xbdc7ef1e	-0.09762405
170	0x3da813a4	0.08206871
171	0x3e8873b4	0.26650774
172	0x3d59bc71	0.053158227
173	0xbde8cb70	-0.113669276
174	0x3da03e9f	0.07824444
175	0xbceaa25c	-0.028641872
176	0xbdb6b052	-0.08920349
177	0x3d8a8e24	0.067653924
178	0x3d1783c9	0.036990914
179	0x3e6c786a	0.2309281
180	0xbd961132	-0.073274985
181	0x3e0cedab	0.13762538
182	0x3db2b9d0	0.08726847
183	0x3dc6cbb7	0.09706824
184	0x3e5cc530	0.21559596
185	0xbe108de3	-0.14116625
186	0x3d6c183e	0.057640307
187	0x3df4870b	0.1193982
188	0xbe023231	-0.12714459
189	0xbd44a4d2	-0.048008747
190	0x3d3161b3	0.043306064
191	0x3dd6271b	0.104566775
192	0x3d77c22d	0.060487915
193	0xbe605cd6	-0.21910414
194	0xbd9c1b3d	-0.07622383
195	0x3e63bd05	0.22240074
196	0x3e25cad7	0.16190659
197	0x3e29856a	0.165548
198	0x3de8738f	0.11350166
199	0xbcee40b8	-0.029083595
200	0xbe0cae91	-0.13738467
201	0xbd80f439	-0.06296582
202	0xbd1969f7	-0.03745457
203	0xbc7c6dd1	-0.015407042
204	0x3e14c4b8	0.14528167
205	0xbe1cc4d6	-0.15309462
206	0xbd8531b3	-0.0650362
207	0x3e3fb9e4	0.18723255
208	0xbe0932e6	-0.13398322
209	0xbdc4964a	-0.09598978
210	0xbe3546ba	-0.17702761
211	0x3e639969	0.2222649
212	0x3e26dae2	0.16294435
213	0x3e89d3aa	0.269193
214	0x3e4df05a	0.20111218
215	0x3c242a98	0.010019921
216	0x3e09a220	0.13440752
217	0x3e2f06c7	0.17092429
218	0x3df31102	0.11868478
219	0xbd043ce0	-0.032284617
220	0x3dc391d2	0.095492974
221	0xbd9951f8	-0.074863374
222	0x3e2d4113	0.16919355
223	0x3e602326	0.21888408
224	0xbe3064b1	-0.1722591
225	0xbd314d1e	-0.043286435
226	0x3e848527	0.25882837
227	0x3c7f65c7	0.01558823
228	0x3bde6d1c	0.006787909
229	0xbe8fd154	-0.28089392
230	0xbdd0c116	-0.10193078
231	0xbd7d681d	-0.06186687
232	0x3cfca1fb	0.030838957
233	0x3cb99681	0.022654774
234	0x3d3286a9	0.043585453
235	0x3d448c7d	0.047985543
236	0xbcc8debd	-0.024520272
237	0xbdc22969	-0.094805546
238	0x3daf0fe4	0.08547953
239	0xbde7ef2f	-0.113249175
240	0xbe5b7368	-0.21430743
241	0xbe333a65	-0.17502744
242	0xbdf23e12	-0.11828245
243	0x3e06d104	0.1316567
244	0x3e0f111f	0.13971375
245	0xbd9a6fc7	-0.07540851
246	0xbdea488c	-0.114396185
247	0x3d5acb0d	0.0534163
248	0x3d382cde	0.044964664
249	0xbdc9c28f	-0.09851562
250	0x3e273f73	0.16332798
251	0xbce4de36	-0.02793799
252	0x3d249917	0.04018506
253	0x3bb0b0fb	0.0053921915
254	0x3ba1d4b1	0.004938685
255	0x3e20c36a	0.15699545

weight_hh_l0 f4 [96, 32]
0	0x3e1622b0	0.1466167
1	0xbd5b1c14	-0.053493574
2	0x3e4e0512	0.20119122
3	0x3c9e1a47	0.01929964
4	0x3d0ab38c	0.033862635
5	0x3e1e999f	0.1548829
6	0x3def0d25	0.11672429
7	0x3d9fdd9e	0.07805942
8	0x3e19bfaa	0.1501452
9	0xbd146a80	-0.03623438
10	0x3e2b7cce	0.16746828
11	0xbdd6f3b2	-0.104957
12	0xbe0f114a	-0.13971439
13	0x3e50e53c	0.20399946
14	0x3d9d2197	0.076724224
15	0x3debdfd4	0.11517301
16	0xbd851a34	-0.064991385
17	0x3caca34e	0.021073963
18	0xbe1294e7	-0.14314614
19	0x3e02eb86	0.12785158
20	0xbdc2b16d	-0.095064975
21	0x3e5470d8	0.20746171
22	0xbe33173a	-0.17489329
23	0x3dd8e2bb	0.105901204
24	0x3e0ea329	0.13929428
25	0x3d404f81	0.04695082
26	0xbddbc7f4	-0.107314974
27	0x3d22fb1a	0.03979025
28	0x3db75129	0.08951027
29	0xbda7a78f	-0.08186256
30	0x3e123c49	0.1428081
31	0xbdde7abd	-0.10863254
32	0xbc9d0324	-0.019166537
33	0xbdae3e7e	-0.08508013
34	0x3e053c32	0.13011244
35	0x3cc8956f	0.024485318
36	0x3dab85a2	0.08375098
37	0x3c82b0ee	0.015953507
38	0x3cd0821e	0.02545267
39	0x3e1b846c	0.15187234
40	0xbe39cc7f	-0.18144415
41	0xbdc14747	-0.09437423
42	0xbdd0c391	-0.10193551
43	0x3d1abf49	0.03778008
44	0x3d86e062	0.065857664
45	0x3d419614	0.047262266
46	0x3c7bd9dd	0.015371767
47	0x3dd908c4	0.10597375
48	0xbd43d93a	-0.047814585
49	0x3dcdd1f3	0.1004981
50	0xbe40c25c	-0.18824142
51	0xbcfa2364	-0.030534454
52	0xbd4bb2a5	-0.049730916
53	0x3c86336b	0.01638194
54	0x3e2166be	0.1576185
55	0xbe37781f	-0.17916916
56	0xbe232eb5	-0.15935786
57	0xbde3fe1a	-0.111324504
58	0x3d5c94e3	0.053852927
59	0xbd29d630	-0.04146403
60	0x3e2a872e	0.1665313
61	0x3ca6383c	0.020290487
62	0xbb9e7a82	-0.0048363814
63	0xbd84570e	-0.06461917
64	0xbe14a4ba	-0.14515963
65	0xbdbb44fe	-0.091440186
66	0xbd24c45f	-0.040226337
67	0xbe395c3c	-0.18101591
68	0xbd443c7c	-0.047909245
69	0x3dc3e344	0.09564832
70	0xbaa46d1b	-0.0012544723
71	0xbcdb2f9d	-0.026756102
72	0xbce5be12	-0.028044734
73	0x3d0cb6fb	0.03435419
74	0xbd08cf81	-0.033401016
75	0xbe7182c5	-0.23585041
76	0xbd548ac2	-0.051890142
77	0xbcf49952	-0.029858265
78	0x3d0b5a26	0.03402152
79	0x3ccc601c	0.024948172
80	0x3d8eefee	0.06979357
81	0x3daef2f6	0.08542435
82	0x3d766462	0.060154326
83	0xbd2ac843	-0.04169489
84	0x3dc653ad	0.09683929
85	0xbe84ed5a	-0.25962335
86	0x3e0c8bad	0.13725157
87	0x3e86b995	0.26313463
88	0x3d78d994	0.060754374
89	0xbcd1dea6	-0.025618862
90	0x3e923c7d	0.28561774
91	0xbda78e45	-0.08181433
92	0x3e5f0698	0.21779859
93	0x3daec170	0.08532989
94	0xbb473b3e	-0.0030400301
95	0x3e961d06	0.29319018
96	0xbdfd8f58	-0.12380856
97	0x3e139adb	0.14414541
98	0xbe3880b8	-0.18017852
99	0xbde0fd1b	-0.10985776
100	0x3e161e50	0.14660001
101	0x3d61c771	0.055121843
102	0x3e053c8e	0.13011381
103	0xbd852d19	-0.06502742
104	0xbdd67569	-0.10471613
105	0xb7a25a5e	-1.9353985e-05
106	0x3d607470	0.054798543
107	0x3e40e9c7	0.18839179
108	0xbddde23a	-0.10834165
109	0xbe01e56c	-0.12685174
110	0x3dfc1a7f	0.12309741
111	0xbd9dd74c	-0.0770708
112	0x3d9835af	0.07432114
113	0x3d8bc010	0.068237424
114	0x3e1712d6	0.14753279
115	0xbd86daf8	-0.06584734
116	0x3d415195	0.047196943
117	0x3dcb6d15	0.09932915
118	0xbbb4aa17	-0.0055134404
119	0xbd48f057	-0.04905733
120	0x3c3dda9a	0.011587763
121	0xbcc5db67	-0.02415247
122	0xbc236cfe	-0.009974716
123	0xbd52bdd9	-0.051450584
124	0xbdf0f3f0	-0.117652774
125	0x3dabc8b8	0.083878934
126	0x3cfe20ae	0.031021442
127	0xbe1f5083	-0.15558057
128	0xbd3a5fc0	-0.04550147
129	0x3de59acd	0.112111665
130	0xbe3c66f6	-0.18398651
131	0xbda1f42c	-0.079079
132	0xbd606a55	-0.054788906
133	0x3d46b5e6	0.048513316
134	0xbe46681f	-0.19375657
135	0x3d094aab	0.033518475
136	0x3db26a87	0.08711725
137	0xbd83fbeb	-0.06444534
138	0x3cc03094	0.023460664
139	0xbba2440e	-0.0049519604
140	0x3d79f3eb	0.061023634
141	0xbd8743e8	-0.06604749
142	0xbe31956a	-0.17342153
143	0xbe3b443a	-0.18287745
144	0x3e5cf7c0	0.21578884
145	0xbd55b90a	-0.05217842
146	0x3c2f7827	0.010709799
147	0x3d6e5d7e	0.05819463
148	0x3d82826c	0.06372532
149	0xbc2aa859	-0.010416114
150	0x3d1f66d0	0.03891641
151	0x3e0b11d3	0.13581018
152	0x3e3b9373	0.18317966
153	0x3e458ff3	0.19293194
154	0xbdc437bb	-0.09580942
155	0xbd3453b3	-0.044025134
156	0x3c8865dc	0.016650133
157	0x3e185b1a	0.14878502
158	0x3cee87b2	0.029117439
159	0x3dc2a880	0.09504795
160	0xbdc88174	-0.09790316
161	0xbcfdddf8	-0.030989632
162	0x3d6bb9a8	0.057550102
163	0xbcb60919	-0.022221135
164	0x3caac675	0.020846585
165	0xbe179078	-0.14801204
166	0xbe9da937	-0.30793163
167	0xbce18415	-0.027528802
168	0x3d318689	0.043341193
169	0x3dbaa19f	0.09112858
170	0x3d17a186	0.037019275
171	0xbd4bbc23	-0.049739968
172	0xbb9c3ac7	-0.004767749
173	0xbdd9a4d6	-0.10627143
174	0xbe70bf83	-0.23510556
175	0x3d9b3e95	0.07580296
176	0x3e4ffcb4	0.20311242
177	0x3e24f1d9	0.16107883
178	0x3ddfcb0b	0.10927399
179	0xbe19dbb5	-0.15025218
180	0x3e448864	0.19192654
181	0x3deb1528	0.114786446
182	0xbe327352	-0.17426804
183	0x3d47f8cd	0.04882126
184	0x3e5ad85e	0.213716
185	0x3e0c549f	0.13704155
186	0x3e21ccc8	0.15800774
187	0x3d0d29c3	0.034463655
188	0x3ccda398	0.025102422
189	0x3e6d06c4	0.23147112
190	0x3e7c7ebd	0.24657722
191	0xbdb16672	-0.08662118
192	0x3da53641	0.08066989
193	0xbb4f8d36	-0.0031669862
194	0x3dc5ff51	0.09667838
195	0xbcc1fba4	-0.023679562
196	0x3e7d96b3	0.24764518
197	0xbd47a797	-0.04874381
198	0xbd299a98	-0.041407198
199	0x3e268cf9	0.16264714
200	0x3e9dd92a	0.30829746
201	0x3d6c4008	0.057678252
202	0x3c419c88	0.011817105
203	0x3e2dce48	0.16973221
204	0x3d2ff132	0.04295463
205	0xbe5b0314	-0.21387893
206	0x3ce6c900	0.028172016
207	0x3d4eb1e3	0.050462615
208	0x3e5caaa5	0.2154947
209	0xbd038d23	-0.03211702
210	0x3e7bd73d	0.24593826
211	0xbd226060	-0.03964269
212	0x3aa2b565	0.0012413679
213	0xbdd0c501	-0.101938255
214	0xbd103876	-0.035210095
215	0x3e576f34	0.21038514
216	0x3d86f819	0.065902896
217	0x3c764dc6	0.015033191
218	0xbdad99e5	-0.08476619
219	0x3ea31377	0.31850788
220	0x3dc5052d	0.09620128
221	0x3e35cd11	0.17754008
222	0xbbee0cd7	-0.007264714
223	0x3dc892e6	0.09793644
224	0x3dca9cb5	0.09893171
225	0x3c8ee257	0.017441912
226	0x3d336de0	0.043805957
227	0xbd585aaf	-0.052820858
228	0xbd24440c	-0.040103957
229	0xbe1093ce	-0.14118883
230	0x3da61f30	0.08111417
231	0xbd9d8d31	-0.07692946
232	0xbc075e38	-0.00826221
233	0x3daee1f2	0.085391894
234	0x3dc1f3e0	0.094703436
235	0xbdae70b3	-0.085175894
236	0xbe1dafea	-0.15399137
237	0xbd00eb9c	-0.031474695
238	0xbd957dfe	-0.07299422
239	0xbe2373c0	-0.15962124
240	0x3d41e37b	0.047336083
241	0xbe0fdd40	-0.14049244
242	0x3d3669a1	0.04453433
243	0x3e283b7d	0.16428943
244	0x3dd813c3	0.10550644
245	0xbc8dddc7	-0.017317666
246	0xbe25ec3d	-0.16203399
247	0x3ce10de2	0.02747244
248	0x3dfe9beb	0.12432083
249	0xbc086282	-0.008324267
250	0xbe08bd34	-0.13353425
251	0x3d9e07a8	0.07716304
252	0xbdeb3804	-0.114852935
253	0xbdc867aa	-0.09785397
254	0x3e0902bf	0.13379954
255	0xbe2eadb8	-0.17058456

bias_ih_l0 f4 [96]
0	0xbb860129	-0.004089494
1	0xbcc6b52c	-0.024256311
2	0x3d78fd24	0.06078829
3	0xbdb0a334	-0.086248785
4	0x3e3b17c4	0.18270785
5	0x3df32522	0.11872317
6	0x3c095a3e	0.008383332
7	0xbe06308b	-0.13104455
8	0xbda286fc	-0.079359025
9	0x3e24fd63	0.16112284
10	0xbd0f8534	-0.03503914
11	0xbd9196dd	-0.07108853
12	0x3d5bdca3	0.053677212
13	0x3d48a5aa	0.048986115
14	0x3e632680	0.22182655
15	0x3e59ba21	0.21262409
16	0x3e212c0e	0.15739462
17	0x3e8ae93d	0.27131072
18	0xbc8dc072	-0.01730368
19	0xbd377a52	-0.044794388
20	0xbd986739	-0.07441563
21	0x3d7f1be7	0.06228247
22	0x3d40e022	0.04708875
23	0x3c744849	0.014909812
24	0x3e52e970	0.20596862
25	0xbe554e8a	-0.20830742
26	0xbdd0e9c9	-0.10200841
27	0x3e76c067	0.24096833
28	0xbc99f603	-0.018794065
29	0xbd8294a7	-0.063760094
30	0xbd666335	-0.056246955
31	0xbe1eef95	-0.15521081
32	0xbe914db9	-0.2837961
33	0xbe30c636	-0.17263111
34	0xbeaa7639	-0.33293322
35	0xbe55f13f	-0.2089281
36	0xbb01420f	-0.0019723212
37	0xbd474c38	-0.048656672
38	0x3d0cd077	0.034378495
39	0xbec758a2	-0.3893481
40	0x3cff8178	0.031189665
41	0xbc4bf331	-0.012448118
42	0xbdff1883	-0.12455847
43	0xbe34e099	-0.17663802
44	0xbe719e51	-0.23595549
45	0xbe50f9a4	-0.2040773
46	0xbea33322	-0.3187495
47	0xbe2d7350	-0.1693852
48	0xbe28c32b	-0.164807
49	0xbd9d8f9f	-0.07693409
50	0xbd9ed526	-0.077554986
51	0xbe878897	-0.26471397
52	0x3d78b685	0.06072094
53	0xbe01a451	-0.12660338
54	0xbd2d2c4c	-0.042278573
55	0xbe6c19a9	-0.23056664
56	0x3d1b3a59	0.03789744
57	0xbe921513	-0.28531703
58	0xbe17fc5e	-0.14842364
59	0xbda91f1e	-0.08257888
60	0xbe39d69a	-0.1814827
61	0xbd765b5c	-0.06014572
62	0xbe04b15b	-0.1295828
63	0xbd23c506	-0.039982818
64	0xbe3f5fd9	-0.18688907
65	0x3d1ce69a	0.038305856
66	0x3db9c03e	0.090698704
67	0xbd52befd	-0.051451672
68	0x3dd898bd	0.105760075
69	0x3db10517	0.08643549
70	0xbddcfc54	-0.10790315
71	0x3e149465	0.14509733
72	0x3e216d9c	0.15764469
73	0x3dfec9b5	0.12440816
74	0x3e57cfd8	0.2107538
75	0x3e3f9670	0.18709731
76	0xbc3d33c4	-0.011547986
77	0x3d10bd73	0.035336923
78	0x3cf44e83	0.029822594
79	0xbd9bdcf3	-0.07610502
80	0x3e411c90	0.18858552
81	0x3d56fec9	0.052489076
82	0x3d0fd0d1	0.035111252
83	0xbc3e230f	-0.011605038
84	0x3d2e3a9e	0.04253637
85	0x3d36e224	0.04464926
86	0xbe2dcb1d	-0.16972013
87	0xbd0556fb	-0.032553654
88	0x3e50594a	0.20346561
89	0x3e4efc4a	0.20213428
90	0x3e624eb4	0.22100335
91	0xbdd552ba	-0.104161695
92	0xbd75b73d	-0.059989203
93	0xbdce9c7a	-0.10088439
94	0xbd95b558	-0.07309979
95	0x3e65d90b	0.22446077

bias_hh_l0 f4 [96]
0	0x3e2d0864	0.16897732
1	0xbe31f913	-0.1738017
2	0x3cf77f2c	0.030212007
3	0x3e02a03c	0.12756437
4	0xbdb1d6c3	-0.08683541
5	0x3d9ac8e8	0.07557851
6	0x3e2fd8b8	0.17172515
7	0xbe34b05e	-0.17645404
8	0x3d81e3eb	0.063423
9	0x3da2ee92	0.0795566
10	0xbc6652bc	-0.014057811
11	0xbdcc00d0	-0.099610925
12	0xbd0b6805	-0.034034748
13	0x3dbfd3da	0.09366579
14	0x3e38995e	0.18027255
15	0x3e878776	0.26470536
16	0xbda33141	-0.07968379
17	0x3da9a290	0.082829595
18	0x3e6bcb21	0.23026706
19	0xbd875b47	-0.06609207
20	0xbe18f78e	-0.14938185
21	0xbdc17bbd	-0.09447429
22	0xbe18fe80	-0.14940834
23	0x3e541d9c	0.2071442
24	0x3a963c73	0.0011462107
25	0xbe4c87e1	-0.19973709
26	0xbdd35a4e	-0.103199586
27	0xbdcc5c9f	-0.099786036
28	0xbd0f9a5a	-0.03505931
29	0x3df8df9a	0.121520236
30	0x3e54f37f	0.20796011
31	0x3cb675d1	0.022272976
32	0xbe9b14b3	-0.3028923
33	0xbeb5c915	-0.35504976
34	0xbe9cd049	-0.3062766
35	0xbcfdecba	-0.03099667
36	0xbe0cb17b	-0.13739578
37	0xbe6ac8cd	-0.22928162
38	0x3cbda8fd	0.023151869
39	0xbe24799a	-0.16062012
40	0xbe6241d1	-0.2209542
41	0xbde734a8	-0.1128934
42	0xbe0e0e84	-0.13872725
43	0xbd878888	-0.06617838
44	0xbe05e591	-0.13075854
45	0xbe560d18	-0.20903432
46	0xbe8e1b39	-0.27755144
47	0xbd33cdaf	-0.043897327
48	0x3d1981c3	0.037477266
49	0xbdb576bb	-0.08860537
50	0x3d159746	0.03652122
51	0xbe3e35cc	-0.1857521
52	0x3c2c7ca2	0.010527762
53	0xbe0e73c6	-0.13911352
54	0x3d096ffa	0.033554055
55	0xbe934b88	-0.28768563
56	0x3e1fd2e9	0.156078
57	0xbd974805	-0.073867835
58	0xbda88b84	-0.082297355
59	0xbd7740b0	-0.060364425
60	0xbe86827e	-0.26271433
61	0xbde5a799	-0.11213607
62	0xbcf314e1	-0.029673042
63	0xbda31b9b	-0.0796425
64	0x3ba416cf	0.005007602
65	0x3daf2c22	0.085533395
66	0x3e24074b	0.16018407
67	0xbcacad1b	-0.021078637
68	0x3d83ae46	0.064297244
69	0x3d0ca97d	0.034341324
70	0xbca23cd7	-0.019804401
71	0x3da1a006	0.0789185
72	0xbdc48c2d	-0.09597049
73	0xbdaa1d9c	-0.08306429
74	0x3e8a0187	0.2695429
75	0xbe0a7f23	-0.13525061
76	0x3d14e8fa	0.036354996
77	0x3dee2952	0.11628975
78	0x3d4d55c2	0.050130613
79	0xbb6358af	-0.003469031
80	0x3e0ecf8e	0.13946363
81	0x3bfec924	0.0077754427
82	0xbdcfb036	-0.101410314
83	0xbd188602	-0.037237175
84	0x3d72ff6d	0.059325624
85	0xbe2cd0fa	-0.16876593
86	0x3dea6616	0.114452526
87	0x3cb4efc4	0.022086985
88	0xbd933926	-0.071886346
89	0x3e6f5b88	0.2337476
90	0x3e59185e	0.21200702
91	0x3d8e6994	0.06953731
92	0xbe484c18	-0.19560277
93	0x3e5f0bcf	0.21781848
94	0x3da12dd1	0.07870067
95	0x3de63a76	0.11241619

weight f4 [32, 32]
0	0xbe1907d2	-0.1494439
1	0x3e13b3f9	0.14424123
2	0xbeae025b	-0.33986172
3	0x3d06a434	0.03287144
4	0x3edb94db	0.42887005
5	0xbc9b84b6	-0.01898418
6	0x3e2a98ec	0.16659898
7	0x3d46fd28	0.048581272
8	0x3ce05287	0.027383102
9	0xbdc533cc	-0.0962902
10	0xbe53b7a6	-0.20675525
11	0xbeb8d5a1	-0.36100486
12	0x3ee5f32f	0.44912097
13	0x3eb80f54	0.35949194
14	0x3e370d05	0.1787606
15	0x3e07764b	0.13228719
16	0xbea8236c	-0.32839525
17	0x3e1b9bae	0.15196106
18	0x3dcdf362	0.10056187
19	0x3cee083e	0.029056665
20	0xbd375a6f	-0.04476398
21	0xbe432b92	-0.1905959
22	0xbe934a3f	-0.28767583
23	0x3eadce46	0.33946437
24	0xbd7476be	-0.059683554
25	0x3e3832f3	0.17988186
26	0xbd4b7907	-0.049675968
27	0x3d6ae148	0.05734375
28	0x3d9f9670	0.077923656
29	0xbe571d0b	-0.21007173
30	0xbec423d4	-0.38308585
31	0xbe955ade	-0.2917089
32	0x3dbe06ff	0.09278678
33	0xbea71cae	-0.32639068
34	0x3d6154f2	0.05501265
35	0xbe5058d1	-0.20346381
36	0x3e264c90	0.16240144
37	0x3e9da65e	0.3079099
38	0xbea46db4	-0.32114947
39	0x3e9408da	0.28913003
40	0x3eac70a3	0.33679685
41	0xbc204fd7	-0.00978466
42	0xbe60ae67	-0.21941529
43	0xbe9806f9	-0.2969282
44	0x3d81e466	0.06342392
45	0x3e0e0ff4	0.13873273
46	0xbed6a1d3	-0.41920337
47	0xbd7cadd6	-0.06168922
48	0x3d5a46a9	0.053290043
49	0x3e8d4866	0.27594298
50	0xbc83249d	-0.01600867
51	0xbf1eff83	-0.6210863
52	0xbd45058a	-0.048100986
53	0xbeb2d363	-0.349269
54	0x3d70ef12	0.058821745
55	0xbe6825b4	-0.22670633
56	0x3dee82cb	0.116460405
57	0x3ef98afb	0.48738846
58	0x3f17aaa3	0.59244746
59	0xbe7f5382	-0.249342
60	0xbec74881	-0.38922504
61	0xbe5a850d	-0.21339817
62	0xbdaca694	-0.0843021
63	0x3e70d5eb	0.23519103
64	0x3ec23fe7	0.3793938
65	0x3ed65d71	0.41868165
66	0xbef03045	-0.46911827
67	0xbebf2339	-0.3733156
68	0x3e09fdc6	0.13475713
69	0xbe87689d	-0.26447
70	0xbeb50d53	-0.35361728
71	0xbe5d0f82	-0.21587947
72	0x3ecf8c34	0.40536654
73	0x3e72796b	0.2367913
74	0x3e58004c	0.21093863
75	0xbde5bd5a	-0.112177566
76	0x3e802dff	0.25035092
77	0xbe51ad57	-0.2047628
78	0xbe8e74f5	-0.27823606
79	0xbde77168	-0.113009274
80	0xbe99c1aa	-0.30030566
81	0xbf0064bd	-0.50153714
82	0x3e919d05	0.2844011
83	0x3e524c30	0.20536876
84	0xbeebff5a	-0.46093255
85	0x3ec9c022	0.39404398
86	0xbed91d24	-0.42405045
87	0x3e279537	0.16365515
88	0x3e546517	0.20741688
89	0x3eb936bc	0.36174572
90	0x3e739f46	0.23791227
91	0x3e0f79c8	0.140113
92	0x3dbc5262	0.09195401
93	0xbe8d104d	-0.275515
94	0x3ec24794	0.37945235
95	0x3c821352	0.015878353
96	0xbf0c6924	-0.5484793
97	0x3dd687eb	0.10475143
98	0x3f08655e	0.53279674
99	0xbe95e99c	-0.29279792
100	0xbed49462	-0.41519457
101	0xbea18798	-0.31548762
102	0x3e802183	0.25025567
103	0x3f05307c	0.52027106
104	0x3e72bbc1	0.23704435
105	0x3e69dae9	0.22837414
106	0xbe1800ab	-0.14844005
107	0x3ec99418	0.393708
108	0xbcd2747c	-0.02569031
109	0x3e8f3810	0.2797246
110	0x3e7c7902	0.24655536
111	0x3e9029dd	0.2815694
112	0x3ed47133	0.41492614
113	0x3ea7f50b	0.3280414
114	0xbe9c3013	-0.30505428
115	0x3e3016f6	0.17196259
116	0xbe5d8a2b	-0.21634738
117	0xbdbbb8b6	-0.0916609
118	0x3eac8540	0.33695412
119	0xbe81ffa9	-0.25390366
120	0x3ddb50ab	0.107087456
121	0xbda3b92b	-0.07994302
122	0x3eb5b1c4	0.35487187
123	0x3e071dcc	0.1319496
124	0xbead6441	-0.3386555
125	0x3e9ed05a	0.31018335
126	0x3eb467b3	0.35235366
127	0x3e940002	0.28906256
128	0xbe352b9b	-0.17692415
129	0xbf2f9894	-0.6859219
130	0x3e4203aa	0.1894671
131	0xbf0870ef	-0.53297323
132	0x3ed495fd	0.41520682
133	0xbd9d0ebd	-0.07668827
134	0xbd4b8776	-0.049689732
135	0x3ec9fe11	0.3945165
136	0xbda6e259	-0.08148641
137	0x3dd63992	0.104601994
138	0x3f0006d0	0.50010395
139	0xbd65842c	-0.056034252
140	0xbefab728	-0.48967862
141	0x3e8f9d35	0.28049627
142	0xbeb4ff52	-0.35351044
143	0x3e27ba25	0.16379602
144	0x3ec63835	0.38714758
145	0x3ee00659	0.43754843
146	0x3ea6920b	0.32533297
147	0xbf2a7f6d	-0.66600686
148	0x39a62a84	0.00031693664
149	0x3d8de108	0.06927687
150	0x3e8c26ae	0.2737326
151	0xbdcb960d	-0.09940729
152	0x3e2cb8f0	0.16867423
153	0x3e859929	0.26093414
154	0x3e93d70d	0.28875008
155	0x3dc3da4d	0.09563122
156	0x3ceb0cb4	0.02869258
157	0x3ea83b97	0.32857963
158	0x3e960818	0.2930305
159	0x3f1585ea	0.5840746
160	0xbe835175	-0.25648084
161	0xbe16af8a	-0.147154
162	0x3d812cc9	0.0630737
163	0xbedb3e50	-0.42820978
164	0x3c995672	0.018717978
165	0xbc13754a	-0.009000132
166	0xbddf028a	-0.10889156
167	0x3ecd96c7	0.40154096
168	0x3dc151e0	0.094394445
169	0xbc884c6e	-0.016638007
170	0x3c5720b3	0.013130355
171	0xbbb99e96	-0.005664657
172	0x3eb9c44d	0.36282578
173	0xbe24cdee	-0.16094181
174	0x3e5cd237	0.21564566
175	0x3e042e52	0.12908295
176	0xbe8b968c	-0.27263296
177	0xbe63d992	-0.22250965
178	0x3da8096b	0.08204921
179	0x3e5d7791	0.21627642
180	0x3e475cac	0.19468945
181	0x3ded2783	0.11579802
182	0x3e1a4841	0.15066625
183	0x3ebdfab3	0.3710533
184	0xbeb93d79	-0.36179712
185	0x3ed3c041	0.41357616
186	0x3e5d5b47	0.21616851
187	0xbe6062a8	-0.21912634
188	0x3dc77941	0.09739924
189	0xbe83f54e	-0.2577309
190	0xbe88081c	-0.26568687
191	0x3ccc51c7	0.024941338
192	0x3ef04a89	0.46931866
193	0x3f0bb2b8	0.5456958
194	0xbe9706f8	-0.29497504
195	0x3eb818e9	0.35956505
196	0x3ed6634c	0.41872633
197	0xbee65670	-0.44987822
198	0x3e9d89f8	0.30769324
199	0xbca8d7b1	-0.020610662
200	0xbecb3fb2	-0.39697033
201	0x3ee8861b	0.45414814
202	0xbe74e2b8	-0.23914611
203	0xbe09f65d	-0.13472886
204	0xbe804cd1	-0.25058606
205	0xbe602952	-0.21890762
206	0xbe646ea5	-0.22307833
207	0xbe1b0a3a	-0.1514062
208	0x3e3792e1	0.17927124
209	0x3e1b665a	0.15175763
210	0xbe8f58ab	-0.27997336
211	0x3eb6a129	0.3566983
212	0xbcf4e91d	-0.029896313
213	0x3edb8065	0.42871395
214	0xbe5fc1a2	-0.21851209
215	0x3ed24078	0.4106481
216	0x3e103a8a	0.14084831
217	0xbef14a85	-0.47127166
218	0x3e946071	0.2897983
219	0xbc911051	-0.017707976
220	0xbd4b9aba	-0.049708106
221	0x3ed36fa9	0.41296127
222	0x3ddbc360	0.10730624
223	0x3ea4f217	0.3221595
224	0x3efefe38	0.4980333
225	0xbd5dde26	-0.054166935
226	0x3d6331d8	0.055467457
227	0xbdd7878d	-0.10523901
228	0x3e63cc4c	0.22245902
229	0xbea6dbbf	-0.32589528
230	0x3e5ddb6a	0.21665731
231	0xbeca0505	-0.39456955
232	0xbe8dc3b5	-0.27688375
233	0x3d247d72	0.040158696
234	0x3c49b24f	0.0123105785
235	0x3ec8c02e	0.3920912
236	0x3ed3671d	0.41289607
237	0xbe6a8c96	-0.22905192
238	0x3e677542	0.22603324
239	0xbe372bb4	-0.17887765
240	0x3e7f12e5	0.24909551
241	0x3eb09d78	0.3449514
242	0xbdb88a8a	-0.09010799
243	0x3e68284d	0.22671624
244	0x3e5bee34	0.21477586
245	0xbe3891cd	-0.18024369
246	0xbd6520b7	-0.055939402
247	0xbeb81337	-0.3595216
248	0x3dc0886b	0.0940102
249	0xbef9d1b0	-0.4879279
250	0xbc9dc99d	-0.019261176
251	0xbd6aa8b5	-0.057289798
252	0x3eac3132	0.33631283
253	0xbda6769d	-0.081280924
254	0x3ee754df	0.4518194
255	0xbed98e75	-0.424915

bias f4 [32]
0	0x3bcbe0e2	0.0062218765
1	0x3e04cde0	0.1296916
2	0xbc9cbbb5	-0.019132474
3	0xbd0803bf	-0.033206698
4	0x3d8ac8aa	0.06776555
5	0x3ab576fe	0.0013844667
6	0x3cbaa0b9	0.022781717
7	0x3c2cbc28	0.010542907
8	0x3d95d00c	0.073150724
9	0x3ce05744	0.027385361
10	0x3de62f37	0.11239474
11	0x3d03cee3	0.032179724
12	0x3d5fc6e8	0.05463305
13	0xbd4545ef	-0.048162397
14	0xbd23f893	-0.04003198
15	0x3e0bd0d0	0.13653874
16	0x3abb002e	0.0014267021
17	0xbc67b2d4	-0.014141757
18	0x3cc889bf	0.024479745
19	0xbd5211a6	-0.051286362
20	0x3d7024d5	0.058628876
21	0x3cc0c919	0.02353339
22	0xbba75f63	-0.0051078065
23	0x3d849fdc	0.06475803
24	0xbda9421c	-0.082645625
25	0x3cc7d3d0	0.024392992
26	0x3ceb3286	0.028710615
27	0x3d2b9c78	0.041897267
28	0x3d5504fd	0.05200671
29	0x3c8684e3	0.016420787
30	0xbcbeffbd	-0.023315305
31	0xbc5e8c89	-0.013583311

weight f4 [5, 32]
0	0xbdab4515	-0.08362786
1	0xbea5a082	-0.3234902
2	0x3ec158ba	0.37763005
3	0xbe397232	-0.18109968
4	0xbe17ef2e	-0.14837334
5	0xbd9e4d0f	-0.077295415
6	0x3ea8f91c	0.33002555
7	0x3eb26c6b	0.3484834
8	0xbe082ee3	-0.13299136
9	0x3ebdb67d	0.3705329
10	0xbd3789e9	-0.044809256
11	0x3e773041	0.24139501
12	0xbec539eb	-0.3852075
13	0xbec5a13a	-0.3859957
14	0xbe5cdff9	-0.21569814
15	0x3e0d2ada	0.13785878
16	0x3d318619	0.043340776
17	0x3e8406ed	0.25786534
18	0xbea228f1	-0.3167186
19	0xbecc6601	-0.39921573
20	0x3e8fcd03	0.280861
21	0x3eb0f520	0.34562016
22	0x3e242dae	0.1603305
23	0xbecca53e	-0.3996982
24	0xbeaf2dbb	-0.34214577
25	0x3e90d030	0.28283834
26	0x3e06826e	0.13135692
27	0x3d9e3536	0.07724993
28	0xbebe162b	-0.37126288
29	0xbe491d92	-0.19640186
30	0x3edd3cce	0.43210453
31	0x3ec287e5	0.37994304
32	0x3e69e819	0.22842444
33	0xbc01b679	-0.00791704
34	0x3e2cd2e4	0.16877323
35	0x3d34cf3d	0.04414295
36	0xbe8b3c2d	-0.27194348
37	0xbe8dc759	-0.27691153
38	0xbe24a0f2	-0.16077021
39	0x3de1d5a4	0.11027077
40	0x3e5ebaa7	0.2175089
41	0xbe64bf69	-0.22338642
42	0xbedb0600	-0.42778015
43	0xbe4d0558	-0.2002157
44	0x3e33dc1f	0.17564438
45	0xbe2fc0ef	-0.17163442
46	0x3ec31798	0.38103938
47	0xbef9c05d	-0.48779574
48	0x3e98f573	0.29874763
49	0xbe91ac77	-0.28451893
50	0xbd4037be	-0.04692816
51	0x3d9bf951	0.07615913
52	0xbed47845	-0.41498008
53	0x3e93a7af	0.2883887
54	0xbd4ff950	-0.050774872
55	0x3e1d1b3d	0.15342422
56	0x3e4e573e	0.20150468
57	0x3e788ffe	0.24273679
58	0xbde9e3c8	-0.11420399
59	0x3def8d1a	0.11696835
60	0xbeb56d03	-0.35434732
61	0xbd01b53e	-0.031666987
62	0x3dd1fb4a	0.10253008
63	0x3ea51881	0.32245257
64	0xbdf6b91b	-0.12047025
65	0xbf04dfb6	-0.51903856
66	0x3dbe6e02	0.09298326
67	0xbed5c45a	-0.41751367
68	0xbeb582d4	-0.35451376
69	0xbeb8c236	-0.3608567
70	0x3ec48f4d	0.3839058
71	0x3e729ae6	0.23691902
72	0xbeab7ebe	-0.33495134
73	0xbeede6f6	-0.46465272
74	0x3d004fd5	0.031326134
75	0xbebbc8ad	-0.3667654
76	0xbe972baa	-0.295255
77	0x3ebad4f3	0.36490592
78	0xbe602153	-0.21887712
79	0x3ecae0e3	0.396247
80	0xbdd2af1e	-0.10287307
81	0xbe2d16de	-0.16903254
82	0x3e5c7653	0.21529512
83	0x3c910c49	0.017706053
84	0x3cc764c2	0.024340037
85	0xbdb23bfa	-0.08702846
86	0xbd17f715	-0.03710087
87	0x3e2b254e	0.1671345
88	0xbd423e2e	-0.04742258
89	0x3ec32120	0.3811121
90	0x3bda2ba8	0.0066580363
91	0x3e0aacbe	0.13542458
92	0x3ed1b787	0.40960333
93	0x3efeeb46	0.49788874
94	0x3ea840ae	0.32861847
95	0x3e76bbbd	0.24095054
96	0x3e228e3b	0.15874569
97	0xbea38206	-0.31935138
98	0xbe0cbd40	-0.13744068
99	0x3e031b84	0.12803465
100	0x3cfaa303	0.030595308
101	0x3e7d568e	0.24740049
102	0xbe90bab7	-0.28267452
103	0xbe6e11d8	-0.23248994
104	0x3e9769fd	0.2957305
105	0x3ea78be9	0.3272393
106	0xbea848ce	-0.32868046
107	0x3e7888a6	0.24270877
108	0x3da83418	0.08213061
109	0x3e2d7b17	0.16941486
110	0x3e5e6ef3	0.21722011
111	0x3d1265c5	0.035741586
112	0x3e6a5cef	0.22887014
113	0x3e1cc32a	0.15308824
114	0xbe843af3	-0.25826225
115	0x3dfa3d86	0.12218766
116	0xbe99fd2e	-0.30075973
117	0xbdc35a68	-0.09538728
118	0xbeb4ab22	-0.35286814
119	0xbed8d012	-0.42346245
120	0x3e81ae07	0.25328085
121	0x3e0c882f	0.13723825
122	0xbed3cee8	-0.41368794
123	0xbec8ef60	-0.3924513
124	0x3e03a920	0.12857485
125	0x3d7314aa	0.05934588
126	0x3e2f4842	0.17117408
127	0xbd94c57f	-0.07264232
128	0x3dd63cfc	0.104608506
129	0x3eec5e91	0.46165898
130	0xbe01c744	-0.1267367
131	0x3dd03f70	0.1016835
132	0x3ed445d6	0.4145953
133	0xbe75c2e8	-0.24000132
134	0x3b98aa4d	0.0046589733
135	0xbe4e7f93	-0.20165853
136	0x3f089efc	0.5336759
137	0x3ea62b4c	0.32454908
138	0x3dfa8838	0.12233013
139	0x3eea9b59	0.45821646
140	0xbcab633e	-0.020921346
141	0xbe8cfb9c	-0.27535713
142	0xbe3cde1b	-0.18444102
143	0x3f0ebe56	0.5575918
144	0xbb787b5f	-0.0037915332
145	0xbe906281	-0.28200153
146	0xbef36f0a	-0.47545654
147	0xbec6f2c2	-0.38857085
148	0x3f0ab047	0.5417523
149	0xbed92f6c	-0.42418993
150	0xbd88c92d	-0.06678996
151	0x3efebd12	0.49753624
152	0xbeec8496	-0.46194905
153	0xbeee305e	-0.46521276
154	0xbe5b6ffa	-0.21429434
155	0xbef35f57	-0.47533676
156	0x3e5bbbf7	0.21458422
157	0xbebe6166	-0.37183684
158	0xbe6cc201	-0.23120882
159	0xbe6642de	-0.22486445

bias f4 [5]
0	0xbd1cd2b6	-0.038286887
1	0x3be39022	0.006944672
2	0x3ca8fa28	0.020627096
3	0xbdcc3030	-0.099701285
4	0x3dbbee7d	0.091763474
