visualization/policy_nns/Overcooked/mapB/agent_1.pt (torch, 44481 bytes, 12 tensors)

weight f4 [32, 32]
0	0xbcc26396	-0.023729127
1	0x3e2889e8	0.16458857
2	0xbd452bf5	-0.048137624
3	0x3eac6cca	0.3367675
4	0xbeaecac1	-0.34139064
5	0xbe120946	-0.1426135
6	0xbe88f5e0	-0.26750088
7	0xbef0898c	-0.4697994
8	0x3eb39b33	0.35079345
9	0xbeb9b424	-0.3627025
10	0xbeac88db	-0.33698162
11	0x3eebedc4	0.46079838
12	0x3eea7c93	0.45798168
13	0x3ec94594	0.39310896
14	0xbebca730	-0.36846304
15	0x3e698c4c	0.22807425
16	0x3ec8a88f	0.391911
17	0xbe629761	-0.22128059
18	0xbe787da4	-0.24266678
19	0x3e2f58fd	0.1712379
20	0x3ccfe331	0.025376888
21	0x3d95e196	0.07318418
22	0xbea8c6eb	-0.32964262
23	0xbe50d759	-0.20394649
24	0xbed437b5	-0.4144875
25	0xbd5a4f21	-0.05329812
26	0xbec165cf	-0.37772986
27	0xbecbf373	-0.39834175
28	0x3c05682b	0.008142511
29	0x3baa14b7	0.0051904577
30	0x3ead69a4	0.3386966
31	0x3e7d6526	0.24745616
32	0xbebb9004	-0.36633313
33	0x3e982298	0.29713893
34	0xbeb2a615	-0.34892336
35	0xbed2e797	-0.41192314
36	0xbe662799	-0.22476043
37	0x3ecb9ba2	0.39767176
38	0x3edb3b29	0.42818573
39	0xbe963810	-0.29339647
40	0x3e0db30b	0.1383783
41	0x3ea15371	0.31508973
42	0x3e849541	0.25895122
43	0xbd7705d2	-0.060308285
44	0xbf1a8a72	-0.603675
45	0x3ec0dc8d	0.37668267
46	0x3e057c74	0.13035756
47	0x3ea1c373	0.31594428
48	0xbe4bfa54	-0.19919711
49	0x3e9cc720	0.3062067
50	0x3ed242b0	0.41066504
51	0x3dae66f0	0.085157275
52	0x3e18f530	0.14937282
53	0xbd0ab2ac	-0.0338618
54	0x3ddb431a	0.10706158
55	0xbd0c55bb	-0.034261446
56	0x3c75469d	0.014970449
57	0xbe964578	-0.29349875
58	0x3c92096c	0.017826758
59	0xbc040748	-0.008058377
60	0x3e5a9b80	0.21348381
61	0xbe4f20ed	-0.20227404
62	0x3e4d6537	0.20058142
63	0xbe57deee	-0.21081135
64	0x3f0ae4fd	0.5425566
65	0xbeb90209	-0.36134365
66	0x3e9328fd	0.2874221
67	0xbd61da14	-0.055139616
68	0xbde308c6	-0.11085658
69	0x3ea06c37	0.3133256
70	0x3e5d70f3	0.21625118
71	0x3f1f349e	0.6218966
72	0xbeec18a7	-0.46112558
73	0xbdfb8bac	-0.122825
74	0x3db530e5	0.088472165
75	0xbdf8b522	-0.12143923
76	0xbdbeb298	-0.09311408
77	0x3e9ee394	0.31033003
78	0xbeae0684	-0.33989346
79	0x3e8ae774	0.2712971
80	0x3dfd4932	0.123674765
81	0x3ebb7125	0.3660976
82	0x3e1187e0	0.14211988
83	0xbe88e5fe	-0.2673797
84	0x3e8cd89e	0.27509016
85	0x3e74e578	0.2391566
86	0xbe80688d	-0.25079766
87	0xbcfa4604	-0.030550964
88	0xbd1b3f6a	-0.037902273
89	0xbed5789f	-0.4169359
90	0xbe87fed2	-0.265616
91	0xbecbbc14	-0.3979193
92	0x3e53b5bf	0.206748
93	0x3ed73ec4	0.42040074
94	0xbeadc59e	-0.33939832
95	0xbc871971	-0.016491624
96	0xbef0e664	-0.47050774
97	0x3ecaf9b5	0.39643636
98	0x3ed69570	0.41910887
99	0x3e8bf5cd	0.2733597
100	0xbeb4443b	-0.35208306
101	0xbe895ac1	-0.26827052
102	0x3f1277ba	0.5721394
103	0xbf17e85a	-0.59338915
104	0xbd0fac91	-0.03507668
105	0x3e80e41b	0.2517403
106	0xbe4e5b32	-0.20151976
107	0x3d8a299d	0.06746218
108	0x3ea5b815	0.32367006
109	0xbe46bbae	-0.19407532
110	0x3d662b5f	0.056193706
111	0x3ea424db	0.32059368
112	0x3d8a44a4	0.067513734
113	0x3e4b7c7a	0.19871703
114	0xbe5fa773	-0.2184122
115	0x3d8c4e51	0.06850875
116	0x3e0dfbd0	0.1386559
117	0x3ef8501f	0.48498628
118	0x3ece7a9e	0.40327924
119	0x3e824430	0.25442648
120	0xbe46cf11	-0.19414927
121	0xbd89f6f9	-0.067365594
122	0xbe9bbc7a	-0.30417234
123	0xbec3109d	-0.38098612
124	0x3ea7638c	0.32693136
125	0x3cde7f6f	0.027160374
126	0x3edaab66	0.42708892
127	0xbe3e3673	-0.18575458
128	0xbe5b25cd	-0.21401139
129	0x3f1cdd01	0.61274725
130	0xbcd47dd8	-0.025938913
131	0x3efc9a27	0.4933636
132	0x3c4f4bbd	0.012652335
133	0xbea55d5b	-0.32297787
134	0x3e048af6	0.12943634
135	0x3f16f122	0.5896169
136	0x3dcc3509	0.09971053
137	0xbe90dd97	-0.2829406
138	0xbebc9a2b	-0.3683637
139	0x3ef38691	0.47563604
140	0xbe750803	-0.23928837
141	0xbe1d15d4	-0.15340358
142	0x3e3a56bf	0.18197154
143	0xbe98a086	-0.2980997
144	0x3d9fb4e2	0.077981725
145	0x3e7afaf6	0.24509797
146	0xbec088d0	-0.3760438
147	0x3cfa458c	0.03055074
148	0x3f236085	0.6381915
149	0xbe160e8d	-0.14653988
150	0xbec93120	-0.39295292
151	0x3e0d29a9	0.13785423
152	0x3f029847	0.51013607
153	0x3eb93aa5	0.36177555
154	0x3eb7cad0	0.3589692
155	0x3e7c08da	0.24612752
156	0x3e81768d	0.2528576
157	0x3ec1177c	0.3771323
158	0x3edd272c	0.43193948
159	0x3e71b41b	0.23603861
160	0x3d8f528d	0.06998167
161	0xbf27ae7b	-0.6550061
162	0x3e815e5a	0.25267297
163	0xbe8bb722	-0.27288157
164	0x3ee57fa2	0.4482394
165	0x3e64a2be	0.22327706
166	0x3e854607	0.2602999
167	0x3e85bb34	0.26119387
168	0xbec52a25	-0.38508716
169	0x3ed9ad7f	0.4251518
170	0x3e638979	0.2222041
171	0x3afd47f8	0.0019323817
172	0xbdd1e242	-0.102482334
173	0x3e592d83	0.21208768
174	0xbd9477fb	-0.07249447
175	0xbd9d0afa	-0.07668109
176	0x3e95eb74	0.292812
177	0xbe7b4094	-0.24536353
178	0x3ed75080	0.42053604
179	0xbe4c34ec	-0.19942063
180	0xbe9f29b0	-0.31086493
181	0x3c12104e	0.00891502
182	0xbdc00105	-0.093751945
183	0xbead045a	-0.33792382
184	0xbea7be07	-0.32762167
185	0xbe06bc11	-0.13157679
186	0x3e7c08ad	0.24612685
187	0xbe97c354	-0.2964121
188	0x3e8c9fb4	0.27465594
189	0x3d5f83d3	0.054569077
190	0x3e5d2093	0.21594457
191	0xbcb2ad86	-0.021811258
192	0x3d152901	0.036416057
193	0x3d9d39be	0.07677029
194	0x3e4da7f3	0.20083599
195	0xbe965f34	-0.2936951
196	0xbefa6175	-0.4890248
197	0x3e880f92	0.2657438
198	0xbe3a0077	-0.1816424
199	0xbdd7e3b4	-0.10541478
200	0xbec69ee0	-0.38793087
201	0x3e69b503	0.22822957
202	0xbd67a52c	-0.056554005
203	0x3e358f6f	0.17730497
204	0xbeaa4bb9	-0.33260897
205	0xbe7aa483	-0.24476819
206	0x3d46b3bc	0.04851125
207	0xbe43946c	-0.19099587
208	0xbe8a25f4	-0.2698208
209	0x3e970d20	0.295022
210	0xbed77fca	-0.42089683
211	0xbd080321	-0.03320611
212	0x3e991ec3	0.29906282
213	0x3e85e545	0.2615148
214	0x3ece0e74	0.40245402
215	0xbeac0f9c	-0.3360566
216	0xbeb7b098	-0.35876918
217	0xbe044d55	-0.12920125
218	0x3ea1e6a9	0.31621292
219	0xbd52431f	-0.051333543
220	0xbb64ab86	-0.0034892275
221	0x3e863e05	0.26219192
222	0xbe338887	-0.1753255
223	0xbdd1134b	-0.10208758
224	0x3e852928	0.26007962
225	0xbe90ce8d	-0.28282586
226	0x3e58348e	0.21113798
227	0x3e78d3b0	0.24299502
228	0x3de88ec6	0.11355357
229	0x3e6dab17	0.23209797
230	0xbeac49db	-0.33650097
231	0x3d14e088	0.036346942
232	0x3e763db2	0.24046972
233	0xbddfb4ed	-0.10923181
234	0xbe440ce8	-0.19145548
235	0x3d71e9dd	0.05906092
236	0x3eb13707	0.34612295
237	0xbe2c4639	-0.16823663
238	0x3e2cf624	0.1689077
239	0x3ecc3087	0.39880773
240	0xbd1d9304	-0.038470283
241	0xbda64c24	-0.081199914
242	0x3e89c20d	0.26905861
243	0xbea41dc5	-0.32053962
244	0x3e6c5817	0.23080479
245	0xbd201f7f	-0.039092537
246	0x3e405f64	0.18786389
247	0xbec170cb	-0.37781367
248	0xbd82873e	-0.06373452
249	0xbeb7011b	-0.3574303
250	0xbe696f3f	-0.22796343
251	0xbde398af	-0.111131065
252	0x3ea24a34	0.31697237
253	0xbe361c95	-0.1778434
254	0x3d7d6c22	0.0618707
255	0x3ebca8e0	0.3684759

bias f4 [32]
0	0x3da26709	0.07929809
1	0xbce56046	-0.028000008
2	0x3d198b6d	0.037486482
3	0x3d8ece92	0.06972994
4	0x3d7e44bb	0.062077265
5	0xbd1bf683	-0.03807689
6	0x3d6eecd7	0.058331337
7	0xbcce6bb9	-0.02519785
8	0x3e058e4a	0.1304256
9	0x3d1c3120	0.038132787
10	0x3d44a259	0.04800639
11	0xbcda2997	-0.02663116
12	0xbc09f5f8	-0.00842046
13	0xbbefd43c	-0.0073190015
14	0x3d39c844	0.045357004
15	0x3d8e1c5c	0.06939003
16	0x3d9407fd	0.07228086
17	0xbde69c11	-0.11260236
18	0xbc07372c	-0.0082529
19	0x3e035c47	0.1282817
20	0xbd80b7c1	-0.06285048
21	0x3e05fe62	0.1308532
22	0x3c96c616	0.018405002
23	0x3cb6ee67	0.022330476
24	0x3d7e8f84	0.062148586
25	0x3d95cee8	0.07314855
26	0x3ccc61a7	0.024948908
27	0x3d94edac	0.07271895
28	0x3ab3ec74	0.0013727085
29	0xbd32b972	-0.043633886
30	0xbbc8a217	-0.0061228382
31	0x3cd13364	0.0255372

weight f4 [32, 32]
0	0xbe52da0c	-0.20590991
1	0xbee37f38	-0.44432998
2	0x3e36631e	0.17811248
3	0xbe932c3c	-0.28744686
4	0x3b9438b9	0.0045233634
5	0x3ebf83bf	0.37405202
6	0xbda1882f	-0.07887303
7	0xbdac78ee	-0.08421503
8	0x3f168596	0.58797586
9	0xbe6f0369	-0.23341145
10	0x3ef3614e	0.47535175
11	0x3ea27fe5	0.317382
12	0xbea8d75d	-0.3297681
13	0x3eaa35dd	0.3324422
14	0x3dcae1f9	0.09906382
15	0x3ea2a6be	0.3176784
16	0xbebb243f	-0.3655109
17	0xbe6fbd62	-0.23412088
18	0x3e7cc9b0	0.24686313
19	0x3e1916d3	0.14950113
20	0xbeb951b7	-0.36195156
21	0x3f048de3	0.51779
22	0xbeaf34f7	-0.34220096
23	0x3eaec0f2	0.3413158
24	0x3eec2a60	0.4612608
25	0xbe28ae2c	-0.16472691
26	0xbd272fed	-0.04081719
27	0x3e17d1f7	0.14826189
28	0xbdf2b097	-0.11850088
29	0xbc5a1748	-0.013311215
30	0x3f05a7ad	0.5220898
31	0xbe3634c1	-0.17793562
32	0xbe887179	-0.26649073
33	0x3eab5612	0.33464104
34	0xbe881138	-0.26575637
35	0x3edf41d1	0.436049
36	0x3e5ac4c9	0.2136413
37	0x3c725dd0	0.014792874
38	0x3e86b07d	0.26306525
39	0xbe580bce	-0.21098253
40	0x3e875b80	0.26436996
41	0x3d9eda6e	0.07756506
42	0xbf0db389	-0.55352074
43	0x3e519823	0.20468192
44	0xbdbf0032	-0.09326209
45	0xbe23a105	-0.15979393
46	0xbd1f6d8f	-0.038922843
47	0x3e6cb6a2	0.23116544
48	0xbd945816	-0.072433636
49	0xbd677b21	-0.05651391
50	0x3e2dbafc	0.1696586
51	0xbf17250b	-0.590409
52	0x3ee6f116	0.4510581
53	0xbed7577a	-0.42058927
54	0x3de66c37	0.11251109
55	0xbe125b74	-0.14292699
56	0x3f5a9b4f	0.8539323
57	0xbc79ef4b	-0.015254806
58	0x3e273d26	0.1633192
59	0x3f045cbf	0.5170402
60	0xbdfb34f3	-0.12265959
61	0xbeb5bc58	-0.35495257
62	0xbeb7bbbf	-0.35885426
63	0xbdfd6d69	-0.12374384
64	0x3e9e27d7	0.3088977
65	0x3e45d122	0.19318059
66	0x3ec0e498	0.37674403
67	0xbe926c98	-0.28598475
68	0x3c3c74d5	0.011502464
69	0xbe94b96c	-0.29047716
70	0x3ef6dde6	0.4821617
71	0x3e9c04ef	0.30472514
72	0x3dd744a9	0.10511143
73	0x3e36a923	0.17837958
74	0xbdb6c6f3	-0.08924665
75	0x3e0eaf4e	0.13934061
76	0xbde0604e	-0.10955869
77	0x3c8b42b5	0.016999582
78	0x3e5f348e	0.21797392
79	0x3eb49838	0.35272384
80	0x3e739094	0.23785621
81	0xbee0298b	-0.43781695
82	0xbe7151b7	-0.23566328
83	0x3e77eaab	0.24210612
84	0xbc6d249b	-0.014474059
85	0x3ef93aee	0.48677772
86	0x3d921dc9	0.07134587
87	0xbeaa777b	-0.3329428
88	0xbf128da7	-0.57247394
89	0x3e1da816	0.15396151
90	0xbe91f2a2	-0.28505427
91	0xbe16566b	-0.14681403
92	0x3db3c58f	0.08777916
93	0xbeacd349	-0.33754948
94	0xbe77376c	-0.24142236
95	0x3e0dd7f5	0.13851912
96	0x3e220505	0.15822227
97	0xbdba8057	-0.0910651
98	0x3ec7b846	0.39007777
99	0x3dbea09c	0.093079776
100	0xbecda29b	-0.4016312
101	0xbedab5f3	-0.4271694
102	0x3eb78a1d	0.3584756
103	0x3df94802	0.121719375
104	0xbe01cedb	-0.12676565
105	0xbe992906	-0.2991411
106	0xbf029d65	-0.51021415
107	0xbe494300	-0.19654465
108	0x3ee119ce	0.43965
109	0x3d087069	0.033310328
110	0x3e7514d3	0.23933725
111	0x3efae30c	0.49001348
112	0x3ed19fe7	0.40942308
113	0xbeb89c1c	-0.36056602
114	0xbe9faa03	-0.31184396
115	0xbee8d5c8	-0.45475602
116	0xbd93b806	-0.07212834
117	0xbe8bb651	-0.27287534
118	0xbbd4bb80	-0.0064920783
119	0x3ec04f9c	0.37560737
120	0xbe90d06a	-0.28284007
121	0xbec5c7f3	-0.38629112
122	0xbeb676a6	-0.35637397
123	0x3e3521f1	0.17688729
124	0x3d01da52	0.031702347
125	0x3eccd070	0.40002775
126	0xbe9b6ce8	-0.30356526
127	0x3e9a29e1	0.30110076
128	0xbe22590d	-0.15854283
129	0xbdba307a	-0.090912774
130	0x3e982ba7	0.29720804
131	0x3e4dd463	0.2010055
132	0xbd815a33	-0.06316032
133	0xbded0cc7	-0.11574703
134	0x3ed39205	0.41322342
135	0x3ecc19b7	0.3986337
136	0x3eb8e068	0.36108708
137	0x3eb88553	0.36039218
138	0x3f1865ff	0.59530634
139	0x3e2f6110	0.1712687
140	0xbea99cf0	-0.33127546
141	0xbed0afd2	-0.4075914
142	0xbb49bc32	-0.003078234
143	0x3ea16301	0.31520846
144	0xbe0315b6	-0.12801251
145	0xbcad79fb	-0.021176329
146	0x3dfaef53	0.12252679
147	0xbe833ed2	-0.25633866
148	0x3bfbbecf	0.0076826583
149	0xbeeab55e	-0.45841497
150	0xbece92c7	-0.40346357
151	0xbe02a121	-0.12756778
152	0xbeb626f3	-0.3557659
153	0xbe86a8ed	-0.26300755
154	0x3df03ea5	0.117306985
155	0x3dfc5836	0.123215124
156	0xbdaf86a8	-0.085706055
157	0xbea403e2	-0.32034212
158	0xbe7ca596	-0.24672541
159	0x3e09b497	0.13447796
160	0x3e3b5f30	0.1829803
161	0xbdcec91b	-0.100969516
162	0x3e9ed024	0.31018174
163	0xbefd7b32	-0.49508053
164	0x3e48be4b	0.19603841
165	0x3e9fd0cc	0.31213987
166	0xbeb50a89	-0.353596
167	0xbe73175c	-0.2373938
168	0x3da11aab	0.07866415
169	0x3e7216be	0.23641488
170	0xbea44ed6	-0.32091397
171	0x3ef16089	0.47143963
172	0xbed2a041	-0.4113789
173	0xbf0238bd	-0.50867826
174	0xbe439110	-0.19098306
175	0xbecb42e2	-0.39699465
176	0x3ec163cc	0.3777145
177	0x3d8924c8	0.066964686
178	0xbe880fbe	-0.2657451
179	0x3e82ce11	0.2554784
180	0x3daedb88	0.08537966
181	0x3eaf656a	0.3425706
182	0xbd33c7bb	-0.04389165
183	0x3edc76fb	0.43059525
184	0xbf248813	-0.6427013
185	0x3e80ce6e	0.25157493
186	0xbef48664	-0.47758782
187	0xbe9102ff	-0.28322598
188	0x3e2326a3	0.15932707
189	0x3e9d6d78	0.3074758
190	0x3d5f45fe	0.05451011
191	0xbeb6ec5d	-0.35727206
192	0xbe555401	-0.20832826
193	0xbdb89e27	-0.0901454
194	0x3eacbe2b	0.33738837
195	0xbdf29bcb	-0.118461214
196	0x3e9a5123	0.30140027
197	0x3df05df0	0.11736667
198	0xbe3f871d	-0.18703885
199	0x3e741c97	0.23839031
200	0x3f16e2a5	0.5893958
201	0xbe151ce2	-0.14561799
202	0xbf19ad77	-0.6003031
203	0x3e5b2e4e	0.21404383
204	0x3e3e1f20	0.18566561
205	0xbeb04dce	-0.3443436
206	0xbcfc7c56	-0.030821007
207	0xbdb5b719	-0.08872814
208	0xbee3e3a5	-0.44509616
209	0xbe414bd5	-0.18876584
210	0xbe4b7605	-0.1986924
211	0xbda53031	-0.080658324
212	0x3e94bf83	0.29052362
213	0xbe6071a8	-0.21918356
214	0x3e674f83	0.22588925
215	0x3ea54541	0.322794
216	0xbe1945af	-0.14967988
217	0xbecd2a69	-0.4007142
218	0x3e406840	0.18789768
219	0xbd7bfdec	-0.061521456
220	0xbe9c270e	-0.30498546
221	0x3d9d4996	0.07680051
222	0xbe988c28	-0.2979443
223	0xbdcafb0e	-0.09911166
224	0x3e1dd28a	0.15412346
225	0x3eb15f88	0.34643197
226	0xbcd435aa	-0.025904495
227	0xbe9a6169	-0.30152443
228	0xbef2dd68	-0.47434545
229	0x3ecba737	0.39776012
230	0xbe16ec80	-0.14738655
231	0xbe5c7537	-0.21529089
232	0xbde1982a	-0.11015351
233	0x3d8ad5ba	0.06779046
234	0x3e252869	0.16128697
235	0x3f05dafa	0.52287257
236	0xbd98508f	-0.0743724
237	0x3e08c36d	0.13355799
238	0x3e5cb17f	0.21552084
239	0xbe493a99	-0.1965126
240	0x3e91ed00	0.2850113
241	0xbeab6aea	-0.33480006
242	0xbdf747b4	-0.12074223
243	0xbee2352b	-0.4418119
244	0x3e069882	0.13144115
245	0xbd8f0579	-0.06983466
246	0x3d7345bd	0.05939268
247	0xbe8b076b	-0.27154097
248	0x3f11a240	0.568882
249	0x3c07582a	0.008260766
250	0x3ef5a394	0.47976363
251	0x3ee59c92	0.44846016
252	0xbeba0062	-0.36328417
253	0xbec1e583	-0.37870416
254	0xbe2ad5a8	-0.16683066
255	0x3de074eb	0.109598

bias f4 [32]
0	0x3d71f1c3	0.059068453
1	0x3d9567fe	0.072952256
2	0x3d87e3a9	0.066352196
3	0x3d602279	0.054720376
4	0x3d768ea7	0.060194638
5	0x3d02a7cd	0.03189831
6	0x3d1add76	0.037808858
7	0x3d4003d3	0.046878647
8	0xbca8302c	-0.020530783
9	0x3d5a8164	0.053346053
10	0x3dc3fd4a	0.095697954
11	0x3c9e9d18	0.019362018
12	0x3d2bf1b2	0.041978545
13	0x3d215924	0.03939165
14	0xbcca7fce	-0.024719145
15	0xbad785d4	-0.0016443082
16	0x3d8a586c	0.067551464
17	0x3d503f36	0.050841533
18	0x3d2228d1	0.039589707
19	0x3d007559	0.03136191
20	0x3c7b2e7d	0.015330908
21	0x3ca1d744	0.019755967
22	0xbc2ef440	-0.010678351
23	0x3d7d70f1	0.061875287
24	0x3d6a20b4	0.057160094
25	0x3d24cbf2	0.04023356
26	0x3d012d41	0.031537298
27	0x3c0fcc12	0.0087766815
28	0xbb3445ea	-0.0027507492
29	0xbba8683a	-0.005139378
30	0x3d99065f	0.07471918
31	0x398c52ce	0.00026764575

weight_ih_l0 f4 [96, 32]
0	0xbe69ccc2	-0.22832015
1	0x3dc36a81	0.095417984
2	0xbdf1957c	-0.1179609
3	0xbcdd674e	-0.027026799
4	0xbdafa5bb	-0.085765325
5	0xbd6a59a5	-0.057214398
6	0xbc994fd2	-0.01871482
7	0x3dcd13ed	0.10013566
8	0xbc3ba028	-0.011451758
9	0xbe454fed	-0.1926877
10	0xbe5904ff	-0.21193312
11	0x3ccfe701	0.025378706
12	0xbe8d4341	-0.27590373
13	0x3df18d67	0.117945485
14	0xbbc4350a	-0.005987768
15	0xbdc8b8e1	-0.09800888
16	0x3c9850ea	0.01859327
17	0xbda578b2	-0.080796614
18	0xbe300033	-0.17187576
19	0xbe150f7d	-0.1455669
20	0xbe1ca93c	-0.15298933
21	0xbe20a3e7	-0.15687524
22	0x3dcb8be7	0.09938794
23	0xbe5fd76d	-0.21859522
24	0xbd14bbda	-0.03631196
25	0xbd13288c	-0.03592734
26	0xbdef1e4f	-0.11675703
27	0xbe4a8fa1	-0.19781353
28	0xbe3e83ea	-0.18605009
29	0x3ca9c954	0.020725884
30	0xbbad456d	-0.005287817
31	0x3e15d69b	0.14632647
32	0x3e49190c	0.19638461
33	0xbb78961a	-0.0037931264
34	0xbd6e3122	-0.058152325
35	0xbe221adf	-0.15830563
36	0x3ea81331	0.32827142
37	0xbed89c9a	-0.42306978
38	0xbe3fa525	-0.18715341
39	0x3d65a0cb	0.056061547
40	0xbd275b8c	-0.04085879
41	0x3e95de6f	0.29271266
42	0xbdeca11d	-0.115541674
43	0xbe12a721	-0.14321567
44	0xbe8e280b	-0.27764925
45	0xbbe5f004	-0.0070171375
46	0xbe3baf2d	-0.18328543
47	0x3d55063e	0.052007906
48	0x3e200666	0.15627441
49	0x3df8c028	0.12146026
50	0x3db741d8	0.089481056
51	0x3e7b19a3	0.24521498
52	0x3d334c6d	0.043774057
53	0xbd846d51	-0.06466163
54	0xbdcb4ed8	-0.099271476
55	0x3dbf62b0	0.09344995
56	0xbdc7846f	-0.097420566
57	0x3e30b310	0.17255807
58	0x3db435cf	0.08799326
59	0xbe9c4408	-0.30520654
60	0xbd8dfcfd	-0.06933019
61	0x3e0c1194	0.1367858
62	0x3e25078d	0.16116162
63	0xbe1c6de2	-0.15276292
64	0xbd35475e	-0.044257514
65	0xbd33b819	-0.04387674
66	0x3cd2a4a8	0.02571328
67	0x3df44387	0.11926942
68	0x3e00d855	0.12582524
69	0x3dc4188f	0.09574997
70	0xbd33f46f	-0.043934282
71	0xbde6bdc9	-0.112666674
72	0x3d2e7191	0.042588774
73	0xbc439b06	-0.011938816
74	0x3da6081b	0.08107015
75	0xbc972eb6	-0.01845489
76	0x3db1bc40	0.08678484
77	0xbbe813ce	-0.007082439
78	0x3d8bbf8d	0.06823645
79	0x3c6ac433	0.014329004
80	0x3d889e44	0.06670812
81	0xbd8c316a	-0.068453625
82	0x3d907c90	0.070550084
83	0x3ea08da3	0.3135806
84	0x3e3f1239	0.18659295
85	0x3c85ee37	0.016348941
86	0x3dc0a817	0.094070606
87	0x3e49a3f5	0.19691451
88	0x3d15cf28	0.036574513
89	0xbbd259c9	-0.0064193946
90	0x3e05b52c	0.13057393
91	0x3e34c0c0	0.17651653
92	0x3e594897	0.21219097
93	0xbe43ba65	-0.19114073
94	0x3e9165ae	0.28397888
95	0xbe1cf551	-0.15327956
96	0xbd76e3fe	-0.060276024
97	0xbe1f1b74	-0.15537816
98	0x3e4fb8e2	0.20285371
99	0x3cc53878	0.024074778
100	0xbc29c09f	-0.010360866
101	0xbe2303d7	-0.15919434
102	0xbdc1d344	-0.09464124
103	0xbc167598	-0.00918331
104	0x3de38936	0.11110155
105	0xbe1c0c1a	-0.15238991
106	0xbe8e047f	-0.27737805
107	0x3e42d8fa	0.19028082
108	0xbe42daf5	-0.19028838
109	0xbe402e21	-0.18767597
110	0x3d3b1924	0.045678273
111	0x3d91c2ac	0.07117209
112	0x3e153fb3	0.1457508
113	0xbe44b538	-0.19209754
114	0xbe2d4244	-0.1691981
115	0x3d57e9ab	0.052713078
116	0x3da74c01	0.081687935
117	0x3db54b58	0.08852261
118	0x3e6adf3e	0.22936723
119	0x3d3b8752	0.04578335
120	0x3cf4d7b4	0.029888012
121	0xbe0c5b4b	-0.137067
122	0x3d451bb3	0.04812212
123	0x3de2b260	0.110691786
124	0xbdc32550	-0.09528601
125	0x3c9ddd27	0.019270493
126	0xbe32ff71	-0.17480256
127	0x3d60c7e8	0.054878145
128	0xbe0d17ce	-0.13778612
129	0x3e3f261c	0.18666881
130	0xbe67de89	-0.22643484
131	0x3de74dab	0.11294111
132	0x3e303760	0.17208624
133	0xbf63ccb5	-0.88984233
134	0xbd892949	-0.06697328
135	0x3e48807d	0.19580264
136	0x394d770a	0.00019594669
137	0x3bfef66a	0.0077808397
138	0xbd43c099	-0.047791097
139	0x3db01082	0.085968986
140	0x3e71fba5	0.23631151
141	0x3e1554c0	0.14583111
142	0xbb8c28a8	-0.0042773075
143	0x3d5512b1	0.05201978
144	0x3def0548	0.11670929
145	0xbe3423d8	-0.17591798
146	0x3db51a02	0.08842851
147	0x3d717dc9	0.05895785
148	0xbb44a1de	-0.0030003707
149	0x3ea8f3df	0.3299856
150	0xbe5194c4	-0.20466906
151	0x3e67d4c8	0.22639763
152	0xbe0d24d8	-0.13783586
153	0x3eab80d8	0.33496737
154	0xbe7f3d88	-0.24925816
155	0xbe96cf2e	-0.2945494
156	0xbe3cfbfd	-0.18455501
157	0x3e23e521	0.16005374
158	0x3e328225	0.17432459
159	0x3dab16b6	0.08353941
160	0x3d4b0974	0.049569562
161	0xbed2b388	-0.41152596
162	0xbd17083b	-0.036873084
163	0x3e20bacc	0.15696257
164	0x3eb254ce	0.34830326
165	0xbecdf44b	-0.40225443
166	0xbc9b9e25	-0.018996308
167	0xbed539ef	-0.41645762
168	0xbe0aaddf	-0.13542889
169	0x3dc58be8	0.096458256
170	0x3e3d65ea	0.18495908
171	0x3e0b2921	0.13589908
172	0xbe1ee4ce	-0.1551697
173	0x3c7efdb8	0.015563421
174	0x3d6ce42a	0.05783478
175	0xbe51cfc2	-0.2048941
176	0x3e2884d5	0.16456921
177	0x3e77b447	0.24189864
178	0x3e1597c2	0.14608672
179	0xbcf64f54	-0.030067123
180	0xbe0dc8bd	-0.13846107
181	0xbdbf7599	-0.09348602
182	0xbec51905	-0.3849565
183	0x3d491b83	0.049098503
184	0x3dc6269c	0.09675333
185	0x3cfd9c24	0.030958243
186	0xbdde5e6e	-0.10857855
187	0xbe9b9ddc	-0.30393875
188	0x3dee7fa6	0.11645441
189	0xbb038a5c	-0.0020071482
190	0x3938f9cb	0.00017640663
191	0x3d1e1a47	0.03859928
192	0x3e85988c	0.26092947
193	0xbd2b767b	-0.04186104
194	0xbe9b6e4e	-0.30357593
195	0xbd9c2945	-0.07625059
196	0x3e3e4d71	0.18584229
197	0xbe0c4699	-0.13698806
198	0x3c892ad4	0.016744055
199	0x3c96865f	0.01837462
200	0x3e2243a7	0.1584612
201	0x3e4a28db	0.19742148
202	0xbe056d2d	-0.13029929
203	0x3ddc6192	0.107607976
204	0x3dd96088	0.10614115
205	0xbe396ec9	-0.18108667
206	0xbda2f40c	-0.079567045
207	0x3d4c40c3	0.04986645
208	0x3d3e0c78	0.04639861
209	0xbdf4a482	-0.1194544
210	0xba94ebe5	-0.0011361806
211	0x3e23b870	0.15988326
212	0x3dbaa2fc	0.09113118
213	0x3e3146b5	0.17312129
214	0xbd7b493f	-0.06134915
215	0x3dde16ab	0.10844167
216	0x3d92e052	0.07171692
217	0xbdc4b0ab	-0.09604009
218	0x3db35c2d	0.087578155
219	0xbc498a52	-0.012301045
220	0x3e179221	0.14801838
221	0xbda06ba6	-0.07833032
222	0x3ce29597	0.02765922
223	0xbe0d835c	-0.13819641
224	0xbdc672bb	-0.09689852
225	0x3beaf7d5	0.007170657
226	0x3e0ab2ce	0.13544771
227	0xbd6daec8	-0.058028013
228	0xbd2d8ee2	-0.04237259
229	0x3cec5083	0.028846985
230	0x3e83d9b9	0.25752047
231	0x3e0441bf	0.12915705
232	0xbd72e919	-0.05930433
233	0xbeb8accc	-0.36069334
234	0x3e7dcb71	0.24784638
235	0xbc6cf09d	-0.014461664
236	0xbbcdd103	-0.0062810197
237	0xbc15a0fd	-0.009132621
238	0x3e312121	0.17297794
239	0xbe5badaf	-0.21452974
240	0xbe5db486	-0.21650895
241	0xbdbc066a	-0.09180911
242	0xbde7055f	-0.11280321
243	0xbc980a10	-0.018559486
244	0xbc75770c	-0.014981996
245	0xbd889224	-0.06668499
246	0xbec41f90	-0.3830533
247	0xbe6e9aeb	-0.23301284
248	0x3da0f0b2	0.07858409
249	0xbdbc4fd9	-0.09194917
250	0xbea21791	-0.31658605
251	0xbe6fc6a0	-0.23415613
252	0xbdee9a76	-0.11650555
253	0x3d877900	0.06614876
254	0xbe76f7c6	-0.24117956
255	0xbd31c2f7	-0.043398824

weight_hh_l0 f4 [96, 32]
0	0x3d9e4294	0.077275425
1	0xbd4f4a5b	-0.05060802
2	0x3d539d79	0.05166385
3	0x3d77f6d8	0.060538143
4	0xbdd23a21	-0.102649935
5	0xbe3ef17c	-0.18646806
6	0x3bd68138	0.006546166
7	0x3e687c90	0.22703767
8	0xbdb717d3	-0.08940091
9	0x3d69d8b0	0.057091415
10	0x3e0ac96e	0.13553402
11	0x3de1eb6b	0.110312305
12	0xbd5a4a5a	-0.053293563
13	0x3e47e4f4	0.19520932
14	0x3dd3ef6d	0.10348401
15	0xbe459e80	-0.19298744
16	0x3c3538e2	0.011060925
17	0xbbf459d8	-0.0074569993
18	0x3d385b5e	0.04500901
19	0xbc4a3508	-0.012341745
20	0x3db21ca4	0.08696869
21	0x3bc26e86	0.0059335856
22	0xbd9bb681	-0.07603169
23	0x3de194ef	0.11014735
24	0x3ca51ac4	0.020154364
25	0x3d1287aa	0.03577391
26	0xbe001c23	-0.12510733
27	0x3d196db5	0.03745814
28	0xbe61b058	-0.22039926
29	0x3e710427	0.2353674
30	0x3e5b4089	0.21411337
31	0x3d882fa6	0.06649713
32	0xbd6ae6b6	-0.05734893
33	0x3e8b9d37	0.27268383
34	0x3e013b3a	0.1262025
35	0x3e03d446	0.12873945
36	0x3e55ef46	0.20892057
37	0xbe6a6e94	-0.22893745
38	0xbd934f07	-0.07192808
39	0x3e04c67a	0.12966338
40	0x3d407467	0.04698601
41	0x3e1e7077	0.1547259
42	0xbe663d31	-0.2248428
43	0x3ced4b4a	0.028966565
44	0xbdeff04a	-0.117157534
45	0xbce0ee88	-0.02745749
46	0xbe07b29e	-0.13251731
47	0xbe8f07b7	-0.27935573
48	0xbdd2751d	-0.10276244
49	0x3d8e0cb6	0.06936018
50	0xbdb3f36f	-0.08786666
51	0x3e53ddec	0.20690125
52	0xbdc2f659	-0.09519643
53	0xbdb030da	-0.08603068
54	0x3d517fd5	0.0511473
55	0x3d79fd76	0.061032735
56	0x3db69052	0.08914246
57	0xbd834c41	-0.06411029
58	0x3dadfddb	0.08495685
59	0x3e0ca72e	0.13735649
60	0xbe51bad8	-0.20481431
61	0xbda04c4e	-0.07827054
62	0xbdb0460f	-0.086071126
63	0x3e208656	0.15676245
64	0xbc8fa251	-0.017533453
65	0x3d9b900d	0.07595835
66	0xbbd73b56	-0.0065683527
67	0xbd3fe4ff	-0.046849247
68	0x3e2d42f7	0.16920076
69	0x3dbd4d5a	0.09243269
70	0x3e41ae5c	0.18914169
71	0x3d97eccc	0.07418212
72	0x3e13bb2b	0.14426868
73	0xbc8cab36	-0.017171483
74	0xbba05888	-0.0048933662
75	0x3e690d76	0.22759041
76	0xbe9b8769	-0.30376747
77	0xbe882fb1	-0.26598886
78	0x3e4448ad	0.19168349
79	0x3e86ce50	0.2632928
80	0xbdd99d34	-0.10625687
81	0xbde2dd30	-0.110773444
82	0xbe1382c0	-0.14405346
83	0x3d9eb928	0.077501595
84	0x3e57c9ec	0.21073121
85	0xbd1e6b7a	-0.038676716
86	0xbd94e1a2	-0.072695985
87	0x3d8dd5c6	0.0692554
88	0xbcff6550	-0.03117624
89	0xbdd51567	-0.10404473
90	0xbd08126e	-0.0332207
91	0x3dd1a044	0.10235646
92	0x3db76d02	0.089563385
93	0xbe0f712a	-0.14008012
94	0xbe5ac234	-0.21363145
95	0xbd1dfab7	-0.03856918
96	0xbdfe07e8	-0.12403852
97	0x3e513878	0.20431697
98	0xbdc41a6f	-0.09575354
99	0xbe0f2f53	-0.13982897
100	0x3db352f3	0.08756056
101	0xbe06618c	-0.13123149
102	0xbe4ba068	-0.19885409
103	0x3df9aae7	0.121908
104	0xbe302dcd	-0.17204972
105	0xbdd2a439	-0.10285229
106	0xbe06fd3b	-0.13182537
107	0xbe426deb	-0.18987243
108	0x3ca475a5	0.020075629
109	0xbdce033e	-0.10059212
110	0xbd915a0e	-0.07097255
111	0x3df91e3d	0.121639706
112	0xbe406a9c	-0.18790668
113	0xbc4db74e	-0.01255591
114	0xbd7ff820	-0.06249249
115	0x3ae4acd1	0.0017446523
116	0xbca5a3d2	-0.020219717
117	0xbe2449b2	-0.16043738
118	0xbb891e3d	-0.004184513
119	0xbd589c5b	-0.052883487
120	0xbe1b5b79	-0.15171613
121	0xbe2336c8	-0.15938866
122	0xbe206ff0	-0.15667701
123	0xbdd9527e	-0.10611437
124	0x3d10d6a8	0.035360962
125	0xbcb57f39	-0.022155391
126	0x3d830d97	0.063990764
127	0xbd74280f	-0.059608515
128	0x3e0ef01e	0.13958785
129	0x3e346dfc	0.1762008
130	0x3e04e2a3	0.1297708
131	0xbe18ebba	-0.14933673
132	0xbe42fa53	-0.19040804
133	0xbe812a1d	-0.25227442
134	0xbcc4ebdb	-0.024038246
135	0xbdc314a9	-0.09525425
136	0x3b081601	0.0020765068
137	0xbe1606ad	-0.14650984
138	0xbd263a95	-0.040583212
139	0x3d5cb475	0.053883035
140	0x3bcf5b37	0.0063280123
141	0x3dcdc77c	0.10047814
142	0xbe1b2154	-0.15149432
143	0xbeca2019	-0.39477614
144	0x3dcc9e96	0.09991185
145	0xbdec5c0c	-0.11540994
146	0x3e8163b5	0.25271383
147	0x3e0e455b	0.13893645
148	0xbdf2ac01	-0.118492134
149	0xbcf55ae3	-0.029950565
150	0xbcf41760	-0.029796302
151	0xbde1bc58	-0.11022252
152	0xb9b7e199	-0.00035072563
153	0xbdbbce18	-0.09170169
154	0xbd880c23	-0.0664294
155	0x3ce08a31	0.027409645
156	0xbd15aa3c	-0.0365393
157	0xbd575e3a	-0.052580096
158	0x3daa1ab1	0.08305872
159	0x3cd3348f	0.025781898
160	0x3e1421a2	0.14465955
161	0x3e622b66	0.22086868
162	0x3be4cba8	0.0069822855
163	0xbe25692d	-0.16153403
164	0xbe035be4	-0.12828022
165	0xbeaafe78	-0.3339727
166	0x3d1c0e7b	0.038099747
167	0xbd955b46	-0.072928
168	0xbe057997	-0.13034664
169	0xbda7cfbc	-0.08193919
170	0xbde988a8	-0.11403018
171	0xba960a9a	-0.0011447251
172	0xbdfe8625	-0.1242793
173	0xbe302157	-0.17200218
174	0x3d932e8e	0.07186614
175	0xbd966da7	-0.07345133
176	0xbe68c3ab	-0.22730891
177	0x3d034c59	0.032055233
178	0x3d514f01	0.051100735
179	0x3e178ab1	0.14799
180	0xbe1ea0f8	-0.15491092
181	0xbe110d7b	-0.14165299
182	0xbdabe1ed	-0.08392701
183	0x3e4918d4	0.19638377
184	0x3e2d8d28	0.16948378
185	0xbda5b4b3	-0.08091106
186	0xbbda45be	-0.006661146
187	0xb7e0f386	-2.681628e-05
188	0x3e1dfea3	0.15429167
189	0xbe23a10d	-0.15979405
190	0xbdf87e93	-0.12133517
191	0xbe28d19f	-0.16486214
192	0x3e45f08c	0.19330043
193	0x3ea2f361	0.31826308
194	0x3df1466e	0.117810115
195	0xbe118908	-0.1421243
196	0x3e4800a8	0.195315
197	0xbdfc62cd	-0.12323532
198	0xbc8dff8c	-0.017333768
199	0xbe3c87e2	-0.1841121
200	0xbe65dafc	-0.22446817
201	0x3daa5e0d	0.0831872
202	0xbd9d9fb2	-0.07696475
203	0x3df9a40e	0.12189494
204	0xbe000a5f	-0.12503956
205	0xbe3aafef	-0.18231176
206	0xbe2c6afb	-0.16837685
207	0xbc847217	-0.016167684
208	0x3e065956	0.13120016
209	0xbd53f017	-0.05174264
210	0xbd4c15f4	-0.049825624
211	0x3d61e6c5	0.05515172
212	0xbcf7538c	-0.030191205
213	0x3e1ee5c0	0.1551733
214	0x3d36b1c1	0.044603113
215	0xbe0c9f3c	-0.13732618
216	0x3d4d504c	0.050125405
217	0xbca8a61f	-0.020587025
218	0xbe88f46e	-0.26748985
219	0x3e80a473	0.25125465
220	0x3d7df16c	0.061997816
221	0x3e279d32	0.16368559
222	0xbe19a565	-0.150045
223	0x3d07f287	0.033190276
224	0x3de79a9c	0.11308786
225	0xbd5439b4	-0.051812842
226	0xbd9b3322	-0.07578112
227	0xbc696c5b	-0.014247025
228	0xbe8190b1	-0.25305703
229	0xbe865908	-0.262398
230	0xbe8e4d54	-0.27793372
231	0x3e26aa07	0.16275798
232	0x3d3d2487	0.046177413
233	0xbe1922bb	-0.14954655
234	0xbe9e9231	-0.3097091
235	0xbe36eca2	-0.17863706
236	0x3e085a46	0.13315687
237	0x3e52fb1b	0.20603602
238	0xbe15c11f	-0.14624451
239	0xbd6fd2fe	-0.058550827
240	0xbe419784	-0.18905455
241	0x3da47fbf	0.08032178
242	0xbe7539a6	-0.23947772
243	0x3de54a99	0.11195869
244	0xbda9ad89	-0.08285052
245	0xbb865603	-0.004099609
246	0xbd3d8e44	-0.046278253
247	0xbb4e3f7b	-0.0031470943
248	0x3dfb6b25	0.122762956
249	0xbe8c0e9c	-0.27354896
250	0xbdd0c11f	-0.10193085
251	0x3d8bfb5c	0.06835052
252	0xbcfbb555	-0.030726114
253	0x3dbc6ccc	0.09200439
254	0x3e4cc86d	0.19998331
255	0x3e16334e	0.14668009

bias_ih_l0 f4 [96]
0	0xbd5b930d	-0.053607035
1	0x3e42a3d5	0.1900781
2	0x3e14f5ea	0.14546934
3	0x3dca951e	0.09891723
4	0x3e6ac238	0.22925651
5	0x3daa2b4b	0.08309039
6	0xbd94233f	-0.07233285
7	0x3c99a04c	0.018753193
8	0xbe285b65	-0.16441114
9	0x3e846ca7	0.25864145
10	0x3c388d76	0.011264196
11	0xbe05bc4f	-0.13060115
12	0x3e180c54	0.14848453
13	0xbb8491de	-0.004045709
14	0x3e01d1e5	0.12677725
15	0x3e0132be	0.12617013
16	0xbd7134c1	-0.0588882
17	0xbd0d8e16	-0.03455933
18	0x3dc95e67	0.09832459
19	0x3dfb1078	0.122590005
20	0x3cf748c8	0.030186072
21	0xbd063adb	-0.032770973
22	0xbb40995c	-0.0029388284
23	0x3e3cda6c	0.18442696
24	0xbdd92337	-0.1060242
25	0xbd802e60	-0.06258845
26	0x3d577403	0.05260087
27	0xbd3d1cf6	-0.046170197
28	0x3ba68b47	0.005082521
29	0x3e071994	0.13193351
30	0x3dda5737	0.10661166
31	0xbd92262c	-0.07136187
32	0x3e7f3806	0.24923715
33	0xbdbabfa0	-0.09118581
34	0x3d6625cc	0.05618839
35	0x3ddeab4f	0.10872518
36	0xbdb34612	-0.08753599
37	0xbe086f62	-0.13323739
38	0xbdc13cea	-0.094354466
39	0xbe0dd872	-0.13852099
40	0xbe9a1e1a	-0.3010109
41	0xbe07f4c0	-0.13276958
42	0xbec1613b	-0.37769493
43	0xbe365fff	-0.17810057
44	0xbed007e0	-0.40631008
45	0x3cb4fe84	0.022094019
46	0xbe291dae	-0.16515228
47	0xbe062b00	-0.1310234
48	0x3e183f16	0.14867815
49	0x3daa39bc	0.08311793
50	0xbe4c74bf	-0.1996641
51	0xbdb41bac	-0.087943405
52	0xbd145d60	-0.03622186
53	0xbe8baf2a	-0.27282077
54	0xbe33ca3f	-0.1755762
55	0x3e10e90f	0.14151405
56	0xbec00578	-0.37504172
57	0xbe441470	-0.19148421
58	0x3d3a5a50	0.045496285
59	0xbd88f477	-0.06687253
60	0xbe536cac	-0.20646924
61	0xbe7bec24	-0.24601799
62	0x3d2b73f0	0.041858613
63	0x3e2346dc	0.15945
64	0x3d9fccc3	0.07802727
65	0xbdec032c	-0.115240425
66	0x3da61dc7	0.08111148
67	0xbd4e44ba	-0.05035851
68	0x3ac18d7f	0.00147669
69	0xbddcf718	-0.10789317
70	0x3dc48221	0.095951326
71	0xbe138f67	-0.14410172
72	0xbe215a15	-0.1575702
73	0xbd73c863	-0.059517276
74	0xbcb8809b	-0.022522261
75	0x3da6bdf6	0.08141701
76	0xbe2af248	-0.16693985
77	0xbe8c930e	-0.27455944
78	0x3e302c04	0.1720429
79	0xbcb4e823	-0.022083348
80	0xbda044b4	-0.07825604
81	0xbe5da518	-0.2164501
82	0xbcb7d0df	-0.022438465
83	0x3d3be90b	0.045876544
84	0x3d2b5f09	0.04183868
85	0xbbf5e6fc	-0.007504342
86	0x3dc96cc5	0.09835199
87	0xbdbb669d	-0.09150431
88	0x3e8f6315	0.2800528
89	0x3c31a59f	0.01084271
90	0x3df633ad	0.12021575
91	0xbdee125b	-0.11624595
92	0xbd9e5de9	-0.07732756
93	0x3cb28903	0.021793848
94	0xbc85bcb4	-0.016325332
95	0xbcffe72f	-0.031238167

bias_hh_l0 f4 [96]
0	0xbe845a37	-0.25850078
1	0x3d256e56	0.040388428
2	0x3d0d5a56	0.03450998
3	0xbe3c1496	-0.18367228
4	0xbd3da3ca	-0.04629878
5	0x3e300cf6	0.17192444
6	0x3dd2e685	0.10297874
7	0x3d7ef62c	0.062246487
8	0x3da0bc45	0.078484096
9	0xbb7ce155	-0.0038586457
10	0xbcf8ab83	-0.03035522
11	0xbde9429b	-0.11389657
12	0x3de9f73a	0.11424108
13	0x3e86f427	0.26358148
14	0xbb6107b7	-0.0034336874
15	0x3e69fdfb	0.22850792
16	0xbd713f1f	-0.058898088
17	0x3e1cfc0b	0.15330522
18	0xbe0e0903	-0.13870625
19	0x3e00daa2	0.12583402
20	0xbd1d79ba	-0.038446166
21	0x3d1d4065	0.03839149
22	0x3c2f4b21	0.0106990645
23	0xbd857b4f	-0.0651766
24	0x3d91f842	0.071274295
25	0xbcc9e424	-0.024644919
26	0xbd123be2	-0.03570164
27	0xbd837af8	-0.06419939
28	0xbd617665	-0.05504455
29	0x3c2fc695	0.010728498
30	0xbd10f23f	-0.035387274
31	0xbd0a3650	-0.033743203
32	0xbb76bf5e	-0.0037650685
33	0xbe3a3d73	-0.18187504
34	0xbd8da1a4	-0.06915596
35	0xbd981e11	-0.0742761
36	0x3d6640d8	0.056214184
37	0xbe80a4c9	-0.2512572
38	0x3ded5b7a	0.115897134
39	0xbe0649f2	-0.13114145
40	0xbd8e63d8	-0.069526374
41	0xbd793655	-0.06084283
42	0xbea908ba	-0.3301447
43	0xbe2dcc44	-0.16972452
44	0xbe1a92c0	-0.15095043
45	0xbdbc7d09	-0.09203536
46	0x3d99d761	0.075117834
47	0xbec58d5f	-0.3858442
48	0x3d0efe9b	0.03491078
49	0x3d47c44b	0.048771184
50	0xbe9ca228	-0.30592465
51	0x3dbb5536	0.09147112
52	0xbd883a81	-0.06651784
53	0xbeb6c73e	-0.35698885
54	0xbe90aa67	-0.28255007
55	0x3dbdfeca	0.09277113
56	0xbea965cd	-0.3308548
57	0xbed13037	-0.40857098
58	0xbe4a769d	-0.1977181
59	0xbe310958	-0.1728872
60	0xbdc9b63d	-0.09849212
61	0xbe8799db	-0.2648457
62	0xbe324306	-0.1740838
63	0xbdddd483	-0.10831549
64	0xbdef667b	-0.116894685
65	0xbd86a207	-0.06573873
66	0xbd86c190	-0.06579888
67	0xbd8a9420	-0.06766534
68	0xbe40df06	-0.18835077
69	0x3e559e4e	0.2086117
70	0x3d9caa6a	0.076496914
71	0xbdaba8ad	-0.08381782
72	0xbd70eef9	-0.058821652
73	0x3db95e94	0.090512425
74	0xbb0d822a	-0.0021592476
75	0x3dc0e817	0.094192676
76	0xbc79ee8a	-0.015254626
77	0xbe8b034c	-0.27150953
78	0x3e780ef4	0.24224454
79	0xbe1d11ea	-0.15338865
80	0x3e4b47f3	0.19851665
81	0xbe1df8e3	-0.15426974
82	0x3ba53e42	0.005042822
83	0x3de0403a	0.1094975
84	0x3e371546	0.17879209
85	0xbdc928fa	-0.09822269
86	0x3e10e067	0.14148103
87	0x3bb6c2f1	0.005577438
88	0x3e8f359f	0.27970597
89	0xbc93a23f	-0.0180217
90	0x3dded0aa	0.10879643
91	0xbccdf568	-0.025141433
92	0x3d740b99	0.059581373
93	0xbc88b030	-0.016685575
94	0x3e1283e1	0.1430812
95	0xbd2a76e3	-0.041617285

weight f4 [32, 32]
0	0x3df7d6eb	0.12101539
1	0x3eef8841	0.4678364
2	0x3e5c9232	0.21540144
3	0x3eb3eeeb	0.35143217
4	0x3f01d7b5	0.5071977
5	0xbf20979f	-0.62731355
6	0x3ea4fdd0	0.32224894
7	0xbee87ec8	-0.45409226
8	0xbf0354d0	-0.5130129
9	0xbed198d5	-0.40936914
10	0xbf73721f	-0.9509601
11	0x3ee4d63a	0.44694692
12	0xbcbad082	-0.022804502
13	0xbe76fcbc	-0.24119848
14	0x3e048978	0.12943065
15	0x3dbc671b	0.09199353
16	0x3ea2ce08	0.31797814
17	0x3e852040	0.26001167
18	0xbe3cb4dc	-0.18428367
19	0xbd2744aa	-0.040836968
20	0x3ee1d256	0.44105786
21	0x3ebd4519	0.3696678
22	0x3ef4dae7	0.4782326
23	0x3d3959eb	0.045251768
24	0x3d3e432c	0.04645078
25	0x3e20f9c9	0.15720285
26	0x3e93bf81	0.28857043
27	0x3ea14a52	0.31502014
28	0xbc7fff39	-0.015624815
29	0x3f1ffbfa	0.6249386
30	0x3ec58d7e	0.38584512
31	0x3db79673	0.08964243
32	0xbe7e4a79	-0.24833097
33	0x3ef0df11	0.47045186
34	0xbeb3855f	-0.35062692
35	0x3c05d2c2	0.008167924
36	0x3e572cee	0.21013233
37	0xbf673883	-0.90320605
38	0xbd50592c	-0.05086629
39	0x3e502a89	0.20328726
40	0x3e6d1d52	0.23155716
41	0xbe89d148	-0.2691748
42	0xbf69f265	-0.9138549
43	0x3e87bdae	0.26511902
44	0x3eefe412	0.4685369
45	0xbe80dbad	-0.251676
46	0xbec17a2e	-0.37788528
47	0xbedd7909	-0.43256405
48	0x3d944472	0.072396174
49	0xbe8c6f30	-0.2742858
50	0x3f069539	0.52571446
51	0xbb9e2c2c	-0.004827043
52	0xbdccbc5d	-0.09996865
53	0x3f36a945	0.71352035
54	0x3ef9b276	0.48768967
55	0x3e130b09	0.14359678
56	0x3d46299f	0.048379537
57	0x3f118abe	0.5685233
58	0x3e26276f	0.1622598
59	0x3da12827	0.078689866
60	0x3ee44a5c	0.44587982
61	0xbd66cda7	-0.05634847
62	0xbf0cb182	-0.54958355
63	0xbe4d269c	-0.2003426
64	0xbe836c1a	-0.25668412
65	0x3e405b7b	0.18784897
66	0xbee463bc	-0.4460734
67	0xbd9b7f12	-0.07592596
68	0xbe84fc0f	-0.25973555
69	0xbe532f71	-0.20623566
70	0xbe355d59	-0.1771139
71	0xbe044aeb	-0.12919204
72	0xbeee714c	-0.46570814
73	0xbea11252	-0.3145929
74	0x3e8a03a7	0.26955912
75	0xbea4ca3c	-0.32185543
76	0x3ec54c64	0.38534844
77	0x3e14be8e	0.14525816
78	0x3d304e80	0.043043613
79	0xbf10e86f	-0.56604666
80	0xbe94e3ab	-0.29079947
81	0x3d04b4df	0.032399055
82	0x3e5844db	0.21120016
83	0x3ea60318	0.32424235
84	0x3e29ce47	0.16582595
85	0x3ecfc1ea	0.40577632
86	0xbe998284	-0.29982388
87	0xbf081c58	-0.5316825
88	0x3e0a11d9	0.13483371
89	0xbb688703	-0.0035480864
90	0x3ea849f2	0.32868916
91	0x3e790b28	0.24320662
92	0xbe710192	-0.23535755
93	0xbe1c6711	-0.15273692
94	0x3e1e95cd	0.15486832
95	0x3e072658	0.1319822
96	0xbe8129c5	-0.2522718
97	0xbf027803	-0.50964373
98	0xbecbb5da	-0.3978718
99	0x3ee1f2b6	0.44130486
100	0xbee422c7	-0.44557783
101	0x3eb79799	0.35857847
102	0x3e0a3edd	0.13500543
103	0x3dc88840	0.097916126
104	0x3d9665d9	0.07343645
105	0x3ec080fa	0.375984
106	0x3f405197	0.75124496
107	0xbdeb28e2	-0.11482407
108	0x3e218f4b	0.15777318
109	0xbe3dfec7	-0.18554221
110	0x3f067869	0.5252748
111	0x3d312725	0.04325022
112	0x3d32bb4f	0.043635663
113	0xbe5a6208	-0.21326458
114	0xbe80b1e7	-0.2513573
115	0xbe72f339	-0.23725595
116	0x3eacd801	0.33758548
117	0x3e683788	0.22677433
118	0x3e15d532	0.14632109
119	0xbd760f6e	-0.06007331
120	0x3ef33513	0.4750143
121	0xbe8e2e35	-0.27769628
122	0x3e22cb11	0.15897776
123	0xbecee0f0	-0.4040599
124	0x3defeb73	0.1171483
125	0xbf151810	-0.5823984
126	0xbd5646f5	-0.052313764
127	0xbeb4f43e	-0.35342592
128	0xbdf034cf	-0.117288224
129	0x3e91b08d	0.2845501
130	0x3e3f4066	0.1867691
131	0x3ee00666	0.43754882
132	0xbecc4732	-0.39898068
133	0xbf1f3986	-0.6219715
134	0x3e3baf74	0.18328649
135	0xbdb3d138	-0.0878014
136	0x3e8ce102	0.27515417
137	0xbed0f358	-0.40810657
138	0xbf3cc160	-0.73732567
139	0xbe7b90ad	-0.24566908
140	0x3e8688cb	0.2627624
141	0xbe9ca0ae	-0.3059134
142	0x3e53ec8c	0.20695704
143	0xbe8c630b	-0.27419314
144	0x3e0c33c3	0.1369162
145	0xbd8ef622	-0.0698054
146	0x3ecff7e2	0.40618807
147	0xbd978017	-0.07397478
148	0x3e854b2d	0.26033917
149	0x3f342d6e	0.7038182
150	0x3e03f910	0.12887979
151	0x3ef55851	0.47918943
152	0x3eaa1293	0.33217296
153	0xbd6ff04a	-0.058578767
154	0x3e555198	0.20831907
155	0xbdedbd3a	-0.11608358
156	0xbe84dd8a	-0.2595027
157	0x3df95a3f	0.12175416
158	0xbf072911	-0.5279704
159	0x3e5de0fc	0.21667856
160	0x3c5255f1	0.012837873
161	0xbe1bb0d2	-0.1520417
162	0xbf080f7b	-0.5314862
163	0x3eae6757	0.34063217
164	0xbe069dc2	-0.13146117
165	0xbd8002a5	-0.062505044
166	0x3e36b58a	0.17842689
167	0x3e8959bc	0.26826274
168	0xbd11ba12	-0.03557784
169	0x3e797f53	0.24364977
170	0xbda4801b	-0.08032247
171	0xbe2d8440	-0.1694498
172	0x3f1a07e7	0.6016831
173	0x3e8a7873	0.2704502
174	0x3e5b1bd6	0.21397337
175	0xbc073a5f	-0.008253663
176	0xbe4f6d47	-0.2025653
177	0x3ecb07e0	0.39654446
178	0x3f210a53	0.6290638
179	0x3f07a1c3	0.52981204
180	0x3d5dcc40	0.054149866
181	0x3efb84a2	0.49124628
182	0x3e64f72c	0.22359914
183	0x3edfddb6	0.4372384
184	0x3ea0fd66	0.31443328
185	0x3eceffaa	0.4042943
186	0x3ed87853	0.422793
187	0xbe2e13bf	-0.1699972
188	0x3e34b3a1	0.17646648
189	0xbd847f5a	-0.06469603
190	0xbdbcf0b7	-0.092256
191	0xbdeb854b	-0.11500033
192	0xbe5a3bda	-0.21311894
193	0x3e30aeae	0.17254135
194	0xbe3654e1	-0.17805816
195	0x3eb2c739	0.3491762
196	0xbeee8e06	-0.4659273
197	0x3d8bcd2b	0.06826242
198	0x3f0984ca	0.53718245
199	0x3e98c397	0.29836723
200	0xbed4a03a	-0.41528493
201	0x3d0e61a2	0.03476108
202	0x3c6ad950	0.014334038
203	0xbe2c79b2	-0.16843298
204	0xbe453590	-0.19258714
205	0xbf0e6797	-0.55626816
206	0x3e021a2c	0.12705296
207	0x3d7c8db3	0.061658572
208	0x3dbd9525	0.09256963
209	0x3ddf10d3	0.10891881
210	0x3eabfe74	0.3359257
211	0xbd9112f6	-0.07083695
212	0x3f1b8816	0.60754526
213	0x3ef23379	0.47304896
214	0x3edaa22d	0.42701855
215	0x3eecbad1	0.4623628
216	0x3f1d0323	0.6133291
217	0x3ebe5066	0.37170714
218	0x3da5f3ce	0.08103143
219	0x3eaacb7e	0.33358377
220	0x3ed540b7	0.41650936
221	0x3dfbeb8e	0.12300788
222	0xbf269a59	-0.65079266
223	0xbefde04c	-0.49585187
224	0x3d757dc7	0.059934404
225	0xbf038839	-0.51379734
226	0x3e904ae2	0.2818213
227	0x3e450610	0.19240594
228	0xbf223e92	-0.63376725
229	0xbee35ff9	-0.4440916
230	0x3ecf7b26	0.40523642
231	0x3d18c5ab	0.037297886
232	0x3f0c886c	0.54895663
233	0xbd9da41f	-0.07697319
234	0xbeb27254	-0.3485285
235	0xbe942f73	-0.2894245
236	0x3c6041ef	0.013687595
237	0x3e1c0c15	0.15238984
238	0x3eda262b	0.42607245
239	0x3e81b320	0.25331974
240	0xbe56822b	-0.20948093
241	0x3e20a29f	0.15687035
242	0xbd14e001	-0.03634644
243	0xbdd2ab23	-0.10286548
244	0xbdc29739	-0.095015
245	0x3eca2189	0.3947871
246	0x3e93668d	0.28789178
247	0x3edf8734	0.4365784
248	0xbd014e6a	-0.031568922
249	0x3f0c7cdb	0.54878014
250	0x3f0c48bd	0.5479849
251	0x3df57135	0.11984483
252	0x3f0757ea	0.5286852
253	0xbea1fe6d	-0.31639424
254	0xbf23367d	-0.6375502
255	0x3d180697	0.03711566

bias f4 [32]
0	0x3cd9cb00	0.026586056
1	0x3e059482	0.13044932
2	0x3d89d210	0.06729519
3	0x3dbb7039	0.09152264
4	0x3d399599	0.045308683
5	0x3d78f045	0.060776014
6	0x3e607b1a	0.2192196
7	0x3e092128	0.13391554
8	0x3d7e2bdf	0.062053557
9	0x3dbf38cd	0.09337006
10	0x3a6d4594	0.00090512005
11	0xbde4a28a	-0.11163814
12	0x3e06c5c3	0.13161378
13	0x3da82dd9	0.0821187
14	0x3e338a6c	0.17533273
15	0x3e0e0647	0.13869582
16	0x3d6fbb69	0.058528338
17	0xbc47460c	-0.012162697
18	0x3cf8a31a	0.03035121
19	0x3da3ab93	0.079917096
20	0xbc463c2d	-0.012099308
21	0x3dfa448e	0.12220107
22	0x3c26aaa8	0.010172524
23	0x3e06c5c4	0.13161379
24	0x3dacd3f9	0.08438868
25	0xbc7f86a7	-0.015596068
26	0x3e21055b	0.15724699
27	0x3ce92030	0.028457731
28	0x3bc2f7f1	0.005949967
29	0x3dd8760c	0.10569391
30	0x3d9e69c2	0.077350155
31	0x3de18a25	0.11012677

weight f4 [15, 32]
0	0xbec578c1	-0.3856869
1	0xbe66867e	-0.22512242
2	0x3d9ba0d8	0.07599038
3	0xbe2a20c9	-0.16614069
4	0x3e4727af	0.19448732
5	0x3cd36f00	0.025809765
6	0xbe7190a3	-0.23590331
7	0xbbe680e1	-0.0070344065
8	0xbed57336	-0.4168946
9	0xbea22080	-0.3166542
10	0x3e256a6f	0.16153882
11	0x3ec3ea7e	0.3826484
12	0x3d13e7a7	0.036109593
13	0x3e4d7817	0.20065342
14	0x3e3d9b2f	0.18516229
15	0xbec8c66e	-0.3921389
16	0xbebce86b	-0.3689607
17	0x3e54d6ff	0.2078514
18	0xbe8062d1	-0.2507539
19	0xbe11f612	-0.14254025
20	0xbeacabdf	-0.33724877
21	0xbef7dae0	-0.48409176
22	0xbca43835	-0.020046333
23	0xbd0359fb	-0.032068234
24	0x3d520a29	0.05127922
25	0xbe575305	-0.21027763
26	0x3d35aab1	0.044352237
27	0x3cc5bf58	0.024139091
28	0xbe412ad3	-0.18863992
29	0x3d93ab1f	0.07210373
30	0xbe714fa8	-0.23565543
31	0xbe0355ea	-0.12825742
32	0x3e2bb5ea	0.16768613
33	0x3f092d55	0.53584796
34	0xbe905300	-0.28188324
35	0x3c46081b	0.012086893
36	0x3ef64449	0.48098972
37	0x3edcf319	0.4315422
38	0x3e60eb6c	0.21964806
39	0x3ee85185	0.45374694
40	0x3daf5877	0.08561795
41	0xbe288597	-0.1645721
42	0xbdae53c2	-0.08512069
43	0xbded8db4	-0.11599293
44	0xbeb3f88c	-0.35150564
45	0xbc5761b1	-0.01314585
46	0xbdc71c8c	-0.09722242
47	0xbcbc619b	-0.02299576
48	0xbe696477	-0.2279223
49	0x3e779056	0.24176154
50	0x3e92c5b0	0.2866645
51	0x3ebfbe1f	0.37449738
52	0xbde6a517	-0.11261957
53	0x3e1d610d	0.15369053
54	0xbe088832	-0.13333204
55	0x3e2bf4f5	0.16792662
56	0xbf103bbc	-0.5634115
57	0xbd529c8e	-0.051418833
58	0x3ca50d40	0.02014792
59	0x3e419235	0.1890343
60	0x3ddc11c3	0.10745575
61	0xbf11da64	-0.5697386
62	0x3e8f1931	0.27948907
63	0x3e9baf23	0.30407056
64	0x3ee0ba92	0.43892342
65	0x3f460532	0.7735168
66	0x3ebdcdd1	0.37071088
67	0xbf26ecc1	-0.6520501
68	0x3f3b9694	0.7327664
69	0x3e677394	0.22602683
70	0x3e4454c4	0.1917296
71	0x3e8c4093	0.27393016
72	0xbeb72747	-0.35772154
73	0x3c1d3ccd	0.009597016
74	0x3e87919b	0.26478276
75	0xbf2d7f36	-0.67772233
76	0xbe8de783	-0.27715692
77	0xbde9662e	-0.11396442
78	0xbf13f84d	-0.5780075
79	0xbf0d02d5	-0.55082446
80	0x3f1ba4b7	0.6079821
81	0xbee2d4f3	-0.44303092
82	0xbec2acad	-0.38022366
83	0xbf0f9b6f	-0.5609655
84	0x3e882983	0.2659417
85	0xbed5de8a	-0.41771346
86	0x3e2bb0d4	0.16766673
87	0xbe1c7983	-0.15280728
88	0xbe8ec326	-0.2788326
89	0xbd8e500b	-0.06948861
90	0xbd752bf9	-0.05985639
91	0xbdb48e0a	-0.08816154
92	0xbd25304d	-0.040329266
93	0x3f20af8a	0.6276785
94	0xbe8c57b4	-0.27410662
95	0x3f22af8b	0.6354911
96	0x3f241b1f	0.64103884
97	0x3dd3e111	0.103456624
98	0xbeee5bec	-0.46554506
99	0xbea5bd5b	-0.3237103
100	0x3cf2e28f	0.029649047
101	0xbeb4f6a7	-0.3534443
102	0x3e020caa	0.12700143
103	0xbe88fa35	-0.26753393
104	0x3ee5a852	0.4485498
105	0xbe03899b	-0.12845461
106	0x3ebffe14	0.37498534
107	0x3e5fd438	0.21858299
108	0x3e5a4e8e	0.21319029
109	0xbe54c3c0	-0.20777798
110	0xbeed3c11	-0.4633489
111	0x3ea40fe9	0.32043388
112	0x3d54b0c2	0.051926382
113	0x3e0f5446	0.13996992
114	0xbe607fb6	-0.21923718
115	0xbd77d98b	-0.0605102
116	0xbe041e51	-0.1290219
117	0x3e1f77c6	0.15573034
118	0xbeaecbea	-0.3413995
119	0xbe8ce722	-0.2752009
120	0x3e3d9300	0.18513107
121	0x3dc7bca7	0.097527795
122	0x3ea403c3	0.3203412
123	0x3d7ff207	0.062486675
124	0x3e786f8c	0.24261302
125	0x3f43d9d8	0.7650428
126	0x3cc1b86c	0.02364751
127	0xbefbd410	-0.49185228
128	0xbe4fa35f	-0.20277165
129	0xbe08d4e7	-0.13362466
130	0x3ea87c09	0.3290713
131	0xbcf14e4f	-0.029456286
132	0x3cbe3436	0.023218255
133	0xbed8a81c	-0.42315757
134	0xbf2820a2	-0.65674794
135	0xbec638df	-0.38715264
136	0x3e52996e	0.20566341
137	0xbe831b38	-0.25606704
138	0xbed308de	-0.41217703
139	0x3ebc24c0	0.36746788
140	0xbef4894a	-0.47760993
141	0xbe865b35	-0.2624146
142	0xbecb392f	-0.39692065
143	0xbee93682	-0.455494
144	0x3db20d4c	0.086939424
145	0xbd1a9d1c	-0.037747487
146	0xbe823621	-0.25431922
147	0xbe1c25d4	-0.15248805
148	0x3ccdd08a	0.025123853
149	0xbf2e493f	-0.68080515
150	0x3e6dd657	0.23226295
151	0x3d241d0e	0.04006677
152	0xbeac78b0	-0.33685827
153	0x3c9d52ff	0.019204615
154	0x3db04e43	0.08608677
155	0x3e91fcf1	0.2851329
156	0x3e3255e0	0.17415571
157	0x3dd2d471	0.10294426
158	0xbeb4c718	-0.35308146
159	0xbd6fcc0c	-0.058544204
160	0x3e19baf9	0.1501273
161	0xbf0b2e41	-0.5436745
162	0xbe25164c	-0.16121787
163	0xbd9680ce	-0.07348786
164	0xbe66c1fc	-0.22534937
165	0x3e579269	0.21051945
166	0xbd6910db	-0.05690084
167	0xbf361899	-0.71131283
168	0x3e09bfb7	0.1345204
169	0x3e87ad2b	0.26499304
170	0xbd11cc48	-0.03559521
171	0xbe38e353	-0.18055467
172	0xbe70aba4	-0.23502976
173	0x3ee04e08	0.43809533
174	0x3d996af6	0.07491104
175	0x3e8a826d	0.27052632
176	0x3ea4e107	0.32202932
177	0xbba74384	-0.005104484
178	0x3e882a3f	0.2659473
179	0xbee3f9e9	-0.44526604
180	0x3e09f153	0.13470964
181	0xbe649f8b	-0.22326486
182	0x3ec70df1	0.38877824
183	0x3ec824b8	0.39090514
184	0x3e752125	0.23938425
185	0xbcd77386	-0.026300203
186	0xbe9e93cc	-0.30972135
187	0x3e9d31e9	0.3070214
188	0x3f13bbd9	0.5770851
189	0xbe8f36e9	-0.2797158
190	0x3ec58602	0.38578802
191	0x3e54efe4	0.20794636
192	0x3de99460	0.114052534
193	0xbd8103c9	-0.0629955
194	0xbdf5097a	-0.11964698
195	0x3d3350e8	0.04377833
196	0xbb6c56be	-0.0036062445
197	0xbeaa2d68	-0.33237767
198	0xbc94ff28	-0.018188074
199	0xbe915552	-0.28385407
200	0xbed47356	-0.41494244
201	0x3c663a6b	0.014052014
202	0x3e6939f9	0.22776021
203	0x3eda6c27	0.4266064
204	0xbe77a04c	-0.24182242
205	0xbe88c59b	-0.2671326
206	0xbcf82de8	-0.030295327
207	0xbea2d9ce	-0.31806797
208	0x3e99411e	0.29932493
209	0xbe734752	-0.23757675
210	0xbe007e79	-0.12548245
211	0x3e3657af	0.17806886
212	0x3c31d96b	0.010855059
213	0xbe65cc76	-0.22441277
214	0xbd8b5c1a	-0.06804676
215	0xbed253bc	-0.4107951
216	0x3e091d6b	0.13390128
217	0xbe0e3963	-0.13889079
218	0xbe8c0383	-0.2734643
219	0x3dc7d068	0.09756547
220	0x3d8ffce6	0.070306584
221	0x3de80198	0.11328429
222	0x3e89ac13	0.26889095
223	0xbe0bdc50	-0.13658261
224	0xbea8b927	-0.3295376
225	0xbda0c654	-0.07850328
226	0x3ea6fcd5	0.3261477
227	0xbe8a69b2	-0.27033764
228	0x3d9464b6	0.072457716
229	0xbed3c2bb	-0.41359505
230	0xbedae559	-0.42753103
231	0x3d6e1984	0.058129802
232	0x3e1a649f	0.15077446
233	0xbdd15cb9	-0.102227636
234	0x3dfcde76	0.123471186
235	0xbdbd32c9	-0.09238202
236	0x3e20b562	0.15694192
237	0x3e834763	0.256404
238	0xbeb62ed4	-0.35582602
239	0x3c5898aa	0.013219992
240	0x3e1f8ec4	0.15581805
241	0x3e237b30	0.15964961
242	0x3e5a75e4	0.21334034
243	0x3e4505a2	0.1924043
244	0xbe40a27c	-0.18811983
245	0xbd3b2287	-0.045687225
246	0xbebc8582	-0.36820608
247	0x3d843a30	0.06456411
248	0xbe89e4fd	-0.26932517
249	0x3dc1433d	0.09436653
250	0xbd907a7c	-0.07054612
251	0x3d9ebd92	0.077510014
252	0x3e987e50	0.2978387
253	0xbec9da0a	-0.39424163
254	0xbe79df4a	-0.24401584
255	0xbccc6bbf	-0.024953721

bias f4 [15]
0	0xbdd44eae	-0.103665695
1	0x3de4140f	0.111366384
2	0x3e1f4adb	0.15555899
3	0x3d8a9bc4	0.06767991
4	0xbe2e151d	-0.17000242
5	0x3d99bb05	0.07506374
6	0xbdb5233d	-0.08844612
7	0xbd6ff664	-0.058584586
8	0xbdb7533a	-0.08951421
9	0xbe15bb84	-0.14622313
10	0x3e2de32b	0.16981189
11	0xbd3e2639	-0.04642317
12	0xbae54322	-0.0017491321
13	0xbdcc886c	-0.09986958
14	0xbd4b3d9e	-0.04961931
