visualization/policy_nns/Overcooked/mapB/agent_0.pt (torch, 44417 bytes, 12 tensors)

weight f4 [32, 32]
0	0x3e5702ae	0.20997116
1	0xbcfdae79	-0.030966984
2	0x3e5ec93d	0.21756454
3	0xbea1e70f	-0.31621596
4	0x3e9f194e	0.31073993
5	0xbe8c7eac	-0.27440393
6	0xbea824d5	-0.328406
7	0xbe9e1f82	-0.30883414
8	0xbe68dd62	-0.22740701
9	0xbf00d55c	-0.5032556
10	0x3e86bd5c	0.26316345
11	0xbdae8a7a	-0.08522506
12	0x3db5796c	0.0886105
13	0xbe2e610b	-0.17029206
14	0xbd29fc93	-0.04150064
15	0xbe673ba3	-0.22581343
16	0xbe6354a3	-0.22200255
17	0xbea12c98	-0.31479335
18	0x3e938448	0.2881186
19	0xbe9e229f	-0.3088579
20	0xbd824764	-0.06361273
21	0x3b2e1f42	0.0026568924
22	0x3ecd8029	0.4013684
23	0xbd118468	-0.035526663
24	0x3eded55d	0.43522158
25	0x3e998a71	0.29988435
26	0x3e68f671	0.2275026
27	0x3e87701b	0.26452717
28	0x3d9f7673	0.07786264
29	0x3ea0df3a	0.31420308
30	0xbed54aa4	-0.4165851
31	0xbd4375b8	-0.047719687
32	0xbe960804	-0.2930299
33	0x3e99d265	0.3004333
34	0xbea0230e	-0.31276745
35	0xbe2bcc33	-0.16777115
36	0x3e266b03	0.16251759
37	0x3e6c9e40	0.23107243
38	0x3eb84094	0.3598677
39	0xbeb017c8	-0.34393144
40	0xbee8a0ee	-0.4543528
41	0xba8b01e4	-0.0010605422
42	0xbead60ea	-0.33863002
43	0x3ed823f4	0.4221493
44	0xbd8b8f43	-0.068144344
45	0x3df19ccd	0.117974855
46	0xbd63a645	-0.05557849
47	0xbecebcad	-0.40378323
48	0xbec5803b	-0.38574395
49	0xbe572b48	-0.21012604
50	0x3e6447e5	0.2229305
51	0x3f22f5b9	0.63656193
52	0x3f090269	0.535193
53	0x3e3c7dbf	0.18407343
54	0x3f0fd9fd	0.56192
55	0x3e1b6d1e	0.15178344
56	0x3e03b840	0.12863255
57	0xbeda20e7	-0.42603227
58	0xbeaa749e	-0.33292097
59	0xbe23dc06	-0.16001901
60	0x3ed15e12	0.40892082
61	0xbe63ad32	-0.22234038
62	0xbed2aecf	-0.41148993
63	0x3ee30887	0.44342443
64	0xbe5252bc	-0.20539373
65	0x3d8b5e10	0.068050504
66	0x3eb24554	0.34818518
67	0xbef1c220	-0.47218418
68	0x3e5ba3b5	0.21449168
69	0xbe55efd6	-0.20892271
70	0x3ec627d5	0.38702264
71	0x3bf294cf	0.0074029933
72	0xbe1c131f	-0.15241669
73	0x3e438efe	0.19097516
74	0x3e9434aa	0.2894643
75	0xbecf1ddc	-0.40452468
76	0x3e67540f	0.2259066
77	0xbdfc93d0	-0.123328805
78	0x3c06738b	0.0082062585
79	0xbe046644	-0.12929636
80	0x3daaff5e	0.08349489
81	0xbef46e98	-0.47740626
82	0xbecc20ea	-0.3986886
83	0xbd89d6d6	-0.0673043
84	0x3e9456c4	0.28972447
85	0xbe05c798	-0.1306442
86	0xbd83c0e4	-0.06433275
87	0xbe8a42c9	-0.27004078
88	0xbee99b24	-0.45626175
89	0xbe2737e4	-0.16329914
90	0x3e169dd4	0.14708644
91	0x3e72d089	0.23712362
92	0x3da45c2d	0.08025394
93	0x3c456f0c	0.012050401
94	0xbe1a784d	-0.15084954
95	0xbe8f2f54	-0.27965796
96	0xbd5de6e4	-0.054175273
97	0x3e9c89a2	0.30573756
98	0xbe97f72e	-0.2968077
99	0x3d949ec7	0.07256847
100	0xbe912769	-0.2835038
101	0xbe506942	-0.20352653
102	0x3e2b6d2b	0.16740863
103	0x3e259819	0.16171302
104	0x3e44407c	0.19165224
105	0xbecb80b0	-0.39746618
106	0xbd06ecee	-0.032940798
107	0x3e1978ec	0.14987534
108	0x3db03165	0.08603171
109	0xbe955a9d	-0.29170695
110	0xbded9e66	-0.11602478
111	0xbd9954f3	-0.07486906
112	0xbe86d5e4	-0.2633506
113	0xbe510602	-0.20412448
114	0x3db80a07	0.089862876
115	0xbf173b10	-0.590745
116	0xbed1c988	-0.4097407
117	0xbc791498	-0.015202664
118	0xbefd5972	-0.49482304
119	0xbc990888	-0.018680826
120	0xbdc5d979	-0.0966062
121	0xbe25a547	-0.1617633
122	0x3dd61863	0.1045387
123	0xbe6c56f3	-0.23080043
124	0xbeb8e964	-0.36115563
125	0xbd535ae3	-0.05160035
126	0xbeb257df	-0.34832665
127	0xbe1e6962	-0.15469888
128	0xbe8dda7e	-0.2770576
129	0xbe8c8bd6	-0.27450436
130	0xbd0acf06	-0.03388884
131	0x3cca5ddd	0.02470296
132	0x3ebc949a	0.36832124
133	0x3e4a9363	0.19782786
134	0xbea68a03	-0.3252717
135	0xbebbbaf8	-0.36666083
136	0xbee42143	-0.44556627
137	0x3cf3556e	0.029703822
138	0x3ce0702d	0.02739724
139	0x3e8ad24a	0.27113563
140	0xbde0d185	-0.10977463
141	0x3e9eb30b	0.30995974
142	0xbec656b2	-0.38738018
143	0x3e346441	0.17616369
144	0xbcc886c5	-0.024478326
145	0xbe09aeec	-0.13445634
146	0xbec11227	-0.37709162
147	0x3ed442f6	0.41457337
148	0x3eb69b37	0.35665295
149	0x3c6aaab0	0.014322922
150	0x3f11731f	0.56816286
151	0xbe73c46b	-0.23805396
152	0xbd060b58	-0.032725662
153	0xbd9296d9	-0.07157678
154	0x3dbaef25	0.091276444
155	0xbd9f74b8	-0.07785934
156	0x3ea00000	0.3125
157	0xbd0b2b27	-0.0339767
158	0x3e8d9d89	0.27659252
159	0x3e2365d5	0.15956815
160	0x3e3e2d3b	0.18571942
161	0x3edd3189	0.43201855
162	0xbe83393b	-0.256296
163	0x3e6e4264	0.23267514
164	0xbeadc8e7	-0.3394234
165	0x3e24a125	0.16077097
166	0xbef4eb96	-0.47835988
167	0x3e9d4304	0.3071519
168	0xbeb28c80	-0.34872818
169	0x3e8e1cb2	0.27756268
170	0x3ea29c4b	0.31759867
171	0xbec019fd	-0.37519827
172	0x3eb35f65	0.35033718
173	0xbd03f44f	-0.032215413
174	0xbe446bd2	-0.19181755
175	0xbdc7dfd1	-0.097594865
176	0x3dae05aa	0.08497174
177	0xbd686c58	-0.05674395
178	0xbdbee4dc	-0.09320995
179	0xbf01c63d	-0.5069311
180	0x3dfba77c	0.122878045
181	0x3e83524f	0.25648734
182	0xbe85dbd9	-0.26144293
183	0xbe86a4fd	-0.2629775
184	0xbd148bdb	-0.03626619
185	0xbe905811	-0.2819219
186	0x3dcfcd4f	0.101465814
187	0x3e251410	0.16120934
188	0x3df255d2	0.11832775
189	0x3bbc0651	0.0057380577
190	0xbd13855f	-0.036015864
191	0xbed26e3e	-0.41099733
192	0xbdd29ea6	-0.10284166
193	0x3eb8b5ba	0.36076146
194	0xbeb9829f	-0.36232468
195	0xbec3eb81	-0.38265613
196	0xbea13200	-0.3148346
197	0x3e8279f5	0.2548367
198	0x3e8cd9d0	0.27509928
199	0x3e5c76e2	0.21529725
200	0xbdee1f09	-0.11627013
201	0x3e2a533c	0.16633314
202	0x3e11c2ae	0.1423442
203	0xbe9cae1e	-0.3060159
204	0x3e877c25	0.26461902
205	0xbe95ba21	-0.29243568
206	0xbe7cf0d0	-0.24701238
207	0x3e1c8f73	0.15289097
208	0x3dd6aa17	0.10481661
209	0xbebe6b99	-0.37191465
210	0x3c284da4	0.010272417
211	0x3edd52da	0.43227273
212	0xbe7f9332	-0.24958494
213	0xbda255ca	-0.07926519
214	0x3d227e99	0.039671514
215	0xbdecfa0b	-0.115711294
216	0x3eb152f5	0.34633604
217	0xbe966438	-0.29373336
218	0x3ec914b4	0.39273608
219	0xbec41bf1	-0.38302568
220	0xbe8fb14a	-0.28064948
221	0x3e4df05b	0.2011122
222	0x3ebfcf66	0.3746292
223	0x3dc4be18	0.0960657
224	0xbe898cad	-0.2686514
225	0x3aa024fc	0.0012218053
226	0x3e3dad9a	0.18523255
227	0xbed7a23c	-0.42115963
228	0x3ea2c268	0.31788945
229	0x3e10d3cc	0.14143294
230	0x3ed047ce	0.40679783
231	0x3db39bc6	0.08769946
232	0xbca668c6	-0.020313632
233	0x3e1c7b09	0.15281309
234	0xbe9845cc	-0.2974075
235	0x3e0d86ab	0.13820903
236	0x3e72c9c9	0.23709787
237	0xbeaf873c	-0.34282863
238	0x3e30f37c	0.17280382
239	0xbef21896	-0.47284383
240	0xbe208f31	-0.15679623
241	0xbee2c6d8	-0.4429233
242	0x3e36374a	0.17794529
243	0x3e0d04bd	0.13771339
244	0xbee97b82	-0.4560204
245	0xbead1bc3	-0.33810243
246	0x3e9c199a	0.30488282
247	0xbc4b2723	-0.012399468
248	0x3ea3d73d	0.3200015
249	0x3cee5210	0.029091865
250	0xbd47fd30	-0.048825443
251	0x3d724a59	0.059152935
252	0xbe793d59	-0.24339809
253	0xbdc2525f	-0.09488367
254	0x3e51b295	0.2047828
255	0xbea5326b	-0.32265028

bias f4 [32]
0	0xbca4ab8e	-0.020101335
1	0x3cdc3d82	0.026884798
2	0xbd6212a4	-0.05519356
3	0x3cfc7e81	0.03082204
4	0x3e0d515e	0.1380057
5	0x3c5667c2	0.013086261
6	0xbcc1354d	-0.023584986
7	0xbdc7a584	-0.097483665
8	0x3d7aa209	0.061189685
9	0xbd91e3c7	-0.07123523
10	0x3dccadb6	0.0999407
11	0xbc688efc	-0.014194246
12	0xbc7bea44	-0.0153756775
13	0x3d6f2ac5	0.058390398
14	0x3ca49c9e	0.020094212
15	0x3d9f4dd0	0.077785134
16	0x3e0cb999	0.13742675
17	0x3cd0fb7e	0.025510546
18	0x3c816ec2	0.015799884
19	0x3d9dcefb	0.07705494
20	0x3e4ff859	0.20309581
21	0x3d0071f6	0.03135868
22	0x3d667dd5	0.056272347
23	0xbd6b7240	-0.057482004
24	0x3b567c43	0.0032727874
25	0x3cb40799	0.02197628
26	0x3cec5570	0.028849334
27	0xbc93b531	-0.018030735
28	0x3e209110	0.15680337
29	0xbd6a78c0	-0.057244062
30	0x3a318100	0.00067712367
31	0x3d933f86	0.071898505

weight f4 [32, 32]
0	0xbee9cf14	-0.456658
1	0x3f0fc196	0.56154764
2	0xbde377bb	-0.11106821
3	0x3e5c72d9	0.21528186
4	0xbcda5159	-0.026650118
5	0x3dab4a7b	0.083638154
6	0x3ee6b9aa	0.45063525
7	0xbd63db85	-0.055629272
8	0x3d1eface	0.038813405
9	0xbd6c34bf	-0.05766749
10	0x3e51f060	0.20501852
11	0xbe24435f	-0.16041325
12	0x3ee645e6	0.44975203
13	0x3e992a7a	0.2991522
14	0xbcf03e8b	-0.029326698
15	0x3da24817	0.07923906
16	0x3ef0c6ba	0.47026616
17	0x3de91202	0.11380388
18	0x3dfd6ba5	0.12374047
19	0x3f1467fb	0.5797116
20	0xbdc5bfb4	-0.09655705
21	0x3e3df16a	0.18549123
22	0xbba3120e	-0.0049765175
23	0xbe951d06	-0.29123706
24	0x3e09cc81	0.13456918
25	0xbedd5902	-0.4323197
26	0x3f0bbeba	0.545879
27	0xbec5c70d	-0.38628426
28	0xbebbb042	-0.36657912
29	0xbe875329	-0.26430634
30	0x3dd8b04b	0.105805
31	0xbda0a147	-0.07843261
32	0xbc5f9039	-0.013645225
33	0xbedbc199	-0.4292114
34	0xbd8560d4	-0.06512609
35	0x3ea44eb6	0.32091302
36	0x3db9a7fa	0.09065242
37	0xbe83489c	-0.25641334
38	0xbec1435b	-0.377467
39	0xbeb9949d	-0.36246195
40	0x3f058864	0.5216124
41	0xbdca0e3a	-0.09865995
42	0x3e989fa4	0.29809296
43	0x3ec5b2b2	0.38612896
44	0xbe928b8c	-0.2862209
45	0x3ec96658	0.39335895
46	0x3e9eb4b0	0.3099723
47	0x3ef2cbc8	0.47421098
48	0x3e28eabd	0.16495796
49	0x3e7798d0	0.24179387
50	0xbe9cfff4	-0.30664027
51	0xbe5516ba	-0.20809451
52	0x3d80f6b6	0.062970564
53	0x3ea8072d	0.32817975
54	0xbe888f5d	-0.26671878
55	0x3e5ed051	0.21759154
56	0xbeb8d619	-0.36100844
57	0x3e8fb053	0.28064212
58	0x3dbfb965	0.09361533
59	0x3d0b02c3	0.03393818
60	0x3e92c8ce	0.28668827
61	0xbcf8d244	-0.0303737
62	0xbedf531d	-0.43618098
63	0x3d8509f8	0.06496042
64	0xbdaf9a76	-0.08574383
65	0x3f0b63a3	0.5444891
66	0xbde306c0	-0.11085272
67	0x3e9721f4	0.29518092
68	0x3f1e16aa	0.6175333
69	0xbead756d	-0.3387865
70	0xbe1962ab	-0.14979045
71	0xbea0cd5f	-0.31406686
72	0x3e12f27e	0.14350316
73	0x3e294d56	0.16533408
74	0x3f16faa0	0.58976173
75	0xbe7c4356	-0.24635062
76	0xbe9ba36e	-0.30398124
77	0x3e43db23	0.19126563
78	0x3e6e541c	0.23274273
79	0xbde3e31c	-0.11127302
80	0x3e7bea50	0.24601102
81	0x3e9ec44f	0.31009147
82	0xbea5ce2d	-0.32383862
83	0xbedd8c9b	-0.43271336
84	0xbf08a95d	-0.5338343
85	0xbe15775d	-0.14596315
86	0x3ecd8085	0.40137115
87	0x3e71a030	0.23596263
88	0xbeae3456	-0.34024304
89	0x3eb4b650	0.35295343
90	0x3d949d33	0.07256546
91	0x3ece5db6	0.4030587
92	0x3f06529c	0.524698
93	0xbeb61e0e	-0.35569805
94	0xbdb234cb	-0.08701476
95	0x3c95c368	0.018281654
96	0x3e422ad8	0.18961656
97	0xbef0a22d	-0.4699873
98	0xbe5cc48a	-0.21559349
99	0x3dd41a15	0.10356537
100	0xbf013030	-0.50464153
101	0x3eaae03a	0.33374196
102	0xbeaca6be	-0.33720964
103	0x3dea99a7	0.11455088
104	0x3e1744ac	0.1477229
105	0xbea5f513	-0.3241354
106	0xbe849132	-0.25892025
107	0xbebced18	-0.36899638
108	0xbe101386	-0.14069948
109	0x3eab3417	0.3343818
110	0xbebd54f7	-0.36978886
111	0xbe6a1c10	-0.22862267
112	0x3d359b84	0.044337764
113	0xbbaa4e1c	-0.0051972996
114	0x3dbb622f	0.091495864
115	0xbe26f660	-0.16304922
116	0x3d796632	0.060888477
117	0xbd13050c	-0.035893485
118	0x3eaf8faa	0.34289294
119	0xbe5757bf	-0.21029566
120	0xbe4c8548	-0.19972718
121	0xbc3992fe	-0.01132655
122	0x3e681281	0.22663309
123	0xbd74116f	-0.05958694
124	0xbecbc338	-0.39797378
125	0x3e8f9b37	0.28048107
126	0xbdfebc9a	-0.12438317
127	0xbf015c02	-0.5053102
128	0xbf09225c	-0.53568053
129	0xbd03204b	-0.03201322
130	0xbed74814	-0.4204718
131	0xbe475f4a	-0.19469944
132	0x3edf56c3	0.4362088
133	0xbe7ef0bb	-0.24896519
134	0xbe93bb0a	-0.28853637
135	0xbeae1521	-0.34000495
136	0xbeb5b554	-0.35489905
137	0x3d32ccbf	0.043652292
138	0xbeca0e18	-0.39463878
139	0xbe8a6044	-0.2702657
140	0xbca8e8df	-0.020618854
141	0xbec7efaa	-0.39050037
142	0xbd69c901	-0.057076458
143	0xbe121e60	-0.142694
144	0x3e2b968a	0.16756645
145	0x3f0a559e	0.5403689
146	0x3eb6bb02	0.3568955
147	0x3ef38bd1	0.4756761
148	0x3e609478	0.21931636
149	0xbd2943fd	-0.041324604
150	0xbbc7f381	-0.006102026
151	0xbeb7891b	-0.3584679
152	0xbe8a2080	-0.2697792
153	0x3eb68b01	0.35652927
154	0x3e1b3130	0.15155482
155	0x3e97abb8	0.29623199
156	0x3e4f9e8c	0.20275325
157	0xbe9e9428	-0.3097241
158	0xbe7c7903	-0.24655537
159	0xbe9930c1	-0.2992001
160	0xbeb2fb5c	-0.34957397
161	0x3e87e907	0.26544973
162	0x3c7c72b0	0.015408203
163	0xbdcdb236	-0.10043757
164	0xbe4e5434	-0.20149308
165	0x3e887ad5	0.26656213
166	0x3f097649	0.53696114
167	0xbe8bf017	-0.27331612
168	0x3c78a6a8	0.015176453
169	0x3ec51639	0.38493517
170	0xbaf542f4	-0.001871197
171	0x3da3be91	0.07995332
172	0x3efcb400	0.4935608
173	0x3e632622	0.22182515
174	0xbeac1bd9	-0.33614996
175	0xbd3e1b03	-0.04641248
176	0x3de80fe6	0.113311574
177	0x3ec7a7a0	0.38995075
178	0x3e5e373c	0.21700758
179	0xbedd298d	-0.43195763
180	0xbea57ac3	-0.32320222
181	0xbeb47fcd	-0.35253754
182	0xbc6e2afd	-0.014536616
183	0x3c246d24	0.010035787
184	0x3e23d108	0.15997708
185	0x3eea858b	0.4580501
186	0xbddb4f31	-0.10708464
187	0x3eb09eea	0.34496242
188	0xbec27362	-0.37978655
189	0x3ef6c1be	0.4819469
190	0x3f20a4f9	0.6275173
191	0x3ea651b8	0.3248422
192	0x3e6c78bc	0.23092932
193	0x3ed59e6d	0.41722432
194	0xbdbc42a8	-0.09192401
195	0xbedda4b1	-0.43289712
196	0x3eb5db70	0.3551898
197	0x3e8eb6f7	0.27873966
198	0xbe28d6d4	-0.164882
199	0xbe090cbc	-0.13383764
200	0xbe7d6db7	-0.24748884
201	0x3f07108c	0.52759624
202	0x3f1bc7da	0.60851824
203	0xbe872149	-0.26392582
204	0xbee7a7d7	-0.4524524
205	0x3ecd98a9	0.40155533
206	0x3e906a06	0.2820589
207	0xbe88ecbd	-0.26743117
208	0x3e0ded26	0.13859996
209	0xbe8aab18	-0.2708366
210	0x3e4ee19c	0.2020325
211	0xbebf5cea	-0.37375575
212	0xbf109643	-0.5647928
213	0xbea41f72	-0.3205524
214	0x3f10a795	0.5650571
215	0xbeae97cb	-0.34100184
216	0xbccc6ac2	-0.02495325
217	0x3ea8216b	0.32837996
218	0x3e82e976	0.25568742
219	0x3ecf8ed2	0.4053865
220	0xbdadc3bf	-0.08484601
221	0x3d779b0b	0.060450595
222	0xbdbb479a	-0.09144516
223	0x3efa93b5	0.48940817
224	0x3e676f34	0.22601014
225	0x3eb96256	0.36207837
226	0xbe496c12	-0.19670132
227	0xbdda62ff	-0.10663413
228	0xbea4271e	-0.32061094
229	0x3d7f2217	0.06228837
230	0xbe0d7104	-0.13812643
231	0x3e51d49c	0.2049126
232	0x3cbb1581	0.022837402
233	0xbebd2fa6	-0.36950415
234	0x3f1de117	0.61671585
235	0x3e42edf2	0.19036081
236	0x3d47ef8c	0.048812434
237	0x3de9b926	0.114122674
238	0x3e260a2f	0.16214822
239	0xbe57e784	-0.2108441
240	0x3dc06208	0.09393698
241	0x3c3046bb	0.010759051
242	0xbe1cdf72	-0.15319613
243	0xbea3396d	-0.3187975
244	0xbe667d9d	-0.22508855
245	0x3d789c5a	0.060695983
246	0x3d144a02	0.03620339
247	0xbc1a0ffb	-0.009403224
248	0xbefe60f9	-0.4968336
249	0xbe758bdb	-0.23979132
250	0xbef6b149	-0.48182133
251	0xbe90dd61	-0.282939
252	0x3db344a4	0.087533265
253	0xbeb3df50	-0.3513131
254	0xbe306081	-0.17224313
255	0x3e4c3586	0.19942293

bias f4 [32]
0	0x3d634629	0.05548683
1	0x3d198a5a	0.037485458
2	0x3d8a429d	0.06750987
3	0xbd8fc251	-0.07019485
4	0x3d726b22	0.0591842
5	0xbcfaf043	-0.030632144
6	0xbc0eee0b	-0.008723746
7	0xbd444e09	-0.047925983
8	0x3c61fdd8	0.013793431
9	0xbcdf95c1	-0.027293088
10	0x3c66225c	0.014046278
11	0x3d0e48b3	0.0347373
12	0x3d0b0f4e	0.033950143
13	0x3d6b660b	0.057470363
14	0x3c4f2b31	0.012644575
15	0xbd1a4963	-0.037667643
16	0x3db369f0	0.0876044
17	0xbcecf519	-0.028925465
18	0x3dc1bd22	0.09459902
19	0x3af4bdad	0.001867225
20	0x3cf66b40	0.030080438
21	0x3d900110	0.07031453
22	0x3d10ae2e	0.03532236
23	0xbd3fa469	-0.046787653
24	0xbd6548cb	-0.055977624
25	0x3d72f387	0.059314277
26	0x3e0ad93a	0.13559428
27	0x3c7573de	0.014981238
28	0x3ccbe285	0.024888286
29	0xbbacb795	-0.005270908
30	0x3cab26f5	0.0208926
31	0x3d94d28f	0.07266723

weight_ih_l0 f4 [96, 32]
0	0xbd477f9a	-0.048705675
1	0x3e35b4e0	0.1774478
2	0xbe7461b4	-0.23865396
3	0xbdfb1c06	-0.122612044
4	0xbd8eff17	-0.06982248
5	0xbe0c2d23	-0.13689093
6	0xbeb18962	-0.34675127
7	0x3d69631d	0.056979287
8	0xbd39bdfe	-0.045347206
9	0x3c96b172	0.01839516
10	0xbc8dd4c6	-0.017313372
11	0xbe8aff78	-0.27148032
12	0xbe0cdfb9	-0.13757218
13	0x3e01d540	0.12679005
14	0xbd8c5e1d	-0.06853888
15	0xbd9cc435	-0.07654611
16	0xbdeb0051	-0.1147467
17	0xbe708d94	-0.23491508
18	0x3cd2cc86	0.02573229
19	0xbe2e5290	-0.17023683
20	0x3dcd98fe	0.100389466
21	0xbe29f520	-0.16597414
22	0x3d6d10fc	0.057877526
23	0x3d8c7aab	0.068593346
24	0x3de8fe23	0.11376598
25	0x3d6a74fa	0.057240464
26	0xbea9e684	-0.33183682
27	0xbde8e427	-0.113716416
28	0xbe8b2ecf	-0.2718415
29	0xbdc1d0b0	-0.09463632
30	0xbdb62e33	-0.088955306
31	0xbe4e9911	-0.20175578
32	0x3e45610f	0.19275306
33	0x3d438d81	0.04774237
34	0xbe792542	-0.24330619
35	0xbe77c05c	-0.24194473
36	0x3c6f12e2	0.014591904
37	0xbd0a47f3	-0.033760022
38	0xbe4cb17c	-0.1998958
39	0x3d9b0301	0.07568932
40	0x3e81f704	0.2538377
41	0x3da4bc88	0.08043772
42	0xbdb14596	-0.086558506
43	0xbc244fb1	-0.010028766
44	0xbe928e32	-0.2862411
45	0x3e76ac90	0.24089265
46	0x3c7d7ff7	0.015472404
47	0x3e4dd1f2	0.20099619
48	0xbc15b524	-0.009137426
49	0x3e1146da	0.14187184
50	0x3eb0512f	0.34436938
51	0xbd76263d	-0.06009506
52	0xbd3043be	-0.043033354
53	0x3e52e22a	0.20594087
54	0x3e4bded1	0.19909216
55	0xbe5cc34d	-0.21558876
56	0x3df9d06b	0.12197956
57	0x3bfb262e	0.0076644635
58	0xbe02247e	-0.12709233
59	0xbe41ec55	-0.1893781
60	0xbda7e378	-0.08197683
61	0xbd66e2e7	-0.056368735
62	0x3e6fc3d8	0.23414552
63	0x3df45159	0.11929578
64	0x3e084bfc	0.13310236
65	0x3d84bf15	0.064817585
66	0x3e817239	0.25282457
67	0xbdc09e44	-0.09405187
68	0xbd29a988	-0.041421443
69	0xbbb28d95	-0.005449007
70	0x3da9cad9	0.08290643
71	0xbe219d03	-0.15782551
72	0x3cfcc44a	0.030855317
73	0x3c97693a	0.018482793
74	0x3a7144ef	0.00092036923
75	0xbd4f2ec4	-0.05058171
76	0xbeda766b	-0.4266847
77	0xbc7cc7d8	-0.015428506
78	0xbe4365f1	-0.19081856
79	0xbda6d238	-0.08145565
80	0xbca0c453	-0.019624865
81	0xbe359425	-0.17732294
82	0xbd8c525a	-0.06851645
83	0xbe078e82	-0.13237956
84	0xbe3102d6	-0.17286238
85	0xbe6639e5	-0.22483023
86	0x3dc4fb28	0.09618217
87	0xbd9e976f	-0.077437274
88	0xbdad12f6	-0.08450882
89	0x3dc87eb5	0.097897924
90	0xbdc79acb	-0.09746321
91	0xbdf5b60b	-0.119976126
92	0x3950e82b	0.00019922915
93	0xbdfbd08a	-0.12295635
94	0x3cfc834f	0.030824332
95	0xbba0ae53	-0.0049035936
96	0xbe38b02f	-0.18035959
97	0xbe539e8a	-0.20665947
98	0xbc82d5d5	-0.015971104
99	0xbe0c33f9	-0.13691701
100	0x3db46799	0.08808822
101	0xbcdae862	-0.026722137
102	0x3e8e714a	0.27820808
103	0x3e31fad9	0.17380847
104	0x3d0ba9a6	0.034097336
105	0xbd652f79	-0.055953477
106	0x3da800e4	0.08203295
107	0xbeb868af	-0.36017367
108	0xbe31dedb	-0.17370169
109	0xbd65423a	-0.05597136
110	0x3dbceb48	0.09224564
111	0x3e518932	0.20462492
112	0xbd986f74	-0.07443133
113	0xbe55f003	-0.20892338
114	0x3ddc5c62	0.10759808
115	0xbdf5634c	-0.1198183
116	0xbe7a42ee	-0.24439594
117	0xbe8b196d	-0.27167836
118	0x3d2a2ba7	0.041545536
119	0x3e435cd1	0.19078375
120	0xbde024e3	-0.109445356
121	0x3d7a1ac5	0.061060686
122	0xbd5ce8e2	-0.05393303
123	0xbd96ff8b	-0.0737296
124	0x3c8e8ab9	0.017400132
125	0xbd68c866	-0.05683174
126	0x3e537d11	0.20653178
127	0x3dc021f7	0.09381478
128	0xbe3968ae	-0.18106338
129	0x3e3c3dcd	0.1838295
130	0x3d25477a	0.04035137
131	0x3e313227	0.17304288
132	0x3e0a6d1c	0.13518184
133	0xbd4f6c70	-0.050640523
134	0xbd85a48e	-0.06525527
135	0x3e1ebbff	0.15501402
136	0x3e26ac12	0.16276577
137	0x3dee00b7	0.1162123
138	0x3d10ba67	0.035334017
139	0xbea99d2c	-0.33127725
140	0xbda74b96	-0.08168714
141	0x3e084977	0.13309275
142	0x3e175e42	0.1478205
143	0xbdfff239	-0.12497372
144	0x3e16ec4f	0.14738582
145	0xbc456764	-0.012048576
146	0xbdfddb32	-0.12395324
147	0x3e219f1d	0.15783353
148	0xbe38974d	-0.18026467
149	0xbe0efa0b	-0.13962571
150	0x3e232f3b	0.15935986
151	0xbe05d23a	-0.13068476
152	0xbd4a3d05	-0.0493746
153	0xbdaf6464	-0.0856407
154	0xbd1caa38	-0.03824827
155	0x3de5bca0	0.11217618
156	0xbeb82d40	-0.35972023
157	0xbe180cf2	-0.14848688
158	0x3e64477e	0.22292897
159	0xbdd1b527	-0.1023963
160	0xbe078fa3	-0.13238387
161	0x3d99d838	0.075119436
162	0xbd50cb47	-0.05097511
163	0xbe4cc746	-0.19997892
164	0x3da74c78	0.08168882
165	0xbde20530	-0.11036146
166	0xbe327366	-0.17426834
167	0xbe002fa1	-0.12518169
168	0xbe53ec39	-0.2069558
169	0xbe07047d	-0.13185306
170	0xbcd57fdc	-0.026061945
171	0xbe450f8a	-0.19244209
172	0xbeb78df0	-0.35850477
173	0x3e8ad1f3	0.27113304
174	0xbde8984e	-0.11357175
175	0xbc0c2fc9	-0.008556315
176	0x3da56710	0.08076298
177	0xbe1441da	-0.14478245
178	0xbd5ea676	-0.05435797
179	0xbc2de6bc	-0.010614093
180	0xbdbc2c11	-0.091880925
181	0xbd0876a7	-0.03331628
182	0x3db5c0ab	0.08874639
183	0xbe149420	-0.1450963
184	0xbe3f403f	-0.18676852
185	0xbc582e83	-0.013194683
186	0xbe848f7c	-0.2589072
187	0xbe1ab1df	-0.15106915
188	0xbe2d94c6	-0.16951284
189	0xbe36ca11	-0.1785052
190	0x3b80f121	0.003934995
191	0xbea056a7	-0.3131611
192	0x3dd434ef	0.10361659
193	0x3de30bad	0.11086211
194	0xbecb7201	-0.39735416
195	0xbcc2836a	-0.023744304
196	0x3e7b0138	0.24512184
197	0xbdefba40	-0.11705446
198	0xbe3e6889	-0.18594564
199	0x3e087c35	0.13328631
200	0x3d8fcb5d	0.0702121
201	0xbe19f929	-0.15036453
202	0x3d54411a	0.0518199
203	0xbddb3bdb	-0.10704776
204	0xbda38fce	-0.07986413
205	0x3da7f2a6	0.082005784
206	0xbe094ccc	-0.13408202
207	0x3cf011b4	0.029305317
208	0xbdf28117	-0.11841028
209	0x3d8886a9	0.066663094
210	0xbe91438e	-0.28371853
211	0xbe40696a	-0.18790212
212	0xbe54ed22	-0.20793584
213	0xbd351438	-0.044208735
214	0x3f06978b	0.52574986
215	0x3e29f2b9	0.16596498
216	0xbd9ae473	-0.075631045
217	0x3d1636b0	0.036673248
218	0xbe5bede0	-0.21477461
219	0xbe18e613	-0.14931516
220	0xbe66dff3	-0.22546367
221	0xbdb7447c	-0.08948609
222	0xbc969123	-0.018379753
223	0x3dc1782f	0.09446751
224	0x3ea8ddb0	0.32981634
225	0x3eab925e	0.33510107
226	0x3d8843f2	0.066535845
227	0xbd310679	-0.043219063
228	0x3d5dff77	0.05419871
229	0x3e2a76e1	0.16646911
230	0x3e33dfc2	0.17565826
231	0xbd201cbb	-0.0390899
232	0x3ce6124f	0.028084902
233	0x3ddb7210	0.10715115
234	0xbe79fcdd	-0.24412866
235	0x3e9939a8	0.299268
236	0x3e1bfdec	0.15233582
237	0xbd460cd4	-0.048352078
238	0x3e843ba6	0.25826758
239	0x3e0fc8ab	0.14041393
240	0x3e804854	0.25055182
241	0x3e86a809	0.26300076
242	0x3e380e29	0.17974152
243	0x3e7445e5	0.23854788
244	0x3e96667a	0.29375058
245	0x3ebb40b8	0.36572814
246	0xbe8bdd18	-0.2731712
247	0xbdfbb87b	-0.12291046
248	0x3e9d5ae5	0.3073341
249	0x3ea7e07f	0.32788464
250	0x3e088b18	0.1333431
251	0x3e10014c	0.14062995
252	0x3e683d73	0.22679691
253	0x3ede1072	0.43371922
254	0x3e45c6ba	0.1931409
255	0x3e897cea	0.26853114

weight_hh_l0 f4 [96, 32]
0	0x3e95f3ce	0.2928757
1	0x3d2dc0bd	0.042420138
2	0x3e0c19a4	0.13681656
3	0xbd8b7916	-0.06810205
4	0x3db59b68	0.08867532
5	0xbd67c737	-0.05658647
6	0xbd5db463	-0.05412711
7	0xbd41d556	-0.047322594
8	0xbe2b2de3	-0.16716723
9	0xbd03b765	-0.03215732
10	0x3d8fcb84	0.070212394
11	0x3cd91b9a	0.02650242
12	0xbda8b4dd	-0.08237622
13	0xbdb682b1	-0.08911646
14	0xbe0594a4	-0.13044983
15	0x3bd4b00c	0.006490713
16	0xbca8e335	-0.020616153
17	0xbe10b7b5	-0.14132579
18	0xbdecdf61	-0.11566044
19	0xbb5f06d2	-0.0034031165
20	0x3e15daf9	0.14634313
21	0xbe31e002	-0.17370608
22	0x3de09ba0	0.10967183
23	0x3d586681	0.05283213
24	0x3d606c4a	0.054790772
25	0xbe1527a8	-0.14565909
26	0xbc17ff4f	-0.009277179
27	0x3dbe35c2	0.09287597
28	0xbe5de57a	-0.2166957
29	0xbd9687b9	-0.07350106
30	0x3d3d4828	0.04621139
31	0xbe1da73e	-0.15395829
32	0xbdb7040a	-0.08936317
33	0x3dcee5f0	0.10102451
34	0xbe176f45	-0.1478854
35	0xbdeb8c71	-0.115013964
36	0x3e8615ab	0.26188406
37	0xba4e7874	-0.0007876225
38	0xbd9b93a2	-0.07596518
39	0xbeacbc91	-0.33737615
40	0xbdad49ee	-0.084613666
41	0x3e473c6a	0.1945664
42	0xb9739d52	-0.00023232892
43	0x3e237146	0.15961179
44	0x3d22ffe1	0.039794806
45	0x3c5f8a4a	0.0136438105
46	0x3e3c820b	0.18408982
47	0xbe557b85	-0.208479
48	0x3d95b553	0.073099755
49	0xbc948800	-0.018131256
50	0x3e3f98c1	0.18710615
51	0x3de1f634	0.11033288
52	0x3e2e0b6c	0.16996545
53	0x3dd11a76	0.10210125
54	0x3d75d9c6	0.060022138
55	0x3d792b8f	0.060832556
56	0x3e321001	0.17388918
57	0x3e23b805	0.15988167
58	0xbb927f03	-0.0044707074
59	0x3d885231	0.06656302
60	0xbda6bbca	-0.08141287
61	0x3df77e98	0.12084693
62	0x3dfcb06d	0.12338338
63	0xbde60a07	-0.11232381
64	0x3d25c1ca	0.040468015
65	0xbdf80f78	-0.121123254
66	0xbe0469c1	-0.12930967
67	0x3ea4a168	0.32154393
68	0x3cbd598d	0.02311399
69	0xbcb45332	-0.022012327
70	0xbcdbcd5e	-0.026831325
71	0x3db5d36c	0.08878216
72	0x3d75d37c	0.06001614
73	0xbd96ba89	-0.073597975
74	0x3d9d4012	0.07678236
75	0xbe6423bc	-0.22279257
76	0xbd40ca9e	-0.04706823
77	0xbbd8cda2	-0.00661631
78	0xbccb1e7a	-0.024794806
79	0xbdeb4407	-0.114875846
80	0x3ce8b946	0.028408658
81	0xbea015d3	-0.3126665
82	0xbd8a1bcc	-0.06743583
83	0xbe0712a7	-0.13190709
84	0x3e0d7690	0.13814759
85	0x3d62723f	0.055284735
86	0x3de0ac51	0.10970367
87	0xbe2c8e53	-0.16851167
88	0xbe6acbd7	-0.22929321
89	0xbdb5c762	-0.0887592
90	0x3d8728ca	0.06599577
91	0xbe18660f	-0.14882682
92	0x3e39cd1e	0.18144652
93	0xbd020b4f	-0.031749066
94	0xbe212996	-0.1573852
95	0xbdb72df3	-0.08944311
96	0x3d0e6fd7	0.034774628
97	0xbe0fe5b1	-0.14052464
98	0x3df758ae	0.12077461
99	0x3d959db2	0.073054686
100	0xbdbd94e5	-0.09256915
101	0x3db6c196	0.08923642
102	0xbcbeb77c	-0.023280852
103	0x3e4ce2ad	0.20008345
104	0x3d8bb065	0.06820754
105	0xbcc80b7f	-0.024419544
106	0x3d02a417	0.03189477
107	0xbe02f4d9	-0.12788714
108	0x3d9b54e3	0.0758455
109	0xbdab7332	-0.08371581
110	0xbe3b7dc9	-0.18309702
111	0x3e690121	0.22754337
112	0xbe5d2611	-0.21596552
113	0xbe6a71da	-0.22894993
114	0x3dd42537	0.10358661
115	0x3caa2b66	0.020772647
116	0x3e14124c	0.14460105
117	0xbe410e8e	-0.18853208
118	0xbe10bdf9	-0.14134969
119	0x3c1da2c5	0.009621327
120	0xbdd49534	-0.10380021
121	0xbdd26eb7	-0.102750234
122	0x3e3d1c6f	0.18467878
123	0xbe9cb9e9	-0.30610588
124	0x3e57b499	0.21064986
125	0x3e779825	0.24179132
126	0x3e13f0dd	0.14447351
127	0xbc193600	-0.0093512535
128	0x3e6fc86e	0.23416302
129	0x3e2dfde8	0.16991389
130	0x3e042ebd	0.12908454
131	0xbd11aa7b	-0.035562973
132	0xbdce5d46	-0.10076384
133	0x3e008d21	0.12553836
134	0xbe9f673a	-0.31133443
135	0x3ddbd285	0.10733513
136	0x3e38863b	0.18019955
137	0x3d8dfb5f	0.06932711
138	0x3d7da565	0.06192531
139	0x3dad82e0	0.08472228
140	0xbcf61326	-0.030038428
141	0x3c84e639	0.01622306
142	0xbdf4e20c	-0.119571775
143	0x3dba8f54	0.09109369
144	0xbd4088f2	-0.0470056
145	0x3db0f112	0.086397305
146	0x3d9b9b88	0.075980246
147	0x3e4d8190	0.20068955
148	0xbe100dc5	-0.14067753
149	0xbe5ca44b	-0.21547048
150	0xbdd912d8	-0.10599297
151	0x3d53e5fd	0.051733006
152	0xbdf4d31f	-0.11954331
153	0x3db1e1f7	0.086856775
154	0x3c686262	0.014183613
155	0x3e3f2d0e	0.18669531
156	0x3e8e776d	0.2782549
157	0x3e4969f9	0.19669332
158	0xbe1be67f	-0.15224646
159	0xbe1b9ee1	-0.15197326
160	0x3e07066f	0.13186048
161	0x3e192da5	0.14958818
162	0xbd7ca4f3	-0.061680745
163	0x3cfc77b8	0.030818805
164	0xbc188892	-0.009309905
165	0x3e33a342	0.17542747
166	0xbe8a6b24	-0.27034867
167	0xbe2b2d3c	-0.16716474
168	0x3dd6e073	0.10492029
169	0xbb6752f0	-0.0035297237
170	0x3d2fee0f	0.04295164
171	0xbc0ec355	-0.008713563
172	0x3e3e5cd6	0.18590102
173	0xbe163a54	-0.14670688
174	0xbd5e36f0	-0.05425161
175	0x3e441805	0.19149788
176	0xbd91f59d	-0.07126925
177	0xbdf92e72	-0.12167062
178	0x3d247548	0.04015091
179	0x3e5a35e1	0.21309616
180	0x3d0b6d04	0.034039512
181	0x3e041e14	0.12902099
182	0xbdf0193c	-0.11723563
183	0x3e6cd194	0.23126823
184	0xbe1ffbc2	-0.15623382
185	0x3e337e02	0.17528537
186	0x3e50da92	0.20395878
187	0xbd20eea1	-0.039290074
188	0xbc970b5e	-0.018438037
189	0x3e4f9da1	0.20274974
190	0x3c8a45a3	0.016878909
191	0x3d8cbaa4	0.068715364
192	0xbe417ed9	-0.18896045
193	0x3de60302	0.112310424
194	0x3c237280	0.009976029
195	0xbe42b611	-0.19014765
196	0xbe731865	-0.23739775
197	0xbd94d099	-0.07266349
198	0xbd297ff8	-0.041381806
199	0xbc902507	-0.017595781
200	0x3de45d36	0.11150591
201	0xbe8af9e9	-0.2714379
202	0xbcb43789	-0.021999137
203	0x3efb10be	0.4903621
204	0xbd9407fe	-0.07228087
205	0xbdab7149	-0.08371217
206	0x3d9db442	0.07700397
207	0x3d199b33	0.037501525
208	0x3d600ab4	0.054697707
209	0x3e9f6458	0.31131244
210	0x3dec2cc5	0.115319766
211	0xbd21acec	-0.03947155
212	0xbdcb7bb6	-0.09935705
213	0xbe2e5adb	-0.17026846
214	0xbeca9904	-0.39569867
215	0xbd8a8ae2	-0.06764771
216	0xbd72c51c	-0.05927001
217	0x3dc50527	0.09620123
218	0x3ec0ee29	0.37681702
219	0x3d686fd6	0.05674728
220	0x3e1f9941	0.15585805
221	0x3ea06c94	0.3133284
222	0x3d2d09d1	0.04224569
223	0x3da0e3e4	0.07855967
224	0x3e036a40	0.128335
225	0xbdc2e41c	-0.09516165
226	0xbd9be86c	-0.0761269
227	0x3e4179c5	0.18894108
228	0x3e38cdb3	0.18047218
229	0xbccfebda	-0.025381017
230	0x3cc680b1	0.024231287
231	0xbdfe2b6f	-0.12410628
232	0x3dd0d4e4	0.10196856
233	0x3d8cbed0	0.06872332
234	0xbd8c9ba4	-0.068656236
235	0x3dbead69	0.09310419
236	0x3ccc6afc	0.024953358
237	0xbde508cd	-0.11183319
238	0x3de4f986	0.11180405
239	0x3c5c5ca7	0.013449824
240	0xbd99a05f	-0.075012915
241	0xbd55869f	-0.052130338
242	0x3df18036	0.117920324
243	0xbdf4f63b	-0.11961027
244	0x3e029fb8	0.1275624
245	0x3e9adf54	0.3024851
246	0x3e3a5b5d	0.18198915
247	0xbcabe828	-0.020984724
248	0xbc5008e0	-0.012697428
249	0xbe7bceea	-0.2459065
250	0xbd67d12d	-0.05659597
251	0xbdac33db	-0.08408328
252	0xbe7bb3c4	-0.24580294
253	0xbe9984d2	-0.29984146
254	0xbd3e1ca0	-0.046414018
255	0xbe0cef47	-0.13763152

bias_ih_l0 f4 [96]
0	0x3be3f621	0.006956831
1	0xbd912f03	-0.07089045
2	0x3e263be7	0.16233788
3	0x3d271ab9	0.04079697
4	0xbdff913d	-0.12478874
5	0xbe17ae0d	-0.14812489
6	0x3de84dd8	0.113429725
7	0x3e3fadf7	0.18718706
8	0xbde7881a	-0.11305256
9	0xbe7bce28	-0.24590361
10	0xbdcf3771	-0.101179965
11	0xbdbd9807	-0.092575125
12	0x3c6f5370	0.014607295
13	0xbe04eb0e	-0.12980291
14	0x3e02e54c	0.12782782
15	0xbe0e07e3	-0.13870196
16	0xbd6bfd64	-0.0576147
17	0x3d02d4d9	0.03194127
18	0x3d1b4e61	0.037916545
19	0x3c822764	0.015887924
20	0xbe42e54a	-0.1903278
21	0xbd772b3e	-0.060343973
22	0xbcd7f937	-0.026363952
23	0xbd96fcf6	-0.07372467
24	0x3e1ac5a8	0.15114462
25	0x3d495dc4	0.049161687
26	0x3e8b6a38	0.27229476
27	0x3bda32b0	0.0066588745
28	0x3dea0c0d	0.1142808
29	0xbdce1450	-0.10062468
30	0x3df25439	0.118324704
31	0x3d91f616	0.07127015
32	0xbe9c182a	-0.30487186
33	0xbdca8f4a	-0.098906115
34	0xbd137dcb	-0.036008637
35	0xbdde3cb7	-0.10851424
36	0xbe275502	-0.16341022
37	0xbe802318	-0.25026774
38	0x3dacad62	0.08431508
39	0xbd3e3a3c	-0.046442255
40	0xbd3d7d34	-0.04626198
41	0xbe8784af	-0.26468417
42	0x3d2d5177	0.04231402
43	0xbe8d20a5	-0.27563968
44	0xbe6703ac	-0.22559994
45	0xbe76c598	-0.24098814
46	0xbd185c0b	-0.037197154
47	0xbe721cbb	-0.23643772
48	0xbe7f3f72	-0.24926546
49	0x3d88ebdf	0.06685614
50	0xbe17169c	-0.14754719
51	0x3df074e3	0.11741044
52	0xbd8d282f	-0.0689243
53	0x3d87f56b	0.06638607
54	0xbe5b880e	-0.2143862
55	0xbe2c1b11	-0.168072
56	0x3d0e0d8b	0.034680884
57	0xbe1f478a	-0.15554634
58	0x3d21f923	0.039544236
59	0xbe828c4f	-0.25497672
60	0x3d9af5e8	0.07566434
61	0x3ccd1536	0.025034528
62	0x3abf73d1	0.001460666
63	0xbddb7e2a	-0.10717423
64	0x3e2aa6ec	0.16665238
65	0x3e508325	0.20362528
66	0xbe286daa	-0.16448084
67	0xbe14e36c	-0.1453988
68	0x3dfc2e27	0.1231349
69	0xbe1b51bc	-0.15167898
70	0x3d961e0a	0.07329948
71	0xbcc75042	-0.024330262
72	0xbd8cb203	-0.068698905
73	0xbe228ef3	-0.15874843
74	0xbe0f5ff4	-0.14001447
75	0xbe006bba	-0.12541094
76	0x3e2724f7	0.16322695
77	0xbe2d04d8	-0.16896379
78	0x3ccdfb9b	0.025144389
79	0xbda6926f	-0.08133399
80	0x3dd0d8a3	0.1019757
81	0xbe1e0f7c	-0.15435594
82	0x3dbb3f72	0.091429606
83	0xbe3009a3	-0.17191176
84	0xbc9915a3	-0.018687075
85	0xbdf54c30	-0.11977422
86	0x3c4e717c	0.012600299
87	0xbe3b9531	-0.18318631
88	0x3e4c7eaa	0.19970194
89	0x3da7b378	0.08188528
90	0xba4021a6	-0.0007329233
91	0xbd8ccc4b	-0.06874903
92	0xbe7d1342	-0.24714378
93	0x3d77861f	0.060430642
94	0x3cdea9d6	0.027180593
95	0xbcf1c9d6	-0.029515188

bias_hh_l0 f4 [96]
0	0xbdab672c	-0.08369288
1	0xbd4abfc5	-0.049499292
2	0x3e20259b	0.15639345
3	0xba996f3a	-0.0011706122
4	0x3dd71e00	0.10503769
5	0x3e085d56	0.13316855
6	0x3c9cf1fd	0.019158358
7	0x3e83837e	0.25686258
8	0xbdf84389	-0.12122256
9	0xbe16c437	-0.14723288
10	0x3e584c5f	0.21122883
11	0x3dc67cbd	0.09691761
12	0x3e11ddd8	0.14244783
13	0xbde7e3ca	-0.11322744
14	0x3e17f539	0.14839639
15	0x3e31e928	0.17374098
16	0xbc30945d	-0.01077756
17	0x3d15268c	0.036413714
18	0x3e921c8b	0.28537402
19	0x3e2abc4f	0.16673397
20	0x3d5f433c	0.05450748
21	0x3db22af4	0.08699599
22	0x3c457275	0.012051214
23	0x3dbb22e7	0.091375165
24	0x3cb21ed7	0.021743221
25	0xbe13d6e3	-0.14437442
26	0x3dc69de1	0.09698082
27	0xbda5c7f6	-0.0809478
28	0x3e69fa3f	0.22849368
29	0x3df5dd4f	0.12005102
30	0xbe1751a2	-0.14777234
31	0x3d91dde2	0.07122399
32	0xbe3ef85c	-0.18649429
33	0x3db1eb09	0.086874075
34	0xbe271dbe	-0.1631994
35	0xbe6001ff	-0.21875761
36	0xbd855bb5	-0.06511632
37	0xbda358c4	-0.07975915
38	0xbe7d13fb	-0.24714653
39	0xbe05575f	-0.1302161
40	0xbe88d2ba	-0.26723272
41	0xbe67c56b	-0.22633903
42	0xbd867ce7	-0.06566792
43	0xbd63be1b	-0.05560122
44	0xbe57614c	-0.2103321
45	0xbe2ea0ea	-0.17053571
46	0xbe7040fc	-0.2346229
47	0xbe33d080	-0.17560005
48	0xbd9bf968	-0.0761593
49	0xbd5599cd	-0.05214863
50	0xbeacf042	-0.33777052
51	0x3e623682	0.22091106
52	0xbd939910	-0.07206929
53	0x3e1366fe	0.14394757
54	0xbda62ec1	-0.08114386
55	0xbe7856d9	-0.2425188
56	0xbd97e5ea	-0.074168995
57	0x3c34c55e	0.011033384
58	0x3d6aa5fe	0.05728721
59	0x3d8117af	0.063033454
60	0xbe00c0d7	-0.12573563
61	0x3d24a484	0.040195957
62	0xbd76f74f	-0.060294446
63	0x3df14c04	0.11782077
64	0xbe071b64	-0.13194042
65	0xbd5f1c3b	-0.054470282
66	0x3d478d43	0.048718702
67	0xbd992f67	-0.074797444
68	0x3d9e36f5	0.07725326
69	0x3e3b4cf7	0.18291079
70	0xbda3b486	-0.079934165
71	0x3db41d2e	0.08794628
72	0xbdb64587	-0.0889998
73	0xbc99b9fe	-0.018765446
74	0xbe40cd6d	-0.18828364
75	0x3e1b08b3	0.15140037
76	0xbe5b985d	-0.2144484
77	0xbe874606	-0.2642061
78	0x3d4026ea	0.04691211
79	0xbd004d4c	-0.031323716
80	0xbdf59cfc	-0.11992833
81	0xbd13d976	-0.03609606
82	0x3dd8ddae	0.10589157
83	0x3d1bd475	0.03804441
84	0x3d90d424	0.070717126
85	0xbdc0b364	-0.09409216
86	0x3e8c74d9	0.27432898
87	0xbe5185bf	-0.20461176
88	0x3e545a67	0.20737611
89	0xbe4f8e70	-0.2026918
90	0xbd8c85b8	-0.06861442
91	0xbc3d3e85	-0.01155055
92	0xbe16fa3e	-0.14743897
93	0x3de7f8a4	0.11326721
94	0xbe31d0f3	-0.17364864
95	0xbd8c99a5	-0.06865243

weight f4 [32, 32]
0	0x3ef093eb	0.46987852
1	0xbdde30ea	-0.10849173
2	0xbec2e4a0	-0.38065052
3	0x3e87aff4	0.2650143
4	0x3e888d3a	0.26670247
5	0xbe171d59	-0.14757289
6	0xbe2ac01e	-0.1667485
7	0x3d826ef3	0.06368818
8	0x3ecee8b8	0.40411925
9	0x3ea1da16	0.316117
10	0xbe6999ee	-0.22812626
11	0x3f00bfdb	0.5029275
12	0xbe4ee7c7	-0.20205604
13	0xbecd4e5f	-0.40098855
14	0xbe8a37ee	-0.26995796
15	0x3f02aef2	0.51048195
16	0xbe1e0c95	-0.15434487
17	0x3ee0403b	0.43799004
18	0x3e9f9cc5	0.31174293
19	0xbe4885ed	-0.19582339
20	0x3eb93667	0.36174318
21	0x3de7af64	0.1131275
22	0x3d11e4d5	0.03561862
23	0xbe05a27c	-0.13050264
24	0x3ea55ad3	0.32295856
25	0xbd712e95	-0.058882315
26	0x3ea62333	0.3244873
27	0xbed75551	-0.4205728
28	0x3e973d0c	0.29538763
29	0xbdf21f48	-0.11822373
30	0xbceb090f	-0.028690843
31	0xbf08dd01	-0.53462225
32	0x3e5ad6fd	0.21371074
33	0xbdd08131	-0.10180891
34	0x3e0b99ca	0.13632885
35	0x3e34c8a4	0.17654663
36	0xbe0d4721	-0.13796665
37	0x3dfe7694	0.12424961
38	0x3d16c226	0.036806248
39	0xbebd7674	-0.37004435
40	0xbe890c93	-0.26767406
41	0x3e8838f5	0.26605955
42	0x3ea47587	0.32120916
43	0xbe52bbaa	-0.205794
44	0xbe590ec7	-0.21197043
45	0x3e17c04e	0.14819452
46	0xbe5e8597	-0.21730648
47	0xbe976837	-0.29571697
48	0x3ec9e925	0.39435688
49	0x3d6e6265	0.058199305
50	0xbeb8af67	-0.3607132
51	0xbd9b1ef5	-0.07574264
52	0xbe1687da	-0.14700261
53	0xbde8e2b1	-0.11371363
54	0xbdc29505	-0.095010795
55	0xbdbfee78	-0.09371656
56	0xbeb98e42	-0.36241347
57	0x3ec7e6a1	0.39043143
58	0xbd94dfc7	-0.07269245
59	0xbee7b682	-0.4525643
60	0x3e1e4e96	0.15459666
61	0x3e3ac507	0.18239222
62	0x3ef1c6e4	0.47222054
63	0x3db05f3a	0.08611913
64	0xbea72d1a	-0.32651597
65	0xbdff5b7e	-0.124686226
66	0xbe41a016	-0.18908724
67	0x3e991b6a	0.29903728
68	0xbe93abbc	-0.2884196
69	0xbcafa73e	-0.021442052
70	0xbe33606c	-0.17517251
71	0xbe8bc562	-0.2729903
72	0xbf274e5e	-0.65353954
73	0xbec10b68	-0.37704015
74	0xbdd77d39	-0.10521931
75	0xbecc1b37	-0.39864513
76	0x3f05d677	0.5228037
77	0xbd7471b1	-0.059678737
78	0x3ecb3b36	0.39693612
79	0xbe56afec	-0.20965546
80	0x3e60ecf2	0.21965387
81	0x3d50ba7d	0.0509591
82	0xbf5038cd	-0.8133667
83	0x3e298717	0.16555439
84	0x3cebb439	0.02877246
85	0x3e8a589a	0.27020723
86	0x3ee46e2d	0.44615307
87	0xbecdd487	-0.40201208
88	0x3f0c9f12	0.5493022
89	0xbf2cfb55	-0.67571
90	0xbca34ec6	-0.019935023
91	0x3e4f5108	0.20245755
92	0xbe9e3851	-0.3090234
93	0xbe303a44	-0.17209727
94	0xbd1e6dff	-0.03867912
95	0xbe319914	-0.17343551
96	0xbdc1932c	-0.09451899
97	0xbf0bd4c7	-0.5462155
98	0xbe540e5f	-0.20708607
99	0x3ec842f7	0.3911359
100	0x3ed4e2be	0.4157924
101	0xbf0c6c3c	-0.5485265
102	0xbdb5f6e0	-0.08884978
103	0x3efeda8b	0.4977611
104	0xbdb68f1f	-0.08914017
105	0x3ec3197b	0.38105378
106	0xbd0b2263	-0.03396834
107	0xbeb7965a	-0.35856897
108	0xbe767057	-0.24066292
109	0x3d0dcfb4	0.03462191
110	0x3e35eb37	0.17765509
111	0x3e23bd9c	0.15990299
112	0xbf179c27	-0.59222645
113	0xbc1d7401	-0.009610177
114	0xbf067733	-0.52525634
115	0xbf020444	-0.5078776
116	0xbea58ab1	-0.32332376
117	0x3ed26d84	0.4109918
118	0xbe62ef72	-0.22161654
119	0xbcecd2a7	-0.02890904
120	0xbeac4879	-0.33649042
121	0xb9a4f020	-0.00031459425
122	0xbeceba79	-0.40376642
123	0xbefa23e1	-0.48855498
124	0xbecdb96c	-0.40180528
125	0xbeb697a9	-0.35662583
126	0x3e9cec79	0.30649164
127	0xbe4e982c	-0.20175236
128	0xbf107381	-0.56426245
129	0x3eea7bd3	0.45797595
130	0x3e1b7051	0.15179564
131	0xbe175db1	-0.14781834
132	0xbe22e542	-0.15907767
133	0x3f495645	0.7864726
134	0xbf0592c3	-0.52177066
135	0xbefd3f02	-0.49462134
136	0xbea86bb6	-0.32894677
137	0x3de39fb1	0.11114443
138	0xbddd86de	-0.108167395
139	0x3d12412f	0.035706695
140	0xbea16584	-0.31522763
141	0xbdee6334	-0.11640015
142	0xbdf15db3	-0.1178545
143	0x3d048316	0.032351576
144	0x3ed92810	0.42413378
145	0x3d3fbeac	0.0468127
146	0xbe9e2b54	-0.30892432
147	0xbe5fedb7	-0.21868025
148	0x3e1fe310	0.15613961
149	0x3e94cb3b	0.29061303
150	0x3e679a79	0.2261752
151	0xbf30a82a	-0.690066
152	0x3eda30ca	0.42615348
153	0xbf35487f	-0.70813745
154	0xbe5d682a	-0.21621767
155	0x3e688b48	0.22709382
156	0xbe09f233	-0.13471298
157	0x3da5bf78	0.080931604
158	0xbef26eb9	-0.473501
159	0xbea15587	-0.31510565
160	0x3ed7c840	0.42144966
161	0xbd8c1984	-0.06840804
162	0x3e13450e	0.14381811
163	0x3cc12d7d	0.02358126
164	0x3eb6e226	0.35719413
165	0xbeb36923	-0.3504115
166	0x3e550ebf	0.20806406
167	0xbea15ac0	-0.3151455
168	0x3dc3c8c3	0.09559777
169	0x3e2e9bd9	0.17051639
170	0xbefe11ea	-0.49623042
171	0x3e89ad13	0.26889858
172	0x3e72290f	0.23648475
173	0xbe8fc993	-0.28083476
174	0x3da378c7	0.07982021
175	0x3e014087	0.12622271
176	0x3e78140f	0.24226402
177	0xbedec949	-0.43512943
178	0xbf26e80d	-0.6519783
179	0x3d1827b5	0.037147243
180	0x3effebc9	0.49984577
181	0x3ef245d5	0.47318903
182	0x3dbc6136	0.09198229
183	0xbf47b3d3	-0.78008765
184	0x3eca7c9c	0.39548194
185	0xbf832fb0	-1.0248928
186	0x3e5c4081	0.21508981
187	0xbf356642	-0.7085916
188	0xbf076672	-0.52890694
189	0x3c93d0c9	0.018043892
190	0xbd1e9acb	-0.03872184
191	0xbf068732	-0.5255004
192	0x3e9214b6	0.28531426
193	0x3f0e5632	0.55600274
194	0x3cdfa81f	0.027301846
195	0xbbd52b10	-0.0065053776
196	0x3da6d9fa	0.081470445
197	0x3d242529	0.0400745
198	0x3d64c08e	0.055847697
199	0xbefb2c4f	-0.49057242
200	0xbef6ff02	-0.4824143
201	0x3e44aa24	0.19205528
202	0x3c34bfaf	0.011032029
203	0x3d1e41ca	0.03863696
204	0x3e578760	0.21047735
205	0xbefc9164	-0.49329674
206	0x3dd33fcf	0.10314905
207	0x3edfb35f	0.43691537
208	0xbe53791f	-0.20651673
209	0x3c23b0b6	0.009990862
210	0x3f23797c	0.63857245
211	0x3e8f8e1d	0.2803811
212	0x3ee3dcf5	0.44504514
213	0x3e67fba1	0.22654583
214	0xbe4de311	-0.2010615
215	0x3de21cf9	0.11040682
216	0x3cee9c46	0.029127251
217	0x3f39fedb	0.72654504
218	0xbe9aca51	-0.3023248
219	0x3f2d7a21	0.6776448
220	0xbe75fcb8	-0.24022186
221	0x3d8e875e	0.06959413
222	0x3e9ba52b	0.3039945
223	0x3d2912cc	0.04127769
224	0x3c94d7a5	0.018169234
225	0x3ec3786f	0.3817782
226	0x3d303ef3	0.043028783
227	0x3e392757	0.18081413
228	0x3caeafb2	0.021324012
229	0x3e626e60	0.22112417
230	0x3f4fe37a	0.81206477
231	0x3e9b4f64	0.30334008
232	0x3df864b9	0.12128586
233	0xbeb2ea10	-0.349442
234	0xbebf65b1	-0.37382272
235	0x3e9defff	0.30847165
236	0xbf8801e3	-1.0625576
237	0x3e53cdea	0.20684019
238	0x3f1b631e	0.60698116
239	0xbef0a1ed	-0.4699854
240	0x3ea2290c	0.3167194
241	0xbe6b1209	-0.22956099
242	0xbd927a09	-0.071521826
243	0x3d971a8f	0.073781125
244	0xbdb65d33	-0.08904495
245	0xbe9337e2	-0.28753573
246	0x3dbb04bd	0.09131763
247	0x3f187410	0.595521
248	0x3ece3c20	0.40280247
249	0x3d90bad9	0.07066888
250	0xbdb029e3	-0.08601739
251	0x3e9dfce6	0.3085701
252	0xbd1fd144	-0.03901793
253	0xbc6b6df1	-0.014369474
254	0x3e91e4ea	0.2849496
255	0xbd9cecca	-0.076623514

bias f4 [32]
0	0x3dc0c045	0.094116725
1	0xbdd61c38	-0.10454601
2	0x3d843a21	0.064564
3	0x3cc5bd21	0.024138035
4	0x3da8be1c	0.082393855
5	0x3da2f165	0.079561986
6	0x3e064682	0.13112834
7	0xbcd23374	-0.0256593
8	0x3be25f21	0.006908313
9	0x3d5e3ed9	0.054259155
10	0xbcaa59f5	-0.020794848
11	0x3dd6fb69	0.104971714
12	0x3e31ff3f	0.17382525
13	0x3dd97f41	0.10619975
14	0x3daa3f17	0.08312815
15	0x3d5717e4	0.05251302
16	0x3ddf2be6	0.10897045
17	0x3d93c572	0.07215394
18	0x3cc14042	0.02359021
19	0x3dd71768	0.10502511
20	0x3c43f465	0.011960124
21	0x3e35fb01	0.17771532
22	0xbd50f76c	-0.05101721
23	0x3d95b686	0.07310204
24	0x3d41711c	0.04722701
25	0xbbf2af38	-0.0074061416
26	0x3e0d999c	0.13828129
27	0x3b16b082	0.002299339
28	0x3d44f519	0.048085306
29	0xbd8cb575	-0.06870548
30	0x3b12f5ce	0.0022424343
31	0x3cb4a824	0.022052832

weight f4 [15, 32]
0	0xbdca2f6b	-0.098723255
1	0xbdd4ec8c	-0.1039668
2	0xbe9043b0	-0.2817664
3	0xbe60552f	-0.21907495
4	0xbe7cc6a2	-0.24685147
5	0x3bf5e962	0.007504628
6	0xbe92d17d	-0.28675452
7	0x3cc7e2a4	0.024400063
8	0xbe9c2551	-0.3049722
9	0xbed77421	-0.42080787
10	0xbe876307	-0.2644274
11	0x3e73e418	0.2381748
12	0x3ddb46e9	0.107068844
13	0xbe085176	-0.13312325
14	0x3e47021a	0.19434395
15	0x3e6c68cf	0.23086856
16	0xbe0e8f47	-0.13921843
17	0xbea005ca	-0.31254417
18	0xbe8afce5	-0.27146068
19	0xbdb4d9b1	-0.08830584
20	0xbeae2f33	-0.34020385
21	0xbdccba2c	-0.09996447
22	0x3ec08bb0	0.37606573
23	0xbdf5e6e8	-0.120069325
24	0xbd84b308	-0.0647946
25	0x3e874062	0.26416308
26	0xbea97cb2	-0.33102947
27	0xbec95d18	-0.39328837
28	0x3e3c2260	0.18372488
29	0x3ea48394	0.32131636
30	0x3e4787b0	0.19485354
31	0xbe908926	-0.28229636
32	0x3ea203d6	0.31643552
33	0xbea0bcca	-0.31394035
34	0xbf2341d3	-0.63772315
35	0xbda97c0e	-0.08275615
36	0xbe5c9694	-0.21541816
37	0xbdba8ff7	-0.0910949
38	0x3eab5d40	0.33469582
39	0xbea019a9	-0.31269577
40	0x3e58b57b	0.2116298
41	0x3ec127ff	0.37725827
42	0xbd8e8e16	-0.069606945
43	0x3db6cd9c	0.089259356
44	0xbea08a3a	-0.31355458
45	0xbe4705be	-0.19435784
46	0xbdf9cb95	-0.12197033
47	0x3d4a3ca0	0.049374223
48	0x3e7fa83a	0.24966517
49	0x3d96924a	0.07352121
50	0x3b5dd80b	0.0033850695
51	0xbc0ac7d2	-0.008470492
52	0x3e8b5ada	0.27217752
53	0x3b3f3493	0.0029175624
54	0x3de742da	0.11292048
55	0x3e53b7f7	0.20675646
56	0xbe99af3a	-0.300165
57	0x3e9a08a1	0.30084708
58	0xbdc9ddbd	-0.09856746
59	0x3ee52e62	0.4476195
60	0xbcc3c989	-0.02389981
61	0x3e1eb392	0.15498188
62	0xbf262b58	-0.6490989
63	0xbecc8424	-0.39944565
64	0x3d88d49e	0.066811785
65	0xbea2c572	-0.31791264
66	0xbe5155ca	-0.20442882
67	0xbcff6dc5	-0.031180272
68	0xbea21ad1	-0.31661084
69	0xbe95eb44	-0.29281056
70	0xbe13647b	-0.14393799
71	0xbd9fbfc3	-0.078002475
72	0xbd0131ff	-0.03154182
73	0xbe023a7a	-0.1271762
74	0xbe7db9c6	-0.24777898
75	0x3d05b6eb	0.032645147
76	0xbeccaf7b	-0.3997763
77	0xbed0bee3	-0.40770635
78	0xbd2c4d7c	-0.042066082
79	0x3ea62e2b	0.32457098
80	0xbca6762e	-0.020320024
81	0xbe4422bf	-0.1915388
82	0x3e54d92f	0.20785974
83	0xbd291216	-0.041277014
84	0xbea86a24	-0.3289348
85	0xbe4e3dea	-0.20140806
86	0xbea4a289	-0.32155254
87	0xbd8e982b	-0.069626175
88	0x3e910587	0.2832453
89	0x3ded2680	0.11579609
90	0xbe82f833	-0.25579986
91	0xbe8542c4	-0.260275
92	0xbe0ab4b0	-0.1354549
93	0x3dce13fc	0.100624055
94	0xbe3b437b	-0.1828746
95	0xbe3adc4a	-0.18248096
96	0xbc844414	-0.016145743
97	0xbe919a92	-0.2843824
98	0xbe1695ca	-0.14705577
99	0x3eb1e632	0.34745938
100	0xbea0f6a1	-0.31438163
101	0x3e8f0b49	0.27938297
102	0xbdfe42fe	-0.124151215
103	0x3df7fdd5	0.121089615
104	0x3d9be45f	0.07611918
105	0x3e8a79d3	0.2704607
106	0x3e9ccf5c	0.30626953
107	0x3c9a526a	0.018838126
108	0xbdd5b89c	-0.10435602
109	0x3ecb018f	0.39649627
110	0xbd806c96	-0.06270711
111	0x3d953773	0.07285967
112	0xbd37461a	-0.04474459
113	0xbee76a31	-0.45198205
114	0x3e14454d	0.14479561
115	0xbecb7988	-0.39741158
116	0xbe8ec8f0	-0.27887678
117	0x3ecb5c04	0.3971864
118	0xbedfc934	-0.43708193
119	0xbd4d3aa3	-0.05010475
120	0x3ea1863e	0.3154773
121	0xbea8f191	-0.329968
122	0xbe83655d	-0.25663272
123	0xbee082e0	-0.4384985
124	0x3ee4f7ee	0.44720405
125	0x3d90eb31	0.07076109
126	0x3ea9a2b2	0.3313194
127	0xbcc513ec	-0.024057351
128	0xbe083de8	-0.13304865
129	0xbe29baf8	-0.16575229
130	0xbe1a2dcc	-0.15056533
131	0xbe9c086c	-0.30475175
132	0xbe900e45	-0.28135887
133	0xbdf61652	-0.12015976
134	0xbe6a063d	-0.22853942
135	0x3e6736b4	0.22579461
136	0xbdc49acc	-0.09599838
137	0xbe7921e8	-0.2432934
138	0x3cdf5166	0.027260493
139	0xbeaaa03a	-0.33325368
140	0xbe9c679f	-0.30547807
141	0xbdbb25ae	-0.09138046
142	0xbe8885ca	-0.26664573
143	0x3dc86167	0.09784203
144	0xbea2082a	-0.31646854
145	0x3def44fa	0.11683078
146	0x3e00b9a8	0.12570822
147	0x3d682042	0.05667139
148	0xbe421423	-0.18952994
149	0xbe90bfd5	-0.28271356
150	0x3be0d4b7	0.006861295
151	0xbd5a67cf	-0.053321656
152	0x3d66b510	0.05632502
153	0xbe4cb789	-0.19991888
154	0xbe7aeea0	-0.2450509
155	0xbc16bd7a	-0.009200448
156	0xbeb027ee	-0.34405464
157	0x3df61cf9	0.12017245
158	0x3e42853c	0.18996137
159	0xbe36e3fc	-0.17860407
160	0x3e27935f	0.16364811
161	0x3cfa8c02	0.030584339
162	0xbdbba4fe	-0.09162329
163	0xbecac699	-0.39604643
164	0xbe923455	-0.2855555
165	0x3da5cee7	0.08096104
166	0x3ea399b8	0.31953216
167	0x3f0db3b6	0.5535234
168	0x3e84546e	0.25845665
169	0x3e813483	0.25235376
170	0x3eeb4f9a	0.4595917
171	0xbe90adfe	-0.28257746
172	0x3dfa4646	0.12220435
173	0xbeb2eb15	-0.34944978
174	0xbe8be546	-0.2732336
175	0xbe7cf601	-0.24703218
176	0x3ef68c73	0.4815403
177	0x3dab11aa	0.083529785
178	0x3eb9cd9a	0.36289674
179	0x3eddf090	0.43347597
180	0xbe78b55f	-0.24287938
181	0x3e38f364	0.18061596
182	0x3e8cf891	0.2753339
183	0xbe16e4fa	-0.14735785
184	0x3d40c0a8	0.04705873
185	0xbeaf2b25	-0.34212604
186	0xbd948f2b	-0.072538696
187	0xbea8306b	-0.3284944
188	0x3d5e0726	0.054206036
189	0xbed5e2f6	-0.4177472
190	0x3e8cac2d	0.2747511
191	0xbecd660b	-0.40116915
192	0xbdeb6472	-0.11493768
193	0x3d15aaf8	0.03654
194	0xbf3a22b4	-0.727092
195	0x3d9b4acc	0.07582626
196	0xbf1710dc	-0.590101
197	0x3d95f949	0.07322938
198	0x3e479bf0	0.19493079
199	0xbf06884d	-0.5255173
200	0x3e297978	0.16550243
201	0x3dcc680c	0.09980783
202	0xbeedfd04	-0.46482098
203	0xbf1b4991	-0.6065913
204	0x3e462436	0.19349751
205	0xbe9e4f3c	-0.30919826
206	0x3eec8fc7	0.46203443
207	0xbea2d4f9	-0.3180311
208	0xbecf1e69	-0.4045289
209	0xbe3bf31d	-0.18354459
210	0xbf26486b	-0.6495425
211	0xbef7d669	-0.4840577
212	0x3ec8f5c6	0.3925001
213	0x3ee46e39	0.44615343
214	0xbe1514dc	-0.14558738
215	0x3e3b8d46	0.1831561
216	0x3e9e4fb2	0.30920178
217	0x3cd2cb55	0.025731722
218	0x3e77ca3b	0.24198239
219	0xbe88d86c	-0.26727617
220	0x3e08b0f3	0.13348751
221	0xbd0f9c45	-0.03506114
222	0xbf007371	-0.5017615
223	0xbe7d4e87	-0.24736987
224	0xbe591b47	-0.21201812
225	0xbe1d2320	-0.1534543
226	0x3e334123	0.17505316
227	0xbe9edc8f	-0.31027648
228	0x3e474d2d	0.19463034
229	0x3f14e34c	0.5815933
230	0x3db0da75	0.08635417
231	0xbf091b03	-0.5355684
232	0xbd5b8838	-0.053596705
233	0xbeeb8d72	-0.46006352
234	0xbeea6a50	-0.45784235
235	0xbdb78248	-0.08960396
236	0xbe10b30b	-0.141308
237	0x3efa0ba2	0.48837
238	0xbe03145c	-0.12800735
239	0xbe81f676	-0.25383347
240	0x3e5e8902	0.21731952
241	0xbeb06d09	-0.34458187
242	0x3e1db795	0.15402062
243	0x3d16a5c7	0.03677919
244	0xbdea7ff8	-0.11450189
245	0x3eaf2e26	0.34214896
246	0xbe0e0c07	-0.13871776
247	0xbeed3f79	-0.46337488
248	0xbda9341c	-0.08261892
249	0xbd7402c8	-0.059572965
250	0xbd3aed90	-0.045636714
251	0x3ee53483	0.44766626
252	0xbeaa7aa8	-0.33296704
253	0xbe8443c9	-0.25832966
254	0x3e211c0c	0.15733355
255	0x3eb05d08	0.34445977

bias f4 [15]
0	0xbe365bec	-0.17808503
1	0x3ce8011b	0.02832084
2	0xbd0e987e	-0.034813397
3	0x3dad842e	0.08472477
4	0xbe3f0432	-0.18653944
5	0xbd913f83	-0.07092192
6	0x3d9798ee	0.07402216
7	0x3daae54f	0.083445184
8	0xbbad93db	-0.0052971668
9	0x3d555cff	0.05209064
10	0xbece2f5f	-0.40270516
11	0xbe5fb6d7	-0.21847092
12	0xbdc9f1ed	-0.09860597
13	0xbe4b42f8	-0.19849765
14	0xbe3eaf7e	-0.18621632
