visualization/policy_nns/Overcooked/mapB/agent_2.pt (torch, 44481 bytes, 12 tensors)

weight f4 [32, 32]
0	0xbe136ecf	-0.14397739
1	0x3d74e48d	0.059788276
2	0xbb95570c	-0.004557496
3	0x3d834b47	0.064108424
4	0xbed12cff	-0.40854642
5	0xbdf4783f	-0.119369976
6	0x3dd7da1d	0.10539649
7	0xbe68d5b4	-0.22737771
8	0xbe1e47cc	-0.15457076
9	0x3e5f8766	0.21828994
10	0xbe5da0dc	-0.21643394
11	0xbd2cb53e	-0.042165034
12	0x3e8b208d	0.27173272
13	0x3e9c3840	0.30511665
14	0x3dc3321e	0.095310435
15	0x3e569530	0.20955348
16	0xbed4db0f	-0.41573378
17	0x3ecd7f0c	0.40135992
18	0xbed06478	-0.40701652
19	0x3cdb5060	0.026771724
20	0xbcd3e41a	-0.025865603
21	0xbecac415	-0.39602724
22	0xbea7dda6	-0.32786292
23	0xbf027d81	-0.50972754
24	0xbeb415de	-0.35172933
25	0x3eaae64c	0.33378828
26	0xbe361234	-0.17780381
27	0xbece16f9	-0.40251902
28	0x3eb73c24	0.3578807
29	0x3c0f8cd1	0.008761601
30	0x3e955a19	0.29170302
31	0x3eb4491a	0.35212022
32	0x3d0cf0dd	0.034409393
33	0x3d51dae5	0.051234145
34	0x3e2c6dc8	0.16838753
35	0x3ec68453	0.3877283
36	0x3ebd6473	0.369907
37	0x3d9ad750	0.07560599
38	0x3d94ee0b	0.072719656
39	0xbdbbc2ca	-0.091680124
40	0xbe3daf75	-0.18523963
41	0xbde46c44	-0.111534625
42	0x3e8ce7a8	0.2752049
43	0xbe1524e0	-0.14564848
44	0xbe09e462	-0.13466027
45	0xbe384a1c	-0.1799702
46	0xbe8b1441	-0.2716389
47	0x3dc28f4d	0.09499989
48	0x3e15d133	0.14630584
49	0xbdc67381	-0.09689999
50	0x3ea366ce	0.3191437
51	0xbe19d4fe	-0.15022656
52	0xbeb23686	-0.34807223
53	0x3ee40e6b	0.4454225
54	0x3f10ceef	0.56565756
55	0x3f2979e7	0.66201633
56	0x3f1cc544	0.61238503
57	0x3ebbf2a1	0.3670855
58	0xbe9805da	-0.29691964
59	0x3e84d29d	0.25941935
60	0x3ed9c9da	0.42536813
61	0x3e9979da	0.29975778
62	0x3ea3b964	0.3197738
63	0x3eaa2665	0.33232418
64	0xbdcb11bc	-0.09915492
65	0x3edd82b4	0.4326378
66	0x3e071c88	0.13194478
67	0x3c6daee3	0.014507028
68	0x3df0de4e	0.11761151
69	0xbf0e4965	-0.5558074
70	0xbe3764ca	-0.17909542
71	0xbe869a6a	-0.26289684
72	0xbdfe9355	-0.12430445
73	0xbe36d8c9	-0.17856134
74	0x3dc97879	0.098374315
75	0xbe52567a	-0.205408
76	0xbe5a24fe	-0.21303174
77	0x3de258b3	0.11052074
78	0x3e51ddca	0.20494762
79	0x3eab6745	0.33477226
80	0x3da240f8	0.07922548
81	0x3e52a6e5	0.20571478
82	0x3de25c62	0.11052777
83	0x3e9a1d44	0.30100453
84	0x3eb20c7b	0.34775147
85	0xbe60715b	-0.21918242
86	0xbf05a86e	-0.5221013
87	0xbf053f4d	-0.52049714
88	0x3e2ba568	0.16762316
89	0x3ec153d7	0.37759277
90	0xbdf382f1	-0.118902095
91	0x3dfa99d9	0.12236375
92	0x3e026d9b	0.12737124
93	0xbe2e8c53	-0.17045717
94	0xbec9bd07	-0.3940203
95	0x3e440ca8	0.19145453
96	0x3ece45ab	0.40287527
97	0xbe74369c	-0.23848957
98	0xbec32f56	-0.38122052
99	0x3ec6d5b6	0.38834924
100	0xbe704337	-0.2346314
101	0xbe2923d9	-0.16517581
102	0xbda12c07	-0.07869726
103	0xbe54b9a3	-0.2077394
104	0x3e949068	0.29016423
105	0xbe38f591	-0.18062426
106	0xbc344684	-0.01100314
107	0x3ee20814	0.44146788
108	0x3ddd3fb6	0.108031675
109	0xbd351209	-0.044206653
110	0xbe394e42	-0.18096259
111	0x3ee1911d	0.44056025
112	0x3d5318b2	0.051537223
113	0x3e6a81ff	0.22901152
114	0x3e6fdce6	0.2342411
115	0x3c974fbd	0.01847064
116	0xbd2eb7ee	-0.042655878
117	0x3ef4813b	0.47754845
118	0x3efd2b79	0.4944723
119	0x3f0faf1f	0.5612659
120	0x3e162441	0.14662267
121	0xbed6d9ce	-0.41963047
122	0xbc4631ad	-0.012096805
123	0xbeaebe45	-0.3412954
124	0xbea230a6	-0.3167774
125	0x3ed118b2	0.40839154
126	0x3e7ba6c0	0.24575329
127	0x3dbd57b8	0.09245247
128	0x3e3c51d3	0.18390588
129	0x3e9a77fa	0.3016966
130	0x3daa275c	0.083082885
131	0x3d65d507	0.05611136
132	0x3d467ed9	0.048460815
133	0xbe9d8f52	-0.30773407
134	0x3eb0cf47	0.3453314
135	0xbe53496a	-0.20633474
136	0xbe807924	-0.25092423
137	0x3da5ab87	0.08089357
138	0x3c7102da	0.0147101525
139	0x3e4bf0c7	0.19916068
140	0x3e3b24d2	0.18275765
141	0xbd629125	-0.0553142
142	0x3df3128d	0.11868773
143	0x3e792ef5	0.24334319
144	0xbdfa326b	-0.12216648
145	0x3d896e1d	0.067104556
146	0x3ea7da13	0.32783565
147	0x3ee9eb62	0.45687395
148	0x3ef1e135	0.47242132
149	0xbef7dbc4	-0.48409855
150	0x3dd8dd56	0.105890915
151	0xbea941c3	-0.33057985
152	0xbe8544d8	-0.26029086
153	0x3ce16cb9	0.027517663
154	0xbe86024d	-0.2617363
155	0xbe0d6d2b	-0.13811176
156	0xbd27714e	-0.04087954
157	0x3eba1db1	0.36350778
158	0x3d59b403	0.05315019
159	0x3dc18ff0	0.09451282
160	0x3ec027dc	0.3753041
161	0x3e12a746	0.14321622
162	0xbef80563	-0.4844161
163	0xbe005a79	-0.12534513
164	0xbedcc2de	-0.43117422
165	0x3e5d7578	0.21626842
166	0xbe60ecb1	-0.2196529
167	0x3e8f8971	0.28034547
168	0xbe2d280f	-0.16909812
169	0xbdfec1ae	-0.12439285
170	0x3da19add	0.07890866
171	0xbe89bfc1	-0.2690411
172	0xbddb112b	-0.10696634
173	0xbea7a3f8	-0.32742286
174	0x3d13d109	0.036088023
175	0x3e5de04e	0.21667597
176	0xbe0907c2	-0.13381866
177	0xbe32a8da	-0.17447224
178	0x3ea8b39b	0.32949528
179	0xbe45d36b	-0.19318931
180	0x3e9c51a8	0.3053105
181	0xbe3eda6e	-0.18638012
182	0xbe0b88cd	-0.13626404
183	0xbf1cd827	-0.6126732
184	0xbe7df6c2	-0.24801162
185	0x3c895e20	0.016768515
186	0xbe796566	-0.24355087
187	0x3ec9d168	0.39417577
188	0x3adc037a	0.0016785704
189	0x3ddade73	0.1068696
190	0xbe83e237	-0.25758526
191	0x3ecec9dd	0.40388384
192	0x3f0c7cb7	0.548778
193	0x3f25c35f	0.6475124
194	0x3e4ebc66	0.20189056
195	0x3ee8f298	0.45497584
196	0xbdb864b4	-0.090035826
197	0xbd80fa79	-0.06297774
198	0x3e859b4a	0.2609504
199	0xbe82c580	-0.25541306
200	0xbd2b56f9	-0.04183099
201	0x3e97d439	0.296541
202	0x3da0afb6	0.07846014
203	0x3e7e8273	0.2485445
204	0xbeabb0a7	-0.33533213
205	0x3d2f83e3	0.042850386
206	0x3dddc022	0.10827662
207	0x3e75892f	0.23978113
208	0x3ec49ece	0.38402408
209	0xbeb79a53	-0.35859928
210	0x3d913781	0.07090665
211	0xbd1c104a	-0.038101472
212	0x3eb6ff93	0.35741863
213	0xbeb25c02	-0.3483582
214	0xbe822819	-0.25421217
215	0x3dd33b44	0.103140384
216	0xbe862c68	-0.26205754
217	0x3e29f2a5	0.16596468
218	0x3d1ddce5	0.03854074
219	0x3d728e1c	0.059217557
220	0x3d8d080a	0.06886299
221	0xbed1ef68	-0.41002965
222	0xbe65102b	-0.22369449
223	0xbea22d13	-0.31675014
224	0xbddd6cdd	-0.1081178
225	0x3e4ca499	0.19984664
226	0x3e366f42	0.17815879
227	0xbda736f7	-0.081647806
228	0x3f2cdd72	0.675254
229	0xbec5f568	-0.38663793
230	0x3d9cb060	0.07650828
231	0xbe972031	-0.29516748
232	0xbd2caac6	-0.04215505
233	0xbeaad7cd	-0.33367768
234	0x3e8722cf	0.26393744
235	0xbe323306	-0.17402276
236	0x3e4d571e	0.20052764
237	0xbd816d52	-0.06319679
238	0x3e5be821	0.21475269
239	0x3ecb4b19	0.39705732
240	0xbd151829	-0.036399994
241	0xbc2a938f	-0.010411157
242	0x3de7c2c3	0.11316445
243	0x3c015794	0.007894415
244	0xbe068c2d	-0.1313941
245	0x3f0abf6d	0.5419834
246	0x3e769520	0.24080324
247	0x3ebfb09b	0.37439427
248	0x3e071cb3	0.13194542
249	0xbedc6963	-0.43049154
250	0x3d9b3e01	0.07580186
251	0x3c3acf6e	0.011401994
252	0x3e4a5f57	0.19762932
253	0x3e85f040	0.2615986
254	0x3e1f9839	0.15585412
255	0x3ed4253a	0.41434652

bias f4 [32]
0	0x3cd35a04	0.025799759
1	0x3c6c4d17	0.0144226765
2	0x3dc6d59b	0.09708711
3	0x3d84937b	0.06473442
4	0x3e456c61	0.19279625
5	0x3c81e102	0.015854362
6	0x3d45bfd5	0.04827865
7	0x3ce2c7d6	0.02768318
8	0xbb0edff4	-0.0021800967
9	0xbca38bef	-0.019964186
10	0x3d2dd603	0.042440426
11	0x3d1f8d41	0.03895307
12	0xbc8e6fab	-0.017387232
13	0x3d0e34ff	0.03471851
14	0xbd362264	-0.04446639
15	0x3dfa4eeb	0.12222084
16	0x3d7fab8a	0.06241945
17	0x3db51ff1	0.08843983
18	0xbe095820	-0.13412523
19	0x3da925a5	0.08259133
20	0x3cc72168	0.024307922
21	0x3c67e613	0.014153975
22	0x3e0e6115	0.13904221
23	0xbc88bb61	-0.016690912
24	0xbcd0c89c	-0.025486283
25	0xbce13d88	-0.02749516
26	0xbe06b414	-0.13154632
27	0x3ba50ecf	0.0050371657
28	0x3d2d05b1	0.042241756
29	0x3dc00c54	0.093773514
30	0x3d861cc2	0.06548454
31	0x3ce9b994	0.028530873

weight f4 [32, 32]
0	0xbe8838e7	-0.26605913
1	0x3eac7f1f	0.33690736
2	0xbe896859	-0.26837423
3	0x3dc31aa5	0.095265664
4	0xbd6e16aa	-0.058127083
5	0x3ef34bae	0.47518677
6	0x3e3023bd	0.17201133
7	0xbda997df	-0.0828092
8	0x3c42d4e7	0.01189158
9	0xbd45446c	-0.048160955
10	0xbe0c2ce9	-0.13689007
11	0x3f1960f8	0.5991359
12	0xbdd03ce4	-0.10167864
13	0x3ec1ad4f	0.37827536
14	0xbeb96a10	-0.36213732
15	0xbdd92218	-0.10602206
16	0x3e14298d	0.14468975
17	0x3e313065	0.17303617
18	0x3eb82cbd	0.35971633
19	0x3ebac1ca	0.36475974
20	0xbdc54b8f	-0.09633552
21	0xbda1de65	-0.079037465
22	0xbee66e59	-0.45006064
23	0x3e8ca4bf	0.2746944
24	0xbe0e964d	-0.13924523
25	0x3eb2ef9e	0.34948438
26	0xbe88c48c	-0.26712453
27	0x3efff743	0.49993333
28	0xbec1a57f	-0.37821576
29	0xbe3a9a83	-0.18223004
30	0xbdebf495	-0.1152126
31	0x3e946c51	0.2898889
32	0x3efedfad	0.49780026
33	0xbdf51baf	-0.11968171
34	0x3ee9e2da	0.45680887
35	0x3f0750bd	0.5285757
36	0x3ebbd4b8	0.3668573
37	0x3e3cd288	0.18439686
38	0x3ed8073e	0.42193025
39	0xbea2512f	-0.31702563
40	0xbe8f1d3f	-0.27952
41	0xbd8abb8d	-0.06774054
42	0xbe8cf1fc	-0.2752837
43	0xbe49f8d6	-0.1972383
44	0x3ea1e1d2	0.316176
45	0x3eba85e5	0.36430278
46	0xbec35512	-0.3815084
47	0x3f0faf8f	0.56127256
48	0xbe41ddf4	-0.18932325
49	0x3e36225e	0.17786548
50	0xbda3bc6b	-0.07994922
51	0x3eb4b58b	0.35294756
52	0xbe9c3974	-0.30512583
53	0x3e98cd8a	0.29844314
54	0x3f12294e	0.57094276
55	0xbec293f4	-0.38003504
56	0xbed60507	-0.4180071
57	0xbe414421	-0.18873645
58	0xbc5dd6c3	-0.013539973
59	0x3d0a645a	0.03378711
60	0x3cd9389a	0.026516248
61	0xbe37b6f1	-0.1794088
62	0x3d147c0a	0.036251105
63	0xbed6506e	-0.41858238
64	0xbecfa3f2	-0.40554768
65	0x3ea75147	0.32679197
66	0xbd97b80e	-0.074081525
67	0x3e9dbecb	0.30809626
68	0xbed917d9	-0.42401007
69	0xbeaed40f	-0.34146163
70	0xbef447f8	-0.47711158
71	0xbe85f418	-0.2616279
72	0x3e817c04	0.2528993
73	0xbd9e0c31	-0.07717169
74	0x3ea760dc	0.32691085
75	0x3ed906b0	0.42387915
76	0xbd3aab81	-0.045573715
77	0xbe1d56ec	-0.1536519
78	0x3ecd2334	0.4006592
79	0x3ed3ff07	0.41405508
80	0x3ba4beae	0.0050276136
81	0x3e66fa79	0.22556485
82	0x3ec99be0	0.39376736
83	0x3e0231de	0.12714335
84	0x3e860716	0.2617728
85	0xbee72400	-0.45144653
86	0x3e943fad	0.2895483
87	0xbeaa11b7	-0.3321664
88	0xbdd9ce49	-0.10635049
89	0xbd804463	-0.06263044
90	0xbe7208d2	-0.23636177
91	0x3ddd4655	0.108044304
92	0xbe7f09f5	-0.24906142
93	0xbefd597f	-0.49482343
94	0xbec4e625	-0.38456836
95	0xbd52c7f0	-0.051460207
96	0xbea35847	-0.31903288
97	0x3c920ae3	0.017827457
98	0xbea85b8b	-0.32882342
99	0x3dfc4e24	0.12319592
100	0xbec0b9ff	-0.37641904
101	0xbd5d8766	-0.054084204
102	0xbebf5260	-0.37367535
103	0x3e8607d0	0.26177835
104	0x3ececdc5	0.40391365
105	0x3e2532f8	0.16132724
106	0x3d3f6c1e	0.046733968
107	0xbe558109	-0.20850004
108	0x3e9b1a94	0.30293715
109	0x3efa30a1	0.48865226
110	0xbe56fbfd	-0.20994563
111	0xbed31cbd	-0.41232863
112	0x3e6374c0	0.22212505
113	0xbdb6f1d1	-0.089328416
114	0xbea4259a	-0.32059938
115	0xbe63271c	-0.22182888
116	0x3f01dc70	0.50726986
117	0xbecf0d6a	-0.40439922
118	0xbed750d6	-0.4205386
119	0x3e832272	0.25612217
120	0x3ca57efa	0.020202149
121	0x3cfdb9de	0.030972417
122	0xbe36ee09	-0.1786424
123	0xbe7577d6	-0.23971495
124	0x3ef45622	0.47721964
125	0xbeed72ef	-0.4637675
126	0xbced65ea	-0.02897926
127	0xbda9bc77	-0.082879
128	0x3ebc7746	0.36809748
129	0xbd1bc283	-0.038027298
130	0xbe72173f	-0.2364168
131	0xbc00e9b5	-0.00786822
132	0xbc45a125	-0.012062346
133	0x3ecbd85a	0.398135
134	0xbebab6fa	-0.36467725
135	0x3d486c44	0.048931375
136	0x3e682ce6	0.22673377
137	0x3e44860b	0.19191758
138	0x3e3b30cf	0.18280338
139	0x3e878626	0.26469535
140	0xbddbf0c3	-0.10739281
141	0xbd603b2d	-0.054743934
142	0x3e57f52d	0.21089621
143	0x3eb1826a	0.3466981
144	0x3dc50028	0.096191704
145	0xbe5a3b2d	-0.21311636
146	0x3eedbf39	0.46434954
147	0x3da40bda	0.08010073
148	0x3f09adf7	0.53781074
149	0x3e840311	0.2578359
150	0xbe814053	-0.25244388
151	0xbeaddbcb	-0.3395675
152	0xbe5438e1	-0.20724823
153	0xbe97c56e	-0.29642814
154	0xbec11bf4	-0.3771664
155	0xbe9baf39	-0.30407122
156	0x3e85a58c	0.26102865
157	0x3ee31b7f	0.44356915
158	0xbdbc9fff	-0.09210204
159	0x3eaa3b58	0.332484
160	0xbee216c4	-0.44157994
161	0x3e5d3892	0.21603611
162	0xbd1738fc	-0.03691958
163	0x3ea00be4	0.31259072
164	0xbe45adef	-0.19304632
165	0xbecb8a58	-0.39753985
166	0xbed08aa2	-0.40730768
167	0xbc8b0197	-0.016968532
168	0x3e4d7e0e	0.20067617
169	0x3efdb65c	0.49553192
170	0x3e2e1ebb	0.1700391
171	0xbe124d0e	-0.14287207
172	0x3e8f23d9	0.27957037
173	0xbe19475f	-0.14968632
174	0x3d9aeec2	0.07565071
175	0xbdd9434d	-0.1060854
176	0xbefce3c3	-0.49392518
177	0xbe5f3c48	-0.21800339
178	0xbe2c09a9	-0.1680056
179	0x3d5eca87	0.054392364
180	0xbe7799c7	-0.24179755
181	0xbe06407b	-0.13110535
182	0x3ee05b17	0.43819496
183	0x3e031e18	0.12804449
184	0x3ecfb990	0.4057126
185	0x3e9a45cc	0.30131376
186	0xbe489f27	-0.19591962
187	0xbda43c57	-0.080193214
188	0xbda6f3fe	-0.081520066
189	0xbead4a10	-0.33845568
190	0x3cfbe5fd	0.030749315
191	0x3ea1aa90	0.3157544
192	0x3d776230	0.060396373
193	0xbe219bd8	-0.15782106
194	0x3e44fdf0	0.19237494
195	0xbde8d086	-0.11367898
196	0x3e4e4136	0.20142063
197	0x3f029e8d	0.5102318
198	0x3eddf3fa	0.43350202
199	0xbe3b0083	-0.18261914
200	0xbdd7c8f2	-0.10536374
201	0x3edbbb57	0.42916366
202	0x3f102456	0.56305444
203	0x3ebd52ea	0.3697732
204	0xbeabe8cd	-0.3357605
205	0xbe8ca0ca	-0.27466422
206	0x3eb0ed8b	0.3455623
207	0x3ebc7fcf	0.3681626
208	0x3ec27127	0.37976953
209	0xbe344ff3	-0.17608623
210	0xbe90ce4c	-0.28282392
211	0xbe53f288	-0.20697987
212	0x3ee89648	0.45427155
213	0x3ecfa7bb	0.40557656
214	0xbbe76f49	-0.007062827
215	0xbddeb8bf	-0.10875081
216	0x3d2a6b87	0.041606452
217	0x3ebbfb3c	0.36715114
218	0x3dd32789	0.10310275
219	0x3bae7e48	0.0053251125
220	0xbc942056	-0.018081825
221	0x3e8bda28	0.27314878
222	0x3e3bc7ce	0.18337938
223	0x3ef33379	0.47500208
224	0x3f0a194f	0.5394487
225	0xbf01549c	-0.5051973
226	0xbe2dd682	-0.1697636
227	0x3e01dcea	0.12681928
228	0x3eedebba	0.46468908
229	0x3ea0b838	0.31390548
230	0xbe809b43	-0.25118455
231	0x3df45f3b	0.11932226
232	0x3e098791	0.1343062
233	0x3eccfe18	0.40037608
234	0x3ea35c2e	0.31906265
235	0x3ec9f194	0.39442122
236	0x3e1dd5e1	0.1541362
237	0xbc4f5346	-0.012654131
238	0xbedd1161	-0.43177322
239	0x3ed07f1a	0.4072197
240	0x3f27174e	0.65269935
241	0x3de0a024	0.109680444
242	0x3ee4209a	0.44556123
243	0x3ea3a30f	0.3196034
244	0xbc57c014	-0.013168354
245	0xbe9d75cc	-0.30753934
246	0xbefae025	-0.48999134
247	0x3ed1d0c4	0.40979588
248	0x3e3e4e15	0.18584473
249	0x3e20d10d	0.15704747
250	0xbe31c2ae	-0.1735942
251	0x3e3c8e8c	0.18413752
252	0xbe95e697	-0.2927749
253	0xbf09d7c9	-0.53844887
254	0x3ede7158	0.4344585
255	0xbe47bd88	-0.19505894

bias f4 [32]
0	0x3d1b0eaf	0.0378558
1	0x3da7f47c	0.082009286
2	0x3d0cb12b	0.034348648
3	0x3d90bc07	0.07067113
4	0x3d48488f	0.048897322
5	0x3d81fda6	0.06347208
6	0xbc1decdf	-0.009638994
7	0x3c3824b7	0.011239222
8	0x3d509011	0.050918642
9	0xbc5d0949	-0.013490983
10	0x3b7ac8a9	0.0038266575
11	0xbcf30eea	-0.029670198
12	0xbd126236	-0.035738192
13	0x3d85bff7	0.06530755
14	0xba46163d	-0.00075564143
15	0x3d516554	0.051122025
16	0x3c733efe	0.0148465615
17	0x3c34561b	0.011006857
18	0x3ce2d6e9	0.027690368
19	0x3b85e41b	0.00408603
20	0xbc39b73f	-0.011335193
21	0x3d9241b4	0.07141438
22	0x3d9f84ff	0.07789039
23	0x3d424f63	0.04743899
24	0xbbcb19a8	-0.006198127
25	0xbc8bf4a5	-0.017084429
26	0x3d5ec4cb	0.054386895
27	0x3d9b58be	0.075852856
28	0x3cbc47b9	0.022983419
29	0x3de4c4f8	0.11170381
30	0x3c2cb675	0.010541548
31	0xbc8f1d89	-0.017470138

weight_ih_l0 f4 [96, 32]
0	0xbd1af7fc	-0.037834153
1	0xbdb0822f	-0.086185805
2	0xbd0734bf	-0.033009287
3	0x3b96796a	0.0045921104
4	0x3c0de6c9	0.0086609805
5	0x3d8d7d05	0.06908611
6	0x3dbf3934	0.093370825
7	0xbe9c9c35	-0.30587927
8	0xbe73f136	-0.23822483
9	0xbd9bab05	-0.07600979
10	0x3eb62f17	0.35582802
11	0xbe8b9370	-0.27260923
12	0xbbdb3b69	-0.006690432
13	0xbd8d3d0c	-0.068964094
14	0xbd2244c6	-0.03961637
15	0xbeca2a8c	-0.39485586
16	0xbe00a385	-0.12562378
17	0x3c8bf132	0.017082784
18	0x3d005dba	0.031339385
19	0x3d215274	0.039385274
20	0x3de164a2	0.11005522
21	0x3da41e31	0.08013571
22	0xbe651ca4	-0.22374207
23	0x3e3e1779	0.18563642
24	0x3e1aae38	0.15105522
25	0xbd8827d0	-0.06648219
26	0x3bda013c	0.006652979
27	0x3e987242	0.29774672
28	0xbd58773d	-0.05284809
29	0xbe01c972	-0.12674502
30	0x3e35861a	0.17726937
31	0xbe927c65	-0.2861053
32	0x3ceed589	0.029154556
33	0xbcf99fc1	-0.030471684
34	0x3dd1b6e1	0.102399595
35	0xbd6c9a30	-0.057764232
36	0xbda0ebe9	-0.07857496
37	0x3df49f5e	0.119444594
38	0xbd8594fa	-0.06522556
39	0x3daedcd4	0.08538213
40	0x3e7f15ed	0.24910708
41	0x3e267de8	0.16258967
42	0xbef09fed	-0.46997014
43	0x3e161d71	0.14659669
44	0x3d7b82e7	0.061404135
45	0xbd25ae09	-0.040449176
46	0xbe284347	-0.16431914
47	0x3ec0bf2b	0.3764585
48	0xbe0c69d7	-0.1371225
49	0x3d2891db	0.041154724
50	0xbd98d426	-0.07462339
51	0x3e092178	0.13391674
52	0xbe08a5d1	-0.13344504
53	0xbe0ceb52	-0.13761643
54	0x3de4cac8	0.1117149
55	0xbdac58a1	-0.08415342
56	0xbc361fba	-0.011115963
57	0xbe52444c	-0.20533866
58	0x3d1513c6	0.03639581
59	0xbe66bd19	-0.22533073
60	0x3e21a424	0.15785271
61	0x3e98d751	0.29851773
62	0xbe7bb4a6	-0.2458063
63	0x3d0bc5ba	0.034124114
64	0xbea9b4cb	-0.33145747
65	0x3d587adb	0.05285154
66	0x3e35606c	0.17712563
67	0xbd569f59	-0.05239806
68	0x3db920ab	0.09039434
69	0xbeafcd57	-0.3433635
70	0x3e2da110	0.16955972
71	0x3dc2b42f	0.095070235
72	0x3be2f032	0.006925606
73	0xbe366617	-0.17812382
74	0xbdf7004f	-0.12060606
75	0xbeaef0bc	-0.3416804
76	0x3ccb6997	0.024830623
77	0x3e6623a4	0.22474533
78	0x3d64324d	0.055712033
79	0xbe48112e	-0.19537804
80	0x3dd31390	0.103064656
81	0xbe02e406	-0.12782297
82	0x3da9d328	0.08292228
83	0x3e13d73a	0.14437571
84	0xbe293925	-0.16525705
85	0x3d5bafa8	0.053634316
86	0xbd314b0f	-0.043284472
87	0xbeaeea86	-0.34163302
88	0xbe37e0d8	-0.17956865
89	0x3e55c741	0.2087679
90	0xbd8adf86	-0.06780915
91	0xbe37c535	-0.17946322
92	0x3e83a131	0.25708917
93	0x3c814a68	0.01578255
94	0xbe0e9b22	-0.13926366
95	0xbce56fa5	-0.028007338
96	0xbdad2bec	-0.08455643
97	0xbe7a54c0	-0.24446392
98	0x3e990a0f	0.29890487
99	0x3dac3b1c	0.08409712
100	0xbe4428db	-0.1915621
101	0x3e34af08	0.17644894
102	0x3d6d333e	0.057910196
103	0x3e9e9819	0.30975416
104	0x3e518033	0.2045906
105	0x3dd74d05	0.10512737
106	0xbebb2294	-0.3654982
107	0x3e01c0d4	0.12671214
108	0x3d2836c1	0.041067842
109	0xbe65358e	-0.2238371
110	0x3e405ed6	0.18786177
111	0x3cb08e57	0.021552248
112	0xbd6646ab	-0.056219738
113	0x3d08328c	0.03325133
114	0xbcecee3f	-0.028922198
115	0x3e8bad13	0.27280483
116	0x3bdde019	0.0067710993
117	0x3da535f1	0.08066929
118	0xbe0f191a	-0.13974419
119	0xbd556fe4	-0.05210866
120	0xbdc33ef4	-0.09533492
121	0xbdb76966	-0.0895565
122	0x3d1a4628	0.037664562
123	0xbdd2e8ee	-0.10298334
124	0x3cf8389e	0.030300435
125	0xbe1497b1	-0.1451099
126	0xbe8936a2	-0.26799494
127	0x3de1d5dd	0.11027119
128	0xbdd30907	-0.10304456
129	0x3b9dd036	0.0048160804
130	0xbd6d0cd0	-0.057873547
131	0x3dce98eb	0.100877605
132	0x3d8db434	0.06919137
133	0x3df1092b	0.11769327
134	0x3d3e5fd3	0.046478104
135	0x3eb8eeaa	0.36119586
136	0x3e5ef96f	0.21774839
137	0x3cf813f2	0.030282948
138	0x3cef6d46	0.02922691
139	0x3e98153e	0.29703707
140	0x3c2e1cd3	0.010626989
141	0x3e743aa9	0.23850502
142	0xbe8f456d	-0.27982655
143	0xbdbe2be1	-0.09285713
144	0x3dd7df9b	0.10540696
145	0xbcde41f1	-0.027131053
146	0x3e1fba37	0.15598379
147	0x3e9575ad	0.29191342
148	0x3de5fada	0.11229487
149	0x3e47cfb8	0.19512832
150	0x3d93315f	0.07187151
151	0xbe0992cb	-0.13434903
152	0xbb1fd92a	-0.0024390914
153	0xbe566c24	-0.2093969
154	0x3e3caafd	0.18424602
155	0x3e16f6c2	0.14742568
156	0x3da17bde	0.07884954
157	0x3cb6c63c	0.022311322
158	0x3d8abcd6	0.06774299
159	0x3d84569c	0.06461832
160	0xb827eb98	-4.0035316e-05
161	0x3dd6cd32	0.10488357
162	0xbe7893b7	-0.24275099
163	0x3dcccb1f	0.0999968
164	0x3d37cb83	0.04487182
165	0xbe0a2b68	-0.1349312
166	0x3e3058f6	0.17221436
167	0x3c246b53	0.010035354
168	0x3cd2d112	0.025734458
169	0x3e59a6a9	0.21254982
170	0x3e99bbae	0.30026
171	0xbdbd05fd	-0.09229658
172	0xbd32260e	-0.043493323
173	0x3e5edd8c	0.21764201
174	0xbd6d71d2	-0.057969876
175	0xbd88a7d1	-0.066726334
176	0x3e1d2e7c	0.15349764
177	0x3dde34d1	0.10849918
178	0x3d880ee4	0.06643465
179	0x3e8cb08e	0.2747845
180	0x3e2c9ee9	0.16857494
181	0x3dd4ea8c	0.10396299
182	0xbded3a7e	-0.11583422
183	0xbe2e0468	-0.16993868
184	0x3e1536fe	0.14571759
185	0xba427806	-0.00074183976
186	0x3e873c31	0.2641311
187	0x3e7114ea	0.23543134
188	0x3e1aeeeb	0.15130202
189	0xbe8d0722	-0.27544504
190	0x3e8701b2	0.2636848
191	0xbe1aa40f	-0.15101646
192	0xbe1ca3b5	-0.15296824
193	0xbe4b653d	-0.19862838
194	0x3dccf8c8	0.10008389
195	0x3ddd8656	0.10816638
196	0x3e088d5e	0.13335177
197	0xbe18b86b	-0.149141
198	0x3da5641b	0.08075734
199	0xbdb6c9e8	-0.08925229
200	0x3d53099e	0.051522844
201	0x3e084832	0.1330879
202	0xbe09fa0a	-0.13474289
203	0x3cf9053b	0.030398002
204	0x3e049921	0.12949039
205	0xbb10f946	-0.0022121235
206	0x3e6119f3	0.21982555
207	0x3e172d83	0.14763455
208	0x3c9fbbac	0.019498669
209	0xbe02b187	-0.12763034
210	0xbe223c32	-0.15843275
211	0xbc039a63	-0.008032414
212	0xbdb30c84	-0.087426215
213	0x3de63ebc	0.112424344
214	0xbbae8453	-0.005325833
215	0x3bef5d24	0.0073048044
216	0xbd3aab21	-0.045573357
217	0xbd821f65	-0.06353644
218	0xbd91b779	-0.07115073
219	0x3e00ebac	0.12589902
220	0xbe522a17	-0.20523869
221	0x3e526ee9	0.20550121
222	0xbdb3b338	-0.08774418
223	0x3dfdcd20	0.1239264
224	0xbdb4c955	-0.088274635
225	0x3e7800ae	0.2421901
226	0x3d8834c5	0.0665069
227	0xbd3882b6	-0.04504653
228	0xbe1c3b31	-0.15256955
229	0x3e39edc6	0.1815711
230	0x3d10296a	0.035195746
231	0xbccc1296	-0.024911206
232	0xba25a211	-0.00063184
233	0x3e521da3	0.20519118
234	0x3df2727c	0.118382424
235	0xbd32688a	-0.043556727
236	0x3d8f2586	0.06989579
237	0x3de3577f	0.11100673
238	0x3bc6c70c	0.0060662087
239	0x3e992346	0.29909724
240	0xbdc17858	-0.09446782
241	0x3d324fc1	0.04353309
242	0xbced35c4	-0.028956302
243	0xbba3c8e4	-0.0049983133
244	0x3dff9f21	0.12481523
245	0xbde676ae	-0.11253105
246	0xbdb20276	-0.08691876
247	0x3e33fd0d	0.17577
248	0xbb956653	-0.004559317
249	0x3d0940be	0.03350901
250	0xbe2bbba7	-0.16770802
251	0xbdd9578b	-0.106124006
252	0xbcf24c91	-0.029577525
253	0xbe2df853	-0.1698926
254	0xbd98f2ac	-0.07468161
255	0xbe1df424	-0.15425164

weight_hh_l0 f4 [96, 32]
0	0x3d36324b	0.044481557
1	0xbca1e82a	-0.019764025
2	0x3dece337	0.11566775
3	0x3daa107a	0.08303924
4	0xbb93be48	-0.0045087673
5	0xbd790bff	-0.060802456
6	0xbdaa79fc	-0.08324048
7	0xbc96e668	-0.018420413
8	0xbc8820af	-0.016617147
9	0xbd718190	-0.05896145
10	0x3c4db0d1	0.012554363
11	0x3d41d622	0.047323354
12	0x3de15055	0.1100165
13	0x3d94130c	0.072301954
14	0xbd158b14	-0.03650959
15	0x3e8933e7	0.2679741
16	0xbd838e54	-0.06423631
17	0xbdf783c9	-0.12085683
18	0x3cc2bb2d	0.023770893
19	0xbd557916	-0.05211743
20	0xbe09a087	-0.13440143
21	0xbe32385a	-0.17404309
22	0xbdc36d6d	-0.09542356
23	0x3dab8742	0.08375408
24	0x3e977449	0.29580906
25	0xbdf9c5ff	-0.12195968
26	0xbe0f6f8f	-0.140074
27	0xbd5f96ad	-0.054587055
28	0x3c5e1cf8	0.013556711
29	0x3e0662b8	0.13123596
30	0x3da7ba4f	0.081898324
31	0xbc80008b	-0.015625259
32	0xbddeb669	-0.10874636
33	0x3e23f497	0.16011272
34	0xbe838d65	-0.25693813
35	0xbdb20c9f	-0.086938135
36	0xbe274a7d	-0.16337009
37	0xbe921ebe	-0.2853908
38	0x3e081d0a	0.13292328
39	0x3e4e5fd9	0.2015375
40	0x3de35581	0.11100293
41	0x3e3aa2b3	0.18226127
42	0xbe917f45	-0.2841741
43	0x3c374eba	0.0111882035
44	0x3e29c700	0.16579819
45	0x3d444372	0.047915883
46	0x3d61de55	0.055143673
47	0xbd556f58	-0.05210814
48	0xbd02c842	-0.031929262
49	0x3e98ac8f	0.29819152
50	0xbdf4c3a6	-0.119513795
51	0x3d15739c	0.036487207
52	0x3db06317	0.0861265
53	0xbe2dd64f	-0.16976283
54	0x3e096235	0.1341637
55	0x3c7b08b2	0.015321897
56	0xbe1c9d35	-0.15294345
57	0xbe6a2b61	-0.2286811
58	0xbd068cf1	-0.032849256
59	0xbd82facd	-0.06395493
60	0xbd58cb53	-0.05292828
61	0xbe89782f	-0.26849505
62	0xbe11b9a6	-0.14230976
63	0x383bae03	4.4746335e-05
64	0x3c9ddfe3	0.019271797
65	0x3deeb907	0.11656385
66	0xbde4b1cd	-0.11166725
67	0xbdce6690	-0.10078156
68	0x3bbd1261	0.005770013
69	0xbe2be28e	-0.16785643
70	0x3e0322c7	0.12806235
71	0xbd914dc1	-0.070949085
72	0x3d4f6181	0.050630096
73	0x3b08fd03	0.002090276
74	0xbcfe7bda	-0.031064916
75	0xbdb9142a	-0.09037049
76	0xbe1317ca	-0.14364544
77	0xbe2faae8	-0.1715504
78	0xbd392e75	-0.04521032
79	0xbe44af00	-0.19207382
80	0xbe10d04b	-0.14141957
81	0x3e2bb7e1	0.16769363
82	0xbe1f0921	-0.15530826
83	0xbd8fd345	-0.07022718
84	0xbd2514e7	-0.040303137
85	0xbe380958	-0.17972314
86	0x3e600a7d	0.21879001
87	0x3da74821	0.08168054
88	0x3b504291	0.0031777958
89	0x3e099575	0.1343592
90	0x3d62574b	0.05525903
91	0x3b44320f	0.0029937064
92	0x3c79f357	0.015255771
93	0xbdcc6f0d	-0.09982119
94	0xbd4776c6	-0.048697256
95	0xbe7cc349	-0.2468387
96	0xbe55c1da	-0.2087473
97	0x3d29efb7	0.041488376
98	0xbda233a2	-0.079200044
99	0xbec6522e	-0.38734573
100	0x3d875ba0	0.06609273
101	0xbe1d7ab0	-0.15378833
102	0x3ddcd883	0.10783484
103	0x3e8825c4	0.26591313
104	0xbe21814a	-0.15771976
105	0x3e80570a	0.25066406
106	0x3dda46ec	0.106580585
107	0xbcb57cae	-0.022154178
108	0xbcd2a734	-0.025714494
109	0x3e20fea0	0.15722132
110	0x3d149557	0.036275234
111	0xbca934af	-0.020655004
112	0xbecd3c7f	-0.40085217
113	0x3c47a4c1	0.0121852765
114	0x3ddb0bbd	0.10695598
115	0xbcce3fd5	-0.025176922
116	0x3c2d17e5	0.010564779
117	0xbe40ad03	-0.18815999
118	0xbd2a965f	-0.04164731
119	0x3c55513d	0.013019857
120	0xbe15d594	-0.14632255
121	0xbe0c299a	-0.13687745
122	0xbd1e3f59	-0.03863463
123	0x3d91d028	0.07119781
124	0x3d456503	0.048192035
125	0x3e1a937c	0.15095323
126	0x3e098fe2	0.13433793
127	0x3e5d62f2	0.21619776
128	0xbd0d51b3	-0.034501743
129	0xbdd8d520	-0.10587525
130	0x3e0ea36e	0.13929531
131	0xbcaae91e	-0.020863112
132	0x3dea09c2	0.114276424
133	0xbe9528da	-0.2913273
134	0x3d7cfc16	0.061763845
135	0x3e5078d0	0.20358586
136	0x3d8fb2ec	0.070165485
137	0x3d8e6642	0.06953098
138	0xbd154722	-0.03644479
139	0x3d0bcb10	0.034129202
140	0xbd4d12cd	-0.050066758
141	0x3e2b941b	0.16755717
142	0xbe7fe208	-0.24988568
143	0xbd2cbc4f	-0.042171773
144	0xbd52fa4d	-0.051508237
145	0x3dd3613c	0.1032128
146	0xbe5aeefd	-0.2138023
147	0xbe699ff7	-0.22814928
148	0x3d8f4cbd	0.069970585
149	0xbe8397de	-0.25701803
150	0x3d808078	0.062745035
151	0x3dc611b8	0.09671348
152	0x3cbb9a35	0.02290068
153	0xbe9a0217	-0.3007972
154	0x3e1092b8	0.14118469
155	0x3d7c2d70	0.06156677
156	0x3dd6091b	0.104509555
157	0xbe988d1f	-0.29795167
158	0xbc1ecb6d	-0.009692055
159	0x3e82fc4c	0.25583112
160	0x3e4ad8e4	0.198093
161	0xbd69ecad	-0.057110477
162	0xbc23b1f2	-0.009991156
163	0xbd98eb2f	-0.07466733
164	0x3df33b7e	0.118765816
165	0xbe293ae6	-0.16526374
166	0x3d514f79	0.05110118
167	0x3dbe5b7a	0.092947915
168	0x3ea29dd7	0.31761047
169	0xbe2fe415	-0.1717685
170	0x3bb21c27	0.005435485
171	0x3d44775d	0.047965396
172	0x3df0d590	0.11759484
173	0xbe555831	-0.20834424
174	0xbd4fbda7	-0.050717976
175	0xbe0ce95d	-0.13760896
176	0xbe2357d9	-0.1595148
177	0x3e4f432c	0.20240468
178	0xbd8bee2e	-0.068325385
179	0xbe416a71	-0.1888826
180	0xbda259b8	-0.07927269
181	0x3c16848d	0.009186876
182	0x3dd9cd5d	0.10634873
183	0xbc25f6fa	-0.010129685
184	0xbe981725	-0.29705158
185	0xbdac5da0	-0.08416295
186	0x3d938e61	0.07204891
187	0xbddb9c2d	-0.107231475
188	0xbdbf4369	-0.09339029
189	0xbdf9bda3	-0.121943735
190	0x3b260aa3	0.002533593
191	0xbea51832	-0.32245022
192	0xbdd35887	-0.103196196
193	0x3c9df325	0.01928098
194	0x3cf5ee41	0.030020835
195	0xbd9a83c0	-0.075446606
196	0x3d90903f	0.07058763
197	0xbe339616	-0.17537722
198	0x3be1806f	0.0068817656
199	0xbd31c29e	-0.043398492
200	0xbcd91b57	-0.026502294
201	0x3e863de0	0.26219082
202	0x3dc5d99f	0.096606486
203	0xbd1037bc	-0.035209402
204	0xbdf07490	-0.117409825
205	0x3ce59d75	0.028029183
206	0x3bd7c2a0	0.0065844804
207	0xbe3bfaee	-0.18357441
208	0xbd158da8	-0.036512047
209	0xbd8f7a2a	-0.07005723
210	0xbc6691c8	-0.014072843
211	0xbe15d67a	-0.14632598
212	0x3dc0f701	0.09422112
213	0xbe9ff4b6	-0.31241387
214	0xbc94e4e1	-0.018175544
215	0x3e06fc22	0.13182119
216	0xbde3777c	-0.11106774
217	0xbd915ea7	-0.070981316
218	0xbe401dff	-0.18761443
219	0x3dcb69b5	0.099322714
220	0x3cd4294c	0.025898598
221	0xbdbc5a81	-0.0919695
222	0xbc7fe407	-0.015618331
223	0x3e88dc46	0.26730555
224	0x3e52ad32	0.20573881
225	0x3e640524	0.22267586
226	0xbe613c01	-0.21995546
227	0x3dab5be0	0.08367133
228	0x3ddbc610	0.10731137
229	0xbd9c6fc1	-0.07638503
230	0x3e1c30cc	0.1525299
231	0x3e0363a3	0.12830977
232	0xba9196c3	-0.0011107553
233	0xbe068fa8	-0.13140738
234	0xbe1bde5c	-0.15221542
235	0x3d443853	0.047905277
236	0x3e3a870f	0.18215583
237	0xbe1e6899	-0.15469588
238	0xbe67d336	-0.22639164
239	0xbe66ab85	-0.22526367
240	0xbdbd70b4	-0.09250012
241	0x3ad9a5d8	0.0016605211
242	0xbd98d8d0	-0.07463229
243	0xbde6f6fe	-0.11277579
244	0x3dd5afb9	0.10433907
245	0x3e587184	0.21137053
246	0x3d931154	0.071810395
247	0xbd982650	-0.074291825
248	0xbe6005fc	-0.21877283
249	0xbb018cca	-0.0019767755
250	0x3e0e82f9	0.1391715
251	0xbdfdaac7	-0.12386089
252	0xbc423ecf	-0.011855795
253	0xbd64e513	-0.055882525
254	0xbc527339	-0.012844854
255	0x3db616b2	0.088910475

bias_ih_l0 f4 [96]
0	0x3e0ec29b	0.13941424
1	0xbc08fc9f	-0.008361011
2	0x3c3a054a	0.0113538
3	0x3d51a587	0.05118325
4	0x3d68a37d	0.05679654
5	0xbdb65bcf	-0.0890423
6	0xbe0c0c3d	-0.13676544
7	0x3e0741cd	0.13208695
8	0x3e179be6	0.14805564
9	0xbd520a72	-0.051279493
10	0x3dd1be67	0.102413945
11	0x3e837f95	0.25683275
12	0x3c958bbb	0.018255105
13	0x3da63324	0.08115223
14	0xbd65ff44	-0.056151643
15	0x3c710722	0.014711173
16	0x3d335973	0.043786477
17	0xbc55054f	-0.013001754
18	0x3dbec10a	0.09314163
19	0x3ccb3b43	0.024808532
20	0x3d2e7b34	0.042597964
21	0x3e3d8cb8	0.18510711
22	0xbc8d4dec	-0.01724907
23	0xbcab33ff	-0.020898817
24	0xbe090ffb	-0.13385002
25	0xbc4f690c	-0.0126593225
26	0x3d02187d	0.031761635
27	0x3dfb3d5d	0.122675635
28	0xbe1be1cc	-0.15222853
29	0x3de3b0c2	0.11117698
30	0x3e16f7e1	0.14742996
31	0x3e654051	0.22387816
32	0xbec544c5	-0.3852903
33	0xbec97b9a	-0.39352113
34	0xbe1816c8	-0.1485244
35	0xbe7dad62	-0.24773172
36	0xbe36986e	-0.17831585
37	0xbe7215a1	-0.23641063
38	0xbeb5a3ca	-0.35476524
39	0xbccc0177	-0.024903042
40	0xbe634217	-0.2219318
41	0xbef738a3	-0.48285398
42	0xbe1f2f65	-0.15545423
43	0xbe7b0e63	-0.24517207
44	0xbe721cda	-0.23643818
45	0xbe625ee8	-0.22106516
46	0xbdaddd52	-0.08489479
47	0xbe7f6022	-0.24939016
48	0xbd97c7d3	-0.0741116
49	0xbe16a426	-0.14711055
50	0x3dffb1d9	0.124850936
51	0xbc747d89	-0.014922508
52	0xbcc9a83d	-0.024616355
53	0xbdc2713d	-0.09494255
54	0xbec4d8f3	-0.3844677
55	0xbd5f0971	-0.054452363
56	0xbd87dc6f	-0.06633841
57	0xbe43d582	-0.19124416
58	0x3dab0fc2	0.08352615
59	0xbef8f7e5	-0.4862663
60	0xbd263086	-0.04057362
61	0xbe4cec37	-0.20011984
62	0xbe03fc0e	-0.1288912
63	0xbe887886	-0.26654452
64	0xbd9b2ccb	-0.07576903
65	0xbe1202bb	-0.14258854
66	0x3d2c67cb	0.042091172
67	0xbd40a809	-0.04703525
68	0x3d2d72dd	0.04234587
69	0x3dcc7fb9	0.09985299
70	0x3cef555f	0.029215513
71	0x3df21952	0.11821236
72	0x3a24af2a	0.0006282205
73	0x3d880eb7	0.06643432
74	0xbdf6cdc6	-0.12050967
75	0x3dac7916	0.08421533
76	0xbe2916d5	-0.16512616
77	0xbd577ba2	-0.05260814
78	0xbe23806c	-0.15966958
79	0xbdd8fa88	-0.1059466
80	0x3ddcef6f	0.10787856
81	0xbe099cb0	-0.13438678
82	0xbe63beb0	-0.2224071
83	0xbe400a71	-0.18753983
84	0x3c77ea4a	0.015131542
85	0x3c0f76f2	0.008756386
86	0x3da7f1e0	0.08200431
87	0x3e260c0e	0.16215536
88	0xbc841439	-0.016122924
89	0xbdabc2c5	-0.08386759
90	0x3d845fdd	0.06463597
91	0xbdbb08f7	-0.09132569
92	0xbd6817ee	-0.056663446
93	0x3e3b1930	0.18271327
94	0xbe02f0b8	-0.1278714
95	0x3c8efe8c	0.017455362

bias_hh_l0 f4 [96]
0	0xbe1f2582	-0.15541652
1	0xbd8dea50	-0.06929457
2	0x3e0865bc	0.13320059
3	0xbd8da65c	-0.06916496
4	0x3ea27cd7	0.3173587
5	0xbc1f8f6a	-0.009738782
6	0xbe51f6c5	-0.20504291
7	0x3bdb19d5	0.006686429
8	0x3e125306	0.14289483
9	0xbd9348d5	-0.07191626
10	0xbdc5ae4b	-0.09652384
11	0x3dac7592	0.08420862
12	0x3e0682e2	0.13135865
13	0xbe24d2e6	-0.16096076
14	0x3ddaf845	0.10691885
15	0xbdfc29dd	-0.12312672
16	0x3e07c578	0.13258922
17	0xbdfe49d6	-0.12416427
18	0x3e33eeee	0.17571613
19	0x3d085edd	0.033293594
20	0xbde4e2e5	-0.11176089
21	0x3e4f8e87	0.20269214
22	0xbe1c935c	-0.15290588
23	0xbe35bae6	-0.17747077
24	0xbd1ad016	-0.037796102
25	0x3e8a1c5a	0.26974756
26	0xbd8938d4	-0.06700292
27	0xbd6223e7	-0.05521002
28	0x3da0dc8b	0.07854565
29	0xbcc96a94	-0.024586953
30	0x3dbfaaaf	0.09358727
31	0xbddd4389	-0.10803897
32	0xbf0bc62d	-0.5459927
33	0xbe812186	-0.2522089
34	0xbea4347d	-0.32071295
35	0xbe0a8ce5	-0.1353031
36	0xbd8709ba	-0.06593652
37	0xbd6a98b2	-0.057274528
38	0xbe8ff1d8	-0.281142
39	0xbcb48784	-0.022037275
40	0xbe2d6d1c	-0.16936153
41	0xbe98129a	-0.29701692
42	0x3e075aeb	0.13218276
43	0xbdcd0b2b	-0.10011896
44	0x3c3cc553	0.011521655
45	0xbed41876	-0.41424912
46	0xbdbb036d	-0.09131513
47	0xbdf4ed79	-0.11959357
48	0xbe9eda8c	-0.31026113
49	0x3d895cf5	0.06707183
50	0x3d583459	0.052784298
51	0xbe5d1445	-0.21589763
52	0xbe006601	-0.12538911
53	0xbe66f469	-0.22554173
54	0xbe8e5055	-0.27795663
55	0xbe16d1c2	-0.14728454
56	0xbdaf9bcc	-0.08574638
57	0xbec25cbf	-0.37961385
58	0x3de41c02	0.111381546
59	0xbea4346a	-0.3207124
60	0xbe99c685	-0.3003427
61	0xbd9184f5	-0.07105438
62	0xbeaf6221	-0.34254554
63	0xbe8d326f	-0.2757754
64	0x3e42d0c4	0.1902495
65	0xbd95491b	-0.072893344
66	0x3e5838df	0.21115445
67	0xbe1b51ba	-0.15167895
68	0xbd15e4be	-0.0365951
69	0xbe032a06	-0.12809
70	0xbd8dfef7	-0.06933396
71	0x3d0e12ee	0.03468602
72	0xbc4c3a55	-0.012465079
73	0x3c7d6fbc	0.015468534
74	0xbddc55be	-0.107585415
75	0xbd9bdb0e	-0.07610141
76	0x3b645a1a	0.0034843744
77	0xbe45da41	-0.19321539
78	0x3d067337	0.03282472
79	0xbd52f0a9	-0.051499043
80	0x3dcd1ed2	0.10015644
81	0xbd173f04	-0.03692533
82	0xbdd60bf7	-0.10451501
83	0x3b0e1e18	0.0021685418
84	0xbd4bedd2	-0.04978735
85	0xbd8c9ea4	-0.06866196
86	0xbdd2404e	-0.102661714
87	0xbcbff030	-0.02342996
88	0x3d866022	0.06561305
89	0xbd8760bd	-0.06610248
90	0x3e278d3d	0.16362472
91	0x3dc30e63	0.095242284
92	0xbd0e4012	-0.03472907
93	0x3c7bad6d	0.015361172
94	0x3cca3383	0.024682766
95	0x3e32c5be	0.17458245

weight f4 [32, 32]
0	0x3d4d198c	0.05007319
1	0xbeb477bf	-0.3524761
2	0x3e0fd171	0.1404474
3	0xbee05652	-0.43815857
4	0xbdb34de7	-0.08755093
5	0xbecfbceb	-0.4057382
6	0x3f02a202	0.51028454
7	0xbddfbc15	-0.10924546
8	0xbd53daa3	-0.05172218
9	0x3df86f0b	0.12130555
10	0xbf0608fc	-0.5235746
11	0xbf1f823e	-0.6230811
12	0x3dbfb396	0.09360425
13	0x3ed78981	0.42097095
14	0x3d58c70a	0.052924193
15	0xbe46e4b4	-0.19423181
16	0xbeddc360	-0.43313122
17	0x3e2ee79d	0.17080541
18	0xbe318a96	-0.17338023
19	0xbe05e70b	-0.13076417
20	0x3f1045cb	0.56356496
21	0x3f03858e	0.51375663
22	0xbe978239	-0.2959154
23	0x3e602a75	0.21891196
24	0xbc090681	-0.008363367
25	0xbe229a17	-0.15879093
26	0x3f052114	0.520036
27	0xbdc4799f	-0.0959351
28	0x3e1b8260	0.15186453
29	0x3e2c5a1b	0.16831248
30	0xbee9d912	-0.45673424
31	0x3eebd4fc	0.46060932
32	0xbe3655dc	-0.1780619
33	0xbdabd81a	-0.083908275
34	0xbf5a1b7a	-0.85198176
35	0xbec6eab0	-0.38850927
36	0xbdb47d0e	-0.08812915
37	0xbed48791	-0.4150968
38	0x3ed72d14	0.4202658
39	0xbe5e01ce	-0.21680376
40	0xbce040ac	-0.027374588
41	0xbe4b134a	-0.19831577
42	0x3ce25157	0.027626676
43	0x3e55e28c	0.20887202
44	0xbeb6f00a	-0.3573001
45	0xbe79234d	-0.24329872
46	0xbea6b35b	-0.32558712
47	0xbdb6fc92	-0.08934893
48	0x3cf85be1	0.030317249
49	0xbda72c9d	-0.08162806
50	0x3e052858	0.13003671
51	0xbed6778c	-0.41888082
52	0xbd944320	-0.072393656
53	0x3ef94e05	0.48692337
54	0x3eb46305	0.35231796
55	0xbe4e9939	-0.20175637
56	0xbf389469	-0.72101456
57	0x3ef3b7e4	0.47601235
58	0x3ed99a5c	0.4250058
59	0xbf24d3c1	-0.6438561
60	0x3d68381a	0.056694128
61	0xbead042d	-0.33792248
62	0xbe75b2d7	-0.23994003
63	0xbe069fe4	-0.13146931
64	0xbdeee0fd	-0.11664007
65	0xbe23b14e	-0.15985605
66	0x3de15774	0.110030085
67	0x3ee21cff	0.44162747
68	0xbe148f89	-0.1450788
69	0xbde2e577	-0.11078923
70	0x3e7c2655	0.24623998
71	0xbec32b2b	-0.38118872
72	0xbe785824	-0.24252373
73	0xbea5fe0e	-0.3242039
74	0x3e5a00b4	0.2128933
75	0x3c4ed541	0.012624086
76	0x3ddd4aa7	0.108052544
77	0x3e68c4d6	0.22731337
78	0xbe84c913	-0.25934657
79	0xbe5b287d	-0.21402164
80	0x3ef873ab	0.48525748
81	0x3d73a0bf	0.05947947
82	0xbed6fe44	-0.41990864
83	0xbef03818	-0.46917796
84	0x3e9e0a61	0.30867293
85	0xbd7d91d9	-0.06190667
86	0x3e1b438d	0.15162487
87	0xbe38cd65	-0.18047102
88	0x3ee5e8e2	0.44904238
89	0x3ed93348	0.42421937
90	0x3d7d9634	0.061910823
91	0xbdcccd05	-0.10000042
92	0x3ede745a	0.43448144
93	0x3d459c69	0.048244867
94	0xbf1df590	-0.61702824
95	0xbe701c33	-0.23448257
96	0xbece1494	-0.40250075
97	0xbed38676	-0.41313523
98	0xbe5278f3	-0.20553951
99	0x3d87e3aa	0.0663522
100	0x3ec1c17a	0.37842923
101	0x3dfb21af	0.12262284
102	0xbedd4d1c	-0.43222892
103	0xbe6e289c	-0.23257679
104	0xbd9ef90e	-0.07762347
105	0xbeb38619	-0.35063246
106	0x3d5cf6cc	0.0539463
107	0x3dfb4b78	0.12270254
108	0xbe8e9094	-0.2784468
109	0x3eb220eb	0.3479074
110	0x3ecf7c51	0.40524533
111	0xbd8cd10f	-0.06875812
112	0xbde33642	-0.11094333
113	0xbdee53f9	-0.1163711
114	0xbb6502ab	-0.0034944217
115	0x3e5627f4	0.20913678
116	0x3ab678b0	0.0013921466
117	0x3eaac3bf	0.33352467
118	0xbe1064d5	-0.14100964
119	0xbebe6da2	-0.37193018
120	0xbe733dfd	-0.23754115
121	0x3d9f8d09	0.07790572
122	0x3dc42488	0.0957728
123	0x3f07aa6c	0.5299442
124	0xbe62c524	-0.22145516
125	0xbd9a2b0f	-0.07527744
126	0x3eb51f08	0.35375237
127	0x3de28d7c	0.11062142
128	0xbd865986	-0.06560044
129	0xbe52a777	-0.20571695
130	0x3f04275e	0.5162257
131	0xbeda0d4f	-0.4258828
132	0xbef0843f	-0.46975896
133	0x3e15aaad	0.14615889
134	0x3ed689a4	0.41901886
135	0xbc9f1c37	-0.019422634
136	0x3e536e90	0.20647645
137	0xbdf7f523	-0.12107303
138	0xbe1a8e15	-0.15093262
139	0x3ec5cad8	0.3863132
140	0x3deb48fa	0.114885285
141	0xbd8e5391	-0.06949533
142	0xbdc170c9	-0.0944534
143	0x3e182499	0.14857711
144	0xbea8d466	-0.32974547
145	0x3ddfb03e	0.109222874
146	0xbdb71ddd	-0.08941243
147	0x3df4b706	0.119489715
148	0xbe1310a6	-0.1436182
149	0x3eae25f9	0.34013346
150	0xbd129059	-0.035782192
151	0x3f14ab47	0.5807385
152	0x3ea451a1	0.32093528
153	0xbeb208c9	-0.34772328
154	0x3e699cf9	0.22813787
155	0x3d559590	0.052144587
156	0x3e8bc218	0.2729652
157	0xbcea5d47	-0.028608931
158	0xbdd9a1af	-0.10626542
159	0xbe844d01	-0.2584
160	0x3e264fe6	0.16241416
161	0x3ee40d43	0.44541368
162	0xbeddad21	-0.4329615
163	0x3ee3a3a1	0.44460776
164	0xbed40bb1	-0.4141517
165	0x3eda5eb2	0.42650372
166	0x3f07583b	0.52869004
167	0xbea2ca3f	-0.31794927
168	0x3f0caf93	0.54955405
169	0xbf136f91	-0.5759211
170	0xbe9d526f	-0.30726954
171	0x3ea0774c	0.31341016
172	0x3e243795	0.16036828
173	0xbe55ea70	-0.20890212
174	0xbeb7d31f	-0.3590326
175	0x3ec4bca6	0.38425177
176	0xbe68fa31	-0.2275169
177	0x3eb5b939	0.35492876
178	0xbedd05ce	-0.4316849
179	0x3ddd7631	0.10813559
180	0x3ea47588	0.3212092
181	0x3eb4148a	0.3517192
182	0x3dfdfca2	0.124017015
183	0x3f028fe4	0.5100081
184	0xbeb1af1f	-0.3470392
185	0x3ee54d6a	0.44785625
186	0xbe9607fe	-0.29302973
187	0xbe8564d5	-0.2605349
188	0x3f077d7c	0.5292585
189	0xbd5f06c3	-0.054449808
190	0x3ddc50dc	0.1075761
191	0xbf031455	-0.512029
192	0xbf0f78f8	-0.5604396
193	0xbdfeb3dc	-0.12436649
194	0x3f4726b0	0.7779341
195	0xbe0496e4	-0.12948185
196	0x3ace1039	0.0015721387
197	0x3b68ed88	0.003554197
198	0x3e87f5ec	0.2655481
199	0x3ec637bb	0.38714394
200	0x3e85f527	0.261636
201	0x3df9d7ad	0.1219934
202	0x3e54b519	0.20772208
203	0xbe88a47a	-0.26687986
204	0x3f0036f9	0.5008388
205	0x3f057add	0.521406
206	0x3edfebfa	0.43734723
207	0x3df78d18	0.12087458
208	0x3ea8b01f	0.3294687
209	0x3e784fee	0.24249241
210	0x3daea398	0.08527297
211	0x3e114cb9	0.14189424
212	0x3ed9f963	0.4257308
213	0xbef9fb71	-0.48824647
214	0x3d8b8bae	0.06813751
215	0x3e9d7f80	0.30761337
216	0x3ee52aa7	0.44759104
217	0xbefab1c9	-0.48963764
218	0x3eb7d7a3	0.35906705
219	0x3ed57052	0.41687256
220	0x3eede7dc	0.46465957
221	0x3f024492	0.5088588
222	0x3c9ef3b7	0.019403322
223	0xbc303ca4	-0.010756645
224	0xbdd623f6	-0.10456078
225	0xbe0c7304	-0.1371575
226	0xbeb840c5	-0.35986915
227	0xbf100a02	-0.5626527
228	0xbd97a410	-0.07404339
229	0xbd21be05	-0.039487857
230	0x3dff69a0	0.12471318
231	0x3ecae6ee	0.3962931
232	0x3ea021bc	0.31275737
233	0xbe9905d8	-0.2988727
234	0xbee6474a	-0.44976264
235	0xbe38b39e	-0.18037269
236	0xbe029b72	-0.1275461
237	0x3e3886ef	0.18020223
238	0xbf2f171e	-0.6839465
239	0xbf1101b4	-0.56643224
240	0xbf0e2e6f	-0.555396
241	0x3ee78d72	0.45225102
242	0xbef20426	-0.4726879
243	0xbed881e9	-0.42286614
244	0xbcf96372	-0.030442927
245	0xbe89b822	-0.26898295
246	0x3e68fe50	0.22753263
247	0xbe75bf37	-0.23998724
248	0xbe24446d	-0.16041727
249	0x3dc0b2bd	0.094090916
250	0x3e0480e8	0.12939799
251	0xbdb449a4	-0.08803108
252	0xbda92f82	-0.082610145
253	0xbf0363da	-0.51324236
254	0x3eaebf5b	0.34130368
255	0xbeed00fe	-0.4628982

bias f4 [32]
0	0x3dbec3fa	0.09314723
1	0x3e37786a	0.17917028
2	0x3da04dd0	0.078273416
3	0xbcfa0af5	-0.030522803
4	0x3e1885a1	0.14894725
5	0x3dbebb0e	0.093130216
6	0x3ce8b226	0.02840526
7	0x3d052903	0.032509815
8	0x3da7015d	0.08154557
9	0x3e3e3a4d	0.18576927
10	0x3cebd12e	0.028786268
11	0x3dacd068	0.08438188
12	0x3d72cc7c	0.059277043
13	0x3d8abe30	0.06774557
14	0x3c5a7080	0.013332486
15	0xbd34efb6	-0.04417392
16	0x3c862226	0.016373705
17	0x3dfc1b08	0.12309843
18	0x3dd39455	0.103310265
19	0x3d9f6d0c	0.07784471
20	0x3b1a163f	0.0023511795
21	0x3d640b99	0.055675123
22	0x3d91e5f2	0.07123937
23	0x3e1291c3	0.14313416
24	0x3d7d499e	0.061837785
25	0x3e168cd2	0.14702156
26	0x3c0fb3f0	0.008770928
27	0x3d640137	0.05566522
28	0x3dfd6e80	0.12374592
29	0xbe207a83	-0.15671735
30	0x3e158163	0.14600138
31	0x3dbb204a	0.09137018

weight f4 [15, 32]
0	0x3cfe9a47	0.031079425
1	0x3e002d05	0.12517174
2	0x3dfb6e8b	0.12276944
3	0x3e852b62	0.2600966
4	0xbeeb7166	-0.45984954
5	0xbedcb65f	-0.43107888
6	0x3e01233e	0.126111
7	0x3df8a3cd	0.121406175
8	0x3d87de55	0.06634203
9	0xbedccefd	-0.4312667
10	0x3ee4c001	0.44677737
11	0xbe9cb1fe	-0.30604547
12	0xbf0084c0	-0.5020256
13	0x3d9cab85	0.07649902
14	0xbeac6a53	-0.3367487
15	0x3cbb49f8	0.02286242
16	0xbf13a4b9	-0.5767322
17	0xbe938ae8	-0.28816915
18	0x3d35e612	0.044408865
19	0xbe045784	-0.1292401
20	0xbe2eea59	-0.17081584
21	0xbd378c1a	-0.044811346
22	0xbec1d0f7	-0.3785474
23	0xbd332d94	-0.04374464
24	0xbda9b155	-0.082857765
25	0xbe2dfaf1	-0.16990258
26	0xbbcdb4d7	-0.0062776613
27	0xbe837708	-0.2567675
28	0x3e0f5e21	0.14000751
29	0x3eaa9f0d	0.3332447
30	0xbe889f09	-0.26683834
31	0x3eb8f957	0.3612773
32	0x3ec3c0c2	0.38233
33	0x3ecba5e6	0.39775008
34	0x3f000911	0.50013834
35	0xbe5287bc	-0.20559591
36	0x3e8d0aaf	0.27547213
37	0xbe804610	-0.25053453
38	0xbe88d3e3	-0.26724157
39	0x3d7c3452	0.061573334
40	0x3ee5e4e8	0.44901204
41	0x3e8bb959	0.27289847
42	0xbf048ec8	-0.51780367
43	0x3d5c747d	0.05382203
44	0x3e9d89ce	0.307692
45	0x3ec83c43	0.39108476
46	0xbf0595a5	-0.52181464
47	0xbe4169bd	-0.18887992
48	0xbef89134	-0.4854828
49	0x3f034cab	0.5128886
50	0xbe713ac6	-0.23557577
51	0xbe99d299	-0.30043486
52	0xbc006721	-0.007837088
53	0x3eac9074	0.3370396
54	0x3f04340d	0.51641923
55	0xbd8ef0d9	-0.06979532
56	0xbeb5667f	-0.3542976
57	0xbe3b334b	-0.18281285
58	0xbc9ad7e0	-0.018901765
59	0xbed50673	-0.41606483
60	0x3e9af670	0.30266142
61	0xbee35c6f	-0.4440646
62	0xbe81ecde	-0.25376028
63	0xbeec5025	-0.46154895
64	0x3e412493	0.18861608
65	0xbead49cd	-0.33845368
66	0x3eaa57be	0.33270067
67	0x3e4e0a73	0.20121174
68	0x3e0786a7	0.1323496
69	0xbe238963	-0.15970378
70	0x3c9056cb	0.017619511
71	0xbf08854e	-0.53328407
72	0xbdcd134a	-0.10013445
73	0xbc81c433	-0.015840625
74	0xbd887c80	-0.066643715
75	0xbce2c757	-0.027682943
76	0xbec10ab3	-0.37703475
77	0x3e02d19a	0.12775269
78	0x3eda6558	0.42655444
79	0x3d9f5b8d	0.07781134
80	0x3ea40ad7	0.3203952
81	0xbf0b2eca	-0.5436827
82	0x3ed233a5	0.41055027
83	0x3de4ac98	0.11165732
84	0x3daae84e	0.0834509
85	0x3cb8ecbd	0.022573823
86	0xbedac0f9	-0.4272535
87	0xbe2adda4	-0.16686112
88	0xbec6ce38	-0.38829207
89	0x3ea97abe	0.33101457
90	0x3e85816e	0.2607531
91	0x3e29f069	0.16595615
92	0x3d1bd49c	0.038044557
93	0x3e923559	0.28556326
94	0x3f0565f5	0.521087
95	0x3e805357	0.25063583
96	0xbeb64c9a	-0.35605317
97	0xbebbf8a1	-0.36713126
98	0x3e28f71f	0.16500519
99	0xbed558ee	-0.4166941
100	0x3d9ce477	0.07660764
101	0x3cac36be	0.021022197
102	0xbdb194cf	-0.08670961
103	0x3c812755	0.015765825
104	0xbe2a140c	-0.1660921
105	0xbd3a1989	-0.04543451
106	0xbeb9f239	-0.36317614
107	0xbe77df11	-0.24206187
108	0x3e93aa79	0.28840998
109	0x3da8f2df	0.08249449
110	0xbeb81f03	-0.3596116
111	0xbdffe076	-0.124939844
112	0xbe8ff860	-0.28119183
113	0xbe36fa72	-0.17868975
114	0x3d81a93c	0.06331107
115	0xbe857d9b	-0.26072392
116	0xbe96d022	-0.29455668
117	0xbebaab04	-0.364586
118	0xbda37537	-0.07981341
119	0xbe91e686	-0.28496188
120	0x3b28e236	0.0025769598
121	0x3e644d70	0.22295165
122	0xbecaf949	-0.39643314
123	0xbe7c4768	-0.24636614
124	0xbdea4ee1	-0.11440826
125	0xbe7531a8	-0.23944724
126	0x3d6fe13b	0.058564406
127	0xbec035d2	-0.37541062
128	0xbd19b76f	-0.03752845
129	0x3e604022	0.21899465
130	0xbe5fe7ff	-0.21865843
131	0x3eef62f1	0.46755174
132	0xbe6c8345	-0.2309695
133	0x3e65e939	0.22452249
134	0xbda0000c	-0.07812509
135	0xbe1ad5b1	-0.1512058
136	0xbedbc529	-0.4292386
137	0xbe920e56	-0.28526562
138	0xbd6dc640	-0.058050394
139	0xbcb2706a	-0.021782119
140	0xbe42da89	-0.19028677
141	0x3ebd7087	0.36999914
142	0xbe6b33e3	-0.22969012
143	0x3e1b55b6	0.15169415
144	0xbcb13e9d	-0.021636302
145	0x3e557665	0.20845945
146	0x3d368122	0.044556744
147	0xbefb7207	-0.49110433
148	0x3eb45dd3	0.35227832
149	0x3cb2d27a	0.021828879
150	0x3d6dadcd	0.058027077
151	0xbe959dcf	-0.2922196
152	0x3e718983	0.23587613
153	0x3e88c232	0.2671066
154	0xbe8a3489	-0.26993206
155	0xbc97e390	-0.018541127
156	0xbe8e2b39	-0.2776735
157	0x3e452a26	0.1925436
158	0x3e408050	0.18798947
159	0x3dc1b9ae	0.09459244
160	0x3d5b434a	0.05353097
161	0xbebe0ca7	-0.37119028
162	0xbcbe17df	-0.023204742
163	0x3efd995e	0.49531072
164	0x3e2afa7a	0.16697112
165	0xbefa6380	-0.48904037
166	0xbe4445f4	-0.1916731
167	0xbe294778	-0.1653117
168	0x3cb2f5ac	0.021845661
169	0xbec4d04b	-0.38440165
170	0xbea3a28a	-0.31959945
171	0xbf0e02fd	-0.5547331
172	0xbd5106a1	-0.051031712
173	0xbe2e19ff	-0.17002104
174	0xbed4f065	-0.41589656
175	0x3e960c62	0.29306322
176	0x3cee7bd5	0.029111782
177	0xbe64b1ff	-0.22333525
178	0xbeaf1c79	-0.3420141
179	0xbef1d896	-0.47235554
180	0xbd85af92	-0.06527628
181	0x3de9806f	0.1140145
182	0xbe304ad2	-0.17216042
183	0x3cb4a5c3	0.022051698
184	0x3dff76e4	0.124738485
185	0xbec12e47	-0.3773062
186	0x3e0ffd86	0.14061555
187	0xbee9fc94	-0.45700514
188	0xbe4f86e3	-0.20266299
189	0xbdde20af	-0.10846078
190	0xbedb9d6a	-0.42893535
191	0x3e8eb6b6	0.27873772
192	0x3e7d7411	0.24751307
193	0x3ea8a053	0.32934818
194	0xbf2be135	-0.67140514
195	0x3d05c81d	0.032661546
196	0x3e829dce	0.2551102
197	0xbc168b4e	-0.009188486
198	0xbebc1493	-0.36734447
199	0x3f0329b1	0.5123549
200	0xbdf321ab	-0.11871656
201	0x3ebc301a	0.3675545
202	0x3dce3941	0.10069514
203	0x3d9e5bd9	0.07732362
204	0xbe4c64b6	-0.19960293
205	0x3e8b0610	0.27153063
206	0x3e2f00a2	0.17090085
207	0xbf22e50a	-0.63630736
208	0xbd794486	-0.060856365
209	0x3dd81d18	0.10552424
210	0xbf0cc239	-0.5498386
211	0x3ecbc894	0.39801466
212	0xbf122ae9	-0.57096726
213	0xbea33625	-0.31877246
214	0x3dc9ca04	0.098529845
215	0x3eb403b0	0.35159063
216	0x3dcf01b5	0.101077475
217	0x3e0d64e0	0.13808012
218	0xbea985ba	-0.33109838
219	0x3ec0caf5	0.37654844
220	0x3eca208b	0.39477953
221	0xbe3d2d2d	-0.18474264
222	0xbf098b78	-0.5372844
223	0xbf1d5ce6	-0.61469877
224	0x3e0efc3b	0.13963406
225	0x3ec6a21b	0.38795552
226	0x3da8daaa	0.08244832
227	0xbea1f85f	-0.31634805
228	0x3eab8bf7	0.33505222
229	0x3e9616c6	0.2931425
230	0xbe6eaae0	-0.23307371
231	0xbb2c7a54	-0.002631803
232	0x3eb0af7a	0.34508878
233	0x3e8db6c5	0.27678505
234	0x3eb2386d	0.34808674
235	0x3e3ac09b	0.18237536
236	0xbe8c3e3f	-0.2739124
237	0xbd16821c	-0.036745176
238	0xbe88a95a	-0.26691705
239	0xbe768648	-0.24074662
240	0xbdeb7dc3	-0.114985965
241	0x3e54b2e1	0.20771362
242	0xbdd14445	-0.102180995
243	0x3ec48a7e	0.3838691
244	0x3ec68543	0.38773546
245	0xbed9b383	-0.4251977
246	0xbe879576	-0.26481217
247	0x3b8da72d	0.0043229074
248	0x3e3df328	0.18549788
249	0x3ed9f451	0.4256921
250	0xbcb8c569	-0.02255507
251	0x3ebc44ac	0.36771142
252	0xbed6ad44	-0.41929066
253	0xbe57ab8a	-0.2106153
254	0x3dd6e559	0.10492963
255	0x3c751ae8	0.014960028

bias f4 [15]
0	0xbe6c1975	-0.23056586
1	0x3d9dd7f4	0.077072054
2	0xbd8dcbea	-0.06923659
3	0x3b283445	0.002566592
4	0xbd8fc0c1	-0.07019187
5	0xbdd82975	-0.10554782
6	0x3c6ffebb	0.014648135
7	0x3dd67ca0	0.10472989
8	0xbe97f59a	-0.29679567
9	0x3dce4e24	0.10073498
10	0xbe3548cb	-0.1770355
11	0xbe52b96e	-0.20578548
12	0xbd851a56	-0.06499164
13	0xbe122e6b	-0.1427552
14	0xbe0b8b74	-0.13627416
