visualization/policy_nns/Overcooked/mapC/agent_0.pt (torch, 44417 bytes, 12 tensors)

weight f4 [32, 32]
000000 41 d0 3b bd 33 7e 97 bc eb 1e 8d 3e 35 44 44 be
       -0.045852903 -0.018492794 0.2756265 -0.19166644
000010 51 f7 0e 3d 14 7c 82 3d 16 a5 3a 3d c2 ff 8d 3e
       0.034903828 0.06371322 0.045567594 0.2773419
000020 ad 1b 91 3e b8 74 83 3d eb 60 9c 3e 0d 6f da be
       0.28341427 0.06418747 0.30542693 -0.4266285
000030 34 71 7e be a4 0c 47 3e 82 0b 89 be 5d a6 ae be
       -0.24847871 0.19438416 -0.26766592 -0.341113
000040 65 7d c7 be dc c2 2f be c1 e3 d0 be 55 3c fe be
       -0.38962856 -0.17164177 -0.40798762 -0.49655405
000050 16 f4 ed be a2 70 9a be f9 0f 69 be 3a 32 df 3b
       -0.46475285 -0.30164057 -0.2276 0.0068114074
000060 77 a2 b4 3c 77 2d 9f bd ba a8 ac bd a7 46 f4 bd
       0.022050126 -0.077723436 -0.084306195 -0.11927538
000070 31 15 a5 3e 0c 49 b0 be 1c 7a c3 3e c8 39 7a bd
       0.3224273 -0.3443073 0.381791 -0.06109026
000080 27 29 a9 3e 5c c8 5b be d1 99 1e be e9 cd b9 3e
       0.3303921 -0.2146315 -0.15488364 0.3628991
000090 a4 5a d6 be 8a 20 3a 3e d7 11 a0 be 6e 4f 88 be
       -0.41866028 0.18176475 -0.3126361 -0.266231
0000a0 a6 fe 28 bd 07 0e a3 be 31 c8 a2 3e d1 45 7e be
       -0.041258477 -0.3184664 0.3179336 -0.2483132
0000b0 05 f9 d8 be 2a 14 80 be 2f 50 8a 3e 8e 02 7e 3c
       -0.42377487 -0.25015384 0.270143 0.015503539
0000c0 e0 c2 fa bd 26 33 ca 3d a7 db 02 3a 40 a4 0f bf
       -0.12244201 0.09873037 0.0004991837 -0.5611
0000d0 05 eb 12 3e 7f 82 48 be da 57 3d 3d 7b 11 fe 3e
       0.14347465 -0.1958103 0.04622636 0.49622712
0000e0 2a b0 6c be 34 f7 bb 3e 04 1f 12 be a0 95 dd be
       -0.23114076 0.3671204 -0.14269644 -0.43278217
0000f0 d7 3e 85 be dd 03 91 be c4 59 ba 3c d8 eb 6f 3e
       -0.26024505 -0.2832326 0.022747882 0.23429811
000100 27 99 3c 3d 4c 41 d5 3d bf 14 8a be c3 9b a5 3c
       0.046044495 0.10412845 -0.26968953 0.020215875
000110 d1 d3 f8 3e cf 2b 7b be 4a 7d 7a bd e2 d1 fb 3e
       0.48599103 -0.2452843 -0.06115464 0.49183565
000120 62 27 d9 be 05 1f ed 3e 77 73 ff bd 2f 6a ae bc
       -0.4241286 0.4631273 -0.12473195 -0.021290867
000130 76 02 a3 3d d4 34 55 3e 63 a1 1f 3e 01 20 c3 3e
       0.07959454 0.20820934 0.15588908 0.38110355
000140 a5 ac ea 3a 40 13 f2 3d 18 c3 9b be 02 45 06 3f
       0.0017904235 0.11820078 -0.30422282 0.5244905
000150 19 4d 1d 3f b8 03 a0 3e 35 48 74 3e 4f 27 93 be
       0.61445767 0.31252837 0.2385567 -0.28740928
000160 1c fe 65 bd e8 82 8d 3e ea 3f c8 3e dc 3d 79 be
       -0.05615054 0.27638936 0.39111263 -0.24340004
000170 f3 9b 00 be 1d 61 d0 be b8 6a 18 3e ca 8c 98 3e
       -0.1255949 -0.40699092 0.1488446 0.29794914
000180 e9 48 df 3e a4 93 88 be 61 5c 9e bd 75 77 d1 3e
       0.43610314 -0.2667514 -0.07732464 0.4091145
000190 be 8b 26 3f 51 93 9f be 2b 31 10 3e c9 37 36 be
       0.6505698 -0.3116708 0.14081256 -0.17794718
0001a0 e5 03 c7 bd 40 bf 8c 3e 03 47 19 be b3 67 3b be
       -0.0971754 0.27489662 -0.14968495 -0.18301277
0001b0 0c 48 97 3e aa 5b 0d be d6 3a 48 3d 10 d1 a8 be
       0.29547155 -0.13804498 0.048884235 -0.32972002
0001c0 c5 84 ad be 04 c4 29 3e d2 fd 27 3e 0f 7f e1 3e
       -0.33890358 0.1657868 0.16405419 0.4404225
0001d0 d6 f7 bf 3e bc 9d 6d be 82 2c 1c bd ff 1d bf 3e
       0.3749377 -0.23204702 -0.038128383 0.37327573
0001e0 4a f0 9b 3e e8 fe ad be ea 44 4a bd 33 8f 7c be
       0.30456764 -0.3398354 -0.049382128 -0.24664001
0001f0 09 43 8c 3e 20 33 98 be 75 39 f1 bd 7f c3 78 be
       0.27394894 -0.29726505 -0.11778537 -0.24293326
000200 6f 5e bf be ef 33 db 3e 3d 8e 71 3e d1 24 80 be
       -0.37376735 0.4281306 0.23589416 -0.2502809
000210 99 8e 3c 3e 66 77 98 be f9 7a 6e 3b dc 90 20 be
       0.18413772 -0.29778594 0.0036389215 -0.1568026
000220 e8 e5 df 3e 0d af ea 3e b4 84 d4 3e e6 6e 1f 3e
       0.43730092 0.45836678 0.41507494 0.15569648
000230 53 9d 82 be 6c b0 b4 be 30 7e f9 3c eb 66 1d be
       -0.25510654 -0.3529085 0.030455679 -0.15371291
000240 ab b3 12 be 33 bd 14 3d 0b 81 08 3e 53 7f 04 3f
       -0.1432635 0.036313247 0.13330476 0.5175678
000250 ba ee b0 3e 03 85 2c 3d 34 68 9e 3e c8 f2 43 be
       0.34557134 0.042119037 0.30938876 -0.19135582
000260 12 1d b4 3e 41 53 33 3e 4b c6 84 be 92 a7 84 3d
       0.3517843 0.17512228 -0.25932536 0.06477274
000270 c8 d2 5e bd 4b f6 86 3e 2d 80 b3 3d 75 66 36 be
       -0.054400235 0.26359782 0.08764682 -0.17812522
000280 15 4c 3c 3e d9 8f 96 bd 00 5f 7d 3c f3 00 4a 3e
       0.18388398 -0.073516555 0.015464544 0.19726925
000290 a8 a2 ba 3e d3 bd 03 ba b1 60 80 be 6c 55 ba 3e
       0.36452222 -0.00050255394 -0.2507377 0.36393297
0002a0 45 28 a9 3e 40 23 86 3e 10 a7 8b be 10 43 bf 3b
       0.33038536 0.2619877 -0.27275896 0.005836852
0002b0 81 05 8a be 6e 91 d5 be 78 e3 8f be ae 83 7a 3e
       -0.26957324 -0.41712517 -0.28103232 0.24464294
0002c0 48 88 8c bd dc d3 1b be 85 65 d5 3e c4 72 e9 be
       -0.06861931 -0.15217537 0.41679016 -0.45595372
0002d0 78 ef e3 be 08 bf cb be ac c6 b5 3d 84 71 b8 bd
       -0.44518638 -0.39794183 0.08875784 -0.090060264
0002e0 bc 7d 69 3b 6f 8a bd 3e 2e 7c 64 3e b1 64 07 3e
       0.0035627922 0.3701968 0.22312996 0.13222004
0002f0 61 4d 70 3e 65 9a 49 3e da 0d a3 3c 0d 71 ad be
       0.23467018 0.19687803 0.019904066 -0.33875313
000300 29 95 d2 3e ef 15 62 3d fb b2 a0 be fd c1 ab 3e
       0.41129425 0.0551967 -0.3138655 0.3354644
000310 5a b0 c2 be 98 a0 b7 3e 20 ac 49 bd 27 c7 05 be
       -0.3802517 0.3586471 -0.049236417 -0.13064252
000320 1c e5 09 be b8 fd e1 bc a6 7b 30 bc fa e0 d1 bd
       -0.13466305 -0.027586803 -0.010771668 -0.10247989
000330 5f 2c 07 3f 55 46 c5 3e 5b e2 40 3e 77 1e 66 3e
       0.5280208 0.38530222 0.18836348 0.22472559
000340 4f f6 46 be 1f f3 92 3e b8 f1 63 3e 9e fd b1 3e
       -0.19429897 0.28701112 0.22260177 0.34763807
000350 f7 71 2f bd 0f fa d7 be 1d 75 68 be eb 32 8a be
       -0.042833295 -0.42182967 -0.22700925 -0.26991972
000360 e2 61 89 3d 96 a6 74 3e f2 0c 92 3e a6 67 21 3e
       0.06708123 0.23891672 0.285255 0.15762195
000370 40 e7 8a be da 6e 42 3e 54 b1 54 3d 2f 59 bf be
       -0.27129555 0.18987599 0.051926926 -0.3737273
000380 75 ed ab be 0c d4 73 3e cc 28 c4 bd 64 0f 3e 3e
       -0.33579603 0.23811358 -0.09578094 0.18560559
000390 f9 2c 27 bd 3b c2 80 3e cf e2 9d 3d e0 db 9e be
       -0.040814374 0.25148186 0.07709276 -0.31027126
0003a0 81 31 12 3e 0a 63 a0 be b1 5c ba bc 26 7b 8f 3e
       0.14276697 -0.3132556 -0.022749277 0.28023642
0003b0 13 4c 16 3e 8c 62 82 3e 54 0e bd 3e 27 aa a0 3e
       0.14677458 0.2546581 0.36924994 0.31379816
0003c0 d6 64 d6 bd 41 ac 2b 3e d2 6e d1 3d 34 c2 00 bf
       -0.10468452 0.16764928 0.102262154 -0.5029633
0003d0 12 cf 18 be 37 a5 68 be fe 9c c6 be 7b 97 76 3e
       -0.14922741 -0.22719274 -0.3879165 0.24081223
0003e0 01 b5 cb bd 3f 68 7f bc 4d 7e c9 3e 28 42 b4 3d
       -0.09946633 -0.015588819 0.39354172 0.08801681
0003f0 20 cb b2 3e 39 85 95 3e 26 c4 b6 bd b1 71 de ba
       0.34920597 0.29203203 -0.08924131 -0.0016971139

bias f4 [32]
000000 76 84 ab bd a4 7b a6 bc db aa ca 3d 87 dc 15 3e
       -0.08374874 -0.020322628 0.09895869 0.14634906
000010 bd 47 07 3e f5 ec 83 bc 36 dd 5f 3d e4 49 6a 3d
       0.1321096 -0.0161042 0.054654323 0.057199374
000020 2c 4e 6c bd a4 13 e4 3c 02 20 2b 3d 43 b5 11 3c
       -0.057691738 0.027841397 0.041778572 0.008893314
000030 a2 b5 a4 bc fe 3b a3 3d 89 99 89 3d 25 21 fa 3d
       -0.02010614 0.07970427 0.06718738 0.12213353
000040 17 b1 a0 3d 3f e7 ab 3d 3b aa 2c 3d db 42 40 bc
       0.07846277 0.08393716 0.042154532 -0.01173469
000050 78 2c 92 bd cc 5d 90 3d f9 40 a8 bc a8 9c 11 3d
       -0.07137388 0.0704914 -0.020538794 0.03554979
000060 bc 5f f8 3c af 96 7f 3d 0b 17 9e 3d bd 8f 5c bd
       0.030319087 0.062399562 0.07719239 -0.053848017
000070 e3 7c d8 3c bd 4c 39 3e 0a aa 67 bc 51 7d 7b 3d
       0.026426738 0.1809568 -0.014139662 0.061398808

weight f4 [32, 32]
000000 b6 70 2e 3e 38 58 3d 3e 8c 25 93 be 82 01 fc be
       0.17035183 0.18490684 -0.28739583 -0.492199
000010 53 1b 5c bc 9e 23 04 3d fd 9e 3f 3e 6f 96 37 be
       -0.013434249 0.03226053 0.18712993 -0.1792848
000020 06 c1 b4 3e c5 d0 26 be 2d 89 89 be 19 27 54 be
       0.35303515 -0.16290577 -0.2686247 -0.2071804
000030 bf 73 97 3c c9 af 15 be b3 b2 f9 be 12 9c f9 bd
       0.01848781 -0.14617838 -0.4876915 -0.12187971
000040 fd 5c 71 3e 47 9f 93 3e 25 8f 7b be 93 46 c0 3e
       0.23570628 0.28832456 -0.24566324 0.37553844
000050 8d 0a 35 3d 2b b4 2f be 3c ee 92 be e9 0b 85 3e
       0.044199515 -0.17158572 -0.28697383 0.2598565
000060 ea c0 0c 3d 10 ad df 3b 26 61 f7 3d cd 8b a1 be
       0.034363665 0.0068260506 0.120790765 -0.31551972
000070 b4 8a 98 be 3a f4 89 bc 3b 30 d8 be 04 ab 89 bc
       -0.29793322 -0.01684009 -0.42224297 -0.01680518
000080 f4 af a8 3d 5b c4 e7 be 69 b2 f3 3e fd f1 0f be
       0.082366854 -0.45266995 0.47597054 -0.14057155
000090 e9 bc 1d be 51 cd 51 be a6 99 3d bd e3 c0 8d bd
       -0.15404095 -0.20488478 -0.04628911 -0.06921556
0000a0 2b 16 4c be a9 c5 a9 3e dd 41 1d 3f b5 46 3b 3d
       -0.19930331 0.33158615 0.61428624 0.04572173
0000b0 5c b8 bc 3e 44 f2 ff bd 12 69 12 3f 0e a0 aa be
       0.36859405 -0.124973804 0.57191575 -0.33325237
0000c0 30 a1 a9 3e 97 58 c1 3e 46 d2 2a 3e c1 6d c2 3e
       0.3313079 0.377629 0.16681775 0.3797436
0000d0 d4 6c b0 be 6f 8b 1f bd 3c bb de be 79 79 10 be
       -0.3445803 -0.038951334 -0.43502223 -0.14108838
0000e0 d7 9c 8f be 80 a5 4b be 07 8f 94 3e f0 4b fb 3c
       -0.28049347 -0.19887352 0.2901537 0.030675858
0000f0 b0 8e 53 3e 05 98 01 be ee 5f 41 3e 76 55 48 bb
       0.206599 -0.12655647 0.1888425 -0.0030568517
000100 74 14 88 3e 91 1f cd 3d df e7 af 3e cd a6 16 3e
       0.26578104 0.100157864 0.3435659 0.14712067
000110 f5 2e d1 bd 02 13 81 bd ad c5 a1 be 78 bd d1 be
       -0.102140345 -0.063024536 -0.31596127 -0.40964866
000120 ca 09 c5 3e dd f6 25 3d 15 39 f3 3e 40 dc a6 be
       0.3848403 0.04051863 0.47504488 -0.32589912
000130 eb 35 02 be d7 e9 c9 3e f4 28 8a be 41 98 09 be
       -0.1271588 0.39436218 -0.2698437 -0.13436987
000140 dd b5 9f bd 66 43 e8 3d e7 d8 e5 be 77 84 83 bd
       -0.077983595 0.1134098 -0.44892046 -0.0642175
000150 43 fc 66 bd f2 ca 00 bf 19 a5 c4 be 29 1b 90 3e
       -0.05639292 -0.5030967 -0.3840721 0.28145722
000160 9d d9 90 be 27 c7 8c ba 98 c0 c0 3d d2 70 24 3d
       -0.28291026 -0.0010740504 0.09411734 0.040146656
000170 40 22 9f 3e 12 bc bf be 76 dd de be 6a 6f d9 be
       0.31080818 -0.37448174 -0.43528336 -0.42467815
000180 20 ef 2a be e1 93 72 3e 10 cd 49 be aa 87 5a 3e
       -0.16692781 0.23689224 -0.19707131 0.21340814
000190 2e af 41 3e 6d 3a bb 3d 58 c5 11 3e d9 9e 04 bf
       0.18914482 0.09142003 0.14235437 -0.5180488
0001a0 05 09 24 be e8 1d 6c be 2e 37 ca 3e 64 83 ca 3e
       -0.16019066 -0.23058283 0.39495224 0.39553368
0001b0 d5 f4 ca be f2 a0 0e 3f dc d2 e3 3e 1c cb c6 bd
       -0.39639917 0.55714333 0.4449681 -0.09706709
0001c0 b0 2d 9b 3e e8 02 ed 3e 07 a2 dd 3d 1f 3d c7 be
       0.30308294 0.4629128 0.1082192 -0.3891382
0001d0 af 8c 56 be a4 6d e8 bd 3e d0 a2 3d cf 5a 45 3e
       -0.20952104 -0.11349037 0.07949875 0.19272922
0001e0 0d 74 75 be 06 ed bb 3e fc 3f f4 3e 26 44 47 3c
       -0.23970051 0.36704272 0.47705066 0.012162244
0001f0 77 66 c6 be 63 6e 96 3e d5 0f cc bc 6d 14 da 3e
       -0.3875005 0.29381093 -0.024909893 0.4259371
000200 75 0e bc bd 95 9b f1 be 02 47 10 3f 24 e4 e7 3e
       -0.09182445 -0.47189012 0.5635835 0.45291245
000210 c5 6e 1d 3f bd 66 61 be 57 3a 89 3e f5 2a 10 be
       0.61497146 -0.22011848 0.26802322 -0.14078887
000220 9e e5 ba be a3 75 92 be c1 9f 4f 3e d3 34 c9 3d
       -0.3650331 -0.28605375 0.20275785 0.098245285
000230 60 41 4a be 4f 67 02 3f 3a 96 a0 3c 6b 28 12 be
       -0.19751501 0.50938886 0.019602884 -0.1427323
000240 6c a2 d1 bd 3f fc 0f 3f 77 45 37 3e 17 c8 10 be
       -0.10236058 0.5624427 0.17897592 -0.14138828
000250 20 18 be be 8a 1e 40 3e 29 8e bf be e2 c8 16 bf
       -0.3712778 0.1876165 -0.37413147 -0.5890027
000260 6c e1 b5 be 28 2e 93 3b 77 f2 98 3d dc 53 ca bc
       -0.35523546 0.0044915862 0.074681215 -0.02469819
000270 05 68 00 be 28 79 0b 3e fd dc ae bd 58 d2 09 3f
       -0.1253968 0.13620436 -0.08538244 0.53836584
000280 40 69 41 3d 15 4d 1a bc cd c7 11 3b e7 e7 d5 3d
       0.047219515 -0.009417792 0.0022244335 0.104446225
000290 11 3f d3 bd ac 5e e2 3e 79 92 ca 3e 61 1a 44 be
       -0.10314763 0.44212854 0.39564875 -0.19150688
0002a0 ae 92 0d 3e d6 a4 42 be 59 cd a5 be d1 9b 84 3e
       0.13825485 -0.19008192 -0.3238323 0.25900128
0002b0 8f cc 8a 3e fb 41 c9 3d b6 72 ae bd c2 39 be 3e
       0.2710919 0.09827038 -0.08517973 0.3715344
0002c0 4f 4b a0 3e 13 a9 fa bc 7f 6d a5 3e d9 2c 9f be
       0.31307456 -0.030598199 0.323101 -0.31088904
0002d0 e3 2c a4 be 75 d0 a7 be 6c f6 f1 bd 74 f3 16 3f
       -0.32065496 -0.32776228 -0.11814579 0.5896523
0002e0 10 6f 7b 3e 4b 68 33 3e 05 ce 30 be dd ca 14 3e
       0.24554086 0.17520253 -0.1726609 0.14530511
0002f0 b9 7c f4 bd cb 9c 1d 3e cb bb 06 3e 1c 84 da bd
       -0.119378515 0.15391843 0.13157575 -0.10669729
000300 6c 58 42 3e 82 2b bb be c1 2a f6 3c b3 d2 a6 3e
       0.18979043 -0.3655663 0.030049684 0.32582626
000310 ec b6 ce 3e 47 21 8a 3e 71 bb ba 3e 0f 45 74 3d
       0.40373933 0.26978514 0.3647113 0.059636172
000320 8b e3 77 3d 41 b2 e4 3e 47 17 ff bd e6 fa c6 3e
       0.060519736 0.44667247 -0.12455612 0.38863295
000330 6a 63 dc bd b1 e7 69 3d 70 7a ae 3c cf 97 09 3e
       -0.10761149 0.057105724 0.021298617 0.13436817
000340 69 6d ae bc 7c 4b d7 3c c0 60 83 be 77 2c 3f be
       -0.021292405 0.026281111 -0.25659752 -0.18669306
000350 a3 31 cc be 0e 0b ad bd aa f3 69 3e 60 2f 97 3e
       -0.3988162 -0.08449374 0.22846857 0.29528332
000360 c4 73 37 3e aa 47 e8 3c 2f 16 57 3e 43 d5 a7 be
       0.17915255 0.028354485 0.21004556 -0.32779893
000370 76 50 69 be dd c0 17 3f f0 a7 9e be 4b ac f5 3d
       -0.227846 0.5927866 -0.309875 0.11995753
000380 93 36 d4 3e e3 dc a6 3e d5 93 99 3e 13 59 8c be
       0.41447887 0.32590398 0.299956 -0.27411708
000390 de c0 b4 bb ea f0 9d 3e cf aa 28 be 4a 59 20 be
       -0.0055161556 0.30847865 -0.16471408 -0.15659061
0003a0 fe e0 1f 3e 91 f2 d7 bc 72 4b 30 3e b2 b6 84 be
       0.15613171 -0.026360782 0.1721628 -0.25920635
0003b0 07 a6 b8 3e 83 9b 77 3d ad b3 fa be 2a 40 8a be
       0.3606417 0.060451042 -0.48965207 -0.27002078
0003c0 f4 11 65 be ef 47 76 be 78 72 3c 3e 59 e8 cb 3e
       -0.2237013 -0.24050878 0.18403041 0.39825705
0003d0 17 2b 9c be e3 7a 5b 3e 91 a7 ae 3e 1e 8c 34 3e
       -0.30501625 0.21433596 0.34112218 0.17631575
0003e0 40 3f 3a 3d 54 24 7e be 8c 7a 2b be f9 44 9b 3e
       0.045470476 -0.24818546 -0.16745967 0.3032606
0003f0 ab 84 1d bb 41 61 d2 3e eb 74 50 be 8c 96 be 3d
       -0.0024035375 0.41089824 -0.203571 0.09306058

bias f4 [32]
000000 af 5e ee bc c4 b1 4f 3d fe 4a a6 bd d4 12 36 3d
       -0.029097883 0.05070664 -0.081197724 0.04445155
000010 02 77 de 3d 9a 20 2f bd de a8 de 3c 0d a5 ef 3c
       0.10862543 -0.0427557 0.027180132 0.029253507
000020 6d 5d 5e 3d c5 de cc bd 68 77 19 3d f2 e2 0a bd
       0.054288317 -0.100034274 0.03746739 -0.03390784
000030 a2 e6 20 3d 56 5a 0e bd 0d 2f 43 3d d8 ca 7d 3d
       0.03928245 -0.03475412 0.047652293 0.061961025
000040 26 e7 39 3d 1f 40 a2 3d 31 42 40 bd 17 e3 40 3c
       0.045386456 0.079223864 -0.046938125 0.011772892
000050 87 ee 04 3d 63 e8 60 3d 8d 31 9e 3c 2e 6e dd 3d
       0.03245404 0.05490912 0.019310737 0.10812031
000060 ab e4 69 bb bc f5 44 3e b1 ff 5d 3c 30 5c 30 bc
       -0.0035689275 0.19234365 0.013549731 -0.010764167
000070 e3 6d 46 3d ec 73 a3 bb 8c d7 a8 3c 80 a0 a7 3c
       0.04844464 -0.004988184 0.020610593 0.020462275

weight_ih_l0 f4 [96, 32]
000000 32 3a c5 bc 6d fb 39 3e 79 e9 f0 bd 7c 95 cf bc
       -0.024075601 0.18162318 -0.117632814 -0.025339834
000010 43 af 04 3d 2f 70 39 bc d7 ca 23 3e 59 58 aa bd
       0.032393705 -0.011318251 0.15995346 -0.08317632
000020 ac 46 0b 3e 1f b1 6f 3d 9d 75 4c 3d a7 d1 fa bd
       0.13601178 0.058518525 0.049916852 -0.12247019
000030 0d 73 66 be 22 09 46 3e f1 ec 8a bd 72 1b 30 3e
       -0.22504826 0.19339421 -0.06783474 0.1719797
000040 7e 72 3e 3b 08 b6 3c bc bc 80 3d 3e 4c 03 80 3e
       0.0029059942 -0.011518009 0.1850614 0.25002515
000050 e6 69 e7 bd 7f d7 98 3d 1e af e6 3d 33 2e 85 3d
       -0.112994954 0.074629776 0.1126387 0.065029524
000060 c6 63 da 3c 36 c3 d1 bd f5 3e e6 3d 40 09 32 bc
       0.026658904 -0.10242312 0.11242477 -0.010866463
000070 38 42 19 3e c6 98 b4 bd 0c aa 33 3d 04 03 da 3d
       0.14966667 -0.08818202 0.04386334 0.106451064
000080 8b 53 3b 3e a2 dc b7 bd 6d e2 cc bd 67 40 27 be
       0.18293588 -0.08977629 -0.10004125 -0.16333161
000090 c0 73 fd 3d 46 07 96 bd 5e f4 2e bd a1 d3 28 3e
       0.12375593 -0.07325606 -0.042713515 0.1648698
0000a0 2f 69 6c 3d f8 4b a2 3d ed 6c 44 3d 77 58 6e bd
       0.0577175 0.07924646 0.047955442 -0.058189835
0000b0 64 fe 4a 3d b9 c6 05 3e 1a ab bf bd b9 e3 e5 bd
       0.049559012 0.13064088 -0.09358807 -0.11225075
0000c0 61 81 b2 3d a5 00 34 bd fd f3 b1 bd ed c6 ad 3d
       0.08716083 -0.043945927 -0.08689115 0.08485208
0000d0 01 90 b5 3d 82 3b 5e 3c 5f d2 23 be fe 48 3c bd
       0.08865357 0.013563992 -0.15998219 -0.04596805
0000e0 e8 42 80 bd 84 9f d5 3b a5 15 0d be d8 49 e7 bd
       -0.06262761 0.00651926 -0.13777788 -0.112933815
0000f0 71 e3 d1 3d 3d 39 0c be 48 b8 74 bd b2 49 6d 3d
       0.10248459 -0.1369371 -0.059746057 0.05793161
000100 bd e3 1c bc cb f5 16 3e 22 7a 00 bd 11 23 0e 3d
       -0.009575781 0.147422 -0.031366475 0.03470141
000110 03 3c 1c 3e 18 36 c2 bd 6d f6 ba 3d f4 53 2c 3e
       0.15257268 -0.09482974 0.09129033 0.168289
000120 0e 10 65 bb 7e 40 e2 bc 47 9d 4b be 88 50 4d 3c
       -0.0034952196 -0.027618643 -0.19884215 0.012531407
000130 38 5f 24 be ff 6e e2 3d 24 00 43 bd af 52 45 3e
       -0.16051948 0.11056327 -0.047607556 0.19269823
000140 d3 80 9d 3d 60 59 1e be d5 f4 b6 3d ce c9 a7 bd
       0.07690587 -0.15463781 0.08933417 -0.08192788
000150 2c 62 d4 bd 74 41 ad bd d2 72 07 be 68 98 f8 bb
       -0.10370287 -0.0845975 -0.13227394 -0.0075865276
000160 d2 b3 55 3e bd 56 a9 3e ac cc b6 bd 9e e2 6c 3d
       0.20869377 0.3307399 -0.08925757 0.057833306
000170 5e 2e 9e 3e d4 cf 0e 3d b9 82 07 be 3e 7b 65 bc
       0.3089475 0.03486617 -0.1323346 -0.014006434
000180 bd ff ac 3d 6d fd 00 3e 2e 8b 14 be b2 c0 bb bd
       0.08447216 0.12596674 -0.14506218 -0.09167613
000190 96 56 fe 3d 88 20 d7 3d 8c 8e 29 3e ac db 11 3e
       0.12418859 0.10504252 0.16558284 0.14243954
0001a0 71 60 82 3d 0d b0 2d be da 72 8b b8 95 df c3 3d
       0.06366051 -0.1696169 -6.649429e-05 0.09564129
0001b0 06 ae a0 3d 7d a1 35 bd de e6 91 3d f2 01 32 3e
       0.07845692 -0.04434346 0.071241125 0.17383555
0001c0 5c f1 da bc 09 24 3a 3d ce cf 3a 3d 8e 96 fb bd
       -0.026726417 0.045444522 0.045608334 -0.122845754
0001d0 b5 a5 a5 3c 81 78 9e 3c 05 05 b4 bd 78 93 1a 3e
       0.020220617 0.01934457 -0.0879002 0.15095317
0001e0 9c 84 3a 3e 72 35 a0 bd 2b 5a 7a bd 66 38 00 be
       0.18214649 -0.07822694 -0.061121147 -0.12521514
0001f0 d5 c6 c1 3d d7 0e 9e 3b 77 14 88 be 0a bf ef 3d
       0.09461752 0.0048235464 -0.26578113 0.1170636
000200 db 64 78 3c 61 8f 8c 3d 57 68 81 bd 13 f9 0f be
       0.015160765 0.06863285 -0.06318729 -0.14059858
000210 0b 6e c7 bc 74 36 3f be bd a6 6a 3d bc a1 1c 3e
       -0.024344465 -0.18673116 0.05728792 0.15296072
000220 ad e3 a9 bc 93 28 a9 3d 61 0d 8a bd f7 0f 36 be
       -0.020738447 0.08259692 -0.06740833 -0.17779528
000230 60 26 cc bd 73 cf 62 bb 07 79 9f bd c5 4d 82 3c
       -0.09968257 -0.0034608513 -0.07786756 0.015906224
000240 f6 40 0b be 2e f5 2d be 3b 51 14 be c6 e5 56 3c
       -0.13599 -0.1698806 -0.14484112 0.013116306
000250 2d 98 90 3e 76 75 c6 bd 17 f7 09 3d 46 c3 4b 3e
       0.282411 -0.09690373 0.03368291 0.1989871
000260 e2 a1 92 bd 8c 26 35 3d 19 26 71 bd 32 4a 0b ba
       -0.07159783 0.044226214 -0.058874223 -0.0005313485
000270 64 b7 45 3e 2e d3 68 3e 01 44 58 be f9 bb 92 be
       0.19308239 0.22736809 -0.21119691 -0.28659037
000280 aa 2c fb bc 3e 02 53 be 61 4f 31 bc 91 71 9a bd
       -0.030660946 -0.20606324 -0.010822148 -0.07541192
000290 8f 48 2c be 73 07 ad 3c c1 d5 dc 3c 25 ee f1 bd
       -0.16824554 0.021121716 0.026957395 -0.118130006
0002a0 37 7f ac bd 2f 5b 67 bd dc a6 69 be b6 8b 7b bc
       -0.08422702 -0.056483444 -0.22817558 -0.015353134
0002b0 bb e9 55 be 93 e1 00 3e 1b b6 09 be 23 e4 35 3e
       -0.20889942 0.1258605 -0.13448374 0.17762809
0002c0 6d 4b 47 3e 71 b0 4c 3d 97 bd 8d bd 6f 53 ed bd
       0.19462366 0.049972955 -0.06920927 -0.11588179
0002d0 98 b9 20 bd 73 8f 94 3e 1f 4e 77 be 08 95 f7 3b
       -0.039239496 0.29015693 -0.24150895 0.0075556077
0002e0 31 8e 2d 3d 2e e6 44 bd 3c 61 ea 3c 7a 8f a0 3d
       0.042371932 -0.04807108 0.028610818 0.07839866
0002f0 f2 5f 42 bd 7a 05 42 bd 48 14 2e be 66 7d 91 3d
       -0.04745478 -0.047368504 -0.16999924 0.07103996
000300 3d f1 d4 3d 9b 77 59 3e 9b 9a 28 3d 39 82 1a 3e
       0.10397575 0.21237032 0.04116307 0.15088739
000310 aa 31 6c 3e bc 6c 90 bd 5d 28 0f 3e b2 9c 8f bd
       0.2306582 -0.070519894 0.13980241 -0.07012309
000320 cd 0d 75 3e 31 a5 3f be ed 0a 2e be dc b7 0c 3c
       0.23931046 -0.1871536 -0.16996355 0.008588757
000330 51 5a 81 be 15 77 67 3b c3 dc 9f bd b7 d6 92 bd
       -0.25264218 0.003531878 -0.07805779 -0.0716986
000340 d5 3e 64 bc fb 33 83 3e 67 09 38 bd 0e 62 86 3e
       -0.013930996 0.25625595 -0.04493084 0.26246685
000350 5d f3 a5 bd 56 8a 87 3e c7 4f 95 3d 01 d0 81 3d
       -0.081030585 0.2647273 0.07290607 0.06338502
000360 e3 57 f4 bd bf 28 3d bd bc 65 a2 3d 1f cc d0 3d
       -0.119308256 -0.046181437 0.079295605 0.10195183
000370 9f fb e7 3d 3f 87 80 3c 3f b5 6c 3e 8b 00 55 3e
       0.1132729 0.01568949 0.23116015 0.20800988
000380 29 0f 19 3e 9b c8 da bc d0 2f 44 3d 6e 02 d5 bd
       0.1494719 -0.026706984 0.04789716 -0.10400854
000390 ea 5f c2 bd 52 4f 01 3e de f1 b5 bc be d0 05 bd
       -0.094909504 0.12627915 -0.022210058 -0.032669775
0003a0 c3 02 83 3e 40 31 67 3d 5d eb 98 3c 21 56 0e 3e
       0.25588045 0.056443453 0.018666917 0.13900043
0003b0 1c 4b 8b bd bd c9 0c bb df 3e fb 3c a9 5f 57 bd
       -0.06801435 -0.002148255 0.030669628 -0.052581463
0003c0 5a 84 92 3d 94 61 15 3e 0e ac 90 3e 1d 18 0f be
       0.0715415 0.14588004 0.28256267 -0.13974042
0003d0 3e d0 1b be 2e f7 5f 3e 61 5a d5 3d 78 ee 23 3c
       -0.15216157 0.21871635 0.10417629 0.010005586
0003e0 5c f7 68 3d 26 83 6a 3d 6f de 01 bb cb 1f cd 3d
       0.056876525 0.05725398 -0.0019816419 0.1001583
0003f0 b9 3c 11 3e 35 77 c1 3d c6 b7 bc ba b7 07 11 be
       0.1418332 0.09446565 -0.001439803 -0.14163099

weight_hh_l0 f4 [96, 32]
000000 09 0a 24 be ef 14 89 bd 6f d3 22 be 57 b9 c0 3d
       -0.16019453 -0.06693446 -0.15900968 0.09410351
000010 cd 62 d5 3c ff 57 65 bd 73 ea 07 3e 4f e0 5f bd
       0.026048088 -0.055992123 0.13273029 -0.054657277
000020 9c 05 1c be 88 2c 16 be 2d 6a 4b be 7d 81 40 bd
       -0.15236515 -0.14665425 -0.19864722 -0.04699849
000030 2b 3d 9f 3d 72 9e df bc ca d2 90 3e 7a dc a4 3d
       0.07775339 -0.027297232 0.2828582 0.08049865
000040 2b bc 0f bc 76 b7 87 bd a2 bc 7e 3e 68 5d 84 3e
       -0.00877289 -0.06626789 0.24876645 0.25852513
000050 0b a6 0b 3e eb be 9a bb 2d 58 4c 3e 57 1f d6 3d
       0.13637559 -0.004722466 0.19955511 0.10455196
000060 d7 a0 f7 3d 11 7c e7 bd 56 78 a9 3d f1 af 65 3d
       0.12091225 -0.11302961 0.082749054 0.056075994
000070 16 89 3e 3e 7c f3 01 bd 46 98 ad bd 77 eb 8d be
       0.18606982 -0.031726345 -0.084763095 -0.27718708
000080 98 f2 ad 3d 03 da db bc b0 3c be 3b a7 00 12 be
       0.08493537 -0.026837355 0.0058055744 -0.14258061
000090 0e f3 ed 3d 91 0f df 3d c0 5b d0 3d 99 60 65 bd
       0.11618625 0.10891641 0.1017375 -0.056000326
0000a0 13 85 fa 3d 50 f9 26 3e 05 af 42 be 13 35 b8 bd
       0.12232413 0.16306043 -0.19012077 -0.08994498
0000b0 03 94 10 bc 57 b9 1d be 18 99 a4 3d e2 af 37 be
       -0.008824351 -0.15402733 0.08037013 -0.17938188
0000c0 62 6d 1c 3e 19 ac 73 3e 81 db fe 3c 86 7d 0e be
       0.15276101 0.23796119 0.031110527 -0.13915071
0000d0 95 92 34 be 1b cb a5 bd 90 f4 03 be 6a 0b c2 ba
       -0.17634042 -0.0809538 -0.12886262 -0.0014804427
0000e0 32 c6 16 3d bb 84 0d 3e f5 e9 eb 3d 6f d1 9e bd
       0.036810108 0.13820164 0.11519233 -0.0775479
0000f0 3c b0 7f 3d 0c a7 9d 3c 55 e6 08 3d 3e dc 58 be
       0.06242393 0.019244693 0.033422787 -0.21177766
000100 69 7f 7d 3d f8 01 26 bd 8f fc 07 be 1f 4a c0 3c
       0.061889086 -0.04052922 -0.13279937 0.023472844
000110 d4 0a 9a 3c 11 55 3a bd 58 60 b4 bc 04 5e e5 3c
       0.018803991 -0.045491282 -0.022018597 0.027998932
000120 a6 f8 a4 bd e1 b4 4b bd 77 ff a4 3d a3 87 c4 3d
       -0.080552384 -0.049733046 0.080565386 0.09596183
000130 0d 95 8c 3d ca da 1c 3e b7 2a d7 3d 43 85 a7 bd
       0.06864367 0.15317836 0.10506194 -0.081797145
000140 af ed eb 3d 5a 7a be bc af 5b 37 bd 9e 5c 0f 3e
       0.11519944 -0.023251701 -0.04476517 0.14000174
000150 37 3c 9f bd 62 cf ed 3c 06 b6 b5 3d 95 36 0b 3e
       -0.07775157 0.029029552 0.08872609 0.1359504
000160 87 e0 31 3e d9 8f 5a bd bd da 45 bc 6f 50 fa bd
       0.17370807 -0.05335984 -0.012076077 -0.12222373
000170 9e f7 8b 3d d6 c7 ce bd 6c 0b 80 3d 47 bf 2d be
       0.068343386 -0.100967094 0.062521785 -0.16967498
000180 e9 23 23 be 00 3c 4f 3e 4c 8d 19 bd b2 54 e5 3d
       -0.15931667 0.20237732 -0.037488267 0.11197795
000190 a6 98 1b 3e cb 4d 94 3d 85 92 1f 3e e9 c4 c5 bc
       0.1519495 0.072414 0.15583237 -0.024141746
0001a0 85 84 18 be 3d b8 c5 3c 84 ed a1 bc 69 13 3d 3d
       -0.14894302 0.024135703 -0.019766577 0.04616109
0001b0 87 e9 8c be e7 3a 62 bd db f8 0e 3c 51 4d a4 bd
       -0.27521917 -0.055231955 0.008726324 -0.080225594
0001c0 66 68 33 3e 2d 3d 81 3d ca 9c 14 3d 5b 5e 18 bd
       0.17520294 0.063104965 0.03628234 -0.03719936
0001d0 9b 96 b7 bd b2 c1 a8 bd f0 52 6e 3e 97 a8 21 3e
       -0.089642726 -0.082400694 0.23273826 0.15786968
0001e0 36 94 b2 3d 58 6c 6c bd 14 7d ed bc a2 a0 bb bd
       0.08719675 -0.057720512 -0.028990306 -0.09161498
0001f0 75 5e 6b 3d 4f 6b 8c 3e e8 64 d1 bd 89 9e 41 3c
       0.057463128 0.2742562 -0.102243245 0.011817583
000200 cd 47 00 bd 35 32 24 3c 36 4e f0 3d 5e d4 11 3e
       -0.031318475 0.010021736 0.117336676 0.14241168
000210 e8 04 f3 3d 3e 29 62 be fc 7e 0d be af a9 03 be
       0.1186617 -0.22086045 -0.13817972 -0.12857698
000220 31 b4 8e bd d9 65 31 bd bb fa b8 bd a1 20 73 bc
       -0.069679625 -0.04331002 -0.09032198 -0.014839322
000230 28 ce 66 be 14 1b 30 3e 97 51 15 3e fd 79 78 3d
       -0.2253958 0.1719783 0.14581905 0.060663212
000240 44 3a bb bc 52 a1 73 bc 18 6b e5 bc 34 a1 3f 3e
       -0.022854932 -0.014870005 -0.028005168 0.18713838
000250 0b 24 ea 3d 9f cc 26 be 22 12 34 bd 24 1b 4e 3e
       0.11432656 -0.16288994 -0.043962605 0.20127541
000260 ab 60 21 3e 15 fc 27 3d 55 5b 36 bd 61 de bb be
       0.15759532 0.04101189 -0.044520695 -0.366931
000270 3a f4 94 be ef ec 2a 3d 27 8a df bd a9 a3 b7 bd
       -0.2909258 0.041729864 -0.10915022 -0.089667626
000280 34 c7 e0 3d af c4 42 3d f2 1a 14 3d db e5 c2 3c
       0.10975495 0.047550853 0.03615851 0.023791244
000290 2d 0d 3f 3d ec 11 ec b9 9d d9 47 3e 9c 46 47 bd
       0.046643425 -0.0004502678 0.19516607 -0.048651323
0002a0 52 09 07 be 75 ba 00 be 50 72 e7 3b 92 72 20 bc
       -0.13187149 -0.12571128 0.0070631877 -0.009792941
0002b0 8d b6 36 be 75 66 0f be 88 27 8f 3b 5f fb 52 be
       -0.17843075 -0.14003928 0.004368726 -0.20603703
0002c0 de 2e 80 3d 75 b5 8a 3c 4b e3 01 3e af b6 7c bd
       0.06258939 0.016932229 0.12684362 -0.06169766
0002d0 30 33 25 3d 43 af 59 be 01 a6 39 3e 75 8d d4 3d
       0.04033202 -0.21258263 0.18129732 0.10378543
0002e0 a4 80 fe 3d cd 6a 40 3e a4 4a 0e 3c 87 24 e0 bd
       0.1242688 0.18790741 0.008684788 -0.10944467
0002f0 dd 19 1a be d5 12 a9 3d e1 cc ea 3d 07 c9 c6 bd
       -0.15048929 0.08255545 0.11464859 -0.09706312
000300 f2 7c d3 bd a3 56 ff bb c0 fb bd bd a7 b8 10 be
       -0.10326566 -0.0077923103 -0.09276533 -0.1413294
000310 0c 6d 3c bd 0b 65 5d 3d 82 04 9b 3d f3 ac 04 3e
       -0.046002433 0.05405144 0.07569219 0.129566
000320 02 0d 14 be c2 e3 4f bd 3a 7e 46 be 58 69 ba bd
       -0.14458087 -0.050754316 -0.19384089 -0.09102124
000330 fc 32 69 be fd e3 72 3d 83 96 ed 3d 28 79 27 be
       -0.22773355 0.059299458 0.116009735 -0.16354811
000340 7d 81 3e 3d 51 8b 5b 3e e7 33 63 3d 2b ab 70 3e
       0.04651021 0.21439864 0.05546942 0.23502795
000350 e5 f1 87 3d 91 5b 5c 3d 4f f3 dc 3d 58 6f 65 3e
       0.066379346 0.053798262 0.10788595 0.22405756
000360 27 84 d5 3d 13 c2 1b be fa c8 78 3e 7f 4e f5 3c
       0.10425597 -0.15210752 0.24295416 0.029944656
000370 27 58 5d 3b 82 1f 85 3e 95 e6 13 3e 32 be ef bd
       0.0033774467 0.260006 0.14443429 -0.11706199
000380 41 7c 10 3d e8 bd 14 be 1e 9a 11 bc f6 18 eb bc
       0.035274748 -0.14525568 -0.008886842 -0.028698426
000390 bd f4 79 3c af 63 e4 3c be 90 28 be 58 b5 a6 3d
       0.015256104 0.027879564 -0.16461465 0.08140057
0003a0 eb d4 b5 bd e2 fb 3f 3e 20 a9 14 3a f7 5d 35 3c
       -0.088785015 0.1874843 0.00056709535 0.011069766
0003b0 35 c1 b8 3d c5 62 04 bd 59 c0 0a 3e 32 f9 c8 bd
       0.09021226 -0.032320756 0.13549937 -0.09813155
0003c0 be c3 ea 3d 4b ba c9 bd ea 35 28 be 42 45 96 bd
       0.11463116 -0.09849986 -0.16426817 -0.07337429
0003d0 fd 21 3b bd 4a 08 92 3d 5c 7b df bd e7 73 0b be
       -0.04568671 0.07130487 -0.10912201 -0.13618432
0003e0 77 d9 9d 3d 9e a7 5f 3d 84 86 b6 bd b0 35 1a 3d
       0.07707494 0.05460321 -0.089123756 0.037648857
0003f0 d1 f4 85 bd c8 96 14 be b6 2c 46 3c d6 94 64 bd
       -0.06540836 -0.14510643 0.012095621 -0.055806004

bias_ih_l0 f4 [96]
000000 64 47 46 3e 0d 3e 50 bd 88 3c 11 3e 65 1f 92 bd
       0.19363171 -0.050840426 0.14183247 -0.07134894
000010 63 96 45 bd cf d0 71 3d 30 ee d7 3d ca fe 5d bd
       -0.048239123 0.059037026 0.105434775 -0.054198064
000020 95 82 fb 3d 14 58 3c 3e fc b7 32 be 39 dd 17 be
       0.12280766 0.18392974 -0.17452997 -0.14830483
000030 cc 0f 3d be af 25 41 3e 83 d2 1b be 0a 4d 50 3e
       -0.18463057 0.18862031 -0.15217023 0.20341888
000040 61 16 13 3e 34 30 be 3c 39 9c 10 3e e7 44 1a 3e
       0.14364006 0.023216344 0.14122094 0.15065347
000050 54 14 18 3e 44 6f 0b be 99 9e 78 3e 1d 23 e8 3d
       0.14851505 -0.13616663 0.2427925 0.11334822
000060 fd 2d a5 bc 43 b7 20 bc f2 83 12 3e db b7 07 be
       -0.02016353 -0.009809318 0.14308146 -0.13253729
000070 81 7f b4 bd 17 95 13 3d 20 e2 6a 3e 25 03 bb bd
       -0.08813382 0.036030855 0.22937822 -0.09131459
000080 6a 2a b7 bd 2d 42 a7 be 2f 2a 8d 3c ef d9 16 3e
       -0.08943637 -0.32667676 0.017232029 0.14731573
000090 e1 5b d8 be fa 3e 25 bc f8 f0 82 3d a6 3f 25 3d
       -0.42257598 -0.010085816 0.063936174 0.040343903
0000a0 cf 08 a1 bc 75 d6 4f be 9e 0e ba bd 3e d3 38 be
       -0.01965752 -0.20296653 -0.09084819 -0.18049332
0000b0 04 db ff bc bf 12 81 be 8c aa 9c bb 0f 84 8b be
       -0.031232364 -0.25209615 -0.004781073 -0.2724919
0000c0 c6 38 79 bd 29 b5 f9 bb df a5 67 be 75 ce 23 be
       -0.06084516 -0.007620473 -0.22621869 -0.15996726
0000d0 09 25 8b be 5f 32 c5 be f3 0b 9d be e3 73 b4 be
       -0.27176693 -0.38514993 -0.3067318 -0.35244665
0000e0 22 63 a4 bd 12 b2 19 be f5 ab 4d be 46 9c 95 be
       -0.080267206 -0.15009335 -0.20085128 -0.2922079
0000f0 e9 99 a4 be 21 71 99 be 46 da 0d 3e b9 6f 03 3e
       -0.32148674 -0.29969123 0.13852796 0.12835588
000100 33 5b 44 3d 41 73 f5 3c 35 36 69 3c 7b a5 15 be
       0.047938537 0.029962184 0.014234115 -0.14613907
000110 dd 91 df bd ed 6b 07 3e 04 ad 47 3e 69 63 00 3e
       -0.10916493 0.13224764 0.19499594 0.12537922
000120 6c 97 ed 3d 52 8d 50 be 94 20 a8 bd 57 28 9a 3d
       0.11601147 -0.2036641 -0.08209339 0.075272255
000130 ff ab e2 bd 04 72 83 3b e8 c4 01 be 98 01 98 bd
       -0.11067962 0.0040113945 -0.1267277 -0.07422179
000140 2f da 6f 3c de 6c c3 3d b3 69 ab bd 16 34 13 3c
       0.014639421 0.09542249 -0.0836977 0.008984586
000150 46 f9 22 bd 5a 1d e6 bd 14 24 08 3e 57 07 25 3d
       -0.039788507 -0.11236067 0.13295013 0.040290203
000160 3b 71 3e 3e 78 e2 36 3e ed eb ec bc 10 ee 0a 3d
       0.18597881 0.17859828 -0.028921092 0.03391844
000170 21 dd 8c 3d 7e 39 2a 3e ea 91 4e 3e c1 03 b9 bc
       0.068781145 0.16623494 0.2017285 -0.022584798

bias_hh_l0 f4 [96]
000000 57 c4 4a 3e f4 f4 18 be fe 40 df 3d d3 af c2 3c
       0.1980146 -0.14937192 0.10901068 0.02376548
000010 a7 57 4f 3e 75 bb ed 3d ee b2 05 3e dc 77 7a bd
       0.2024828 0.1160802 0.13056538 -0.061149463
000020 ac b0 0d bd de cb d7 bc c8 d0 41 bd ac 2d 92 bd
       -0.034592316 -0.026342329 -0.04731825 -0.071376175
000030 1c 84 fe 3c 20 71 a1 bd 6e 9b 74 3a c2 e6 9f 3a
       0.031068854 -0.07882905 0.0009331022 0.0012199508
000040 4a 28 69 bd 28 a8 cf 3b 79 fa 3c bc 60 bf a8 bc
       -0.05692319 0.0063371845 -0.011534327 -0.020599067
000050 64 4c c5 3d e5 8a 2b be ac e9 ea 3d 76 85 27 3e
       0.09633711 -0.16752203 0.114703506 0.16359505
000060 dc 23 af 3d 8c c0 f1 3c 09 1b 26 bd 2e 90 07 3e
       0.085517615 0.029510759 -0.040553126 0.13238594
000070 b3 71 12 be 6c c9 81 bd 75 52 d1 3d ea 01 31 3e
       -0.14301185 -0.06337246 0.102208056 0.17285886
000080 43 87 66 bc 12 9d a0 be 51 d4 49 be 44 e2 cf bb
       -0.014070335 -0.31369835 -0.19709899 -0.0063441116
000090 aa 8d ff be b9 49 82 be df 1e 5c be 15 d8 35 3e
       -0.4991277 -0.2544687 -0.21496151 0.1775821
0000a0 ac e2 83 bd ad 74 72 be e0 9f 88 bd 7a 16 16 bd
       -0.064397186 -0.23677321 -0.06671119 -0.03664253
0000b0 96 c1 eb 3b 8c bb c6 bd d7 ac 26 3c a9 5d 62 bd
       0.007194708 -0.097037405 0.010173044 -0.055265103
0000c0 72 ac 38 3e 4f cf 14 3e 29 ec 28 be e6 76 38 bd
       0.18034533 0.14532207 -0.16496338 -0.045035265
0000d0 f5 11 4e be 2f 0b cf be ef 89 d0 bd df 6c 76 be
       -0.20124038 -0.4043822 -0.10182559 -0.24064969
0000e0 e3 18 49 3e 24 48 8d 3c c9 73 99 be 36 38 b4 be
       0.196384 0.017246313 -0.2997115 -0.35199136
0000f0 6c cc 3c be 18 d4 34 be 00 c8 0f 3d 0e 12 df 3c
       -0.18437356 -0.17659032 0.035102844 0.027230289
000100 da 55 f0 bd c9 af 01 3d 07 1d 2f be 02 d0 85 bd
       -0.11735125 0.031661782 -0.17100917 -0.06533815
000110 47 3f f6 bd 8d 07 59 3d 4a c7 a5 3d 78 b5 10 be
       -0.12023788 0.052985717 0.08094652 -0.14131725
000120 ad 3e 91 bc ee 86 e0 bd ea c1 0a 3e 85 a4 45 3e
       -0.017730081 -0.10963236 0.13550535 0.1930104
000130 0a 8c 6b bb 5e d1 c9 bd 75 2c d4 3d 94 54 22 be
       -0.0035941624 -0.09854387 0.10360042 -0.15852576
000140 e1 b3 58 3e d1 8c 1b be 16 e6 d1 bd 1a 2e 49 3e
       0.21162368 -0.15190436 -0.102489635 0.19646493
000150 bd 93 02 be 31 7a 80 bc 25 e9 8b 3e f2 31 bb 3c
       -0.1275167 -0.015683265 0.27326313 0.022850964
000160 b6 b6 8c 3d 27 28 06 bd e5 ca f6 3d d6 71 2c 3e
       0.06870787 -0.032753136 0.12050418 0.168403
000170 cc 46 2c 3e 0a 71 6d bc 12 8e b2 3d 67 a8 1a be
       0.16823882 -0.014492283 0.08718504 -0.15103303

weight f4 [32, 32]
000000 66 67 f8 3e bb 64 11 be bc f1 ad 3e f4 2f 92 3b
       0.48516387 -0.14198582 0.3397349 0.004461283
000010 df 8c 77 be ea 9f 0b bd de ba 7a be df 52 c9 bd
       -0.24174832 -0.034088053 -0.24485347 -0.098302595
000020 06 54 1c 3e 2e f9 f9 bd db 74 d0 3e 9d d9 bc 3e
       0.15266427 -0.122057304 0.40714154 0.36884776
000030 72 e2 2d be 68 90 eb be 37 47 f0 be 10 26 6e be
       -0.16980913 -0.4600861 -0.46929333 -0.23256707
000040 91 d1 85 be 22 e2 47 be 41 3f 01 bf bd 1c 32 3d
       -0.2613645 -0.19519857 -0.5048714 0.04348444
000050 63 07 24 3e d5 f5 13 3e ca 71 c9 3d 3b 30 08 3d
       0.16018443 0.14449246 0.09836157 0.03324912
000060 17 07 26 be ec ff 9c 3e 1a 53 a3 be e4 0b 31 be
       -0.16213642 0.30664003 -0.3189934 -0.17289692
000070 01 ce 4b bc ae af a6 be a9 55 32 3d 39 ad 8f be
       -0.012439252 -0.32555908 0.043538723 -0.28061846
000080 fb 13 b8 bc 40 00 c2 bd 17 e7 38 3e 9e 5f dd be
       -0.022470465 -0.09472704 0.18056904 -0.43237013
000090 53 f5 04 3f 94 34 6e bd 4d 31 72 be 62 7a b0 bd
       0.51936835 -0.05815561 -0.2365162 -0.08617093
0000a0 78 a0 91 3e 26 1d 93 3e e7 f9 48 3e b1 59 c7 3e
       0.2844274 0.28733176 0.1962658 0.38935617
0000b0 5a 99 36 3e 2a dd dc be 56 1d 98 be aa 53 43 3e
       0.17831936 -0.43137485 -0.29709882 0.19074884
0000c0 40 87 d4 bd 84 51 5f 3e 19 c7 34 3e 2b 57 a4 bd
       -0.103773594 0.2180844 0.17654075 -0.080244385
0000d0 0e a4 ce 3e 38 76 d3 be 5c 58 3a bd ab 75 86 be
       0.4035954 -0.4130113 -0.045494422 -0.2626165
0000e0 67 12 ba 3e e1 31 a8 be 37 e1 15 3e ad 45 14 bf
       0.36342165 -0.32850555 0.14636694 -0.57918817
0000f0 c2 dc e4 be 7a c2 d1 3d 21 3a c1 3e 28 8c 36 bd
       -0.44699675 0.102421716 0.3773966 -0.044567257
000100 57 50 22 be 43 db 9d 3e 98 12 fa 3e 59 9a c6 3e
       -0.1585096 0.30831346 0.4884231 0.38789633
000110 2f a9 98 3e 42 b3 aa be 92 7e b1 3e c8 c4 9d be
       0.29816577 -0.33339888 0.34666878 -0.30814195
000120 87 30 aa 3e d8 59 6e 3e e4 3a 82 be ae a5 9c 3e
       0.33240148 0.2327646 -0.25435555 0.30595154
000130 5b 3b 80 bd 40 8e 6b 3e 27 97 b7 3d c7 6c 09 be
       -0.06261321 0.23003483 0.08964377 -0.13420402
000140 19 ef 72 be 1f da af 3e 12 4d a3 3e 13 af 18 3e
       -0.23724021 0.343461 0.31894737 0.14910536
000150 6e f3 50 3e e1 f4 50 be 2e 91 58 3e 66 c2 3a 3e
       0.20405361 -0.20405914 0.21149132 0.1823822
000160 ba 4c a8 3e d7 63 9f 3e 42 a9 ec 3e 0e 05 44 bf
       0.32871038 0.3113086 0.46222883 -0.7657021
000170 c2 7f 3c be 22 c9 05 3e 5c 9d a7 3e 29 94 49 3b
       -0.1840811 0.13065007 0.32737243 0.0030758476
000180 22 b2 b6 be 72 fe 25 be a9 28 8a 3e e7 e6 9e bd
       -0.3568278 -0.16210344 0.26984146 -0.07758885
000190 09 ca f7 bd ec 89 f6 bd 3f 69 69 3e c7 09 af be
       -0.12099082 -0.12038025 0.22794054 -0.34187147
0001a0 8f 16 da bd fd 37 e4 3e 18 4b d1 be ab f9 cb be
       -0.10648834 0.44573966 -0.40877604 -0.3983892
0001b0 d6 5d 26 3e c2 04 df 3e df a8 64 3e bd 51 44 be
       0.16246733 0.43558317 0.22330044 -0.19171806
0001c0 47 94 8f be 75 1a ee bb cd 5e 60 be 57 a9 0d be
       -0.28042814 -0.0072663375 -0.21911164 -0.1383413
0001d0 14 0d c6 bd 88 74 9c be f5 c9 be be 68 7a 0d 3e
       -0.09670463 -0.30557656 -0.37263456 0.13816226
0001e0 39 06 bd 3e ec dd a7 bd ed 6b 1a 3e 37 93 0a 3f
       0.3691881 -0.08196625 0.15080233 0.5413088
0001f0 a5 40 7a bc 11 0f 54 be 14 6f 82 3e ff ba dc be
       -0.0152742015 -0.20708872 0.2547537 -0.43111417
000200 ab 38 1e be aa 7a d0 3e 2d ee cf be b6 11 4e be
       -0.15451305 0.40718585 -0.406114 -0.20123944
000210 02 61 22 be 2a 57 cf be 2d 56 46 3e 06 7a 1c be
       -0.15857318 -0.40496188 0.19368811 -0.15280923
000220 a9 2c 4e be 20 7c 8d be 59 20 92 be 37 74 aa be
       -0.20134224 -0.27633762 -0.28540304 -0.3329179
000230 44 65 f4 be 27 93 53 3e 73 80 91 be f6 03 d0 3e
       -0.4773351 0.20661603 -0.2841831 0.40628022
000240 11 25 ad 3e 41 ff 26 3e be 9f 14 be 2c 12 8e be
       0.33817342 0.16308309 -0.14514062 -0.2774824
000250 73 ce 9e be fa cc d4 be 2a 0a 5f 3e fd c8 6a 3e
       -0.31016883 -0.41562635 0.21781221 0.22928233
000260 c5 de 49 3e 51 66 97 3e d9 1a ca be 51 21 d6 3e
       0.19713886 0.2957025 -0.39473608 0.41822293
000270 46 a2 06 3e d5 33 a7 3d ed fd e2 be ff a0 b9 3e
       0.1314784 0.08164183 -0.44334355 0.36255643
000280 6e ce c5 3e 8e 16 cd be 23 76 be 3e a1 15 83 3e
       0.38634056 -0.4005627 0.37199506 0.2560244
000290 5c 7c bc bd 4c 44 4d be 28 0f 9d 3e e5 4b 64 bd
       -0.09203407 -0.20045584 0.30675626 -0.05573644
0002a0 88 5d 4a be d3 2a b8 be d9 79 91 be bd e6 01 be
       -0.19762242 -0.35970172 -0.28413275 -0.12685676
0002b0 a0 39 eb bd fc ce 73 3e 00 ad 41 be b2 9b ff 3d
       -0.114856005 0.23809427 -0.1891365 0.124808684
0002c0 6f 4e cf be 32 0e 38 bd 5b 6d 6f 3e af 21 a8 3d
       -0.40489528 -0.044935413 0.2338156 0.0820955
0002d0 a7 c2 d9 be 56 90 70 3e c3 1b be be 48 84 43 3e
       -0.4253132 0.2349256 -0.37130556 0.1909343
0002e0 6b 64 4f 3e e6 19 c5 be 1c f3 1e 3e f6 82 8a be
       0.2025315 -0.3849632 0.15522426 -0.2705304
0002f0 68 63 6b 3e 41 82 db be fe d4 a7 be 12 02 d0 3e
       0.22987139 -0.42872813 -0.32779688 0.4062658
000300 1b 4d 37 3e 1b 4e 77 be 1c 8a 81 3d 59 c2 a5 be
       0.17900507 -0.24150889 0.063251704 -0.32374838
000310 5e 32 fc 3e 55 8a 04 3e b1 af 60 3e 88 38 29 3e
       0.49257177 0.12943394 0.21942021 0.16525471
000320 d3 17 ba 3d 53 04 2e 3e e4 1f a8 be b1 78 0f be
       0.09086575 0.16993837 -0.3283683 -0.14010884
000330 2f 80 d2 be 18 29 b1 be 0a 84 89 bd ff 4d 9e be
       -0.4111342 -0.34601665 -0.067146376 -0.3091888
000340 33 63 97 3d c6 0f 90 be 6e f4 31 3f 7a 75 aa 3e
       0.073919676 -0.28137034 0.69513595 0.33292753
000350 54 78 a5 bd 67 0e b4 bd 4b 26 01 3f 62 07 95 3e
       -0.080795914 -0.087918095 0.50449055 0.29107195
000360 ac f1 2d 3c 31 ec 99 3e 08 dd f6 3d e4 7d 58 be
       0.010616701 0.30063012 0.12053877 -0.21141773
000370 4e 1b 2e be d2 dc 5f 3e f8 f9 a1 3c 77 46 d4 be
       -0.17002603 0.2186158 0.019772515 -0.4146001
000380 ca 97 31 be 7b 25 78 3e 09 8b 94 be 19 8e b6 3e
       -0.17343059 0.24233048 -0.29012325 0.35655287
000390 d7 d3 c1 3d 9f 34 93 be 15 98 e0 3d 7b 46 9f be
       0.09464233 -0.28751084 0.10966507 -0.3110846
0003a0 0c 8e 86 3e f3 cb 9e be ae 96 31 be ff 79 13 bf
       0.26280248 -0.31014976 -0.17342636 -0.57608026
0003b0 fb 9c e5 be 17 5f 19 3f bd 98 9d 3e 8c ea 92 be
       -0.4484633 0.5991072 0.30780593 -0.2869457
0003c0 03 86 9b 3e 59 92 2a 3e c8 83 43 be 88 be 4c be
       0.3037568 0.1665739 -0.1909324 -0.19994557
0003d0 96 39 f1 3d 22 53 86 3d 0d 70 0a bd ec da 45 3e
       0.11778562 0.06558825 -0.033798266 0.19321793
0003e0 43 3c d3 3e 31 4d cb be 72 f8 22 be 4c 8d b9 bd
       0.41256914 -0.3970733 -0.15915087 -0.09060153
0003f0 80 2a 4d 3e ad e3 ba 3e 32 55 82 3e d6 f0 92 3d
       0.20035744 0.36501828 0.25455624 0.07174842

bias f4 [32]
000000 6e d8 90 bd 81 fc b7 3d 7a 13 5c 3d 25 79 2a bd
       -0.07072531 0.08983708 0.05372951 -0.04161944
000010 86 d1 18 3d a6 f6 a9 bc 8c ac bb 3d af 2b 25 3d
       0.037309192 -0.020747494 0.0916377 0.040324863
000020 2f be 8a bc 8b 19 9b b9 88 17 41 bb a7 3b b5 3c
       -0.01693639 -0.00029582935 -0.0029463489 0.022123171
000030 f0 9d 44 3d 67 90 6f 3d cb 29 fc 3d a1 fb 8a 3b
       0.048002183 0.058487322 0.12312659 0.0042414223
000040 2e c8 a3 3d b6 c9 28 3d 40 b9 b6 3d ca 10 a5 3a
       0.079971656 0.04120799 0.089220524 0.0012593505
000050 cc 74 d2 3d 26 0f a6 3d 90 f6 8a 3d 07 ef eb bc
       0.102761835 0.08108358 0.06785309 -0.0288005
000060 e5 27 4d bc 05 ff dc ba ca 93 9e 3d 92 77 a3 3d
       -0.012521719 -0.001686067 0.07743032 0.079817906
000070 0e a7 88 bd f9 73 aa bb 4b 0b c0 bc c7 cc 52 3d
       -0.06672488 -0.0052018133 -0.023442885 0.051464822

weight f4 [15, 32]
000000 95 0a 26 be 0f 01 ee 39 7c 7c 16 3e 0d c2 38 be
       -0.16214974 0.00045395686 0.14695925 -0.18042774
000010 bf bd d7 3d 37 c2 17 3e a7 88 d1 be 68 bf b8 3d
       0.10534238 0.14820181 -0.4092457 0.09020883
000020 04 36 e8 be cc 57 b8 be 02 1c d1 bd 0b cd b2 be
       -0.4535371 -0.36004484 -0.1021042 -0.3492206
000030 5d da 50 3e 80 b2 a6 3d 2f d5 a5 bd 4f 39 61 3e
       0.20395799 0.08139515 -0.08097302 0.21994518
000040 17 82 c4 be ad 4b 5f 3e 77 46 1b be 43 10 86 be
       -0.383805 0.21806212 -0.15163599 -0.26184282
000050 2a a6 fe bd 85 d3 f2 be 31 da cd be 73 e6 5d 3e
       -0.12434037 -0.47427002 -0.4020553 0.2166994
000060 24 71 c0 3c 7e 3c 51 be e0 35 95 be de 85 28 3e
       0.02349145 -0.20433232 -0.29142666 0.16457316
000070 2a d9 67 be 01 94 8b be df fe 96 bd 0b a4 8f be
       -0.22641435 -0.27261356 -0.073728316 -0.28054842
000080 a8 52 a7 3e f0 b4 49 bd b9 bb ff bd a8 07 df be
       0.3268025 -0.04924482 -0.12486977 -0.4356053
000090 ae 78 7f 3d 0f 98 a8 3e 65 e4 bf be cd 51 ea 3c
       0.06237095 0.32928512 -0.3747894 0.028603459
0000a0 39 0a 0d 3e c5 63 b4 3d 66 71 be be d0 1c 56 be
       0.13773431 0.08808092 -0.3719589 -0.20909429
0000b0 07 6e 31 3e dd 30 c0 be d1 cd 6f be 27 d8 f7 3d
       0.17327128 -0.3753728 -0.23418356 0.12101775
0000c0 f2 b2 6a 3e 59 71 89 3e 38 ff 16 3e 0b 1e 02 3e
       0.22919825 0.2684429 0.14745796 0.12706773
0000d0 ba 9d e0 be fb 11 cc be e2 a6 ac bd f6 65 0e 3e
       -0.43870336 -0.39857468 -0.08430268 0.13906083
0000e0 f7 97 ca be 6b f7 5e 3e 5f 05 0d be 66 17 8e be
       -0.39569065 0.2177407 -0.1377158 -0.27752227
0000f0 51 3c 37 be 9e 81 aa bd 39 96 a9 3d 8c e7 e7 bc
       -0.17894103 -0.08325504 0.08280606 -0.028308652
000100 71 73 f8 bd d1 9b a9 be 3e ac 2a be cb e5 14 be
       -0.12131394 -0.3312669 -0.16667268 -0.14540784
000110 01 d1 eb 3e ca 5b 18 be f9 b7 27 bc 36 a5 6c 3e
       0.46057895 -0.14878765 -0.010236734 0.23109898
000120 8f b6 0f 3e 0e c6 d2 be 0a 60 ca bd e5 20 88 be
       0.14034484 -0.4116673 -0.09881599 -0.26587597
000130 92 3d 7f 3e cd bf 12 bd cc a0 00 3f e4 65 e9 3e
       0.24925831 -0.035827447 0.50245357 0.4558555
000140 29 99 96 3e cf ea 03 3e 1d 11 6c be 80 25 e2 3d
       0.29413727 0.12882541 -0.23053403 0.11042309
000150 d9 ca b0 3e 4c 25 e8 3e fc 88 a8 3e f4 14 b6 be
       0.3452976 0.45340955 0.3291701 -0.3556286
000160 ef fe 01 3e 1b 50 16 3e e8 1e 13 3e e3 fe 98 be
       0.12694906 0.14678995 0.14367259 -0.29881963
000170 45 e1 01 3c 4b 5c 42 3d b9 34 25 3e 89 b1 72 be
       0.007927244 0.0474513 0.16133393 -0.23700537
000180 66 ec 10 be c8 74 ea 3d d5 91 ef be f8 84 36 3e
       -0.14152679 0.114480555 -0.4679095 0.17824161
000190 c3 d9 a3 3d 97 b5 96 3e f4 13 a0 be 21 19 41 be
       0.08000519 0.29435417 -0.31265223 -0.18857242
0001a0 a4 d1 a3 bd f7 5f f7 bd ad f4 ac be 33 ad 06 be
       -0.0799897 -0.12078851 -0.33780423 -0.13152008
0001b0 4d b5 0a 3e ba 1d 8e be 59 a6 4d be 5a 20 84 be
       0.13545723 -0.27757055 -0.20082988 -0.25805932
0001c0 1d ec ab 3e 36 f1 3e 3e 48 12 3b be d9 89 5c be
       0.33578578 0.18646702 -0.18268692 -0.2153696
0001d0 8b bb ac be 16 64 a5 3e c4 7f 12 bd 08 71 7c 3e
       -0.33736834 0.32302922 -0.035766378 0.24652493
0001e0 4b 9d d2 be 1f 46 92 3e 0b 31 90 be fd dd 69 bd
       -0.4113563 0.28569123 -0.28162417 -0.05709647
0001f0 7f a4 3c 3e d5 1b 07 3e 8a ad 7d 3e 65 01 91 3e
       0.18422125 0.13194211 0.24773231 0.28321376
000200 db 20 8e bd 3c bf 00 3f be 35 09 3e b3 88 d3 be
       -0.069398604 0.502918 0.13399407 -0.4131523
000210 b7 e8 2c be 9d c2 50 bd 4f a2 c4 bb fb 36 94 be
       -0.16885649 -0.050966848 -0.006000794 -0.28948197
000220 fc 28 06 bf 0f c0 60 3e 54 88 95 bd 83 ca d2 bd
       -0.5240629 0.21948265 -0.07301393 -0.10292532
000230 4c b4 ae 3b e5 51 ac 3e 85 79 a4 be c0 36 a7 bd
       0.0053315517 0.3365623 -0.32123962 -0.081647396
000240 be 56 39 be 02 39 d7 be 4b a7 34 be 94 22 97 3d
       -0.18099496 -0.4203568 -0.17641942 0.07379642
000250 0a c1 fd bd b9 35 c2 be 81 46 f3 be 7f 48 73 be
       -0.12390335 -0.37931612 -0.47514728 -0.23758124
000260 21 51 60 3e 7b 9c e1 be f3 06 cb be c6 cc bc be
       0.21905948 -0.44064698 -0.3965374 -0.3687498
000270 45 6d e6 3c 72 63 fd be af 3b 71 be bf e1 a3 be
       0.028128276 -0.49489933 -0.23557924 -0.32008168
000280 68 58 cd 3d 8f 4a cf bd 81 cf ec be 73 8f 76 bd
       0.10026628 -0.10121643 -0.46252063 -0.060195398
000290 dd f7 07 bf c4 31 06 3d 59 68 9c be db ad 84 be
       -0.53112584 0.032762304 -0.3054836 -0.2591389
0002a0 f2 2f 8a bb 3a 61 d8 bd 0a 62 46 be 00 3b 9e be
       -0.0042171413 -0.105654195 -0.19373336 -0.30904388
0002b0 c2 79 8f 3e 33 da 45 be de 1d c8 be c0 86 0d bf
       0.2802258 -0.19321518 -0.39085287 -0.5528374
0002c0 3e 63 91 be fa 31 ea be a1 d4 c0 be 0d 07 9f be
       -0.28396028 -0.45741254 -0.37662223 -0.31060067
0002d0 dd 96 72 3e 02 2b 96 be 26 a2 03 bf 90 28 42 be
       0.23690362 -0.29329687 -0.51419294 -0.18960786
0002e0 4c 19 6f 3d 6d e7 86 be ed be 05 bf 4f 52 ff be
       0.058373734 -0.2634844 -0.52244455 -0.49867484
0002f0 1d d3 80 be 31 44 37 bd 92 34 41 3e fa 26 d6 bc
       -0.25161067 -0.044742767 0.1886771 -0.026141632
000300 b4 df d5 be 64 b2 60 3e e9 0c b5 3e cf 64 1e be
       -0.41772234 0.2194305 0.35361412 -0.15468143
000310 96 9b 17 3e 55 87 9e be 2c 08 b5 3e 29 bf 08 3e
       0.14805445 -0.30962625 0.35357797 0.13354172
000320 76 a7 87 be 38 e5 27 3e 40 87 9b 3e 71 b2 a7 3e
       -0.2649495 0.16396034 0.30376625 0.32753327
000330 29 80 f5 be c2 a7 1e bf ec 6e 5c 3e 36 0a d3 bd
       -0.4794934 -0.6197473 0.21526688 -0.10304682
000340 b1 44 76 3e a3 94 9c 3d 75 4a cd 3e 9f 54 76 3d
       0.24049641 0.07645538 0.4009587 0.060139295
000350 96 d2 65 3e cd cd 30 3d c6 bd c9 be 09 1c 79 be
       0.22443613 0.043165017 -0.39402598 -0.24327101
000360 fa 22 98 be 0b fb a1 be 59 40 f8 3d 88 96 9b 3e
       -0.29714185 -0.31636843 0.12121648 0.30388284
000370 1f 5e 9f be df 10 4a 3e 3d 80 87 3e 66 2e 04 bd
       -0.31126496 0.19732998 0.26465026 -0.03227081
000380 2f 4d f8 3b 82 a6 49 be 07 3e 34 be b4 9b 0d be
       0.0075775604 -0.19692424 -0.17601787 -0.13828927
000390 6c fa be be 76 df 74 3e e2 8d 33 3e 5b 8a d0 3c
       -0.37300432 0.23913369 0.17534593 0.025456598
0003a0 68 29 6e be 13 7c b3 be b6 d7 d7 3d 55 72 c8 3d
       -0.23257983 -0.350556 0.105391905 0.09787432
0003b0 65 ee 9d be 0d c0 a8 3d 87 64 a9 bd 0b d7 bd 3d
       -0.30845943 0.08239756 -0.08271127 0.09269532
0003c0 b1 a8 b6 bd 5f 15 a6 be a5 64 d0 3e a7 74 71 be
       -0.08918894 -0.3243818 0.40701786 -0.23579656
0003d0 48 48 05 bf 9b a4 85 be 24 89 ed 3e 53 1d 8e be
       -0.5206342 -0.26102147 0.46393692 -0.27756748
0003e0 4d 1c d8 bd e5 f2 f4 3c f9 d9 a8 3e a7 f2 f1 3e
       -0.10552273 0.029900977 0.329788 0.47255442
0003f0 d9 29 70 be 39 c5 54 be 3d c9 ac bc 11 88 d9 3e
       -0.23453464 -0.2077836 -0.021092052 0.42486623

bias f4 [15]
000000 3b b1 ed bd ec d1 9b bc 81 3e ef 3d 7a bb 33 3d
       -0.1160607 -0.019020997 0.116818435 0.043879963
000010 aa 1a 43 be f2 6a 41 be d6 cd 97 3d a5 fa c4 3d
       -0.1905314 -0.18888453 0.07412307 0.09618119
000020 3f a5 92 bd 79 1c 2e bd dd 98 03 be a9 f8 aa bd
       -0.071604244 -0.042507622 -0.12851281 -0.083482094
000030 9e b9 e3 bd 7c 2a bb bd 44 6c d2 bd
       -0.11119388 -0.091389626 -0.10274556
