visualization/policy_nns/Overcooked/mapC/agent_2.pt (torch, 44481 bytes, 12 tensors)

weight f4 [32, 32]
00000000: 9f33 59be 476f 0a3e bd40 913e 9897 38bd
00000010: 3faf 62be 69f2 abbe 248e cf3d e14e bbbd
00000020: c37a f93e a466 c8be 7d18 b7be 430e 8bbc
00000030: 0838 e63d 9603 003f cc91 043e f926 b039
00000040: b9d5 e1bc 3846 72be 53e6 a83d 5722 03be
00000050: f828 94bc da62 bb3e 46f7 cdbd cba2 113e
00000060: bf27 8fbe 2ace d33e 5fc8 adbe 38ec 1ebd
00000070: 5300 813e efdb 98be fbda 9f3e 381e da3d
00000080: 29c8 403e 7111 cdbe ebe9 b73e a88a e03d
00000090: ca02 74bd e363 ccbe 1999 cebd 8514 a03e
000000a0: 4786 14be 482e ffbd e118 41bc 465f bdbe
000000b0: d00d cb3e b34b 9cbe 4a18 71be 8737 903e
000000c0: be41 8e3d a171 d53e a904 ddbe 94d8 b8bc
000000d0: eef1 98be 8865 b93e 95b8 b3be afd2 dcbe
000000e0: 319f 17be a3cc b9bd 9b88 03be b0e6 a5bd
000000f0: 3f65 afbe 0467 d73e 8310 02be 0c01 dabe
00000100: 99e1 96be 5b33 353f 2c9b 06bc 0136 9c3e
00000110: b467 ee3e 5bb4 bebe 27d0 f8bd 6164 113f
00000120: 0698 553e fe2b 93b9 be95 cdbe 09ae aebd
00000130: 23f0 9d3e b3e9 773e f3c6 bebe 802f b6be
00000140: ab34 d63d 6d85 acbe 857e 203c 41ca c73c
00000150: eb4b 83be f407 1b3c ea93 f9bd a51e 91be
00000160: 1411 f73d e8d1 41bd 3284 b3be 7f19 d6bd
00000170: 6366 0a3e 7987 973e de9b 3fbe c12e 6bbe
00000180: e4e3 903e e1b2 d63c c27a 173e 40d7 b13e
00000190: e667 bcbe c124 21be 94d9 babe 1314 ce3d
000001a0: f9e7 fd3d 9b78 4abb 0e87 a83d 7fdf ba3e
000001b0: b838 bb3d 5a8e f23c 1c29 bf3d 1c98 e73e
000001c0: 29e1 ed3b 3f03 91be a787 90bd e719 9ebe
000001d0: 0ecd c8bd 7d5d fa3d 4408 3abe 9b4d debe
000001e0: 6eb3 d13e 3e4d 303e 76c7 99be b3a7 a5be
000001f0: 2361 b43e 167a 0abe 06c3 53be 16e6 d2be
00000200: 0844 0bbe 67c3 d6bd 53e6 ae3e 51ae 89be
00000210: dd5a ee3d fa16 91be 997f 483e 5045 cabe
00000220: 21d0 9f3e 8cc9 76bd 92d1 73be 5037 5ebe
00000230: bdeb f33d 41e7 8b3e eb60 d1be d342 a03e
00000240: e2e6 833e 60b5 253d 8163 943e 386f 01be
00000250: 60f1 1d3e 7dc8 8fbd 354a b3be 4a8a 8c3d
00000260: 592f 92be 4609 803e 849c 1d3e 55bc 5bbe
00000270: b5c1 133e c190 283e cbc6 d83e 2cc0 ad3e
00000280: 50b3 cbbd 013e cebe b032 603e 860d 6bbd
00000290: 185a 9c3e 2272 8cbc 58ce ca3e ad09 b1be
000002a0: 95b2 bf3c ae18 9f3e 149a c43e c108 aebe
000002b0: 7e89 b7be 0aec babe 15dd a03e 48e4 893e
000002c0: 74b5 df3d dbc8 24be 1854 c23e 9481 4dbe
000002d0: 601c be3e 2824 803e a4ef b13e 5f71 ad3e
000002e0: 54ab 33be 341b 203d 7ccd 8b3e 7bf4 833e
000002f0: 5b80 d23e e653 92bc e53a a53c ef81 70be
00000300: bd06 5abe 9b63 a53e 833a 873d 6468 3ebd
00000310: 6999 eebe b178 4ebe 1c6d 86be a0a5 c83d
00000320: 923b 8cbe a512 7abe 0ff6 b83e 6a58 633c
00000330: 2f7f ddbd ffad d63d 1da7 b43e 7626 a8be
00000340: 8e9d 7ebd a7d4 d33e 1ba8 8b3e 8adc d7bd
00000350: 8eac bc3e 42e6 1e3e 2913 943e 4218 e63e
00000360: 9cfa 873e 2494 2d3e 3f93 d1bd fe7e d7be
00000370: 1c0b a13e b7bc dc3e 4b16 20be 7cf1 babc
00000380: 11ed d23e e41b 0c3e 2d91 debd 12e0 13be
00000390: 38b9 f4bd 9ad1 72be 8861 b8bd 851f c83c
000003a0: d494 bd3d 1cf3 afbe ba91 c93e c82b 86be
000003b0: 18a8 be3e ab4d 2ebe 597e ac3e 4f8a 853e
000003c0: 87e1 9e3e ab3f e5be 715d d03e 6a1f b2be
000003d0: e6d9 193e d3f8 133e 8c32 afbe f3bb adbd
000003e0: a5df 223f 0d92 9d3e e6c2 2c3d 336c 76bb
000003f0: cef8 bfbe c25e 2a3d 8a4d f63d 7c80 803e
-0.21211098 0.13519011 0.28369704 -0.045066446 -0.22137164 -0.33583382 0.10134533 -0.09145904
0.48726472 -0.3914081 -0.3576087 -0.016974574 0.11241156 0.5000547 0.12946242 0.00033598373
-0.027567731 -0.23659599 0.08247056 -0.12806068 -0.018085942 0.36598855 -0.10056929 0.14222257
-0.2796001 0.41368228 -0.33941934 -0.038799495 0.2519556 -0.29855296 0.31221756 0.10650295
0.18826355 -0.4005237 0.35920653 0.109639466 -0.059572972 -0.39919958 -0.10087795 0.31265655
-0.14504348 -0.12459999 -0.011785717 -0.3698675 0.39658976 -0.30526504 -0.23544422 0.28167364
0.06946133 0.41688254 -0.43167618 -0.02256421 -0.29872078 0.36210275 -0.35101762 -0.4312949
-0.1480682 -0.090722345 -0.1284508 -0.08100641 -0.34256932 0.42070782 -0.12701611 -0.42578924
-0.29468992 0.7078149 -0.008215707 0.30509952 0.46563494 -0.37246975 -0.12149077 0.5679379
0.20858774 -0.00028070802 -0.40153307 -0.08529288 0.30847272 0.24210243 -0.3726116 -0.35583115
0.10459264 -0.33695546 0.00979579 0.024388434 -0.25643858 0.009462345 -0.121864155 -0.28343692
0.12063804 -0.047319323 -0.35061795 -0.10454082 0.1351562 0.29595545 -0.18711802 -0.22967054
0.28298867 0.026208343 0.14792922 0.34734535 -0.36798018 -0.15736677 -0.36494124 0.100624226
0.12397761 -0.003089464 0.08228885 0.3649864 0.091416776 0.029608894 0.09334013 0.45233238
0.007259507 -0.2832279 -0.07057124 -0.30879137 -0.09804736 0.12224863 -0.18167216 -0.43418583
0.40957206 0.17216966 -0.3003499 -0.32354507 0.3523036 -0.13523135 -0.20679864 -0.41191167
-0.1360017 -0.10486489 0.34160098 -0.26890805 0.116384245 -0.28337842 0.19579925 -0.39506006
0.31213477 -0.060250804 -0.23810413 -0.21700788 0.11910198 0.2732487 -0.40894255 0.31300983
0.25762087 0.040456176 0.28982165 -0.12640083 0.15424109 -0.07020662 -0.35017553 0.06862314
-0.28551748 0.25007075 0.15391737 -0.21458562 0.14429362 0.16461469 0.42339167 0.33935678
-0.099463105 -0.4028168 0.21894336 -0.057385944 0.30537486 -0.017144267 0.39610553 -0.34577695
0.023400584 0.31073517 0.38398802 -0.33991054 -0.35847086 -0.3650821 0.31418672 0.26931977
0.10923281 -0.16092245 0.37954783 -0.20068961 0.37131023 0.25027585 0.34753144 0.33875558
-0.17545825 0.039088443 0.2730521 0.2577246 0.41113552 -0.017862272 0.020169685 -0.23487066
-0.21291633 0.32302555 0.06602957 -0.046486273 -0.46601418 -0.20163228 -0.2625512 0.097972155
-0.273892 -0.24421175 0.36125228 0.01387606 -0.10815274 0.10482406 0.35283747 -0.32841843
-0.062161975 0.41373178 0.27276692 -0.10540111 0.368504 0.15517524 0.28920868 0.44940382
0.26558387 0.16951042 -0.10233163 -0.42089075 0.31453788 0.43112728 -0.15633504 -0.022820227
0.41196492 0.13682514 -0.10867534 -0.14440945 -0.1194939 -0.23712769 -0.090029776 0.024429092
0.09256902 -0.34365165 0.39368993 -0.26205277 0.3723762 -0.17021815 0.33690146 0.26082084
0.3103144 -0.44775137 0.4069629 -0.34789592 0.15024528 0.14450388 -0.34218252 -0.08483114
0.63622504 0.3077549 0.042178057 -0.0037601113 -0.3749451 0.041594274 0.12026508 0.25098026

bias f4 [32]
00000000: bcbc 973d e80f 67bb 414f 343e 0bbb beba
00000010: 19b4 09bd 4d57 0fbd 8cf1 0c3e 473b 2e3e
00000020: 4a41 cb3c dd8a 793d 6677 b23d 18f6 a83d
00000030: d2da a53d be25 973d 05d0 fa3b 8f6a 373d
00000040: 1b8b 48bb da38 f33d 03e4 f73d 9944 93bc
00000050: d449 393c 3dd7 383d 565c d73b 3803 ce3d
00000060: aa5d c63c 22ed c43d 9124 e6bb 1471 103e
00000070: 9039 2f3d 9ff3 1d3d 7296 69bd 4f00 003d
0.07409045 -0.0035257284 0.17608358 -0.0014551593 -0.03361902 -0.034995366 0.13764018 0.170148
0.024811406 0.060923446 0.0871418 0.08250064 0.08098377 0.073802456 0.0076541924 0.044779357
-0.0030600491 0.11876078 0.12104037 -0.017977046 0.011309106 0.045127142 0.0065722866 0.10059208
0.024214584 0.09615542 -0.007023402 0.14105636 0.042779505 0.038562413 -0.05702824 0.031250294

weight f4 [32, 32]
00000000: 0724 fc3e 79c6 dc3d 6ea4 00be b34e 12bd
00000010: c21a 5dbd 0482 303e 107a b53d 70c5 44be
00000020: d818 01bd c003 143f 6e36 383e eab9 c7be
00000030: 438b f0bd 53a5 c53e a82e ac3d aed4 9fbc
00000040: 26da 073e 5376 dd3d 09f2 b23d 7876 96be
00000050: 053c a33e 4de0 2d3e 5b37 c8be 84d3 073f
00000060: 8308 40be 8b81 8e3e d4f1 a23e f869 833c
00000070: 78d1 ea3e 1e42 66be 7628 fbbd 2350 24bd
00000080: eb13 3cbe 80fd 99bb a945 653d 36ae b1be
00000090: 7845 af3d 3f75 c7bd 54d1 fdbd a402 b3be
000000a0: b335 a53e 11d1 0d3f d108 4f3e 4ed8 0cbf
000000b0: d63f 553e 2b94 dc3e e44b d53e fbcd 20bd
000000c0: 8f78 aabe e31f 893e 13c5 8e3d 3a42 99bd
000000d0: 8a69 e73e e5db 2f3e 5e16 c63e 4871 d93b
000000e0: 25f9 74be dede f6bd 474f d8be 1283 cbbe
000000f0: 17df 563c 7a73 1b3e 58c0 ad3b 4baf 65be
00000100: a1b9 edbd 37a7 cdbe 8d7d 003f 81a3 13be
00000110: 149a 98be 082c a63e faf0 aabe b879 0c3f
00000120: 617f eebe 0bc8 9cbe d82a 563e df55 273c
00000130: 8df9 b0be 5c2b 8bbe 5d98 00bf e380 113e
00000140: d283 b73e 6123 64bd c6d3 013f 638d acbc
00000150: d525 a1be 0bb9 8c3e 883e fd3e a3a1 80be
00000160: dbca 8ebe a946 93be dffb b03e e8d5 133e
00000170: ca68 90bd 812e 2a3e 8a23 aa3d a7fd 3a3e
00000180: 6126 053e 8841 c23e 8d8b 46be 296d c1be
00000190: 32cd ed3e c438 483e 0022 50be e520 6c3e
000001a0: 74fe 2d3e 4173 5e3c 3980 49be 0ace 033e
000001b0: 05f2 c8bb 0bf3 313e b6ba 69bd 614b 29bd
000001c0: d9fb ab3d 06a1 013e 06ad ad3e 67b2 51be
000001d0: e68e bd3e beaf 013f 9d81 dcbd 630b 11be
000001e0: a8af dc3e c180 b53e 99b3 683e 94cb debe
000001f0: 95a5 133e 4aac d33d 0bb2 9ebe b7a6 d0be
00000200: 43bf e8be b45c 933d 7591 7abe 0bea 53bd
00000210: 7ebf c53e 7dff 42be 1e0b d7be 5b3b bebc
00000220: 1723 133d 4304 acbe 88bd ba3e 8088 513d
00000230: 561e 8e3e 6dfe 183c 7822 06be 37ee 3b3d
00000240: 3643 a03e 6ee1 dabe f0d6 a13e 7432 35be
00000250: 95ba 2b3e 2a0a e1bc 5783 82be 6934 7f3e
00000260: e2ab d4bd 42d0 b53e 23d2 da3e 41e4 3bbe
00000270: 81f4 983e ab17 b83e 0407 153d 3938 2cbe
00000280: bd3c 9e3e abba d73e 7dfd d23d 7cb5 b33e
00000290: dc26 ca3e 1196 5cbd 3138 4abf 1425 97be
000002a0: b59e 113e 8724 053e c2d1 95bc 134f 99bd
000002b0: 82b4 06bd 1b63 36bd 97d0 4cbe 601a 523d
000002c0: fa7e 0c3e 0e86 7ebd a86e a03e ec4a c03e
000002d0: 9025 be3e bff6 7d3d 9bec 403e 8285 afbe
000002e0: 396e 0abe 4458 a23e 1f52 11be 44ae b53e
000002f0: ab60 283e 908d 053f 5a19 7a3e 708d 75be
00000300: d61c 8dbc ead3 063e 390f 95be f42c ddbe
00000310: 2e87 60bd 8af7 e63e ce84 f3be b455 823d
00000320: 1fb6 8e3d c21b 87be 02ae cebe 78ae cebe
00000330: 73e5 75be dc06 f83d eec4 3f3e 8ee7 dbbe
00000340: 5a69 9b3e d2ce 823d 83e2 483e 5e48 843e
00000350: 5324 023f 0d49 343e 8aac ffbd 00b9 0fbe
00000360: e7cf 78be 3cff 883e ed6f b4be 38ad 0c3e
00000370: c3b8 4c3e 7dcf 733e 9e3f 4dbe dde5 c33e
00000380: 228a 4bbe 0410 0e3e d5e1 073f 042c b0bd
00000390: ab9a bfbe 6eb3 40be 6a64 133e e66e 143d
000003a0: aa9a bc3c 7449 8cbe 7e02 b03e 72bd 003f
000003b0: 9d36 10be b5ed 91be 00ff c93e 729a 4dbe
000003c0: 9f00 a33e 4c30 443e 495d 323e a2d2 babe
000003d0: 985c 88bd c5e0 4dbe 9de5 20be 06c1 a93b
000003e0: ee48 c43e 9529 7ebe 2f96 8e3c 7362 6bbb
000003f0: 4c3a 723e f666 6c3e f957 d2be 18bc 8dbe
0.49246237 0.10780043 -0.12562725 -0.035719585 -0.053980596 0.17237097 0.08861172 -0.19215941
-0.031517833 0.5781822 0.17989513 -0.3900903 -0.11745312 0.38602695 0.084073365 -0.019510593
0.13266811 0.10813584 0.08737571 -0.2938726 0.3188173 0.16980095 -0.39104733 0.5305712
-0.18753247 0.27833208 0.31825125 0.01604174 0.45862937 -0.22486159 -0.12263577 -0.040115487
-0.18366973 -0.004699409 0.055974636 -0.34703225 0.08558172 -0.0973916 -0.12393442 -0.34962952
0.32267532 0.55397135 0.20218207 -0.55017555 0.20825133 0.43081793 0.41659462 -0.03925894
-0.33295104 0.2678214 0.06971183 -0.07483335 0.45197707 0.17173727 0.3868894 0.0066358186
-0.23923166 -0.12054227 -0.42247984 -0.39748436 0.013114712 0.1518077 0.00530247 -0.2243015
-0.116076715 -0.40166637 0.50191575 -0.1441784 -0.29805052 0.32455468 -0.33386976 0.5487323
-0.46581557 -0.3062137 0.20914781 0.010213344 -0.34565392 -0.27181518 -0.5023249 0.14209323
0.35842758 -0.055697802 0.50713766 -0.021063512 -0.31474176 0.27484927 0.4946177 -0.2512332
-0.2788914 -0.28764847 0.34567162 0.14437068 -0.07051237 0.16619302 0.0830756 0.18260823
0.13002922 0.3794062 -0.19389172 -0.37778595 0.46445614 0.19552904 -0.2032547 0.23059423
0.16991597 0.013577283 -0.1967782 0.12871566 -0.0061323666 0.1737787 -0.057062827 -0.041331653
0.083976455 0.12659082 0.3392107 -0.20478211 0.37023085 0.50658786 -0.10766909 -0.141645
0.43102765 0.35449794 0.22724761 -0.43514693 0.14418633 0.10335596 -0.3099521 -0.40752193
-0.4545842 0.07195416 -0.2446955 -0.051736873 0.3862266 -0.19042774 -0.4200067 -0.023221662
0.035922136 -0.33597 0.36472726 0.051155567 0.2775752 0.009338004 -0.13099086 0.045881476
0.31301278 -0.42750114 0.31609297 -0.17695028 0.16770394 -0.027470667 -0.2549083 0.24922337
-0.103843465 0.3551045 0.42738447 -0.1834879 0.29874042 0.35955557 0.036383644 -0.16818322
0.30905715 0.42134604 0.10302255 0.350994 0.39482772 -0.053854052 -0.7899199 -0.29520476
0.14220698 0.13002215 -0.018288497 -0.07485785 -0.03288699 -0.044528108 -0.20001446 0.051294684
0.13720313 -0.062139563 0.31334424 0.3755716 0.37138033 0.062002894 0.18840258 -0.34281546
-0.13518609 0.31707966 -0.14191483 0.35484517 0.16443126 0.5216913 0.24423733 -0.23979735
-0.017225664 0.13166776 -0.29113176 -0.4319836 -0.054816417 0.45110732 -0.4756226 0.06364003
0.069683306 -0.26388365 -0.40367132 -0.40367484 -0.24013309 0.12110683 0.18727466 -0.429501
0.30353814 0.06387104 0.19617657 0.25836462 0.50836676 0.17605992 -0.12484081 -0.14035416
-0.24298058 0.26757228 -0.35241643 0.13737953 0.19992356 0.23809619 -0.200438 0.3826131
-0.19876912 0.13873297 0.5307897 -0.08602145 -0.3742269 -0.18818447 0.14393774 0.036238573
0.023022968 -0.2739979 0.343769 0.5028907 -0.14083333 -0.2850167 0.39452362 -0.20078447
0.3183641 0.19159049 0.17418398 -0.36488825 -0.06658286 -0.20105274 -0.1571259 0.005180481
0.3833689 -0.2482055 0.017405597 -0.0035916835 0.23655051 0.23086151 -0.41082743 -0.27682567

bias f4 [32]
00000000: 3e2d ee3d 44f5 7b3d 4829 5c3d dd35 5a3c
00000010: b033 e73a d060 063c aa90 153d a96d 843d
00000020: 6238 e33c a78d 4d3d 9172 2fbd 1e7a 25bd
00000030: 8377 943d f871 e63d 4b69 673d fb00 db3d
00000040: a192 a43d f4ed 8e3d 30a4 853d d79c 113d
00000050: 3cbf 4d3d 1200 673b b024 7f3d 4137 f93d
00000060: 6709 573d 39ce a4bb 0d3a 033e a1fd 863d
00000070: e465 acbc e2e1 3b3c 7155 933c 9500 2f3e
0.11629723 0.0615132 0.053750306 0.013318506 0.0017639305 0.008201793 0.036514916 0.064662285
0.027736846 0.05018392 -0.04283387 -0.040399663 0.072493576 0.112522066 0.0564969 0.106935464
0.0803578 0.0697898 0.06525457 0.035549965 0.050231203 0.0035247845 0.062290847 0.12168742
0.0524992 -0.0050294665 0.12815113 0.065913446 -0.021044679 0.011467429 0.017985078 0.17090066

weight_ih_l0 f4 [96, 32]
00000000: 3461 233c 8ec8 3f3c 6293 b7bc c5f1 23bd
00000010: 53e7 fa3d 891c 743e 932d 993e 870a a93d
00000020: a30e cf3d ef6f 6f3e 35aa 1d3d be23 05be
00000030: 9229 be3d 2b53 443e cdf1 153e 3b54 443e
00000040: 09c9 103d 2947 423d 6a93 0abe e5cb eabd
00000050: 3c48 c8bd 94c0 fe3c f95c bc3d cebf d93d
00000060: 7faf 43bd 754e 59be 4dfe da3d a77d e3bd
00000070: 3100 39be d4d4 efbb 5893 033e 5f1d 383e
00000080: e7d1 243e 212c df3d 04a9 1f3e b0ab 8abc
00000090: ac91 04bc 404d bd3d 56de c7bd 0671 443e
000000a0: 9e95 86bc 9354 febc d0a3 0dbe cdcf 53bd
000000b0: df98 183d 7c6d 08be 555e 5c3e df12 b3be
000000c0: f34e 53bd 8d1f 4d3e 6253 9a3e 9af1 903d
000000d0: 269c aabd d58f 7a3e dc53 733e 8e22 593e
000000e0: 87fc cd3d 9367 bbbc a817 a53d 5576 773e
000000f0: f84b 823e efcf c43d 9380 5d3e d5bf 483e
00000100: 380f 22bd 7f0b 433e 5809 9ebc 6ec6 5d3e
00000110: c65d b2bc b030 263e 8095 293e e1f4 a3bd
00000120: 9c4c 77bd dd06 3cbd 6eca 2fbe 570d 9e3d
00000130: 0fef bbbd 6dde 073c e0d8 0fbe feb4 983d
00000140: 5b5d 13be 5e23 eb3d 3f25 c73d 1559 1bbe
00000150: e22f c2bd a374 58bd dd7d 67bb 4fe9 05be
00000160: 94a6 633d 8cbc 8d3d 8371 a5bd 33ee 8d3e
00000170: 6c2c 4abe fc33 c43d 32b8 863d e3e9 c6bd
00000180: 3ceb bc3c d433 f93c 5286 a63d f7b6 503d
00000190: b85c 53be f131 df3d 741e bcbb 343f 0ebe
000001a0: 0497 0fbe 9740 aebd f69a f6bd a856 913d
000001b0: 8aee 853d 6b10 273e 2bf6 2f3e 2474 983b
000001c0: 1ca4 6f3d 7a0c 03bd 6ade d9bb d8f1 a5bd
000001d0: 933d 203e 8eeb d53d 5785 033e 9115 3dbe
000001e0: 1260 c2bd 4916 2ebd cae8 f3bc 3214 6ebc
000001f0: 9576 a93d 02c8 253e c24e 8e3d e1ac 663e
00000200: 6ca0 b8bb 1492 65bd fe78 1abd b19b e8bd
00000210: f781 e1bd 0223 ed3d 1717 78be 35e0 bc3d
00000220: 42a6 3e3e ebc9 11bc 2152 073e 3f7f 08be
00000230: cfa6 d5bc 6d76 a43e f267 183e e494 85be
00000240: decb 4b3e 6725 4ebe d982 483d 3a85 563e
00000250: 4d16 f43b df82 a9bc 9ec7 ae3c 3131 163e
00000260: 9542 403c 63f7 4cbe 8e5b 7dbd 168a b43d
00000270: e1b7 80ba e78b 08be 41c8 f3bd fc41 933d
00000280: 52d3 4a3c 83d5 5bbd ee36 6abd cdff 81bd
00000290: a11d 6d3d da40 ddbc d581 c93d 2ef9 ee3d
000002a0: bc2c c9bd fedc 00be 1453 693c d7ee f0bc
000002b0: 78ed 50be dbc8 bb3d cafd ebbd 9c86 113e
000002c0: 5abf 96bd d7f8 17be bb81 d43d 8427 943d
000002d0: cef2 243e 2b5e 443e 6b45 253e 371a 1e3e
000002e0: 9d9c 1f3e e6ec 14be 5a08 10be 8216 8a3d
000002f0: 9b9a 5fbb 11b9 c6bc 783f 263e abdf 623e
00000300: 7fb4 a03e eb8a 583e f737 8f3c 208d 933e
00000310: 725a 23bd ee74 213e 3e6f 763e 62a0 433d
00000320: 3c05 813d 8c26 16be 49d0 5dbd bdca bcbd
00000330: cc50 f43c 7834 0d3c 1982 a5bc 0da8 f43c
00000340: f912 a13d 2fe8 993d 2ed3 133e c4ae 923e
00000350: c828 703e 47ba 1d3d 147b 09bd b02d e63d
00000360: 51d9 713d cbe6 29be eedc ca3c 6c45 9c3e
00000370: 71c5 c33c 024e 08be 8e02 2e3e 202b 923e
00000380: 84ad 29be 22ab 6d3d 3ea3 793e 0102 b5bd
00000390: b8e0 11be a054 b03c 8d21 d0bd f992 5d3e
000003a0: 226f ad3d 0a53 1b3e 2702 10be 64f9 0ebe
000003b0: 35f0 883e f26c 8c3e 3d0e e0bd e437 8dbd
000003c0: afa8 443e fc9e 24be 1772 b4bd d32b 1f3d
000003d0: db00 04be 2a74 0fbe 8ae6 a03e 08f9 adbd
000003e0: 3e29 8b3d 68ec 3abd 120f 003e 2a91 793d
000003f0: 2112 1dbd 68c4 8e3c 416f 2d3e d678 6ebd
0.0099719055 0.011705531 -0.022409145 -0.04002549 0.12251153 0.2383901 0.29917583 0.08253961
0.101102136 0.23382543 0.0384924 -0.13001916 0.09285273 0.19172351 0.14643021 0.19172756
0.035347972 0.047431145 -0.13532797 -0.11464671 -0.097794026 0.031097688 0.091974206 0.10632287
-0.047774788 -0.21221335 0.10693035 -0.11107951 -0.1806648 -0.0073190723 0.12849176 0.17979954
0.16095696 0.10897089 0.15591818 -0.01692757 -0.0080913715 0.0924325 -0.09759204 0.1918374
-0.016428765 -0.031046188 -0.13832021 -0.051711846 0.037255164 -0.13323015 0.2152036 -0.34975335
-0.051588964 0.20031567 0.3014174 0.07077332 -0.08330564 0.2446893 0.23762459 0.21204588
0.100579314 -0.022876536 0.08061153 0.24166234 0.25448585 0.09609973 0.21631078 0.19604428
-0.039565295 0.19047354 -0.019291565 0.21657726 -0.02177323 0.1622951 0.16560936 -0.08005691
-0.060375795 -0.045904983 -0.17167065 0.07717388 -0.09176456 0.0082927765 -0.14047575 0.074563965
-0.14391081 0.11481355 0.09723901 -0.15170701 -0.09481789 -0.05284561 -0.0035322823 -0.13077281
0.055578783 0.06920728 -0.08078291 0.27720794 -0.19743508 0.09580228 0.06578101 -0.09712579
0.023061387 0.030420221 0.08131088 0.05095574 -0.20640838 0.108981974 -0.005740935 -0.13891298
-0.14022452 -0.08508413 -0.12041275 0.070966065 0.06539638 0.16314857 0.1718375 0.004652517
0.058506116 -0.03199432 -0.0066488283 -0.08102769 0.15648489 0.10445319 0.12843834 -0.18465258
-0.0949098 -0.04250172 -0.029774088 -0.014531182 0.08274571 0.16189578 0.069486156 0.22526886
-0.005634358 -0.056047514 -0.037713043 -0.11357821 -0.11011117 0.11578943 -0.24227558 0.092224516
0.1861811 -0.008898239 0.13214923 -0.1332979 -0.026080517 0.32121602 0.14883402 -0.26090157
0.19901988 -0.20131455 0.04895291 0.2094926 0.0074489475 -0.020692287 0.02133542 0.14667203
0.011734624 -0.20016246 -0.06185489 0.088154 -0.0009820425 -0.13334619 -0.1190343 0.0719032
0.012379484 -0.053670418 -0.05718129 -0.06347618 0.057889584 -0.027008463 0.098392166 0.11668621
-0.098229855 -0.12584302 0.014240999 -0.029410763 -0.20403087 0.091691695 -0.11523016 0.14211506
-0.07360716 -0.14841019 0.103763066 0.072340995 0.16108248 0.19176547 0.16139762 0.15439688
0.15587087 -0.14543495 -0.14065686 0.06742574 -0.0034119252 -0.024258168 0.16235149 0.22155635
0.31387708 0.21146743 0.01748274 0.28818607 -0.039881177 0.15767261 0.24065873 0.047760375
0.062998265 -0.14663142 -0.054153714 -0.09218357 0.029823683 0.008618467 -0.020203637 0.02986529
0.07864947 0.07514989 0.14436027 0.2864896 0.23453057 0.038507726 -0.033564642 0.11239183
0.05904514 -0.16591947 0.02476355 0.30521715 0.023897858 -0.13311008 0.16993162 0.28548527
-0.16570097 0.058024533 0.24378678 -0.08838273 -0.1424588 0.021524727 -0.10162649 0.21638097
0.084684625 0.15168396 -0.14063321 -0.13962322 0.26745763 0.2742687 -0.10940216 -0.06895426
0.19204973 -0.16076273 -0.088108234 0.038860153 -0.12890951 -0.14009157 0.31425887 -0.084947646
0.06794976 -0.04563561 0.12505749 0.060929455 -0.038347367 0.017427638 0.16936971 -0.058220707

weight_hh_l0 f4 [96, 32]
00000000: 0729 f13d 8967 62be 9865 3abb fef2 4d3d
00000010: 6fd4 21bd 3b9a df3d aeec ec3c 467d ddbb
00000020: 6579 10bd eac9 f7bd 95b2 193c 66bc f2bd
00000030: f573 a53d 42a5 113e ab5f ad3d 2ad8 e7bd
00000040: 4c42 1bbe 1418 0b3c 074b 693e 341a d8bc
00000050: be7f 8bbd 330e 5d3e 7321 3f3d 3ab4 4bbe
00000060: 67e8 443d 93e7 80bd 4cf1 e33c 846b 7fbb
00000070: 21d2 083c 8eb4 083e 7cd3 15bd a1a7 afbd
00000080: 31cd 223e 20fe f83c e0db 703d 22ad 2ebe
00000090: 3934 813c 38ba efbd fa0c 14be aacd 86bc
000000a0: c800 d03d b2cd 893d 8d7c 29be f0e3 6e3d
000000b0: 2325 e83b 18b7 cebc f852 2d3e 18bc 893d
000000c0: bf95 86bd bbd5 143d 13db 7d3d 3299 0bbc
000000d0: 3f82 d1bd 98c7 f13c 73d6 183e e597 803c
000000e0: 0450 0bbe 4b22 1cbe c278 96bd d248 c13d
000000f0: 5bb7 453e b304 08be b529 713e 6cec bb3d
00000100: a0f8 6cbd 69fa e2bd 2b56 2cbe 320d 3e3d
00000110: 20ad 183e 8ec2 57bd 1712 493e 987d d13d
00000120: 08de 05be cb5b 0ebe f838 013e 9af0 9ebe
00000130: 85db be3d e8b3 253e 419a 75be cde7 dbbb
00000140: 3e9e 063d 043b f3bd 9fc0 72be c027 363d
00000150: 7e37 5e3e 16a2 693b 65a7 8dbe 381b c8bd
00000160: c88b f23c a4ae 22be de02 b6be 617c 31bd
00000170: 6f04 123d 7355 f23d 74de 1bbe d0c3 703d
00000180: 72e0 863d c89f 053e f515 8fbe 24f7 623d
00000190: e6f4 523c 6e9c 53be 32d5 ddbd 33e6 01be
000001a0: f9a5 123d 2af4 1bbe 7869 e1bd b2c4 8fbd
000001b0: 4303 333d 3aea 3fbd 50b2 c1bd b163 7bbc
000001c0: 719c 573e 45d8 febd 4805 073d e1be 29bd
000001d0: f1b6 09be b251 893c 90f0 cbbe 0efc 6dbe
000001e0: e040 a23d 3200 8dbd 0b59 8bbe ab99 863d
000001f0: 3f48 8cbd 7ff8 063e b84c 113d c9c5 173d
00000200: 80dd cd3d ef95 923d a085 1c3d 270b 9e3d
00000210: 4b99 e2bd 15cd a6bc bbff e0bd a2cc de3d
00000220: 80d0 d7bd 82d7 843d 1f1a 93be f3d5 703d
00000230: c69f de3d 7b93 6f3e cb24 213e d757 db3d
00000240: dccb 34be ed97 b3bd df52 883d 1c1a 09bd
00000250: b6ba 93bc 4586 a6bd 2b40 c13d c40f 8bbd
00000260: a868 823c 3aea 03be 71be 30ba c6b0 0cbe
00000270: e01f 093e d70e 1d3d 2258 d2bd 718f adbd
00000280: a952 863e d6d5 2ebe 7647 a43d 761e 0ebe
00000290: 6007 903b 12d9 11be 7374 203e 9fcd 783d
000002a0: 9be7 a5bd 243b 14bd b172 69bd 1efd 873d
000002b0: 6edf 133e 798a 473d 6dd7 033e 8fa4 98bd
000002c0: 246f 97bd 433f 423d e568 703e 90d1 363e
000002d0: 32f7 563e 9df6 e03d b257 303a fce9 64bd
000002e0: fc1f 28bc 37c6 16be 1e92 2cbe ccd3 a1bd
000002f0: 9e18 3e3c 8846 1bbe ef39 053e 1c03 b9bd
00000300: b8cc 3c3d 282d 433d dfa1 9bbd b532 0cbe
00000310: d649 8cbc bd88 7f3d c1ec 713e 02f6 99be
00000320: 37e2 34be a4fd 87be a602 b7bd 3d0d ffbc
00000330: 8a21 373c 1667 003d b3eb ba3c 05f9 09be
00000340: b526 cebd ed76 f13c f0b8 253d 1735 a7bc
00000350: b0ca 983d bfd5 92bd aa40 143d 153c 1cbe
00000360: 294a 6abd 7ae8 0abe b5eb 18be 740b 6bbd
00000370: a576 9b3e 5acb 86bd 32e1 453e df87 173e
00000380: 4f71 653e 9b89 4fbe 1da1 6dbe 67f1 80bc
00000390: 3dc8 7cbe 304a 153e 1ce9 293e 0330 80be
000003a0: 27bc 44bc 4d0b 41be 71bf 9dbe 8ce7 fe3c
000003b0: 2f90 fbbc 2a21 de3c dab3 c2bd 42be adbd
000003c0: a8a0 96bd c8c7 99bd 65a7 0f3e 11bd 933c
000003d0: 9f5b 673c aef4 323e a7f6 dd3d 33e0 9dbe
000003e0: 18cb 423e 94d8 e1bb 1939 dfbd 34af 6bbc
000003f0: fcb5 f9bc 30f1 af3d 81dc 09bd 107f dc3c
0.117754035 -0.22109808 -0.0028441902 0.050280564 -0.039509233 0.10918089 0.028921451 -0.0067593185
-0.03527202 -0.12099059 0.009380956 -0.118523404 0.08078758 0.14223197 0.08465513 -0.11320527
-0.15162009 0.008489627 0.22782527 -0.026379682 -0.06811474 0.21587448 0.04666276 -0.1989297
0.0480732 -0.06294169 0.02782502 -0.0038973996 0.00835088 0.13350126 -0.03657864 -0.085768946
0.15898587 0.030394614 0.05880344 -0.17058232 0.015771972 -0.1170544 -0.14458075 -0.01645549
0.10156399 0.067286864 -0.16551419 0.058322847 0.007084505 -0.02523379 0.16926181 0.06725329
-0.065715306 0.03633664 0.061976504 -0.008520411 -0.102299206 0.029514119 0.14925556 0.015697429
-0.13604742 -0.15247457 -0.073472515 0.094377175 0.19308226 -0.13283043 0.23551066 0.09175953
-0.057854295 -0.11082918 -0.16829745 0.046399303 0.14909792 -0.052675776 0.19635807 0.10229033
-0.1307298 -0.13902204 0.12619388 -0.3104294 0.09319214 0.1618191 -0.23984624 -0.0067109824
0.032865755 -0.11876491 -0.23706292 0.044471502 0.21700856 0.003564959 -0.27666774 -0.097708166
0.029607669 -0.15886933 -0.35549062 -0.043331508 0.03564876 0.118327044 -0.15221578 0.05878049
0.06585778 0.13049233 -0.2794644 0.055411473 0.012875771 -0.20665142 -0.108316794 -0.1268547
0.035802815 -0.1522986 -0.11006445 -0.070199385 0.043704282 -0.046854235 -0.094578385 -0.0153435925
0.21055771 -0.12443594 0.03296402 -0.041441802 -0.13448693 0.016762588 -0.39831972 -0.23240682
0.0792253 -0.06884803 -0.27216372 0.065722786 -0.06849717 0.13180731 0.035473555 0.037053857
0.100520134 0.07157504 0.038213372 0.07716971 -0.110643946 -0.020361463 -0.10986277 0.10878874
-0.10537815 0.06486417 -0.28730866 0.058797788 0.10870318 0.23396103 0.15736692 0.107101135
-0.17655891 -0.08769212 0.066564314 -0.033472165 -0.018033367 -0.08131079 0.09436067 -0.067901164
0.015919045 -0.12882319 -0.0006742245 -0.13739309 0.13391066 0.03834423 -0.10270716 -0.08474625
0.2623494 -0.1707376 0.080214426 -0.13878807 0.0043954104 -0.14242962 0.15669422 0.06074297
-0.08100816 -0.036189213 -0.056994144 0.06640075 0.144407 0.048716042 0.12875147 -0.07453262
-0.07394245 0.047423612 0.23477514 0.17853379 0.20992735 0.10984538 0.0006726935 -0.055887207
-0.010261532 -0.1472405 -0.16852614 -0.07901725 0.011602549 -0.15163624 0.13010381 -0.09033796
0.046093673 0.047650486 -0.07599234 -0.13691218 -0.017125051 0.062386263 0.2362547 -0.30070502
-0.17664419 -0.265607 -0.08936052 -0.031134242 0.01117743 0.03134831 0.022817468 -0.134739
-0.100659765 0.029475654 0.040459573 -0.020411057 0.074605346 -0.07169675 0.03619448 -0.15257294
-0.05719963 -0.13565245 -0.14933665 -0.05738397 0.30363956 -0.06581755 0.19324186 0.14797924
0.22406505 -0.20267336 -0.23205991 -0.01574011 -0.2468576 0.14579082 0.1659283 -0.2503663
-0.01200775 -0.18851967 -0.3081012 0.03111627 -0.0307084 0.027115423 -0.0950696 -0.084835544
-0.073548615 -0.075088084 0.140287 0.01803449 0.014120965 0.1747615 0.10838061 -0.30835113
0.19022787 -0.006892273 -0.108995624 -0.014385033 -0.030482285 0.08590925 -0.033657555 0.026916057

bias_ih_l0 f4 [96]
00000000: 5f22 233e d517 4ebd 5bf0 173e 47f6 1e3e
00000010: 2671 473d 8256 f2bd e6aa 283e abf9 973d
00000020: 04eb 6ebc df1e 1d3e 0f2d b1bd 8f6d f73d
00000030: 5990 543d aabf de39 a317 f53c 193c 263e
00000040: 64c0 f23d 6d95 663e c501 4f3e 73db 7f3e
00000050: bedb 143c 72f3 76bc 69a9 86bd 87f2 3b3e
00000060: a689 853c a804 06be 0e39 993d 8513 963c
00000070: 15b6 f7bc b7ad 7f3d 147b 0fbd e032 74be
00000080: 1e05 bbbe c9de f5bd 4537 7dbe 2cda 4b3c
00000090: d395 d23b ace0 76be e25f 5abe 4a01 553d
000000a0: 8f12 e3bb 76a4 13be ff0b 0b3e b958 29be
000000b0: 9bb3 9a3d 51da 34be 3544 57be f3bb cbbe
000000c0: 3325 f0be 3c1b b7bb 13dd 63be 32d0 82be
000000d0: e4b5 dbbe f297 1cbe 9a90 e3be b4ca e33d
000000e0: 6660 57be e8d4 eabe b22c 0bbf ae23 a33d
000000f0: 2fc1 b7bd c9d1 99bd 154f 5a3e c0cf 1bbe
00000100: 6534 403e 1137 27be ffdc 1d3e 4562 a03d
00000110: 485c eebd 3bfa 613e 4403 263e 04af 07bd
00000120: b49d 333e 1512 343e f7af 87bd 0e37 14be
00000130: b60d 0fbc 8f08 203c 6a36 05be 3ece 0dbe
00000140: 986c 50be 377b 5fbe fc9c 013d afdd bcbc
00000150: 4133 ee3d 59b7 c8bc 1722 343e c201 3a3e
00000160: f1fd 9e3c c56c 1dbc 5ffd d63c 0b1e 61bd
00000170: c15c 933d fd48 0d3e a10d 56bd 0e3f d63d
0.1593108 -0.050315697 0.14837782 0.15523635 0.04869189 -0.11832906 0.16471443 0.07420667
-0.014582399 0.15343808 -0.08651172 0.120814435 0.051895473 0.0004248594 0.029918497 0.16233863
0.11853102 0.22517939 0.20215519 0.24986057 0.009085594 -0.01507269 -0.06575281 0.18354236
0.016300987 -0.13087714 0.074815854 0.018319855 -0.03023819 0.062421527 -0.035029486 -0.23847532
-0.36527342 -0.120053835 -0.24728115 0.012442153 0.006426552 -0.24109143 -0.21325639 0.052003182
-0.0069297026 -0.14418206 0.13578795 -0.16537751 0.07553788 -0.17661406 -0.21022113 -0.3979183
-0.4690338 -0.0055879634 -0.22252302 -0.25549465 -0.4291221 -0.15292338 -0.4444626 0.11122647
-0.21032867 -0.4586556 -0.54365075 0.0796579 -0.08972394 -0.075107165 0.2131923 -0.15215969
0.18769987 -0.163296 0.15416335 0.078312434 -0.11638695 0.22068112 0.16212183 -0.033125892
0.17540628 0.17585023 -0.066253595 -0.14474127 -0.008731296 0.0097676655 -0.13009039 -0.13848206
-0.20353925 -0.21824346 0.031643853 -0.023054926 0.1163087 -0.02450149 0.17591129 0.18164733
0.019408198 -0.009608452 0.026243864 -0.05496029 0.07195426 0.13797374 -0.05225909 0.104612455

bias_hh_l0 f4 [96]
00000000: 79bb 013e 8d34 f83d 3f03 3fbd 4e10 25be
00000010: 477e b83c 538c 743d fdcb 713e 6888 1ebd
00000020: 6c7d ff3d f805 a8bd 94f7 c2bd fe87 303e
00000030: 0945 1a3e 7a3a 453e 21fb 573c 1430 37bd
00000040: 5da1 e2bd b36a 24bd 8fb1 973d 2a17 723d
00000050: 4f6b 053e 6f4a 7fbd 3d29 90bd 0783 b03d
00000060: 1da4 613e 724a 22be dd65 4abd ea57 11be
00000070: a661 2dbe b318 cfbd b05d 4d3e e549 6dbc
00000080: 871f e7be 498a 49be 7f1e c0be 47f8 133e
00000090: 3deb 2a3e ba19 6ebe 1a6b 85bd 7a92 9c3d
000000a0: 8105 66bd eb81 2bbe fe90 0fbe 0f2f 89be
000000b0: 8501 e13d eede 863d 99f2 93be 336b c4be
000000c0: e060 00bf aa48 d6bb a825 64be 8256 f7be
000000d0: 89ab 0cbe cc85 babe e713 c4be 2c09 27be
000000e0: 4b01 0dbe 8dca 57be 4641 cabe e644 983c
000000f0: 4643 1b3d d99b fdbd a292 9b3d 1cc9 bbbe
00000100: 28c6 c4bd b3b3 dcbd d97d 85bd 2205 d2bd
00000110: 0553 293e 92f1 2bbd 3189 4c3c b1eb d3bd
00000120: 8d0e 493d f8ec 933d 0d84 0cbe e121 5d3d
00000130: 4917 df3d c466 af3d f555 eb3d fee0 35be
00000140: b645 14be 5cb7 6dbd 766b 8bbc d9a8 eabd
00000150: 4a5e 233e 18eb 613d 31aa 0c3e 6cdb 363d
00000160: b36c cd3d 7f4d 7ebd d154 70bc 95f6 ea3d
00000170: 7f06 94bb 9a8e 8f3d 243c a0bd d5f1 983b
0.12669171 0.12119398 -0.046633955 -0.16119501 0.022521151 0.059704136 0.23612972 -0.038704306
0.12475094 -0.082042634 -0.09519878 0.17239377 0.15065397 0.19260588 0.013182432 -0.044723585
-0.11065934 -0.04014082 0.074069135 0.059104122 0.13029216 -0.062326845 -0.070391156 0.086187415
0.2203526 -0.15848711 -0.04941355 -0.14193693 -0.16931781 -0.10112133 0.2005527 -0.01448295
-0.4514124 -0.19681658 -0.37523267 0.14450179 0.16691299 -0.23252001 -0.065145686 0.07645126
-0.056157593 -0.16748779 -0.14020154 -0.26793715 0.10986618 0.06585489 -0.28896025 -0.38363037
-0.5014782 -0.006539424 -0.2227999 -0.48308188 -0.1373731 -0.36430204 -0.38296434 -0.16312093
-0.13770024 -0.2107336 -0.39502925 0.01858754 0.037905954 -0.12383241 0.07596327 -0.36676872
-0.09608108 -0.107764624 -0.06518144 -0.10254885 0.16535576 -0.041978426 0.012483881 -0.10347689
0.049086142 0.072229326 -0.13722248 0.053987388 0.10893113 0.08564523 0.114910044 -0.17761609
-0.14479718 -0.058036193 -0.017019015 -0.114579864 0.15953937 0.055155843 0.13736798 0.04464285
0.10030498 -0.062085625 -0.014668659 0.11472813 -0.004517376 0.07009621 -0.07823971 0.0046675005

weight f4 [32, 32]
00000000: 563a 01be d4ee b43e 6848 af3d a905 503e
00000010: 4314 52be 3001 7c3e 9f72 adbe ab5f 00bf
00000020: 3029 16be ec6a f7be 83d4 2abd 326c 7abe
00000030: 4cb7 bebe ded0 93be b5d4 f53e 5a4b 353e
00000040: a062 7e3e acab 7cbe 12fe cd3e 97cf 75be
00000050: 2b12 8fbd 9925 013f 52a8 5dbe 70ba eebe
00000060: 8326 2d3d b48d 993e c32a 4d3e eac9 c83d
00000070: a1cb 933d 3cc4 e13e 89a0 f43e 2c99 cb3b
00000080: dc73 56bc 36b1 74bc 5ca3 f1bd c9d6 ba3e
00000090: e3ca a13d 5d12 4c3e ac51 c43e 013c a3be
000000a0: ab7e 503e b628 e83e 3525 ed3d 31d2 2ebe
000000b0: c9ad acbe 898a 2ebd 7505 46be aa14 82bc
000000c0: 9ab2 f0be 4d82 9a3e 4626 0d3d 3f8d b6bc
000000d0: 53ba e83e b0e6 88bd 41f2 b2be 51dd 7c3e
000000e0: 6c41 a93d 4151 e2be 240d 0fbf 24c1 453e
000000f0: 3a23 ad3e 6729 25be 5b41 18be fe66 6e3e
00000100: 9b06 623e 9fbf 9e3e 0aff 0cbf eb26 9bbe
00000110: fa38 aabe f0a6 ef3d 3cd1 d13e 340e 90bc
00000120: 325a 4bbe 04bf 94be a7af 9ebe 9bd0 a5be
00000130: 26c3 473e bab9 bdbd 26ca b5be ac5c 9c3e
00000140: 40be 8b3e cdd8 913e 3dcd 04be b4d9 563e
00000150: 5801 f6be 6bc7 f73e 870c 0fbf 60a8 cebe
00000160: 9930 e93d 83b7 8dbe ca58 cdbe 0a54 2e3e
00000170: 0e0a a23e cd27 9c3e 4877 e13e 8a4a 9bbe
00000180: c08f 28bf d80c 0cbe 2f6f 323e 1c6a bb3d
00000190: 5447 193e 57e2 2bbd c0a1 0bbd 40ed 1dbe
000001a0: b4ea 2cbf 73ee 843e f1fe 873e 8325 e33e
000001b0: 8fc5 42be 4063 003e b208 f8be a151 30be
000001c0: bb7d 94be f0eb a33e 177e 14be df34 14bf
000001d0: 2c78 79be 2133 7abe f7cc d83c 846f 2c3f
000001e0: 6084 bf3c 2b0f 253e e49b 2b3e c1f8 14be
000001f0: 3d21 3ebf 6ff9 5d3e c07e 4c3e 796f 713d
00000200: a186 bf3d e8ca 7dbe c9ab a5bd eefe 563d
00000210: 013a 163e fe6d 813d b4b3 053e 65c9 9f3e
00000220: 5d68 e4ba 79e6 863c 68b5 cf3e ea76 16be
00000230: 60fb 82be 0577 79be 8ee2 e23e d57d e7be
00000240: 987b c8be d724 88be b2e9 023f db85 9bbe
00000250: aed4 9abe d471 08be a1e9 353e f345 a43e
00000260: 6ae8 763e fe02 d2be 2c8b 483e 506c 87be
00000270: 0dd7 22be 73b8 033f ae58 bebe 03f2 5ebe
00000280: 3e73 da3e d370 f03d c937 d4be 12ec 9cbe
00000290: 66c3 ccbd 90e0 0e3f 3eca de3d 417b 4e3d
000002a0: 2e13 553e b559 f83e 2c7d 51bc 683e e1be
000002b0: d78b ba3e b542 f3be 37a2 e63e c01b 233e
000002c0: d4f6 513e f5a7 843e 3ed7 14be afd3 87be
000002d0: a596 c23e 3c2c d13e 934c 8cbd a149 84bc
000002e0: ac6d a2bd 6882 8fbe 1f77 c9be 2c98 fd3c
000002f0: 389c 39bd aada 3cbe 3355 d4be 917f c73e
00000300: 2b89 debc e172 00bf 717a b3be 0e67 d0be
00000310: 92df 863e 48ec 8e3e 5d11 463e 4fd8 cfbe
00000320: b368 62bd e7c9 953e c2c7 16be c04d 023f
00000330: 4e5f 21be 7732 ca3e fce6 bf3e f223 55be
00000340: 7f0f f5bd ade7 ba3e a563 1dbe 1751 6abe
00000350: 23b5 02bf be20 19be 361b edbe 1daa 793d
00000360: 0664 91be 1d22 55be 43b6 5ebd fbbb 75be
00000370: 2d84 523e 7f21 0d3f 7a5e 953e 7da9 bc3e
00000380: a753 403e 7e7d 42be c9cc 413b 8e9a 9c3e
00000390: 24ba 823d 6a28 02bf 73be 9dbc 4f88 173e
000003a0: fc6f 153e 0ce9 15be dcbf b1be 7af7 b1be
000003b0: 4ccf e73e 64fa 673e c33a f9ba 21c2 93be
000003c0: f86e c23d 6ecf ea3d 078d dabd e97d 7c3e
000003d0: 4dc4 a5be 2c12 383e 98e0 86be 3595 b73d
000003e0: 73c7 a03d 747d d6be 3250 89be b938 a73e
000003f0: ca00 b33e 4db0 013f 67ea 063e 958a 58bd
-0.1261991 0.3533846 0.08558732 0.20314659 -0.20515542 0.24609828 -0.3387651 -0.5014598
-0.1466415 -0.48323762 -0.041706573 -0.24455336 -0.3724922 -0.2887029 0.48013845 0.17704526
0.2484231 -0.24674863 0.40232903 -0.2400497 -0.06985887 0.50447994 -0.2164624 -0.46626616
0.042273056 0.29990923 0.20035844 0.09804137 0.072165735 0.44095027 0.4777873 0.006213328
-0.013089146 -0.0149348285 -0.117987365 0.36491993 0.07900026 0.1992888 0.3834356 -0.31881717
0.2036082 0.4534356 0.11579362 -0.17072369 -0.33726338 -0.042612586 -0.19338019 -0.015878994
-0.47011262 0.30177537 0.03446033 -0.022284148 0.45454654 -0.06684625 -0.3495045 0.246938
0.08264431 -0.44202617 -0.55879426 0.19311959 0.33815938 -0.16129075 -0.14868681 0.23281476
0.22072832 0.3100557 -0.5507666 -0.3030313 -0.33246595 0.11701763 0.40979946 -0.017584898
-0.19858626 -0.29051983 -0.30993387 -0.32385716 0.19508037 -0.0926394 -0.3550579 0.30539453
0.27293587 0.28485718 -0.12968917 0.20981485 -0.480479 0.4839433 -0.5587849 -0.40362835
0.113862224 -0.2767907 -0.40106803 0.17024246 0.31648296 0.30499116 0.44036317 -0.30330306
-0.65844345 -0.13676775 0.17425226 0.09151098 0.14968616 -0.0419639 -0.034089804 -0.15422535
-0.6754563 0.25963172 0.26561692 0.44364557 -0.19020675 0.12537861 -0.48444134 -0.17218639
-0.29002175 0.32015944 -0.14501224 -0.57893175 -0.24362248 -0.24433567 0.026464922 0.6735766
0.023378551 0.16119067 0.16758686 -0.14548017 -0.7426947 0.21677183 0.19970226 0.0589442
0.0935185 -0.24784434 -0.08089406 0.052489214 0.14670564 0.063198075 0.13056833 0.3120834
-0.0017426122 0.01646732 0.4056809 -0.146938 -0.2558241 -0.24361809 0.44313473 -0.4521319
-0.39156795 -0.26590607 0.5113784 -0.3037556 -0.30240387 -0.13324672 0.17764904 0.32084617
0.24112096 -0.41017908 0.1958434 -0.26449823 -0.15902348 0.5145332 -0.37177032 -0.21772008
0.42666048 0.117402695 -0.4144881 -0.30648857 -0.09998207 0.55811405 0.108784184 0.050410513
0.20808098 0.4850594 -0.012786191 -0.43992925 0.36434814 -0.4751183 0.45045635 0.15928555
0.20504314 0.2590939 -0.14535233 -0.2652869 0.38005558 0.4085406 -0.06850543 -0.01614839
-0.079310745 -0.2802918 -0.39348695 0.03095635 -0.045314997 -0.18442789 -0.41471252 0.38964513
-0.027165016 -0.5017529 -0.35054353 -0.40703624 0.26342446 0.27914643 0.19342561 -0.40594718
-0.05527563 0.29255602 -0.14724639 0.5089989 -0.15759012 0.39491627 0.37480915 -0.20814493
-0.11965846 0.3650488 -0.15370043 -0.22882496 -0.5105764 -0.14953896 -0.46309823 0.06095325
-0.28396624 -0.20813794 -0.054373037 -0.2399749 0.20558234 0.55129236 0.29173642 0.3684806
0.18781911 -0.18993184 0.0029571524 0.30586666 0.0638316 -0.50842917 -0.019255852 0.14798091
0.145935 -0.14639682 -0.3471669 -0.34759122 0.45275342 0.2265411 -0.0019014705 -0.28859046
0.09493822 0.11465345 -0.1067143 0.24657406 -0.32376328 0.17975682 -0.26343226 0.08964006
0.07850542 -0.41892588 -0.26818997 0.32660463 0.3496154 0.5065964 0.13175355 -0.052866537

bias f4 [32]
00000000: 70c3 f63c 9574 ac3d 5206 203d 6511 983b
00000010: e121 af3d 1160 1f3d a16d 8a3d f58a a8bc
00000020: 5413 aa3d 2260 783d af59 023d 2089 25bb
00000030: 5ac5 f53c 8e3f cdba 32cd d33d cf70 7f3d
00000040: 9904 203e 11a4 263d 2067 a53d 0919 533c
00000050: 345a 913d a45c f23d a15c a13d 0f20 423d
00000060: 3a2e 063e 7510 8c3d d697 853d b228 20ba
00000070: 2a57 483b e31f f23d 6b37 dc3d 9108 38bd
0.030122489 0.08420674 0.039068528 0.0046407455 0.08551384 0.038909975 0.06759191 -0.020574072
0.08304468 0.060638554 0.03182381 -0.0025258735 0.030001331 -0.00156592 0.10341872 0.062363442
0.15626754 0.04068381 0.0807631 0.012884387 0.07097283 0.11834076 0.07878996 0.047393855
0.13103572 0.068390764 0.06523101 -0.00061095797 0.0030569532 0.11822488 0.10752758 -0.044930045

weight f4 [15, 32]
00000000: a436 983e aba3 7f3d 0837 aebe 32c9 8f3e
00000010: 65d0 be3c f720 c3be 55cf f4bc 7cf1 6a3d
00000020: 18fb fabe eebd b7be 6d48 e83d 864a 91be
00000030: c709 0abe de7b 183e f6fd 84bd e9ec 75be
00000040: f069 c6bc 5fc6 583e eba9 103e b22f e83d
00000050: e047 89bd 9f2d 2ebb 223e 0a3e a1af 82be
00000060: 471a 29be 745d 4a3e a242 ebbd 9b68 0cbd
00000070: 3f59 0dbe 394f e3be 57dd 3abd 1c61 803e
00000080: 924e 82be 0746 de3e e579 463d 58ce fbbe
00000090: 01ba ee3e 4812 a13e 7b14 a73e 33cd ad3d
000000a0: 6035 a9bd c00a 013f 36cf b73e 1c23 3e3d
000000b0: ba93 08be 64dd ffbe d9df 133c ad80 c8bd
000000c0: fbc6 d13e 1582 b73e 15c3 14bf 30d9 87be
000000d0: 9e34 24be 8a6c d63e 6571 4c3e 51b4 323e
000000e0: 9407 d63e 5cfb 993e 175a c03e e512 0c3e
000000f0: 6ce3 363e 709f 89bd a346 0abe 4c93 f43d
00000100: 89f7 c9be af5a 7a3e b7b6 ecbc a2bd 50be
00000110: e08a 01be 14de 4c3c 3af6 153e af56 db3d
00000120: e4e3 b03e 8b1e 21be 22bc d9be ef6a 3fbe
00000130: 6d65 9bbe b8c0 4bbe 5cfc a6bc 0ecc 6e3e
00000140: 7ab0 623e b14f 71be c871 753e e83b b83d
00000150: da19 893e 858e 643e 7054 9e3e c075 fb3d
00000160: 5b91 6a3e 0a2e 8fbe 3b98 65bd 6ed2 0ebe
00000170: bd4b 343d 0418 cc3e a5aa 58bc e99b e7be
00000180: cfaa 133e 1d6a 19be 13ef b0be e874 f3bc
00000190: 72f3 173e c91a 05be e250 2d3e 9993 4f3e
000001a0: 016d 35bd 6cd6 92bd de4f 03be b08e a8be
000001b0: 1306 4a3e ffc2 0abd 43b5 e53d 841e 323e
000001c0: 2866 dc3d 1ec5 56be c2f5 8a3b 0f49 943e
000001d0: 2d0a d73d 204f 3ebd 934f 8cbe 5998 2fbe
000001e0: 1b17 9bbd 2984 e13d 2877 d0be 27b2 54be
000001f0: 98a8 c23d 6af4 303e 100b 92be 2553 97bc
00000200: a743 62be 4b18 0f3d 5c3b a5be 54de f43e
00000210: 15cc e0be fda8 343e fbb1 0dbf 4ade 1f3e
00000220: 512a 773e 19cc 4cbe 5224 623d a814 313e
00000230: c01d 613b eb70 84bd 3789 9fbe 3a41 86be
00000240: 3bef 14bf 4b18 13be 0080 a9be be5b f5be
00000250: fb22 3abe 677d 35be d210 5dbe f1b7 f03c
00000260: 1e7d 933e 8cdd 75bd 8c7f 513a d221 47bd
00000270: d09f 74bc 72e1 7bbd 7c75 013e c7c7 0abe
00000280: e595 403e bd22 b3be 6487 3abe 9d77 813c
00000290: ea85 133c c790 83be 372d 5bbe 9977 dcbe
000002a0: 0079 04bf ba30 06bf 23e0 3bbe b927 2ebd
000002b0: 1f1d d6bd 2f70 3f3e bc12 0abf edbf 1ebf
000002c0: 765d d1be 8be1 74bc a7da 1dbe cd7d f4be
000002d0: 32aa f5bd f96a 033d 05ce 07be 3999 07bf
000002e0: feb2 033f 9472 e4bd 02e1 fbbe 51ca dbbc
000002f0: b70f 163d 46d4 e1be e3cf c53e 8e72 653e
00000300: 3374 28be 7d33 21bd 4ed8 a5be 7752 44be
00000310: d05c c7bd 3273 28be 7ae4 72be fe0a 0e3d
00000320: 2a46 c1be 764e b5bd c0b6 2bbe 3c2d 7bbe
00000330: bc99 e8bd 2cf5 a2be 646b 1bbd fba6 68be
00000340: 2cf8 70be 5f3c a63d 5a23 e5be 4973 debd
00000350: a942 8abe 1429 abbe ef87 f5bc 4f92 193e
00000360: b01b 233e d2a8 5c3e 2518 2b3c fcae 3bbe
00000370: 3461 943e 33fa 79be 02b6 f23d 6641 8c3e
00000380: 2ed4 5b3e 846f bdbc 0dfc 873e d1cc 86be
00000390: 7c93 44be 0257 06be 6f86 a93e a2c9 e73e
000003a0: fb6c 66bd 7a7b 7b3e aaab bfbe ac12 7cbe
000003b0: b540 fa3e 4693 acbe 4378 59be db89 1a3e
000003c0: d25d 603d a462 7fbe 52a6 dcbe d864 e1bb
000003d0: b1a0 b03e 415b 8a3e 2b8d ebbe 1337 993e
000003e0: 7216 d1be 2609 7b3e efee 363d 137c 59be
000003f0: c30a ca3e 0b28 293e 235e 22be ec8f acbe
0.29729187 0.062411945 -0.3402636 0.28083187 0.02329273 -0.38111088 -0.02988402 0.057359204
-0.49019694 -0.35887092 0.11341939 -0.2837717 -0.13480292 0.14891002 -0.06493752 -0.24016155
-0.024220437 0.21169423 0.14127319 0.11337222 -0.06703162 -0.0026577485 0.13500264 -0.2552462
-0.1651393 0.19762212 -0.114873186 -0.034279447 -0.13803576 -0.4439638 -0.045621242 0.2507409
-0.2545057 0.43412802 0.04845609 -0.49180865 0.46626285 0.3145926 0.32632813 0.08486404
-0.082621336 0.5040703 0.35900277 0.0464202 -0.13337603 -0.49973595 0.009025537 -0.09790168
0.40972123 0.35841432 -0.5811017 -0.26532888 -0.16035697 0.41879684 0.19965132 0.17451598
0.41802657 0.30074584 0.37568733 0.13679083 0.17860192 -0.067198634 -0.13503508 0.11942157
-0.39446667 0.24448656 -0.028895719 -0.20384839 -0.12650633 0.012504119 0.14644709 0.10709893
0.34548867 -0.15734307 -0.42526346 -0.18693136 -0.3035082 -0.19897735 -0.020384006 0.23320028
0.22137633 -0.23565556 0.23969185 0.08995801 0.26777536 0.22319992 0.30923796 0.122783184
0.22907011 -0.27964813 -0.05605338 -0.1394746 0.044017542 0.39862072 -0.013224279 -0.45236138
0.14420627 -0.14981885 -0.345574 -0.029718831 0.14838961 -0.12998499 0.16925386 0.20271148
-0.044293407 -0.07169804 -0.12823436 -0.32921362 0.1972888 -0.03387737 0.112162136 0.17394453
0.10761672 -0.20973632 0.0042407224 0.2896199 0.10499988 -0.04646218 -0.2740446 -0.1714796
-0.075727664 0.11011536 -0.4071591 -0.20771085 0.09504813 0.17280737 -0.28524065 -0.018472264
-0.2209612 0.034935277 -0.3227185 0.47825873 -0.43905702 0.17642589 -0.553497 0.1561214
0.24137236 -0.19999732 0.05521042 0.17293036 0.0034350008 -0.0646685 -0.31159374 -0.2622164
-0.58177537 -0.14364736 -0.3310547 -0.47921556 -0.18177406 -0.17723618 -0.21588448 0.029384585
0.28806394 -0.060025737 0.0007991723 -0.048616238 -0.01493068 -0.0614943 0.12642473 -0.13552772
0.1880718 -0.3498744 -0.1821571 0.015804106 0.009004096 -0.25696394 -0.21403967 -0.43059996
-0.5174713 -0.524181 -0.1834722 -0.04251835 -0.10454773 0.18695138 -0.53934836 -0.62011606
-0.40891618 -0.014946352 -0.1541544 -0.47752228 -0.11995353 0.03208444 -0.13262184 -0.52968174
0.51444995 -0.111546665 -0.49195105 -0.02682987 0.03663608 -0.44107264 0.38635167 0.2240698
-0.16450576 -0.039355744 -0.3239159 -0.19172083 -0.097344995 -0.16450194 -0.2371997 0.03467845
-0.37748843 -0.08852856 -0.16768932 -0.24528974 -0.113574475 -0.31827676 -0.037944213 -0.22719948
-0.2353217 0.081169836 -0.44753534 -0.10861833 -0.27003983 -0.33429778 -0.029972045 0.14997219
0.1592853 0.21548775 0.010442768 -0.1832847 0.2898041 -0.2441185 0.118511215 0.27393645
0.21467659 -0.023124464 0.26559487 -0.26328138 -0.19196886 -0.13119128 0.33110377 0.4527102
-0.056256276 0.24558821 -0.37435657 -0.24616498 0.48877493 -0.3370611 -0.21237282 0.1509165
0.054776974 -0.24939972 -0.43095642 -0.0068784766 0.34497598 0.27022746 -0.4600614 0.2992483
-0.40837437 0.24515209 0.04466146 -0.21238737 0.39461336 0.16519181 -0.15856223 -0.33703554

bias f4 [15]
00000000: 4fae c7bd c702 cf3d c4a8 d93d 4690 4b3b
00000010: 4ae4 76be eb8b 92be bf19 e0bd f003 4e3c
00000020: 2e6d 31be 88da be3d a01a 2f3d 9ba8 b4bd
00000030: 858f 9bbd 1e7b 07be c8f1 babd
-0.097500436 0.101079516 0.106278926 0.0031061335 -0.24110523 -0.28622374 -0.10942411 0.012574181
-0.17326805 0.09319025 0.04275 -0.088212214 -0.075957336 -0.13230559 -0.09128147
