visualization/policy_nns/Overcooked/mapC/agent_1.pt (torch, 44481 bytes, 12 tensors)

weight f4 [32, 32]
0	0x3e19bc08	0.15013134
1	0xbca05121	-0.019569935
2	0x3eb17cd9	0.34665564
3	0xbec26bc2	-0.37972838
4	0xbef80dcc	-0.48448026
5	0xbd9d00a2	-0.07666136
6	0x3e8809e2	0.2657004
7	0x3e85a09d	0.260991
8	0xbdee9416	-0.11649339
9	0x3e707dbc	0.23485464
10	0x3ea6fe84	0.32616055
11	0x3df9cb53	0.12196984
12	0x3ef41450	0.47671747
13	0x3eaea994	0.34113753
14	0xbe9519b3	-0.2912117
15	0xbce9cdc3	-0.028540498
16	0xbe83c455	-0.25735727
17	0x3ed7b731	0.4213195
18	0xbd353247	-0.0442374
19	0x3edda38e	0.43288845
20	0xbd4d18da	-0.05007253
21	0xbd84b439	-0.06479687
22	0x3e45a2de	0.1930041
23	0x3e0ca06a	0.13733068
24	0x3d993074	0.07479945
25	0x3ca7a859	0.020466017
26	0xbe89a5a2	-0.2688418
27	0xbe97046f	-0.2949557
28	0x3e8a2d07	0.26987478
29	0x3e37bda5	0.17943437
30	0x3e73679c	0.23769993
31	0xbeceef46	-0.40416926
32	0xbe667149	-0.22504152
33	0x3ea3fa22	0.32026774
34	0xbeddd04f	-0.4332299
35	0x3e4c22af	0.19935106
36	0x3dcaccd7	0.09902351
37	0xbe7fb28d	-0.24970455
38	0x3c9da537	0.01924382
39	0x3e845d98	0.25852656
40	0x3ef54432	0.4790359
41	0x3e7a6756	0.24453482
42	0xbea06567	-0.31327364
43	0x3e92cbfd	0.28671256
44	0xbec769c1	-0.3894787
45	0xbe6a1a1a	-0.2286152
46	0x3ed938b7	0.42426082
47	0x3f129267	0.5725464
48	0xbd8409b8	-0.06447166
49	0x3e2cd56e	0.16878292
50	0xbdc13da9	-0.09435589
51	0x3e9e04cd	0.30863038
52	0x3e022bdb	0.12712042
53	0xbe4bc457	-0.19899116
54	0xbea7680d	-0.32696572
55	0x3eabfaf3	0.33589897
56	0x3e8b55b7	0.27213833
57	0x3e8ff06d	0.28113118
58	0xbe12544a	-0.14289966
59	0xbea9ddaa	-0.3317693
60	0xbe9c6ce3	-0.30551824
61	0x3e60a3d8	0.21937501
62	0x3ed62b9f	0.41830155
63	0xbea11fc7	-0.31469557
64	0xbe9fe3d4	-0.31228507
65	0x3e3d77ad	0.18502684
66	0xbe732c49	-0.23747362
67	0x3decb0df	0.11557173
68	0x3c559136	0.013035109
69	0xbda44934	-0.08021775
70	0xbd74a27c	-0.05972527
71	0x3e6735af	0.22579072
72	0xbe9f91cc	-0.31165922
73	0xbe57fab6	-0.21091732
74	0xbe4ebe7d	-0.20189853
75	0x3e113144	0.1417895
76	0xbe64637b	-0.22303574
77	0xbe24e66d	-0.16103525
78	0x3e304a47	0.17215835
79	0x3bac57d0	0.0052594915
80	0x3e95bdec	0.2924646
81	0x3f01e567	0.50740665
82	0xbd854426	-0.06507139
83	0xbe91e8a5	-0.28497806
84	0x3da80031	0.082031615
85	0xbe96ed22	-0.29477793
86	0x3edca4d1	0.43094495
87	0xbe991852	-0.29901367
88	0xbeb39623	-0.35075483
89	0x3ecae717	0.39629433
90	0x3de48a28	0.11159164
91	0xbe9cc171	-0.30616334
92	0xbdc58582	-0.09644605
93	0x3eb637d8	0.3558948
94	0x3ec86b1b	0.39144215
95	0xbe98c8fa	-0.29840833
96	0xbe9944d6	-0.2993533
97	0xbe0fdd7e	-0.14049336
98	0xbded796a	-0.115954235
99	0x3dd7f3be	0.10544537
100	0xbe7b9c39	-0.24571313
101	0x3ee8de77	0.45482227
102	0xbe474dd1	-0.19463278
103	0xbeb3d6e3	-0.35124883
104	0x3ec9f184	0.39442074
105	0xbda18e8d	-0.078885175
106	0xbee1cd1b	-0.44101796
107	0x3ddc4b34	0.10756531
108	0x3e3235ce	0.17403337
109	0x3d8b8e13	0.06814208
110	0x3ec49aa1	0.38399222
111	0xbe7203f7	-0.23634325
112	0xbed59da2	-0.41721827
113	0xbe6ca7ab	-0.23110835
114	0x3eda9d25	0.42698017
115	0x3e009e14	0.12560302
116	0x3ea33b34	0.31881106
117	0xbc331912	-0.01093127
118	0x3e27525d	0.16340013
119	0x3eac0849	0.3360007
120	0x3d34b75d	0.04412018
121	0xbeb4807f	-0.35254285
122	0x3dcaecf8	0.099084795
123	0x3e1409c9	0.14456858
124	0x3ea18821	0.3154917
125	0x3e22b20f	0.15888236
126	0xbbcd1fdb	-0.006259901
127	0x3eb9e9fd	0.3631133
128	0xbe282f5f	-0.1642432
129	0xbe980da8	-0.2969792
130	0xbe364fa3	-0.17803816
131	0xbec8b10e	-0.39197582
132	0xbd8b2e01	-0.06795884
133	0xbe8a7dd9	-0.2704914
134	0x3c38662e	0.01125483
135	0x3dc9c40b	0.09851845
136	0xbda35d6a	-0.07976802
137	0x3d9ea0e0	0.07745528
138	0xbee020d6	-0.43775052
139	0xbe99be28	-0.3002789
140	0x3e40b9d7	0.18820892
141	0x3e86e81b	0.26348957
142	0xbea4b25d	-0.3216733
143	0xbdcf669d	-0.10126994
144	0xbe6165c1	-0.22011472
145	0xbeec31c0	-0.46131706
146	0x3e023dde	0.12718913
147	0xbd9bf830	-0.076156974
148	0x3e55c938	0.2087754
149	0x3dde5343	0.10855725
150	0xbcdeb556	-0.027186077
151	0x3e47951b	0.19490473
152	0xbc3da313	-0.011574524
153	0xbdb97d97	-0.090571575
154	0x3e741eca	0.2383987
155	0xbdb9c6df	-0.09071135
156	0x3dababc1	0.08382369
157	0xbe97069b	-0.29497227
158	0x3e8a1280	0.2696724
159	0xbe61a361	-0.2203498
160	0xbe3aa555	-0.18227132
161	0xbd063904	-0.032769218
162	0x3edb990b	0.428902
163	0xbed5ac2f	-0.41732928
164	0x3f0c68bc	0.5484731
165	0xbd6ffb12	-0.05858905
166	0xbeb4055b	-0.35160336
167	0x3f33298f	0.6998529
168	0xbdc50c16	-0.09621446
169	0xbe00d7fb	-0.1258239
170	0x3f16430e	0.5869607
171	0x3de14576	0.10999577
172	0xbc64411a	-0.013931537
173	0xbe4975e9	-0.19673885
174	0x3e36103d	0.17779632
175	0x3d8bc6cb	0.06825026
176	0x3df68874	0.12037745
177	0x3e410a27	0.18851529
178	0xbe38a21a	-0.18030587
179	0x3e39a41e	0.18129012
180	0x3ec5a9a6	0.38605994
181	0x3edc87e9	0.4307244
182	0x3ebb1a66	0.36543578
183	0xbe5823ba	-0.21107379
184	0xbe2b726e	-0.1674287
185	0xbe7d87ce	-0.24758837
186	0xbe7f414b	-0.24927251
187	0x3e27c94b	0.16385381
188	0xbe733c60	-0.237535
189	0x3e04436a	0.12916341
190	0x3d800278	0.06250471
191	0x3e6b315e	0.22968051
192	0x3e81c412	0.25344902
193	0xbd183675	-0.03716131
194	0xbe4f78bd	-0.20260902
195	0x3dc173ca	0.09445913
196	0x3dac6ad4	0.08418813
197	0xbebc7761	-0.3680983
198	0x3d05fd75	0.03271242
199	0x3e34ba76	0.17649254
200	0xbe77b5d0	-0.2419045
201	0x3e5b5c42	0.21421912
202	0x3f0a2e5f	0.53977007
203	0x3eb14303	0.34621438
204	0xbe720e78	-0.23638332
205	0xbe2fddcd	-0.17174454
206	0xbec5fa50	-0.38667536
207	0xbc2e747d	-0.01064789
208	0x3da2e25d	0.079533316
209	0x3eaf70ad	0.34265652
210	0x3de3ada1	0.111171015
211	0x3e100a48	0.14066422
212	0x3eb52253	0.3537775
213	0xbd4c5af3	-0.049891423
214	0x3e776c10	0.24162316
215	0x3e68ad40	0.2272234
216	0x3dcc2ad5	0.09969107
217	0xbe90493e	-0.2818088
218	0xbeb774c1	-0.35831264
219	0x3c9cc660	0.019137561
220	0x3e149268	0.14508975
221	0xbe78a375	-0.24281104
222	0xbebdfd64	-0.37107384
223	0x3dc99864	0.09843519
224	0x3de60b1c	0.11232588
225	0x3ed1b072	0.4095493
226	0xbae35d7a	-0.0017346584
227	0x3ee9e83e	0.45685
228	0x3ec39022	0.38195902
229	0x3d8e99bd	0.06962917
230	0x3e9e597c	0.30927646
231	0x3ee0e01f	0.4392099
232	0x3f05567f	0.5208511
233	0xbe6f2aaf	-0.23356126
234	0xbebc9776	-0.36834306
235	0xbea59e39	-0.32347277
236	0x3d012182	0.031526096
237	0xbeaa8c29	-0.3331006
238	0x3e66ed68	0.22551501
239	0xbea2668a	-0.31718856
240	0xbed7ce80	-0.42149734
241	0x3e92786a	0.28607494
242	0x3cb732ab	0.022363028
243	0x3ee5d517	0.44889137
244	0x3da077f9	0.07835383
245	0x3ec0f6d5	0.37688318
246	0xbd566e48	-0.052351266
247	0xbe7ef697	-0.24898754
248	0x3eda1209	0.42591885
249	0x3e3e92c8	0.1861068
250	0x3dcc402a	0.09973176
251	0x3ec9ba88	0.39400125
252	0xbec9e75e	-0.39434332
253	0xbd91bd07	-0.07116132
254	0x3e26007d	0.16211124
255	0x3e149b4e	0.14512369

bias f4 [32]
0	0x3c8e6a35	0.017384628
1	0x3defe481	0.117135055
2	0x3dc84893	0.097794674
3	0x3cf1b43b	0.029504886
4	0xbc3ee776	-0.011651864
5	0xbd02b2ea	-0.031908907
6	0x3de664d2	0.11249699
7	0x3d7ad17b	0.061234932
8	0x3c932df6	0.017966252
9	0xbcdaa70d	-0.026690984
10	0x3d557398	0.052112192
11	0x3d168421	0.0367471
12	0x3d9eaa84	0.07747367
13	0x3da2c098	0.079468906
14	0x3e031462	0.12800744
15	0x3d171603	0.036886226
16	0x3c9f13ff	0.019418715
17	0x3dd5d46e	0.10440908
18	0xbd2dc9a4	-0.042428628
19	0x3d38155b	0.04494224
20	0xbcd413b0	-0.025888294
21	0x3dde5089	0.108552046
22	0x3a2aef9c	0.000652069
23	0x3d47a0bd	0.048737276
24	0xbdb43418	-0.087989986
25	0x3db39fd0	0.08770716
26	0x3c2bf98e	0.01049651
27	0x3cf8d650	0.03037563
28	0x3e785d3f	0.2425432
29	0x3d259d11	0.040432993
30	0x3b8df71a	0.0043324353
31	0x3db97b50	0.09056723

weight f4 [32, 32]
0	0xbd70146b	-0.058613222
1	0x3eef5176	0.46741837
2	0xbe44195b	-0.19150297
3	0xbe718211	-0.23584773
4	0xbe77b148	-0.24188721
5	0xbe717684	-0.23580366
6	0x3eb2e043	0.34936723
7	0x3e70d682	0.23519328
8	0x3ee02570	0.43778563
9	0xbe47079d	-0.19436498
10	0x3e830103	0.2558671
11	0xbd8353ae	-0.06412445
12	0x3ea31277	0.31850025
13	0xbdc550fb	-0.096345864
14	0x3eef8f3a	0.4678896
15	0x3d175064	0.0369419
16	0xbece912c	-0.40345132
17	0x3eb0af52	0.3450876
18	0xbe04b1c9	-0.12958445
19	0xbeae6e32	-0.34068447
20	0xbee67dea	-0.4501794
21	0xbe8bfafb	-0.2733992
22	0x3e5d2d0c	0.21599215
23	0xbef7ec75	-0.4842259
24	0xbef8bbaa	-0.48580676
25	0x3f10225f	0.56302446
26	0xbe609b53	-0.21934251
27	0xbf08cefc	-0.53440833
28	0x3d3ba08b	0.045807403
29	0x3e5a9fff	0.21350096
30	0x3f001063	0.50025004
31	0xbe1a97a5	-0.1509691
32	0xbd0d940c	-0.034565017
33	0x3dfc2395	0.12311474
34	0x3e260e71	0.16216446
35	0x3e7d988e	0.24765226
36	0x3da088e4	0.0783861
37	0x3ee25608	0.44206262
38	0x3d77789a	0.06041775
39	0x3e412a48	0.18863785
40	0xbeb2669a	-0.34843904
41	0xbe707cb0	-0.23485065
42	0xbe92b88d	-0.28656426
43	0xbeb8f394	-0.36123335
44	0xbe8c9169	-0.2745469
45	0x3e73d1c3	0.23810486
46	0xbdbd722e	-0.09250294
47	0x3eef6934	0.4675995
48	0xbde0654f	-0.10956823
49	0xbd37dcc9	-0.04488829
50	0x3dbd4018	0.092407405
51	0xbdf3901f	-0.11892723
52	0xbea24053	-0.316897
53	0xbed6318b	-0.41834673
54	0x3e319c74	0.17344838
55	0x3dd041ca	0.10168798
56	0xbe9b2e8a	-0.30308944
57	0x3edd77e3	0.4325553
58	0x3ee4f5ac	0.44718683
59	0x3ef3a943	0.47590074
60	0xbe32d755	-0.17464955
61	0x3e8e18a3	0.2775317
62	0xbeb7725d	-0.3582944
63	0xbe7b1e9f	-0.245234
64	0xbe97c330	-0.29641104
65	0x3d82b130	0.06381452
66	0xbdbf6c4c	-0.09346828
67	0xbdc24bd7	-0.094871216
68	0xbdfa9311	-0.12235082
69	0xbe21f3e1	-0.15815689
70	0x3e705cbd	0.23472877
71	0xbebd1b7d	-0.36935034
72	0x3d26b15e	0.040696494
73	0x3e0df336	0.13862309
74	0x3e5ba22d	0.21448584
75	0xbd8bb84e	-0.06822263
76	0x3e78be83	0.24291424
77	0x3ca87fc3	0.020568734
78	0xbf04493a	-0.51674235
79	0x3d7dd00a	0.06196598
80	0x3e3b5f06	0.18297967
81	0x3ec7283a	0.38897878
82	0xbd81e54b	-0.06342562
83	0x3ebd96e9	0.37029198
84	0x3ee7ab16	0.45247716
85	0x3e69d9a9	0.22836937
86	0xbe39aa14	-0.18131286
87	0x3d93dce6	0.072198674
88	0xbe262ce0	-0.16228056
89	0x3dfd2801	0.12361146
90	0xbe713f6a	-0.23559347
91	0xbdd66764	-0.10468939
92	0x3e9e3fd1	0.30908063
93	0xbdcb8661	-0.0993774
94	0x3d5e0e3d	0.054212797
95	0x3eddf2e9	0.43349388
96	0xbec6db44	-0.3883916
97	0x3e37bc16	0.17942843
98	0xbe37b82e	-0.17941353
99	0x3e4ec4bd	0.20192237
100	0x3db239fa	0.087024644
101	0xbe80bb0e	-0.2514271
102	0x3e313778	0.17306316
103	0xbdd819c3	-0.10551789
104	0xbdbec670	-0.09315193
105	0x3e928d7b	0.28623566
106	0xbe30293e	-0.17203233
107	0x3cf97249	0.030450003
108	0xbe7908ec	-0.2431981
109	0xbc23c3da	-0.009995425
110	0x3ea47b00	0.32125092
111	0xbe9fafb1	-0.3118873
112	0xbcd46b67	-0.02593012
113	0xbc0cd61d	-0.00859597
114	0x3e11960f	0.14217399
115	0xbece69ea	-0.4031518
116	0x3cba984b	0.022777697
117	0xbe589c48	-0.21153367
118	0x3dbe158c	0.092814535
119	0xbe885a1d	-0.2663125
120	0xbead0173	-0.33790168
121	0xbebd2dc9	-0.36948994
122	0x3e85b0a2	0.26111323
123	0x3eb5c4e8	0.3550179
124	0x3e19dfe8	0.1502682
125	0xbe9d58e6	-0.30731887
126	0x3eb61f90	0.35570955
127	0xbdbe1620	-0.09281564
128	0xbd4135c9	-0.047170434
129	0x3e8573b7	0.26064846
130	0x3dbb733b	0.09152838
131	0xbdf26fd9	-0.118377395
132	0xbedb9058	-0.42883563
133	0xbc4aaca7	-0.012370265
134	0xbee5e1cd	-0.44898835
135	0x3cd2f100	0.025749683
136	0x3ea5bc50	0.32370234
137	0xbc6d2dba	-0.014476234
138	0xbebbd1ab	-0.366834
139	0x3e88754e	0.26651996
140	0xbec2e532	-0.38065487
141	0x3d8e2968	0.06941491
142	0x3ea83b11	0.32857564
143	0xbe8e5031	-0.27795556
144	0xbdd6896e	-0.104754314
145	0x3d60391f	0.054741975
146	0xbde2fc2a	-0.11083253
147	0xbee96aa2	-0.45589167
148	0xbeac07d5	-0.33599725
149	0x3ec7ca99	0.39021757
150	0x3e9bf2e8	0.3045876
151	0x3d037273	0.03209157
152	0x3e72b0f8	0.2370032
153	0x3edd1bee	0.4318537
154	0xbe5827b1	-0.21108891
155	0x3ecb45f0	0.39701796
156	0xbedbfd62	-0.42966753
157	0xbe0831c8	-0.1330024
158	0xbe3b5e82	-0.1829777
159	0xbea9a787	-0.33135626
160	0xbe023091	-0.12713839
161	0x3d43f5f9	0.047842
162	0x3db151cc	0.0865818
163	0xbeaffdc4	-0.34373295
164	0x3e5cdaf3	0.21567897
165	0x3e7c8228	0.24659026
166	0xbe8f8d55	-0.28037515
167	0x3e0d6373	0.13807468
168	0x3eb2505e	0.3482694
169	0xbdd3369b	-0.103131495
170	0xbeab5677	-0.33464405
171	0xbe9a1f4c	-0.30102003
172	0xbd830277	-0.063969545
173	0xbd102e28	-0.035200268
174	0xbe2d9c6e	-0.16954204
175	0x3e8f76c2	0.28020293
176	0xbd0b2e0a	-0.033979453
177	0x3d4405ca	0.047857083
178	0xbee847fc	-0.4536742
179	0x3e771cd6	0.24132094
180	0x3e500416	0.20314059
181	0xbed0d41d	-0.4078683
182	0xbe8fa060	-0.28052044
183	0x3eccf221	0.4002848
184	0xbe1dcb4b	-0.15409581
185	0xbe02253d	-0.12709518
186	0x3d7665dc	0.060155734
187	0x3da397b2	0.07987918
188	0x3e59d370	0.21272063
189	0x3a4511a0	0.000751758
190	0xbe07a324	-0.13245827
191	0x3d29fc90	0.041500628
192	0x3e682d06	0.22673425
193	0xbda4f5ca	-0.08054693
194	0xbe434d61	-0.19072486
195	0xbe074ce8	-0.13212931
196	0xbe434134	-0.19067842
197	0x3d1465ff	0.036230084
198	0x3de7619c	0.112979144
199	0xbe0af7c1	-0.13571073
200	0xbd8aa143	-0.067690395
201	0x3e82c338	0.25539565
202	0x3e1b2315	0.15150101
203	0x3ec8c115	0.3920981
204	0xbe031c39	-0.12803735
205	0x3f0c1605	0.547211
206	0xbea84188	-0.32862496
207	0x3ea693ee	0.32534736
208	0x3e49ed45	0.19719417
209	0xbea5f280	-0.32411575
210	0x3e826eab	0.25475058
211	0x3dbfc2c4	0.093633205
212	0xbd9c176e	-0.07621656
213	0x3e539b9d	0.2066483
214	0x3e2ea064	0.17053372
215	0x3e597822	0.21237233
216	0x3cdf824a	0.027283806
217	0x3ef5cfa7	0.4800999
218	0x3d9b6ca8	0.07589084
219	0xbe0f01b3	-0.13965492
220	0xbf11d6a1	-0.5696812
221	0x3dbd4b47	0.09242874
222	0xbd4a3eab	-0.04937617
223	0xbee55555	-0.44791666
224	0x3e5094ff	0.20369337
225	0xbea8728b	-0.3289989
226	0x39c57e2c	0.00037668773
227	0x3e59b4c3	0.21260361
228	0x3ebfe2f9	0.37477854
229	0xbe416707	-0.18886958
230	0xbe16b655	-0.14717992
231	0xbee42334	-0.44558108
232	0xbe852e03	-0.26011667
233	0xbee11a57	-0.43965408
234	0xbde1a018	-0.110168636
235	0x3e3cc5ad	0.18434782
236	0x3e81a62a	0.25322086
237	0x3e915f22	0.28392893
238	0x3f0c4556	0.547933
239	0xbe9b8d0a	-0.30381042
240	0xbe84a726	-0.25908774
241	0xbc3abc3a	-0.011397416
242	0x3eb9a8ea	0.36261684
243	0xbee0c3e8	-0.43899465
244	0x3bc94af0	0.0061429664
245	0x3f1890e9	0.59596115
246	0xbef1503b	-0.47131523
247	0x3d308e20	0.04310429
248	0xbb1ab87f	-0.0023608503
249	0x3e2cfc6d	0.16893168
250	0xbe2a0fc1	-0.16607572
251	0x3f0dfeaa	0.5546671
252	0x3e910547	0.2832434
253	0xbe8248d8	-0.254462
254	0xb9d2084c	-0.00040060503
255	0xbe933efd	-0.28758994

bias f4 [32]
0	0x3d645ec9	0.055754457
1	0x3d8f8d58	0.07009381
2	0x3dbb6a24	0.09151104
3	0xbcd7f2be	-0.026360866
4	0xbc21bf79	-0.009872311
5	0x3d32283d	0.043495405
6	0x3c6351d2	0.013874488
7	0xbb62f0a6	-0.00346283
8	0x3c5607d9	0.013063394
9	0xbd5f80a1	-0.05456603
10	0x3cd87ad2	0.026425753
11	0x3cdb5ba1	0.02677709
12	0x3de3ac00	0.11116791
13	0xbc45b734	-0.012067605
14	0x3db7d4f4	0.089761645
15	0x3d834629	0.06409866
16	0x3d6f19a9	0.05837408
17	0x3c84f631	0.016230674
18	0x3dbbaf6c	0.091643184
19	0x3ce66d32	0.02812824
20	0xbc4eecf9	-0.012629741
21	0xbcafd3e0	-0.021463335
22	0xbd4a465d	-0.04938351
23	0x3b7eca2b	0.0038877826
24	0x3ca602f7	0.020265086
25	0x3d9eefd4	0.07760587
26	0x3ca7d974	0.020489432
27	0xbc5d754a	-0.013516733
28	0x3d98ce89	0.074612685
29	0xbcb68705	-0.02228118
30	0xb8e65049	-0.00010982209
31	0x3c00cdc9	0.007861563

weight_ih_l0 f4 [96, 32]
0	0xbd8ff6a8	-0.07029468
1	0xbd7ab2cb	-0.061205667
2	0xbcfc7975	-0.030819634
3	0xbe2a9fc8	-0.16662514
4	0x3c8e4a49	0.017369406
5	0xbe5ebe88	-0.2175237
6	0x3ce1a0c2	0.027542476
7	0xbda0e69c	-0.07856485
8	0xbe413493	-0.18867712
9	0xbe811df2	-0.2521816
10	0x3d965f1b	0.07342359
11	0x3ca9ede5	0.02074332
12	0xbcf9280f	-0.03041461
13	0xbd93eed2	-0.07223286
14	0x3e2472d6	0.16059431
15	0x3d9fd09e	0.078034624
16	0x3dfa6bb7	0.12227576
17	0xbdf22c98	-0.11824912
18	0x3d024fa8	0.031814247
19	0x3eab16bc	0.33415782
20	0x3d0a4c5b	0.033764224
21	0xbdbe386d	-0.09288106
22	0x3de3d0d5	0.11123816
23	0xbe3985a8	-0.18117392
24	0x3e39dbd6	0.18150267
25	0x3d51f8cb	0.051262658
26	0xbe2afb1e	-0.16697356
27	0xbd1581f4	-0.036500886
28	0x3e9bb8e5	0.304145
29	0x3ded8dc8	0.11599308
30	0x3e0ae1fd	0.1356277
31	0xbddc6ef1	-0.10763348
32	0xbb94cbcf	-0.0045408974
33	0x3deb9b8c	0.115042776
34	0x3ddb401e	0.10705589
35	0xbe6cb080	-0.23114204
36	0xbd04e5ef	-0.032445844
37	0x3e2d03d4	0.16895992
38	0x3c4c6fe1	0.012477846
39	0xbd6ec5bc	-0.058294043
40	0xbd4c71fe	-0.0499134
41	0xbd86cce2	-0.06582047
42	0x3d59ea28	0.053201824
43	0x3e9bdbe4	0.304412
44	0x3e78de79	0.24303617
45	0x3e30299a	0.1720337
46	0xbe2dc8d6	-0.16971144
47	0x3d269823	0.040672433
48	0x3e8e84a7	0.2783558
49	0x3e42dfad	0.19030638
50	0xbab4b1ad	-0.0013785862
51	0x3da1e751	0.07905448
52	0xbdf67ed4	-0.12035909
53	0x3dfc9fb0	0.123351455
54	0x3d01f566	0.03172817
55	0x3e55477f	0.20828055
56	0xbcf4f39f	-0.029901324
57	0x3dda78d9	0.10667581
58	0x3d9d7abc	0.07689425
59	0x3e6ed938	0.2332505
60	0xbdc258ba	-0.094895795
61	0x3e45e189	0.19324316
62	0xbc96d420	-0.018411696
63	0xbde21d44	-0.11040738
64	0xbe8e5e59	-0.27806357
65	0x3e36577d	0.17806812
66	0x3e3c0b98	0.18363798
67	0xbd72a479	-0.059238885
68	0xbde0d0a7	-0.10977297
69	0x3e493751	0.19650008
70	0x3d8a1238	0.06741756
71	0xbd4cf8ac	-0.05004184
72	0x3dc579d2	0.09642376
73	0xbdaa63c4	-0.0831981
74	0x3da845f0	0.082164645
75	0x3e6dab3d	0.23209853
76	0xbd2e34e8	-0.042530924
77	0x3d9c1f0b	0.076231085
78	0xbcc40dbb	-0.023932328
79	0x3d1167f6	0.035499536
80	0x3e0159b7	0.1263188
81	0x3e8c9126	0.2745449
82	0xbdbd9c6f	-0.09258353
83	0xbcc96a18	-0.024586722
84	0xbe238d19	-0.15971793
85	0x3b5b04ab	0.003341953
86	0xbd2b95f5	-0.041891057
87	0x3d9a75f6	0.075420305
88	0x3d4ec736	0.05048295
89	0x3e18b2f2	0.14912012
90	0x3dab5a12	0.08366789
91	0x3e70c38f	0.235121
92	0xbe2cc093	-0.16870336
93	0x3b873973	0.0041267215
94	0x3dc94ae6	0.09828739
95	0xbe56c884	-0.20974928
96	0xbddf75b8	-0.10911125
97	0xbde39e43	-0.111141704
98	0x3d4f90f4	0.050675347
99	0x3d2a3ed5	0.041563828
100	0xbe4fc783	-0.20290951
101	0xbd458b0d	-0.048228312
102	0x3d2bfcf8	0.041989297
103	0x3dc174ee	0.09446131
104	0xbe819514	-0.2530905
105	0xbe37562b	-0.17903964
106	0xbe8f96ad	-0.28044644
107	0x3e0d0a3b	0.13773434
108	0xbdbc057b	-0.09180733
109	0xbe0cc582	-0.13747218
110	0xbe84e4f2	-0.2595592
111	0x3e4ff36c	0.20307702
112	0x3e3b822b	0.18311374
113	0xbd16778f	-0.036735114
114	0x3c3a6dd3	0.011378723
115	0x3d1acfd8	0.03779587
116	0x3dab07d0	0.083510995
117	0xbb37f7aa	-0.0028071203
118	0xbe6ed59f	-0.23323677
119	0xbbed239d	-0.0072369114
120	0x3df9d64f	0.12199079
121	0xbd49525a	-0.049150802
122	0x3e45944e	0.19294855
123	0x3d83aff0	0.06430042
124	0x3e54bffc	0.20776361
125	0x3d8f5fa4	0.07000664
126	0xbd8deff8	-0.06930536
127	0xbd76552d	-0.060139824
128	0xbe0ebb5d	-0.13938661
129	0xbe1042f5	-0.14088042
130	0x3e9328d9	0.28742102
131	0x3e468dfb	0.19390099
132	0xbe2dea1f	-0.16983841
133	0x3d0490be	0.0323646
134	0xbe111291	-0.14167239
135	0xbd508c33	-0.050914954
136	0xbd176bd1	-0.036968056
137	0x3e238389	0.15968145
138	0x3e81bf5f	0.25341317
139	0xbd4cb8ac	-0.049980804
140	0xbd70bf2f	-0.058776077
141	0x3dc56d59	0.09639997
142	0x3e7f3f19	0.24926414
143	0x3bd08a9c	0.00636418
144	0x3d5e7739	0.05431292
145	0xbd04fd30	-0.03246802
146	0x3e6022eb	0.2188832
147	0x3e97b92c	0.29633462
148	0xbd68ceff	-0.05683803
149	0x3d7519e7	0.059839156
150	0x3df51962	0.11967732
151	0xbe3c5ee2	-0.1839557
152	0xbe6d8e32	-0.23198774
153	0x3d9b78bd	0.075913884
154	0x3d58a43b	0.052890997
155	0xbe15c3d0	-0.14625478
156	0xbce2a8e8	-0.027668431
157	0x3d293809	0.041313205
158	0xbdd7055f	-0.10499071
159	0xbe296d04	-0.16545492
160	0xbe2f9c30	-0.17149425
161	0x3e0fe108	0.14050686
162	0x3dc771c7	0.09738498
163	0x3952b26a	0.00020093625
164	0x3ce7a747	0.028278006
165	0xbdb115fc	-0.08646771
166	0x3e2bddd8	0.16783845
167	0x3d611107	0.05494788
168	0xbd39f406	-0.045398735
169	0x3df695f7	0.12040322
170	0xbe2b2ee5	-0.16717108
171	0x3df15624	0.11784008
172	0x3e06e2ad	0.13172407
173	0x3e23d74c	0.16000098
174	0xbe1c245c	-0.15248245
175	0xbdd0d027	-0.10195952
176	0xbd50ac83	-0.05094577
177	0xbe1d05be	-0.15334222
178	0xbe8cd19f	-0.27503678
179	0xbba82b25	-0.0051320964
180	0xbdd9a39d	-0.1062691
181	0x3e4c2547	0.19936095
182	0x3de0a896	0.10969655
183	0x3e2a7a9b	0.16648333
184	0x3db7b954	0.089708954
185	0xbe30b52a	-0.17256609
186	0x3e610a5b	0.21976607
187	0xbbf193b7	-0.0073723453
188	0xbe1b7d61	-0.15184547
189	0x3e4052b2	0.18781546
190	0x3cf368b8	0.02971302
191	0xbcf22d07	-0.029562486
192	0xbceb3579	-0.028712021
193	0xbdb30ace	-0.08742295
194	0x3e1ce5b5	0.15322001
195	0xbdc5c38c	-0.09656438
196	0x3d87fc75	0.06639949
197	0xbd71bac8	-0.05901602
198	0xbe37d7d2	-0.17953423
199	0x3e5454b9	0.20735444
200	0x3d58fc41	0.052974943
201	0x3e3fa3b3	0.1871479
202	0x3ea651fe	0.3248443
203	0x3db6f24d	0.08932934
204	0xbd030f87	-0.03199723
205	0x3e0d16cd	0.13778229
206	0x3ed4c64d	0.4155754
207	0xbdad0153	-0.08447518
208	0xbcf6d875	-0.030132512
209	0x3dbca4bc	0.09211108
210	0x3d5015cc	0.050802037
211	0x3e8d9b29	0.2765744
212	0xbcecadb7	-0.028891427
213	0x3da378ef	0.079820506
214	0x3e42c5e4	0.19020802
215	0xbe26d106	-0.16290674
216	0x3c809d86	0.015700113
217	0x3df45fba	0.11932321
218	0xbe1958ac	-0.14975232
219	0xbe022892	-0.12710789
220	0x3b9d1acc	0.004794454
221	0x3cd60da9	0.02612956
222	0xbd0c42f3	-0.034243535
223	0x3d3a049a	0.045414545
224	0x3c333a5a	0.010939205
225	0x3e37c24f	0.17945217
226	0xbd860b39	-0.06545109
227	0xbe188507	-0.14894496
228	0xbd87d4bb	-0.06632372
229	0x3ce17eaa	0.027526218
230	0x3dfb259b	0.12263032
231	0xbe0a9b91	-0.13535906
232	0x3d6bb50a	0.0575457
233	0xbd9244b0	-0.07142007
234	0xbddb7290	-0.107152104
235	0xbd7b5cb4	-0.061367705
236	0x3d10947a	0.03529785
237	0xbd8e561f	-0.0695002
238	0xb7f962a3	-2.9729044e-05
239	0xbd9e8735	-0.077406324
240	0xbdc2adf5	-0.09505836
241	0x3e5a976b	0.21346824
242	0xbd842e7c	-0.06454179
243	0xbdaa6e4a	-0.08321817
244	0xbd9dff54	-0.077147156
245	0xbd9a6b30	-0.07539976
246	0xbe23d0bd	-0.15997596
247	0x3e4b4f22	0.19854406
248	0x3e86b404	0.26309216
249	0x3dfc1793	0.12309184
250	0x3da196c3	0.07890084
251	0x3d4f31d2	0.05058462
252	0xbdcbfede	-0.099607214
253	0x3e6077fa	0.21920767
254	0x3ddf8052	0.10913147
255	0xbe1193be	-0.14216515

weight_hh_l0 f4 [96, 32]
0	0x3e439529	0.19099869
1	0xbe1e2b80	-0.15446281
2	0xbca9cbb7	-0.020727022
3	0x3dee9608	0.1164971
4	0xbdf3b7de	-0.11900304
5	0x3e26895f	0.1626334
6	0x3e39084f	0.18069576
7	0x3e4a0aea	0.19730726
8	0xbc3fc2cc	-0.011704158
9	0x3e09e646	0.13466749
10	0x3d4a1d7e	0.049344532
11	0x3cd4877b	0.025943508
12	0xbe429aed	-0.19004412
13	0xbe2c9654	-0.1685422
14	0x3d62b4b8	0.055348128
15	0xbe4690b1	-0.19391133
16	0x3d64eb20	0.055888295
17	0xbd58f8f6	-0.052971803
18	0xbd9bb902	-0.07603647
19	0xbe00ceab	-0.12578838
20	0x3df8e472	0.121529475
21	0x3e3ebbe2	0.18626359
22	0xbc8d6c73	-0.017263627
23	0xbdfb4de0	-0.12270713
24	0xbe8c483b	-0.27398857
25	0x3ba72981	0.005101383
26	0xbdbdbec6	-0.09264903
27	0x3e58a723	0.21157508
28	0xbd45b6e0	-0.048270106
29	0xbb83f3f9	-0.0040268865
30	0x3c80a98f	0.015705852
31	0xbbeb2acb	-0.007176732
32	0x3ea7bae8	0.32759786
33	0x3d8e78f6	0.06956665
34	0x3e35db26	0.1775938
35	0x3e63fed7	0.22265182
36	0x3d90d7d4	0.07072416
37	0xbd9e42ce	-0.07727586
38	0xbde4b7e1	-0.111678846
39	0x3eb32000	0.34985352
40	0x3e91a38c	0.2844509
41	0xbda904f2	-0.08252896
42	0xbc5565a9	-0.013024726
43	0x3d507ed5	0.050902206
44	0xbe720acc	-0.23636931
45	0xbd1d03a8	-0.038333565
46	0x3e1a8c32	0.15092543
47	0xbe45087e	-0.19241521
48	0xbd9898b9	-0.074510045
49	0xbe6d1ab7	-0.23154722
50	0x3e26c2d2	0.16285256
51	0x3def7ab3	0.11693325
52	0xbe9410e5	-0.2891914
53	0xbd9e8755	-0.07740656
54	0xbd99b2c9	-0.07504804
55	0xbd89b269	-0.06723482
56	0x3d9709da	0.07374926
57	0x3d988575	0.0744733
58	0x3de92c7c	0.11385438
59	0x3d21330c	0.039355323
60	0xbd493ded	-0.049131323
61	0xbe009890	-0.12558198
62	0x3d223493	0.03960092
63	0x3dbcca05	0.0921822
64	0xbcc651b1	-0.024208875
65	0xbdece852	-0.11567749
66	0xbbf766dd	-0.007550104
67	0x3da668f6	0.081254885
68	0x3d3ead0c	0.04655175
69	0x3d8d036c	0.06885418
70	0x3cafb63f	0.021449206
71	0x3d99c8d4	0.07509008
72	0x3d4cc0d9	0.0499886
73	0x3d912f16	0.07089059
74	0x3e74735d	0.23872133
75	0x3e11a4b0	0.1422298
76	0xbdad4a17	-0.08461397
77	0xbdaed814	-0.085373074
78	0xbe66520a	-0.22492233
79	0x3cd31624	0.025767393
80	0x3da618ed	0.08110223
81	0x3d96f6c6	0.07371287
82	0xbda06956	-0.07832591
83	0x3ccab9c7	0.024746789
84	0x3db7bd5d	0.08971665
85	0x3db6c9c1	0.089252
86	0x3e0018ad	0.12509413
87	0x3d1eef22	0.038802274
88	0xbcffb624	-0.031214781
89	0xbd04db59	-0.03243575
90	0xbbca2207	-0.006168607
91	0xbce45c0f	-0.027875928
92	0xbe0c563b	-0.1370477
93	0xbd91ca22	-0.07118632
94	0xbce21fbc	-0.027603023
95	0xbe9b3be3	-0.30319127
96	0x3e84a50c	0.2590717
97	0xbe5dd9e5	-0.21665151
98	0xbcf725bd	-0.030169362
99	0x3e527a5e	0.20554492
100	0xbd22a7ef	-0.039710935
101	0x3dfd6cda	0.123742774
102	0x3db3f4c6	0.08786921
103	0x3d1f8ea0	0.038954377
104	0xbdd02e83	-0.101651214
105	0x3d9fe2a5	0.07806901
106	0x3e4eb048	0.20184433
107	0xbdab3f04	-0.08361629
108	0xbe3bcf22	-0.18340734
109	0xbd14772a	-0.036246456
110	0x3ea9f4cd	0.3319458
111	0xbe560a96	-0.20902476
112	0x3d42dba8	0.04757276
113	0xbe59a9d8	-0.21256196
114	0x3e84425a	0.25831872
115	0x3ce584cc	0.028017424
116	0xbcc844dc	-0.024446897
117	0xbc2d66fd	-0.010583636
118	0xbd45a384	-0.048251644
119	0xbd58583d	-0.052818526
120	0x3d957f70	0.072996974
121	0xbd0579da	-0.03258691
122	0xbe461d29	-0.19347061
123	0x3e8f28bf	0.27960774
124	0x3be73e86	0.007057014
125	0xbd8fcddb	-0.07021686
126	0x3e4b537d	0.19856067
127	0x3caa2852	0.02077118
128	0x3e2698ae	0.1626918
129	0xbe370218	-0.17871892
130	0xbd852c6a	-0.06502612
131	0x3da7b642	0.0818906
132	0xbca7dea3	-0.020491904
133	0x3da056bd	0.07829044
134	0x3e259318	0.16169393
135	0x3c139811	0.009008423
136	0xbdb124f0	-0.086496234
137	0xbe18561e	-0.14876601
138	0x3d037e6f	0.032103
139	0x3da4dd78	0.08050054
140	0x3e5475a0	0.20747995
141	0x3d74981c	0.059715375
142	0x3dd086ba	0.10181947
143	0xbd31dd5d	-0.043424
144	0x3da8f390	0.08249581
145	0x3e45934b	0.19294469
146	0xbc10df80	-0.008842349
147	0x3dba9792	0.09110941
148	0xbdae042f	-0.08496892
149	0x3e5ed70a	0.21761718
150	0x3e01d172	0.12677553
151	0x3d2e829f	0.04260504
152	0xbe65cb30	-0.22440791
153	0xbd0b27f3	-0.033973645
154	0x3c65747d	0.014004824
155	0xbcf8676e	-0.030322757
156	0x3d3688fa	0.044564225
157	0xbd963b6f	-0.07335555
158	0xbcbeff2d	-0.023315037
159	0xbc3755e6	-0.011189913
160	0x3e0a5f9b	0.13513033
161	0xbe8e4399	-0.27785948
162	0xbe8d015f	-0.2754011
163	0xbdccd3d4	-0.100013405
164	0xbbd53c9a	-0.0065074684
165	0x3dee2fd3	0.116302155
166	0x3e085669	0.13314213
167	0xbde2ca45	-0.11073736
168	0xbdffdabb	-0.124928914
169	0x3e11d3b7	0.14240919
170	0x3e0fbc14	0.1403659
171	0x3b92c438	0.0044789575
172	0x3dd16b02	0.10225488
173	0xbe5631ea	-0.20917478
174	0xbd7ff2c1	-0.062487368
175	0xbe15cbeb	-0.1462857
176	0x3dc35e8a	0.09539516
177	0xbd5fd295	-0.054644186
178	0xbd8913d5	-0.06693236
179	0x3dd10180	0.10205364
180	0x3e0cb1c9	0.13739695
181	0xbdcf837e	-0.10132502
182	0xbcb2bbbd	-0.021818036
183	0xbd0d2fa7	-0.034469273
184	0x3e00d9b3	0.12583046
185	0x3e06e7ec	0.13174409
186	0xbd38fac1	-0.045161013
187	0xbc6a5bb3	-0.014304089
188	0xbd9ba510	-0.075998425
189	0xbda6673a	-0.08125158
190	0x3ddfb19a	0.10922547
191	0xbe342d03	-0.17595296
192	0x3c734967	0.014849043
193	0xbca56628	-0.020190313
194	0x3e579a0b	0.21054856
195	0x3e213af0	0.15745139
196	0x3d8cd622	0.0687678
197	0x3da50fe0	0.080596685
198	0xbdfba3a1	-0.12287069
199	0x3ea1b4bd	0.31583205
200	0x3da424a0	0.08014798
201	0x3d833a9a	0.06407662
202	0xbdd208f0	-0.10255611
203	0xbd503c60	-0.050838828
204	0xbd8bc026	-0.06823759
205	0xbd79c664	-0.060980216
206	0xbcee17c9	-0.029064076
207	0x3d2bb438	0.041919917
208	0x3ad39691	0.0016142895
209	0xbe00f4e8	-0.12593424
210	0x3e9679a3	0.29389676
211	0xbd562900	-0.052285194
212	0xbe339705	-0.17538078
213	0x3e92bcee	0.28659767
214	0xbd287e93	-0.041136336
215	0x3d7b9680	0.061422825
216	0x3d7cf754	0.061759308
217	0xbd074afc	-0.033030495
218	0xbdeaa817	-0.11457842
219	0xbcebd0a3	-0.02878601
220	0xbe040627	-0.12892972
221	0xbe233c74	-0.1594103
222	0x3d944b31	0.07240904
223	0x3d8cf110	0.068819165
224	0x3ea769d4	0.32697928
225	0x3dcba422	0.09943415
226	0x3d9c8ae8	0.07643682
227	0xbe3f7872	-0.1869829
228	0xbe043468	-0.12910616
229	0xbe1bf539	-0.15230264
230	0x3da2e30d	0.07953463
231	0x3e6eacd8	0.23308122
232	0x3d3e805f	0.046509143
233	0xbdeabdc6	-0.11461978
234	0xbcc06cd8	-0.0234894
235	0xbe13e684	-0.14443403
236	0xbdc09cd8	-0.094049156
237	0x3e8ef77a	0.27923185
238	0x3da768e3	0.081743024
239	0x3d343852	0.043999024
240	0x3e096bec	0.13420075
241	0xbe1c32e5	-0.1525379
242	0xbd6d893d	-0.05799221
243	0xbe88a5a9	-0.2668889
244	0xbe203f68	-0.15649188
245	0x3d52917f	0.051408287
246	0x3c0ac350	0.008469418
247	0x3e05cc50	0.1306622
248	0x3cd7345e	0.026270088
249	0xbe121e8e	-0.14269468
250	0x3d1b06e6	0.037848376
251	0x3ea82e82	0.32847983
252	0x3da75ac7	0.08171611
253	0xbd85fdb8	-0.06542534
254	0x3ca3a62f	0.019976703
255	0x3ebd8ad8	0.37019992

bias_ih_l0 f4 [96]
0	0x3db20da5	0.08694009
1	0xbd81d1f4	-0.063388735
2	0x3d6e4d47	0.058179166
3	0x3d98d5e7	0.07462674
4	0x3d414fbb	0.047195178
5	0xbc3c9529	-0.011510172
6	0xbbf83a84	-0.007575335
7	0x3e491f75	0.19640906
8	0x3cae9c16	0.021314662
9	0x3b8049f2	0.003915065
10	0xbd804256	-0.062626526
11	0xbe1f0054	-0.15527469
12	0x3cadd431	0.021219345
13	0x3e898388	0.26858163
14	0xbb06f4f5	-0.0020592783
15	0xbd87ca22	-0.06630351
16	0x3e36672f	0.17812799
17	0x3dcfa680	0.10139179
18	0xbdc8f379	-0.09812064
19	0x3e09a74c	0.13442725
20	0x3d95f4f7	0.07322114
21	0xbcf10835	-0.029422859
22	0xbdc85251	-0.097813256
23	0x3e1d3fb9	0.1535634
24	0xbc6e7649	-0.014554569
25	0x3e505655	0.20345433
26	0x3e2b4406	0.16725168
27	0x3e26c421	0.16285755
28	0x3e549b8e	0.20762464
29	0x3e5e8c7c	0.21733278
30	0x3c8e9f77	0.017410023
31	0x3d62398e	0.05523067
32	0xbe2427c7	-0.16030799
33	0x3d3b4d32	0.045727916
34	0xbe79f09b	-0.2440819
35	0xbee4a35b	-0.4465588
36	0xbe818a88	-0.25301003
37	0xbc5cf09d	-0.013485101
38	0x3d70c53c	0.058781847
39	0xbe139ca8	-0.14415228
40	0xbd73fd92	-0.059567995
41	0xbe31beac	-0.17357892
42	0xbdd517ff	-0.104049675
43	0x3dccac7e	0.09993838
44	0xbcf3faac	-0.029782616
45	0xbddf9e3c	-0.10918853
46	0xbdeb7da6	-0.11498575
47	0x3dd57f3d	0.104246594
48	0xbedf6c40	-0.43637276
49	0xbe06e26a	-0.13172308
50	0xbd8afb10	-0.067861676
51	0x3d77263d	0.0603392
52	0xbeac2e71	-0.33629182
53	0xbdeb4151	-0.114870675
54	0x389dfa69	7.532986e-05
55	0xbe332b74	-0.17497045
56	0xbe076163	-0.13220744
57	0x3c80ecda	0.01573794
58	0xbe4f8db9	-0.20268907
59	0xbe900d36	-0.2813508
60	0x3d920360	0.0712955
61	0xbdbb1851	-0.09135497
62	0xbe54cae9	-0.20780529
63	0x3d637ed4	0.055540875
64	0x3db65693	0.089032315
65	0xbd14aeb9	-0.03629944
66	0xbdde8c9e	-0.10866664
67	0xbc7c72ea	-0.015408257
68	0xbca01185	-0.019539604
69	0x3de77ae6	0.11302738
70	0xbc313216	-0.010815164
71	0xbdd3d43e	-0.10343216
72	0xbe533107	-0.20624171
73	0xbe13be13	-0.14427976
74	0xbe1dbd32	-0.15404204
75	0xbbb1ca04	-0.0054256935
76	0x3e049348	0.12946808
77	0xbdcf18cf	-0.10112154
78	0xbe1816a2	-0.14852384
79	0xbdb3de04	-0.087825805
80	0xbe2a6830	-0.16641307
81	0x3dfc8cd8	0.12331551
82	0xbdb95dc1	-0.09051085
83	0x3dd722bd	0.10504673
84	0x3d9a50d1	0.07534946
85	0xbe079704	-0.13241202
86	0x3dd16ed5	0.10226218
87	0xbe07cab6	-0.13260922
88	0xbdcea333	-0.100897215
89	0xbdd71d62	-0.10503651
90	0x3df7a591	0.12092126
91	0xbd1324bc	-0.035923705
92	0xbdfa6303	-0.12225916
93	0x3c616f72	0.013759481
94	0x3e1719d6	0.1475595
95	0xbdf47a7b	-0.11937424

bias_hh_l0 f4 [96]
0	0x3cfed037	0.031105144
1	0x3c52a2d8	0.012856208
2	0x3e336fc8	0.1752311
3	0x3ca717db	0.020397117
4	0x3d8735c2	0.0660205
5	0x3d71abc3	0.059001695
6	0x3e4047a5	0.1877733
7	0x3d8f8b6e	0.07009016
8	0x3d6058a8	0.05477205
9	0x3e3d1b55	0.18467458
10	0x3daf9b1a	0.08574505
11	0x3dc3d731	0.09562529
12	0x3e1ba743	0.15200524
13	0x3da204da	0.079110816
14	0x3e82ef85	0.25573364
15	0x3d0f0d55	0.034924824
16	0xbdf84e12	-0.12124266
17	0x3e094fb1	0.13409306
18	0x3db8bf71	0.090208896
19	0x3e83ba39	0.25728014
20	0x3df0f722	0.11765887
21	0x3d2e5932	0.042565532
22	0xbd448cc1	-0.047985796
23	0x3da86013	0.0822145
24	0x3d80ba06	0.06285481
25	0xbced96b4	-0.029002525
26	0xbdd1d84e	-0.10246335
27	0x3e61a37a	0.22035018
28	0x3e824758	0.25445056
29	0x3e882090	0.26587343
30	0xbc3c2525	-0.011483465
31	0x3cc471e2	0.023980085
32	0xbe787e62	-0.24266961
33	0x3d0e2a69	0.034708414
34	0xbc83da55	-0.01609532
35	0xbe399c3c	-0.18126005
36	0xbea5ae26	-0.32359427
37	0xbdec332e	-0.11533199
38	0xbdea4ef4	-0.1144084
39	0xbe9a45c4	-0.30131352
40	0xbdd4c269	-0.10388643
41	0xbdfaf105	-0.12253002
42	0xbe216f4f	-0.15765117
43	0xbe6bc89d	-0.23025747
44	0xbe9d65a2	-0.30741602
45	0xbe49c8ac	-0.19705456
46	0xbeb06ae8	-0.34456563
47	0x3e02c282	0.12769511
48	0xbe9a3fb0	-0.30126715
49	0xbb870b64	-0.004121231
50	0xbd6359e7	-0.05550566
51	0x3c602edb	0.013683046
52	0xbe3f8376	-0.18702492
53	0xbeab8d96	-0.3350646
54	0x3dfa981d	0.122360446
55	0xbe2c1744	-0.1680575
56	0xbd7d23ff	-0.061801907
57	0xbdfe9a6f	-0.124317996
58	0xbcd80170	-0.026367873
59	0xbde758e1	-0.11296249
60	0x3c46dfac	0.0121382885
61	0xbda2d7d1	-0.0795132
62	0xbd60dcd1	-0.054898087
63	0xbd328857	-0.043587055
64	0xbe56fd63	-0.20995097
65	0x3d9af65c	0.075665206
66	0xbdf02c0c	-0.11727151
67	0xbe29f7e5	-0.1659847
68	0xbc2491db	-0.01004454
69	0x3cf6c31a	0.030122329
70	0xbdb25043	-0.08706715
71	0x3e567d7a	0.20946303
72	0x3c410536	0.011781028
73	0x3cbb9933	0.0229002
74	0xbd9dfe32	-0.077144995
75	0xbddd2449	-0.107979365
76	0x3d46a018	0.04849252
77	0x3dc49cc0	0.0960021
78	0xbe32cf71	-0.17461945
79	0x3d476d38	0.048688143
80	0xbe2187a7	-0.15774404
81	0xbdd69d79	-0.10479254
82	0xbd4394aa	-0.0477492
83	0xbdcbfb74	-0.0996007
84	0x3e2aa67f	0.16665076
85	0xbdbe9b77	-0.09306996
86	0x3d238d3e	0.03992962
87	0xbdff13f2	-0.12454976
88	0x3b175a79	0.0023094697
89	0xbd81d14c	-0.06338748
90	0x3d90ada0	0.07064366
91	0xbe2e8357	-0.1704229
92	0x3e09cda8	0.13457358
93	0xbe09af99	-0.13445891
94	0xbda2a5ca	-0.07941778
95	0x3e0935c0	0.1339941

weight f4 [32, 32]
0	0x3e3b26e7	0.18276559
1	0xbeb2aff2	-0.3489986
2	0xbe00c650	-0.1257565
3	0xbe858b0a	-0.2608264
4	0x3e2db952	0.16965225
5	0xbd0f0f67	-0.0349268
6	0x3eace230	0.33766317
7	0x3da692c2	0.081334606
8	0x3dba7bab	0.09105619
9	0x3f0f0a49	0.5587507
10	0x3e74f94c	0.23923224
11	0x3f05f211	0.5232249
12	0xbe511dde	-0.2042155
13	0x3eadae77	0.3392217
14	0xbf197bb2	-0.5995437
15	0xbde3dca7	-0.111260705
16	0x3e108b4e	0.1411564
17	0x3ea3258d	0.31864586
18	0x3e8b9a44	0.27266133
19	0xbe613829	-0.2199408
20	0xbdbfcad9	-0.09364862
21	0x3d5e4e17	0.05427369
22	0x3ebc5352	0.36782318
23	0xbe6ac1fe	-0.22925565
24	0x3e1fb7e1	0.15597488
25	0x3dbddd56	0.09270732
26	0x3f00f2b7	0.50370353
27	0xbf12a820	-0.5728779
28	0xbeaabee3	-0.3334876
29	0xbdaf0009	-0.085449286
30	0xbe47226c	-0.19446725
31	0xbeba416e	-0.36378044
32	0xbd8e3d6e	-0.069453105
33	0x3de97565	0.11399344
34	0x3ca167f7	0.019702895
35	0x3ef0cb1c	0.4702996
36	0x3e59f939	0.21286477
37	0x3e60d406	0.2195588
38	0x3ead9446	0.33902186
39	0x3e0cff8e	0.13769361
40	0xbe8bc580	-0.27299118
41	0xbe3ff54b	-0.18745916
42	0x3eaf9f12	0.3430105
43	0x3f089572	0.53353035
44	0x3e80b075	0.25134626
45	0xbdd439ea	-0.10362609
46	0xbe8329ff	-0.25617978
47	0xbdabc84b	-0.08387812
48	0xbebdd369	-0.37075356
49	0x3ebcebef	0.36898753
50	0xbe1cf856	-0.15329108
51	0x3eff2ee5	0.49840465
52	0x3f0b08bf	0.5431022
53	0xbde07335	-0.10959474
54	0x3e633175	0.22186835
55	0xbcf18799	-0.029483603
56	0x3e27589b	0.16342394
57	0x3dc281b0	0.09497392
58	0x3dffca1f	0.124897234
59	0xbecb5a72	-0.39717442
60	0xbeb382d8	-0.35060763
61	0x3e9797e8	0.29608083
62	0x3ede61d9	0.43434027
63	0xbe8eae01	-0.2786713
64	0xbb8dc1be	-0.0043260744
65	0xbe3e6c0b	-0.18595903
66	0xbeda4299	-0.42628935
67	0x3ed9ab1a	0.42513353
68	0xbe959557	-0.292155
69	0x3e9dc349	0.30813053
70	0x3e9e2ab5	0.30891958
71	0xbd6aac19	-0.05729303
72	0x3e2019d9	0.1563486
73	0x3e0bca11	0.13651301
74	0x3d211499	0.039326284
75	0x3e851af2	0.2599712
76	0xbe74fcae	-0.23924515
77	0xbf0fec3e	-0.5621985
78	0x3e9af7b5	0.3026711
79	0x3e0ff7c5	0.1405936
80	0xbc80bff5	-0.015716532
81	0x3e63531e	0.22199675
82	0xbeb25a89	-0.34834698
83	0xbd457e0d	-0.048215915
84	0xbe903056	-0.28161877
85	0x3e39e4f2	0.18153742
86	0x3eb73bb2	0.3578773
87	0x3e4d9f6d	0.20080347
88	0xbee6824e	-0.4502129
89	0x3e05fb58	0.13084161
90	0xbddfe29b	-0.109318934
91	0x3da13186	0.07870774
92	0xbe54af87	-0.20770083
93	0x3dc9452e	0.09827648
94	0x3ece37de	0.40276998
95	0xbeafc300	-0.3432846
96	0x3f169535	0.5882142
97	0xbebef01f	-0.37292573
98	0x3e73dcf6	0.23814759
99	0x3e86a2af	0.26295993
100	0xbe63522a	-0.22199312
101	0xbe3a6468	-0.18202364
102	0xbe7ef776	-0.24899086
103	0x3f02dc60	0.51117516
104	0x3e41eef5	0.18938811
105	0x3ea47fe7	0.32128832
106	0x3ef789b8	0.4834726
107	0x3e64c6c4	0.22341448
108	0x3eb2305a	0.34802514
109	0x3d9174c0	0.071023464
110	0xbe8b051b	-0.27152333
111	0xbd10f157	-0.03538641
112	0x3ed756f8	0.4205854
113	0x3ed09936	0.4074189
114	0x3ee48e3a	0.4463976
115	0x3e583215	0.21112855
116	0xbf0af2e1	-0.54276854
117	0x3ef6d53a	0.48209554
118	0x3efba266	0.49147338
119	0xbecd7dbe	-0.40134996
120	0x3e5dd371	0.2166269
121	0x3f1120fb	0.5669095
122	0x3d9109ac	0.07081923
123	0x3ef271b9	0.47352389
124	0xbe9b7565	-0.30363002
125	0xbe8a0d04	-0.26963055
126	0xbe70b652	-0.2350705
127	0xbdc1da76	-0.09465496
128	0xbeab7aaa	-0.33492023
129	0x3f35c601	0.71005255
130	0xbec644ba	-0.3872431
131	0x3e1563a3	0.1458879
132	0xbe005cab	-0.1253535
133	0xbf006b33	-0.50163573
134	0xbeb13a41	-0.34614757
135	0x3e2fe746	0.17178068
136	0xbd8ab895	-0.067734875
137	0xbe22c901	-0.1589699
138	0xbe0c1db4	-0.13683206
139	0xbe3cbbac	-0.18430966
140	0x3efe5608	0.49675012
141	0x3f0aca41	0.54214865
142	0x3eb08e99	0.34483793
143	0x3ea8a87b	0.3294104
144	0x3d95c620	0.0731318
145	0xbe64d25f	-0.22345875
146	0xbe0bb3e2	-0.13642839
147	0x3c2eae77	0.010661713
148	0x3e181f9b	0.14855807
149	0xbdc4d0c1	-0.09610129
150	0xbe825746	-0.2545721
151	0x3eb51502	0.3536759
152	0x3eb9e5d7	0.36308166
153	0x3d90f1f1	0.07077397
154	0x3da9ee9a	0.08297463
155	0x3d5864ae	0.05283039
156	0xbceed683	-0.029155022
157	0x3eec038f	0.46096465
158	0xbe813715	-0.25237337
159	0x3ee06bb4	0.4383217
160	0xbe09e62d	-0.13466711
161	0x3e84c530	0.25931692
162	0x3f025db4	0.5092423
163	0xbf1a5dd2	-0.6029941
164	0x3dda4145	0.106569804
165	0xbeefdbdd	-0.4684743
166	0x3e85ae10	0.26109362
167	0x3de4e694	0.11176792
168	0xbea8ac91	-0.32944158
169	0xbeaf8f68	-0.34289098
170	0x3eb8589b	0.360051
171	0xbcaed9a1	-0.021344008
172	0xbe995d76	-0.29954118
173	0x3b33a186	0.0027409508
174	0x3ede33ef	0.43398997
175	0x3f1f3297	0.6218657
176	0x3e752f0a	0.23943725
177	0xbf29bad1	-0.66300684
178	0x3e43a3f9	0.1910552
179	0x3e6574c2	0.22407821
180	0xbf18e44f	-0.5972337
181	0x3e88db8d	0.26730004
182	0xbf2e5586	-0.6809925
183	0x3cb8b8a9	0.02254899
184	0x3eb27ebb	0.34862313
185	0xbeee6b34	-0.46566164
186	0xbf00875a	-0.5020653
187	0x3ee22bfa	0.44174176
188	0x3ef6c935	0.48200384
189	0x3deceee4	0.11569002
190	0x3e814ccb	0.252539
191	0x3f2586c9	0.6465879
192	0xbe881095	-0.2657515
193	0x3eb3ae14	0.3509375
194	0xbeb0e291	-0.34547856
195	0xbeddb3b8	-0.43301177
196	0xbd9ecc52	-0.07753815
197	0x3ef286e1	0.4736853
198	0xbddd506a	-0.108063534
199	0xbda6e027	-0.081482224
200	0x3e6f375f	0.23360966
201	0xbed9950b	-0.42496523
202	0x3e353ee4	0.17699772
203	0xbe449c35	-0.19200213
204	0xbd78afc1	-0.060714487
205	0xbe4c6e74	-0.1996401
206	0x3ecca5cc	0.39970243
207	0xbeb20eba	-0.3477686
208	0xbe9e2094	-0.3088423
209	0xbed49267	-0.41517946
210	0x3efc71c5	0.4930555
211	0xbe6b3a0a	-0.22971359
212	0x3db66dad	0.08907638
213	0x3e62aaf3	0.22135524
214	0x3f171683	0.59018725
215	0xbd4cf8cd	-0.050041962
216	0xbe5b7378	-0.21430767
217	0x3e832ec2	0.2562161
218	0x3c25ea0b	0.010126601
219	0x3eaaca38	0.33357406
220	0xbf02a0e2	-0.5102674
221	0x3e335232	0.17511824
222	0x3e84a337	0.25905773
223	0xbe876e24	-0.26451218
224	0xbebf42be	-0.37355608
225	0xbe1904c5	-0.14943226
226	0x3d85fdff	0.065425865
227	0xbedb1ccd	-0.4279541
228	0x3d57cf89	0.052688155
229	0x3eed1efe	0.46312708
230	0xbe85e5df	-0.2615194
231	0xbf17389d	-0.5907076
232	0xbeea18fe	-0.45722193
233	0x3e53be54	0.20678073
234	0x3d9d403e	0.07678269
235	0x3cd56d39	0.026053058
236	0xbe887240	-0.26649666
237	0xbeba8097	-0.3642623
238	0x3e1c0142	0.15234855
239	0x3e786fac	0.2426135
240	0xbf00733d	-0.5017584
241	0x3d0acf60	0.033889174
242	0x3ed0441a	0.40676957
243	0x3eb78563	0.35843953
244	0xbe277dbc	-0.16356558
245	0xbc0c4032	-0.008560227
246	0x3e425271	0.18976761
247	0x3f051f08	0.52000475
248	0x3da0c2b4	0.07849637
249	0x3e4ba4d9	0.19887103
250	0x3bce4df2	0.006295913
251	0xbe3c2ba8	-0.18376029
252	0xbed54029	-0.41650513
253	0x3e49a1c5	0.19690616
254	0x3eb2a6d7	0.34892914
255	0x3e19aeb0	0.15008044

bias f4 [32]
0	0xbc3ccdbe	-0.011523662
1	0x3ddd84d5	0.10816351
2	0x3d03bf93	0.03216512
3	0x3df237e9	0.1182707
4	0xbc7803e9	-0.015137651
5	0x3c750540	0.014954865
6	0x3d320f2a	0.043471493
7	0x3dbad479	0.09122557
8	0xbcb7d7d6	-0.022441786
9	0x3d8d37ab	0.068953834
10	0x3dd55633	0.10416832
11	0x3dc1122b	0.094272934
12	0x3e057d8c	0.13036174
13	0x3c6d6691	0.014489786
14	0xbd282d74	-0.041058972
15	0x3d77134e	0.060321145
16	0x3d50fde8	0.051023394
17	0x3db4e46c	0.088326305
18	0x3e1cf0cc	0.15326232
19	0x3d052b21	0.032511834
20	0x3dec0c2d	0.1152576
21	0x3dd61633	0.10453453
22	0x3d226a5a	0.039652206
23	0x3d3a26c6	0.045447133
24	0x3d65d233	0.056108665
25	0xbd0d8551	-0.03455097
26	0x3dcae90b	0.09907731
27	0x3d5f8db6	0.054578505
28	0x3dee0001	0.116210945
29	0x3d122687	0.035681274
30	0x3dc779c6	0.09740023
31	0x3d754b1a	0.059886076

weight f4 [15, 32]
0	0xbea3addb	-0.3196858
1	0x3e268522	0.16261724
2	0xbeffea53	-0.49983463
3	0xbdf5a293	-0.11993899
4	0x3dee1732	0.11625518
5	0xbe8bb387	-0.27285406
6	0xbefbac42	-0.4915486
7	0xbec72486	-0.38895053
8	0xbec7a288	-0.3899119
9	0x3d612967	0.054971125
10	0x3c9cc3fd	0.019136423
11	0xbee39181	-0.44446948
12	0x3d85f601	0.06541062
13	0x3d299625	0.041402955
14	0xbe8387a6	-0.2568943
15	0x3e41299c	0.18863529
16	0xbedc55f0	-0.43034315
17	0xbe96aa2d	-0.2942671
18	0xbef07ff7	-0.4697263
19	0x3d1c9386	0.038226627
20	0xbed1c5f0	-0.40971327
21	0xbf07d817	-0.530641
22	0x3e4f4ee9	0.20244946
23	0xbed6822b	-0.41896185
24	0xbe1f7ee0	-0.15575743
25	0x3e9ffcb0	0.31247473
26	0xbd799e75	-0.060942132
27	0x3c842a71	0.016133519
28	0xbe984c24	-0.2974559
29	0xbf02d553	-0.51106757
30	0x3dbd28a4	0.09236267
31	0xbd60d7d2	-0.054893322
32	0x3cb75a5d	0.022381956
33	0xbdaaefa8	-0.08346492
34	0xbe841991	-0.25800756
35	0xbe13ad1a	-0.14421502
36	0x3e9ed312	0.3102041
37	0xbddfeab8	-0.10933441
38	0x3d7fdd31	0.062466804
39	0x3da5ec50	0.08101714
40	0xbe1dc48c	-0.15407008
41	0xbd6d65a9	-0.05795828
42	0x3e9ab7a6	0.30218238
43	0x3e92bfb0	0.2866187
44	0x3c18f3c2	0.00933546
45	0xbeb69c16	-0.3566596
46	0xbea278a8	-0.31732678
47	0xbe59f7f2	-0.2128599
48	0x3d022b2d	0.031779457
49	0xbe9d7f76	-0.30761307
50	0xbe3fd187	-0.18732272
51	0xbd9d0a4d	-0.0766798
52	0xbeceb477	-0.4037206
53	0xbd1f5269	-0.03889695
54	0x3e1432dc	0.14472526
55	0x3db36c11	0.087608464
56	0x3dda3966	0.10655479
57	0xbd84a278	-0.06476301
58	0xbb95ed28	-0.0045753904
59	0xbe4864e6	-0.1956974
60	0xbe1b2989	-0.15152563
61	0x3e8707a5	0.2637302
62	0x3e3e7743	0.18600182
63	0x3ea3c16f	0.31983516
64	0x3d20b4ed	0.039235044
65	0xbeb129bf	-0.34602162
66	0x3dd2e6a0	0.102978945
67	0xbeb8577e	-0.3600425
68	0xbedc51ae	-0.43031067
69	0x3e6565d8	0.22402132
70	0x3efa7b08	0.4892199
71	0x3ed3d2be	0.4137172
72	0x3ea25521	0.31705573
73	0xbcaf93cb	-0.021432778
74	0x3e1ff354	0.15620166
75	0x3ec4b934	0.3842255
76	0x3dd97996	0.10618894
77	0xbd1d5326	-0.038409375
78	0x3ea38f97	0.31945488
79	0xbeb5c41b	-0.3550118
80	0x3ed4249e	0.41434187
81	0xbea55c9b	-0.32297215
82	0x3de48b35	0.11159364
83	0xbe0b6825	-0.13613947
84	0xbe10019f	-0.14063118
85	0x3cd2b951	0.025723131
86	0xbe9dbaf3	-0.30806693
87	0x3d226ca7	0.0396544
88	0x3ec003d5	0.37502924
89	0xbe115b47	-0.14194976
90	0xbf12fd93	-0.57418174
91	0xbe865f8a	-0.26244766
92	0xbec379b2	-0.38178784
93	0xbd91e704	-0.07124141
94	0xbdccc1eb	-0.099979244
95	0xbd7edd96	-0.06222304
96	0xbea98252	-0.3310724
97	0x3e535235	0.20636828
98	0x3e112755	0.1417516
99	0x3dbcab49	0.092123576
100	0x3e552804	0.20816046
101	0xbe914f95	-0.2838103
102	0x3de8b2a8	0.11362201
103	0xbe46e24b	-0.19422261
104	0x3e8cb020	0.27478123
105	0xbd9e7423	-0.07736995
106	0x3df30e08	0.118679106
107	0xbe420409	-0.18946852
108	0x3f218780	0.6309738
109	0x3e3dd121	0.18536808
110	0xbdec0ed6	-0.11526267
111	0xbeb1de68	-0.34739995
112	0xbec2fba8	-0.38082623
113	0x3ef4f454	0.47842658
114	0x3f1ea1f8	0.61965895
115	0x3e20611b	0.15662043
116	0x3ed71497	0.42007896
117	0x3dcb70c0	0.09933615
118	0x3eca7bfe	0.39547724
119	0x3e4590c3	0.19293503
120	0xbec7be2f	-0.39012286
121	0xbdb20c9c	-0.08693811
122	0x3ec7b678	0.390064
123	0x3b92be99	0.0044782874
124	0x3e8358ef	0.25653788
125	0xbe9fb172	-0.31190068
126	0xbefdf816	-0.49603337
127	0x3db0832c	0.08618769
128	0xbe965c88	-0.2936747
129	0x3e8b17e3	0.27166662
130	0x3e52f027	0.20599423
131	0xbf112550	-0.5669756
132	0x3ec7e456	0.39041394
133	0xbe3825fa	-0.17983237
134	0x3e84f629	0.25969055
135	0x3dccd038	0.10000652
136	0xbeb87c93	-0.36032543
137	0x3ed8293b	0.42218956
138	0xbdcce254	-0.10004106
139	0x3eaa666e	0.33281273
140	0x3d913ee7	0.07092076
141	0xbda9ed2c	-0.0829719
142	0xbf197c57	-0.5995535
143	0x3e966f12	0.29381615
144	0x3d0419e8	0.03225127
145	0x3e9b0f8d	0.30285302
146	0x3d855169	0.065096684
147	0xbedf4641	-0.43608287
148	0xbe98a0a3	-0.29810056
149	0x3e84d5ea	0.25944453
150	0x3effda2d	0.49971142
151	0x3ec3f4c9	0.38272694
152	0xba8b4a14	-0.0010626935
153	0x3e76d200	0.24103546
154	0xbe4e2e55	-0.20134862
155	0xbe0c12b7	-0.13679014
156	0xbdccdf2a	-0.10003503
157	0xbe9c98ec	-0.3058542
158	0x3f27aaaa	0.6549479
159	0xbebdc96d	-0.37067738
160	0x3d99e64b	0.07514628
161	0xbe4bea2b	-0.19913547
162	0x3d8ce972	0.06880464
163	0xbde41719	-0.11137218
164	0x3e86488b	0.2622722
165	0x3d07d83d	0.033165205
166	0xbe48e7f8	-0.19619739
167	0xbea0345e	-0.31289953
168	0x3c01e53c	0.007928189
169	0x3e27402f	0.16333078
170	0xbe90f834	-0.28314364
171	0xbf10e569	-0.5660005
172	0xbe4a0f8d	-0.19732495
173	0x3ed63b56	0.41842145
174	0xbc83f4fc	-0.016108029
175	0x3e808b5b	0.2510632
176	0xbe995984	-0.29951108
177	0x3eb3f511	0.35147908
178	0xbdea089f	-0.114274256
179	0x3dce89b1	0.10084856
180	0xbd81b4f8	-0.06333345
181	0xbf542a38	-0.8287692
182	0xbea12238	-0.3147142
183	0xbe96730c	-0.2938465
184	0x3dfecdfe	0.12441634
185	0x3dc15a1f	0.09441017
186	0xbe16c26f	-0.14722608
187	0xbe88d6d8	-0.26726413
188	0xbeafd40d	-0.3434147
189	0x3c801bc8	0.015638247
190	0xbdb7100e	-0.08938609
191	0xbef81052	-0.4844995
192	0x3e2bcb4a	0.16776767
193	0xbe59665b	-0.21230452
194	0x3d59c9c0	0.05317092
195	0x3e58076d	0.21096583
196	0xbe0d8bff	-0.13822936
197	0xbeaccbf6	-0.3374936
198	0xbedb5039	-0.42834643
199	0xbefa87ee	-0.4893183
200	0x3e3ac9e2	0.18241075
201	0xbe7301d9	-0.23731174
202	0xbe81b313	-0.25331935
203	0x3d776d3f	0.06040692
204	0xbe6332dd	-0.22187372
205	0x3e27d697	0.16390453
206	0x3e92dd14	0.28684294
207	0xbc55f4c1	-0.013058842
208	0xbeb10b7f	-0.34579083
209	0xbf19eb11	-0.6012431
210	0xbd76b588	-0.060231715
211	0x3e9b6304	0.3034898
212	0xbe828b57	-0.25496933
213	0xbe44ebc0	-0.19230556
214	0xbd2d8a0d	-0.042367984
215	0xbeb7cdd5	-0.35899225
216	0xbebf20ae	-0.3732962
217	0x3dd7583d	0.10514877
218	0xbf06aae3	-0.526045
219	0x3e48863d	0.19582458
220	0xbd6aedd5	-0.05735572
221	0xbdfb8a10	-0.12282193
222	0xbe87f503	-0.26554117
223	0x3e1503c5	0.14552219
224	0x3e9924f7	0.29911014
225	0x3e34aad9	0.17643298
226	0x3dd49487	0.10379892
227	0x3e72e168	0.23718798
228	0xbe43f784	-0.19137388
229	0xbe7fe4ed	-0.24989672
230	0x3e55591c	0.20834774
231	0xbee96ebb	-0.45592293
232	0x3ef52239	0.47877672
233	0xbe60e20e	-0.21961233
234	0x3e207e99	0.15673293
235	0x3e98193a	0.29706746
236	0xbf037f6a	-0.51366293
237	0xbdceaf87	-0.10092073
238	0xbe96cd09	-0.29453304
239	0xbe936079	-0.2878454
240	0xbebd715c	-0.3700055
241	0xbe64c71c	-0.22341579
242	0x3e208cad	0.15678664
243	0x3e4b77ce	0.1986992
244	0xbec5b1ed	-0.3861231
245	0x3e2feda4	0.17180496
246	0x3e74d9f8	0.23911273
247	0xbe8cd35b	-0.27505
248	0x3e84868d	0.25883904
249	0xbedacc58	-0.42734027
250	0xbda910bc	-0.08255145
251	0x3efe244c	0.49637067
252	0xbdffdbdc	-0.12493107
253	0x3e83158f	0.25602385
254	0xbec9c71a	-0.39409715
255	0xbd886537	-0.0665993

bias f4 [15]
0	0xbe325c85	-0.17418106
1	0x3d7ca731	0.061682884
2	0x3dc14bb2	0.09438266
3	0x3db75d73	0.08953371
4	0x3d299a4f	0.041406926
5	0xbeba54aa	-0.3639272
6	0xbdeb8110	-0.11499226
7	0x3d5323d2	0.051547833
8	0x3c0a1d96	0.008429905
9	0x3dadfe50	0.08495772
10	0xbe2c4bf1	-0.16825844
11	0xbd4ac89d	-0.049507726
12	0xbe0f9e7a	-0.14025298
13	0xbe35a946	-0.17740354
14	0xbe493884	-0.19650465
