visualization/policy_nns/BP_MA/14x14/agent_0.pt (torch, 40859 bytes, 12 tensors)

weight f4 [32, 5]
-0.24215747 -0.0029090515 0.42296997 -0.38752845 0.29300606 0.3322976 0.6563983 -0.34600788
0.038010735 -0.41597453 0.4695712 -0.1694838 0.3300846 -0.028763955 -0.018561093 0.09612626
0.1422606 0.3877002 0.06782504 0.1908286 -0.50352544 0.3321555 0.6020673 0.5712991
0.4283679 -0.3618694 -0.2937541 0.58981675 -0.34811446 0.53958523 -0.38563704 -0.38770846
0.47599208 -0.5069083 -0.111270584 0.47671857 0.39458323 0.6092184 -0.17640759 -0.43902788
0.59778523 -0.082778856 -0.34875754 0.063120045 -0.38137314 0.23828334 0.4442403 -0.38367277
-0.43506488 -0.04457648 0.33256617 0.006473653 -0.19673046 -0.05256482 -0.51435417 -0.29472426
-0.4612624 0.56251615 0.41404036 -0.16066954 0.0062373835 0.18654642 0.18406002 -0.19666976
0.3338977 0.46859005 -0.06827651 0.015684629 0.6081587 0.5102905 -0.379436 0.53584343
0.2641901 -0.475107 0.31613812 -0.5387909 0.61429 -0.34406632 0.0718514 0.15703222
0.085375436 0.56324655 -0.24224648 -0.21764581 -0.50177616 -0.005713489 -0.19045246 -0.0006349691
-0.18111153 0.17441215 0.44586876 0.26443276 -0.35322636 -0.34830296 -0.52882427 0.47523353
-0.056476988 0.030034969 -0.0080040675 -0.34399542 0.30015835 0.42264852 0.061417256 -0.39646822
-0.22864729 0.08205064 -0.25650355 -0.22284265 0.013268404 -0.15362115 0.14262211 -0.08664435
-0.06545879 -0.31342328 -0.511061 0.62022173 0.1409013 0.60559195 -0.18474092 -0.12468062
-0.5061137 -0.30847695 0.42526242 -0.4968772 -0.19648589 0.30605128 0.41714445 0.20765477
-0.2079636 -0.053323243 -0.0014040098 -0.21694563 0.39070994 -0.13248068 -0.2721629 0.17182067
-0.46080604 -0.20898098 0.19820915 0.19294633 0.4740146 -0.30717972 -0.059241567 -0.26757514
-0.29945892 -0.4164232 0.23233771 -0.012507171 -0.37284276 -0.41321084 -0.58873695 0.6598273
-0.15821335 -0.20902479 -0.23192424 -0.25748935 -0.6165213 -0.41486743 0.41090885 0.12866956
00000000: 21f8 77be c9a5 3ebb 858f d83e 216a c6be
00000010: e404 963e e922 aa3e b809 283f f227 b1be
00000020: 25b1 1b3d 9dfa d4be a36b f03e 298d 2dbe
00000030: d900 a93e 63a2 ebbc 6f0d 98bc d8dd c43d
00000040: c3ac 113e a480 c63e dbe7 8a3d 9368 433e
00000050: 0be7 00bf 4910 aa3e 1521 1a3f a840 123f
00000060: 0a53 db3e f246 b9be f066 96be 3bfe 163f
00000070: 0f3c b2be 4222 0a3f 3872 c5be b981 c6be
00000080: 3cb5 f33e bec4 01bf d5e1 e3bd 7514 f43e
00000090: d006 ca3e bdf5 1b3f 31a4 34be 43c8 e0be
000000a0: 7408 193f f687 a9bd 5990 b2be 1545 813d
000000b0: 5743 c3be 8c00 743e 7773 e33e c270 c4be
000000c0: d3c0 debe d495 36bd 1d46 aa3e f020 d43b
000000d0: b673 49be 354e 57bd b7ac 03bf 19e6 96be
000000e0: 962a ecbe 0f01 103f 19fd d33e 8e86 24be
000000f0: f762 cc3b 0606 3f3e 3b7a 3c3e cc63 49be
00000100: a4f4 aa3e 09eb ef3e 8ed4 8bbd 0d7d 803c
00000110: 4ab0 1b3f 66a2 023f 6f45 c2be 092d 093f
00000120: ed43 873e 3a41 f3be dbdc a13e 33ee 09bf
00000130: 1c42 1d3f 7629 b0be d426 933d 0ecd 203e
00000140: 51d9 ae3d ed30 103f 760f 78be 8bde 5ebe
00000150: 6774 00bf 3838 bbbb f805 43be 0e74 26ba
00000160: 4d75 39be 1999 323e e948 e43e bb63 873e
00000170: 16da b4be c454 b2be 0761 07bf cf51 f33e
00000180: 6a54 67bd e50b f63c 7e23 03bc 2b20 b0be
00000190: 5bae 993e 6365 d83e a990 7b3d e2fd cabe
000001a0: 8422 6abe 2a0a a83d 6f54 83be dd30 64be
000001b0: b863 593c dd4e 1dbe 880b 123e 9872 b1bd
000001c0: 420f 86bd 0479 a0be e5d4 02bf dac6 1e3f
000001d0: 6e48 103e 1308 1b3f b92c 3dbe 8e58 ffbd
000001e0: ab90 01bf b1f0 9dbe ffbb d93e b066 febe
000001f0: 9933 49be c1b2 9c3e f593 d53e 74a3 543e
00000200: 69f4 54be 7969 5abd c006 b8ba ff26 5ebe
00000210: 220b c83e 04a9 07be f058 8bbe c2f1 2f3e
00000220: c5ee ebbe 1cff 55be 57f7 4a3e b993 453e
00000230: 0bb2 f23e a946 9dbe 49a7 72bd 9cff 88be
00000240: ae52 99be 6c35 d5be f0e9 6d3e e1ea 4cbc
00000250: 3fe5 bebe 5f90 d3be 77b7 16bf 71ea 283f
00000260: ae02 22be 980a 56be 8c7d 6dbe a5d5 83be
00000270: 57d4 1dbf 8169 d4be a562 d23e f4c1 033e

bias f4 [32]
-0.016418094 0.070197575 -0.0149201695 0.09719963 -0.023802137 0.087086566 0.1963335 0.025476925
-0.0042235735 0.021311793 0.054774176 0.05436535 -0.022676827 0.10168044 0.087214865 0.070393495
0.06994063 -0.012889172 0.06132631 -0.03878266 0.09882313 0.12288504 0.004475736 0.113806225
0.047731034 0.049816508 0.14940833 -0.014586698 -0.017715061 0.028589213 0.10116272 0.031299718
00000000: 3d7f 86bc bfc3 8f3d ba73 74bc 9a10 c73d
00000010: b3fc c2bc 715a b23d a60b 493e fcb4 d03c
00000020: e765 8abb 1296 ae3c e35a 603d 34ae 5e3d
00000030: c1c4 b9bc d63d d03d b59d b23d 772a 903d
00000040: 083d 8f3d 1b2d 53bc 4c31 7b3d 91da 1ebd
00000050: c863 ca3d 27ab fb3d 32a9 923b 3d13 e93d
00000060: 9e81 433d 650c 4c3d 7ffe 183e 0cfd 6ebc
00000070: 2d1f 91bc ed33 ea3c 662e cf3d 2234 003d

weight f4 [32, 32]
-0.31954008 0.39250076 0.12866515 0.38142723 -0.32874393 -0.48054588 -0.3811611 -0.15234827
-0.040171936 0.28015098 0.2435182 -0.47738105 0.27607444 -0.26868558 0.20380387 0.24313179
0.17329732 0.091694094 0.035227768 0.24688348 0.17832737 0.33043006 0.057106387 -0.19403508
0.21757813 0.10849387 0.2728909 -0.094799295 0.38946623 -0.1431986 0.3251371 -0.43273485
0.36581272 0.16600327 0.3238933 -0.26280186 -0.3120684 0.28250492 -0.10814384 0.30632818
-0.22454767 -0.04743919 0.043924674 0.33085412 0.37335703 0.03255775 -0.0024816762 -0.0007650318
0.30668685 -0.3530917 -0.05058161 -0.3944374 0.17964152 -0.050738245 0.27323553 0.45868814
-0.30606228 -0.05408299 0.0025545491 0.036816806 -0.07018 -0.1754469 -0.15208708 -0.13660055
0.3460415 -0.12876678 0.28953183 -0.38015682 0.00038286072 -0.3392356 -0.40647823 0.0067516346
-0.1814095 0.29746565 0.35690898 -0.43172657 -0.08066851 -0.054068565 -0.27720225 -0.32223257
-0.2088195 0.23512563 0.10067352 0.2752541 -0.045608614 0.28746566 0.10310467 -0.114790335
-0.023580039 -0.41987196 -0.014697155 -0.13191877 -0.12804711 -0.19338344 -0.11503942 -0.2795511
0.16010255 -0.043927643 0.036167447 0.45521572 0.33004025 0.2657463 -0.014595691 0.12164388
-0.19219165 0.27691305 0.4131411 0.07540426 0.29205844 0.49991328 -0.07504383 -0.23853433
-0.026779775 0.17089 -0.39568472 0.12164592 -0.1690739 0.4182404 0.07378293 0.40503606
0.51974064 -0.11064732 0.24319468 0.05562291 -0.036121607 -0.29250294 -0.06900799 0.15142828
-0.086896084 0.14642002 0.38752574 0.2629107 0.26476085 0.119404756 -0.3983639 -0.3114404
-0.21579258 0.19868954 -0.28221747 -0.23178475 0.27200624 0.35317737 -0.4409085 0.31199455
-0.19295362 0.094194 -0.3267458 0.049593348 0.019117774 0.37562922 0.24918072 -0.24184282
-0.35542145 -0.08989801 0.121473365 0.33035934 -0.41455257 -0.15905768 -0.09247807 -0.106584504
0.3371948 -0.019495478 -0.441587 -0.2348561 0.04991345 -0.32511777 0.09239258 0.47771096
-0.014694756 -0.005178583 0.41863832 0.29204023 0.37351376 -0.01771147 0.10372933 -0.24759783
0.14264299 0.3940345 0.09706499 -0.41397366 0.3324635 0.34680402 0.3470656 0.038792092
0.07343939 0.14954782 -0.19305572 -0.12310019 0.33239973 0.13287067 0.50029606 -0.38281435
0.02102572 0.061413087 -0.24623759 0.42378396 0.4023384 -0.14798488 0.4684354 0.47391415
-0.3200935 0.037800156 0.3986156 -0.19539359 0.0267324 -0.35025632 0.4126191 0.16835448
0.25727785 0.34151587 -0.050854344 -0.468697 0.072170965 -0.16255566 0.09889578 0.25335684
-0.13044102 -0.10691883 0.35311428 0.038026817 0.05944035 0.30108336 0.30081734 -0.3804517
0.03897077 0.047679573 -0.47771245 0.09557203 -0.0045341235 0.36384663 -0.37761164 0.40864244
-0.32486817 0.26269186 0.2752003 -0.028490638 -0.21981637 -0.10050715 -0.2654563 0.061176192
0.18909222 0.073207065 -0.24464224 0.13721508 0.40386415 -0.16134475 0.12334488 -0.028858526
0.2095797 -0.30552578 -0.33266652 -0.042354595 -0.4605126 0.16320372 0.4129517 -0.080499016
00000000: c29a a3be dcf5 c83e ccc0 033e 6e4a c33e
00000010: 2051 a8be 1c0a f6be 8c27 c3be 2f01 1cbe
00000020: 548b 24bd f36f 8f3e d65c 793e 4a6b f4be
00000030: a159 8d3e 2891 89be f6b1 503e 8af7 783e
00000040: da74 313e 1dca bb3d fe4a 103d 06cf 7c3e
00000050: 739b 363e 212e a93e 63e8 693d 22b1 46be
00000060: cdcc 5e3e 0932 de3d 5bb8 8b3e 2226 c2bd
00000070: 1e68 c73e a7a2 12be 5f78 a63e 6c8f ddbe
00000080: ce4b bb3e c3fc 293e 58d5 a53e f78d 86be
00000090: 6ec7 9fbe 7ca4 903e 857a ddbd 0cd7 9c3e
000000a0: d3ef 65be 994f 42bd 5cea 333d b665 a93e
000000b0: a728 bf3e 465b 053d 9ea3 22bb 6a8c 48ba
000000c0: 0f06 9d3e 6fc8 b4be aa2e 4fbd b3f3 c9be
000000d0: f2f3 373e e8d2 4fbd 87e5 8b3e 2cd9 ea3e
000000e0: 32b4 9cbe 2086 5dbd 396a 273b 38cd 163d
000000f0: 88ba 8fbd 5aa8 33be b7bc 1bbe 04e1 0bbe
00000100: 5a2c b13e 70db 03be 843d 943e eaa3 c2be
00000110: b2ba c839 4ab0 adbe ea1d d0be d13c dd3b
00000120: 69c3 39be 6b4d 983e c6bc b63e 440b ddbe
00000130: 8835 a5bd 0077 5dbd 74ed 8dbe abfb a4be
00000140: c7d4 55be c6c4 703e eb2d ce3d 1bee 8c3e
00000150: 19d0 3abd b32e 933e 8b28 d33d 3217 ebbd
00000160: ed2a c1bc 75f9 d6be 56cc 70bc b715 07be
00000170: c81e 03be 4f06 46be ca99 ebbd 5221 8fbe
00000180: ecf1 233e 79ed 33bd 5124 143d 0912 e93e
00000190: 09fb a83e e60f 883e c422 6fbc 6d20 f93d
000001a0: e3cd 44be 8cc7 8d3e 3b87 d33e 8c6d 9a3d
000001b0: af88 953e a2f4 ff3e 94b0 99bd 5842 74be
000001c0: 4261 dbbc cafd 2e3e 3097 cabe 7f21 f93d
000001d0: b521 2dbe 9b23 d63e 811b 973d e360 cf3e
000001e0: b90d 053f 109b e2bd 0708 793e d9d4 633d
000001f0: 40f4 13bd f2c2 95be 1054 8dbd 0410 1b3e
00000200: 93f6 b1bd 21ef 153e c669 c63e 3b9c 863e
00000210: bc8e 873e 7b8a f43d 5af6 cbbe 1e75 9fbe
00000220: bbf8 5cbe 4575 4b3e cf7e 90be fb58 6dbe
00000230: 6744 8b3e aad3 b43e c2be e1be c0bd 9f3e
00000240: a295 45be c9e8 c03d 3a4b a7be 6522 4b3d
00000250: e19c 9c3c 7952 c03e 3b29 7f3e a5a5 77be
00000260: cdf9 b5be 731c b8bd 07c7 f83d dc24 a93e
00000270: 3c40 d4be 04e0 22be 2465 bdbd fa48 dabd
00000280: cca4 ac3e fbb4 9fbc b117 e2be 1e7e 70be
00000290: 0c72 4c3d d675 a6be 5238 bd3d 8896 f43e
000002a0: 46c2 70bc 1ab1 a9bb c357 d63e 4c86 953e
000002b0: 323d bf3e a517 91bc 0b70 d43d 498a 7dbe
000002c0: 0111 123e e4be c93e 02ca c63d 5bf4 d3be
000002d0: a838 aa3e 4c90 b13e 95b2 b13e 75e4 1e3d
000002e0: 6467 963d 1023 193e 66b0 45be f41b fcbd
000002f0: 4c30 aa3e 400f 083e 6713 003f 3e00 c4be
00000300: 213e ac3c 4a8c 7b3d b525 7cbe 36fa d83e
00000310: 4cff cd3e 5989 17be c4d6 ef3e e0a4 f23e
00000320: 4ce3 a3be 56d4 1a3d 5817 cc3e 4215 48be
00000330: e8fd da3c cc54 b3be d042 d33e 1e65 2c3e
00000340: ecb9 833e 2bdb ae3e a54c 50bd 0ef9 efbe
00000350: 5fce 933d fe74 26be df89 ca3d fdb7 813e
00000360: 5592 05be 42f8 dabd 65cb b43e 02c2 1b3d
00000370: b977 733d 9927 9a3e bb04 9a3e 91ca c2be
00000380: d09f 1f3d a84b 433d ba96 f4be 45bb c33d
00000390: fc92 94bb 1b4a ba3e 5056 c1be 9539 d13e
000003a0: 1f55 a6be 8c7f 863e 0ee7 8c3e 3365 e9bc
000003b0: 8b17 61be b1d6 cdbd e3e9 87be e393 7a3d
000003c0: 64a1 413e 96ed 953d 7f83 7abe 1c82 0c3e
000003d0: 48c7 ce3e 8f37 25be 3e9c fc3d b768 ecbc
000003e0: 109c 563e e06d 9cbe 4453 aabe 037c 2dbd
000003f0: 4fc8 ebbe e01e 273e 686e d33e abdc a4bd

bias f4 [32]
0.07957364 0.13716461 -0.03198436 0.06572865 0.08711118 0.047851898 0.06726814 0.0015637284
0.07715257 0.08840803 -0.0217015 0.016482282 0.075701125 0.03698291 0.014427126 0.072901264
-0.10119486 0.073890634 0.06670037 0.004678092 0.06538579 0.105308995 0.13330328 0.043861903
0.14218728 0.034132116 0.042923078 0.061516836 -0.022682749 0.058182914 -0.04154977 0.053702578
00000000: 81f7 a23d e174 0c3e 0802 03bd be9c 863d
00000010: 5967 b23d 5a00 443d e1c3 893d 05f6 cc3a
00000020: 2b02 9e3d 450f b53d 58c7 b1bc da05 873c
00000030: 3109 9b3d 647b 173d c15f 6c3c 424d 953d
00000040: 403f cfbd f953 973d 349a 883d ae4a 993b
00000050: fce8 853d 3eac d73d a880 083e 8aa8 333d
00000060: 8b99 113e 1ece 0b3d 1cd0 2f3d 14f9 7b3d
00000070: 2cd1 b9bc 3551 6e3d 1730 2abd 3cf7 5b3d

weight_ih_l0 f4 [96, 32]
0.20075111 0.078696266 0.029336022 -0.05526768 -0.2147584 0.06419251 -0.06782231 -0.041630223
-0.20796902 0.19177532 -0.14099145 0.043556813 0.035278786 0.055089682 0.13866186 -0.098731056
0.0518669 -0.057294026 0.006117559 -0.04886995 -0.12354576 0.08604697 -0.10278983 0.15079834
0.09748857 -0.026138853 -0.06336376 -0.11687813 -0.11273039 -0.11516175 -0.0117757125 0.062409572
0.21153659 0.03675416 -0.08619234 -0.19183359 -0.108523466 0.1301627 -0.11326085 -0.08594961
-0.011497967 -0.07689264 -0.08945858 -0.19330198 -0.15166539 -0.22074093 -0.10815206 -0.16896406
-0.12460567 0.21512528 -0.19028705 0.108738765 -0.12140863 0.052545574 -0.11469504 -0.22936049
-0.053031396 0.18502083 -0.07336097 0.23274292 -0.06611366 -0.11592549 0.06274254 0.16572832
0.20968956 0.0333338 -0.22575662 -0.19059387 -0.06273334 -0.054054435 0.16380042 0.09457058
-0.2443362 -0.13846552 -0.16607049 -0.07194422 -0.17063907 -0.11232602 -0.06421064 0.0704789
-0.18444793 0.23211083 -0.28016967 -0.2281383 0.06267166 -0.12365575 -0.02055402 -0.049946126
-0.2303749 -0.023197206 -0.12111663 0.04987017 0.0020390076 -0.16385151 -0.115855426 -0.12533844
-0.10939255 -0.062249284 0.07451516 -0.16342323 -0.0339058 -0.072750434 0.07546657 -0.10594896
-0.089730754 -0.098639004 0.008938363 -0.22301131 -0.02358103 -0.087294884 -0.0099384 -0.16480313
0.25748262 -0.1477329 -0.15858702 0.11359734 0.069205225 -0.22849762 0.03463021 -0.16842873
-0.09277014 -0.030003436 -0.051355865 0.141501 -0.13156392 -0.21527305 0.08990165 0.0045457967
0.18553297 -0.10429371 -0.031636648 -0.1685747 -0.15873662 -0.107402354 -0.07488228 -0.026014555
0.022467095 -0.030708045 0.06643122 0.046289418 -0.1463149 -0.0033598754 -0.01660348 -0.1416322
-0.09135112 0.19879913 -0.21976593 0.05766778 0.031999502 0.04474658 0.07727556 -0.22124077
0.08700641 -0.13579829 0.06945429 0.049275473 0.0723907 -0.086111724 -0.1892488 0.057874143
0.14922853 -0.09218027 -0.19325036 -0.092598245 -0.041752383 0.023687767 0.07725473 0.068605185
-0.07875393 -0.07762993 0.071769856 -0.066361874 0.010774873 -0.08240606 -0.06642592 0.11271229
0.021686736 -0.112044856 -0.06304998 0.09614633 -0.058701925 0.08875679 -0.17886241 -0.098509446
0.0464744 -0.1114251 -0.07148918 0.04180817 -0.06699935 -0.1660854 0.16348067 -0.06423605
-0.021182537 0.15542042 -0.030514993 -0.120004386 0.039155282 -0.04956417 0.2572121 0.24414147
-0.055460557 0.08389384 -0.10337189 -0.22614202 -0.15019053 -0.007848991 0.03920411 0.05820874
-0.10149915 0.032351647 -0.15440251 -0.16931786 0.10218867 -0.16664664 0.13082467 0.027271029
-0.08102405 0.008476023 -0.011809704 -0.110904984 -0.043608084 -0.19416812 -0.015475461 -0.048538636
-0.044453632 -0.12730275 0.10336257 0.12192712 0.189149 0.13227646 0.13344896 0.16755871
0.1426372 0.03417991 -0.06521007 0.106208 0.13213646 -0.07326797 0.109553255 0.20669685
-0.139289 -0.09848065 -0.046442714 -0.1291567 0.23614943 0.02042421 -0.11894536 0.12379595
-0.018973345 0.12899692 0.17359377 -0.07018042 0.120569125 -0.111573905 -0.00674597 0.016806627
00000000: b391 4d3e 822b a13d 1952 f03c 5d60 62bd
00000010: a0e9 5bbe 5d77 833d 6ce6 8abd 7484 2abd
00000020: d5f5 54be c060 443e 1060 10be a168 323d
00000030: 7d80 103d b8a5 613d 60fd 0d3e 8233 cabd
00000040: 6372 543d 24ad 6abd ce75 c83b db2b 48bd
00000050: 8f05 fdbd 6539 b03d 7983 d2bd e16a 1a3e
00000060: 16a8 c73d 2621 d6bc dcc4 81bd cd5d efbd
00000070: 31df e6bd ecd9 ebbd ebee 40bc 2ea1 7f3d
00000080: 0c9d 583e 888b 163d 9c85 b0bd 0670 44be
00000090: 8d41 debd 5f49 053e 4ef5 e7bd 5906 b0bd
000000a0: f861 3cbc e379 9dbd 0f36 b7bd f4f0 45be
000000b0: 2c4e 1bbe e909 62be d47e ddbd ea04 2dbe
000000c0: 4231 ffbd cd49 5c3e 9cda 42be 6eb2 de3d
000000d0: 16a5 f8bd 073a 573d 3ce5 eabd 7add 6abe
000000e0: 7337 59bd 1a76 3d3e 473e 96bd 2954 6e3e
000000f0: 9966 87bd 586a edbd 297f 803d afb4 293e
00000100: dcb8 563e 0689 083d be2c 67be 0a2b 43be
00000110: 567a 80bd 2f68 5dbd 4cbb 273e 38ae c13d
00000120: 4533 7abe e8c9 0dbe 620e 2abe 7e57 93bd
00000130: 02bc 2ebe 2f0b e6bd de80 83bd 3e57 903d
00000140: ebdf 3cbe 76ae 6d3e 6672 8fbe 169d 69be
00000150: 005a 803d 3a3f fdbd e760 a8bc 4f94 4cbd
00000160: 66e7 6bbe 1108 bebc ff0b f8bd aa44 4c3d
00000170: dfa0 053b b1c8 27be 9c45 edbd b858 00be
00000180: 3409 e0bd 1bf9 7ebd 679b 983d 6b58 27be
00000190: cfe0 0abd 2efe 94bd 388e 9a3d c5fb d8bd
000001a0: c2c4 b7bd 3f03 cabd 3672 123c 145d 64be
000001b0: 012d c1bc a9c7 b2bd acd4 22bc 27c2 28be
000001c0: c3d4 833e 4b47 17be a364 22be b9a5 e83d
000001d0: 78bb 8d3d 48fb 69be 68d8 0d3d 9578 2cbe
000001e0: 45fe bdbd c4c9 f5bc 875a 52bd a3e5 103e
000001f0: b1b8 06be 8a70 5cbe 5b1e b83d e8f4 943b
00000200: 5bfc 3d3e f197 d5bd 6e95 01bd d99e 2cbe
00000210: da8b 22be c4f5 dbbd e15b 99bd 7a1c d5bc
00000220: ea0c b83c 708f fbbc 170d 883d f999 3d3d
00000230: 93d3 15be 5b31 5cbb 0504 88bc 0808 11be
00000240: 4c16 bbbd 0092 4b3e 520a 61be 0d35 6c3d
00000250: e911 033d 3148 373d a642 9e3d f18c 62be
00000260: 6b30 b23d b50e 0bbe 0d3e 8e3d 14d5 493d
00000270: 9341 943d 585b b0bd 70ca 41be 700d 6d3d
00000280: 5dcf 183e 02c9 bcbd 6ce3 45be 26a4 bdbd
00000290: 8c04 2bbd d90c c23c ba37 9e3d e080 8c3d
000002a0: be49 a1bd 71fc 9ebd 13fc 923d bce8 87bd
000002b0: 1889 303c 82c4 a8bd 500a 88bd b3d5 e63d
000002c0: 62a8 b13c c677 e5bd 5920 81bd 5ee8 c43d
000002d0: 6e71 70bd 1fc6 b53d b527 37be 52bf c9bd
000002e0: f15b 3e3d d832 e4bd eb68 92bd 0b3f 2b3d
000002f0: f536 89bd 4b12 2abe 7a67 273e 318e 83bd
00000300: 0087 adbc 8826 1f3e 94fa f9bc dcc4 f5bd
00000310: 4a61 203d cd03 4bbd 4eb1 833e 3900 7a3e
00000320: 9c2a 63bd 89d0 ab3d a4b4 d3bd c691 67be
00000330: 8ccb 19be 0e99 00bc 7d94 203d 4a6c 6e3d
00000340: c9de cfbd 2983 043d b11b 1ebe a961 2dbe
00000350: 4b48 d13d 6ba5 2abe e7f6 053e 7e67 df3c
00000360: f0ef a5bd 04df 0a3c 7d7d 41bc 2722 e3bd
00000370: 649e 32bd 02d4 46be ca8c 7dbc 73d0 46bd
00000380: 0315 36bd a75b 02be c1af d33d edb4 f93d
00000390: 47b0 413e 7b73 073e d8a6 083e 8394 2b3e
000003a0: 7c0f 123e 3c00 0c3d db8c 85bd 9483 d93d
000003b0: c84e 073e 840d 96bd 755d e03d 57a8 533e
000003c0: c7a1 0ebe 39b0 c9bd b73a 3ebd a741 04be
000003d0: 28d1 713e ac50 a73c a099 f3bd bb88 fd3d
000003e0: fd6d 9bbc c517 043e 91c2 313e c1ba 8fbd
000003f0: f2ec f63d dc80 e4bd 4c0d ddbb 0dae 893c

weight_hh_l0 f4 [96, 32]
0.07033884 0.13930564 -0.12268106 -0.13274224 0.059971932 -0.058522377 -0.13746981 -0.17019875
-0.096821554 0.033271246 -0.070212364 -0.13834575 -0.010393666 -0.0057650884 -0.19595811 0.107760586
0.174828 0.13078898 -0.15245359 -0.10489082 -0.142929 0.1543295 -0.08624018 0.13309222
-0.07596377 0.087381616 0.091393545 -0.08243621 0.06987015 0.10073678 0.04153847 -0.06482636
-0.121497996 0.04321978 -0.19164391 -0.079314 0.050644413 0.11584059 0.13382648 -0.15877828
-0.049616512 -0.02740715 0.008723359 -0.04609094 -0.086109735 -0.055299155 -0.024681188 -0.09375925
0.02862103 -0.12637033 -0.16029476 0.026852325 -0.047619324 0.1700027 -0.08703923 -0.13588838
0.17533013 -0.016374068 0.18696418 0.12061103 0.18234743 0.14432596 0.09590986 -0.119273886
-0.043031637 -0.0110894255 0.0399401 0.120457925 0.04315509 -0.22917552 0.050322644 -0.008733936
0.074366 -0.11058004 0.16522698 -0.10713014 0.07813264 0.15122007 -0.1478096 -0.16200851
0.14691678 -0.14074337 -0.04235733 -0.10419059 0.113737434 0.18396516 0.105041154 0.19166993
0.11141259 -0.106953904 0.02806126 0.20869392 0.112210765 -0.09195969 0.065115035 0.030882172
-0.095326185 -0.14084892 -0.12831564 -0.21700907 -0.0477912 0.0380141 -0.020729156 -0.075610146
-0.043257467 0.05942145 -0.10280807 0.1698013 0.15643227 0.13035344 0.1974919 -0.05237653
-0.08844458 0.14028202 -0.21146947 -0.20983893 0.14878552 -0.056346335 0.11810396 -0.090029836
-0.09872625 -0.15250088 0.048744228 0.007367406 -0.058945745 0.046746485 0.08490172 -0.1013201
0.10453661 -0.06210265 0.05586913 -0.08587263 -0.089042924 0.14892612 -0.11493335 0.029945297
-0.15901037 0.07144912 0.13365851 -0.1529436 -0.1732921 -0.17182079 0.03939212 -0.21588674
0.08099524 0.17601448 -0.04351483 0.11654263 -0.1779659 0.06332099 -0.047985148 0.15258138
0.17684174 -0.08978689 -0.028099492 -0.051483914 0.10464904 0.16697676 -0.028965402 0.15893042
0.16421272 0.014007517 0.0611815 0.11965582 -0.020381337 -0.14957355 0.07929858 -0.1963159
0.042754494 -0.18142283 0.2071175 -0.07913168 -0.12618989 0.07407393 -0.095709264 0.11603158
0.00083870743 0.10765557 -0.1688358 0.010775895 0.10284838 0.12757748 0.015513622 0.19835335
0.12046212 -0.053878654 -0.1333526 0.18173009 0.17554115 -0.062519096 -0.0318851 0.04016906
0.16086306 -0.04966675 0.08046057 -0.090680115 0.004550856 -0.08388671 0.027650086 0.073775835
0.010179254 0.09532503 -0.08334411 -0.08420152 0.13875082 -0.01988399 -0.06501367 0.034652185
0.03682482 -0.018561745 -0.12242531 -0.09419746 -0.012109321 0.050341554 -0.17279506 0.15834868
0.024707997 0.014576279 0.04144064 0.05707217 0.06295696 0.023050796 -0.040445957 -0.14068879
0.042959 0.11308169 0.14384738 -0.19075659 0.17942902 0.06797232 -0.199116 0.20425466
0.12444586 0.18993859 -0.1606278 -0.09857937 0.03546784 -0.05207832 -0.055732056 -0.0019347795
0.07691756 -0.13026963 0.01628219 0.16080737 0.13737059 0.0031302583 -0.10254841 -0.14424524
0.11089876 -0.010580844 -0.05727246 -0.17140917 -0.023221608 -0.21529034 0.1290362 0.06564931
00000000: cf0d 903d 23a6 0e3e 3540 fbbd 95ed 07be
00000010: 21a5 753d 29b5 6fbd e3c4 0cbe 9548 2ebe
00000020: 614a c6bd 6e47 083d 80cb 8fbd 82aa 0dbe
00000030: 324a 2abc 11e9 bcbb 3ea9 48be 95b1 dc3d
00000040: 1c06 333e 8ced 053e cb1c 1cbe 00d1 d6bd
00000050: fb5b 12be 8d08 1e3e b19e b0bd 5449 083e
00000060: e592 9bbd 22f5 b23d 8a2c bb3d 51d4 a8bd
00000070: 1518 8f3d 164f ce3d 3e24 2a3d afc3 84bd
00000080: f1d3 f8bd 3907 313d 4d3e 44be 616f a2bd
00000090: 8470 4f3d d53d ed3d cf09 093e c696 22be
000000a0: af3a 4bbd f684 e0bc 6bec 0e3c dac9 3cbd
000000b0: 4d5a b0bd 5e81 62bd 3430 cabc da04 c0bd
000000c0: a676 ea3c 3967 01be 4f24 24be 68f9 db3c
000000d0: 7b0c 43bd 3015 2e3e a041 b2bd 5326 0bbe
000000e0: be89 333e e922 86bc 8a73 3f3e ea02 f73d
000000f0: 49b9 3a3e 2fca 133e 646c c43d de45 f4bd
00000100: f141 30bd 6cb0 35bc 3b98 233d a5b2 f63d
00000110: 64c3 303d fdac 6abe 1e1f 4e3d c818 0fbc
00000120: 344d 983d ca77 e2bd 4331 293e 0c67 dbbd
00000130: 0104 a03d 6fd9 1a3e 665b 17be 8fe5 25be
00000140: 5a71 163e 081f 10be e17e 2dbd e061 d5bd
00000150: 2cef e83d 5d61 3c3e d11f d73d 1f45 443e
00000160: 492c e43d a60a dbbd bae0 e53c dcb3 553e
00000170: c2ce e53d 5d55 bcbd 085b 853d 9cfc fc3c
00000180: 603a c3bd b33a 10be 2d65 03be a037 5ebe
00000190: b5c0 43bd acb4 1b3d 31d0 a9bc 7ed9 9abd
000001a0: be2e 31bd e863 733d 0a8d d2bd 64e0 2d3e
000001b0: c82f 203e 5f7b 053e 513b 4a3e c688 56bd
000001c0: 6f22 b5bd 17a6 0f3e 748b 58be 04e0 56be
000001d0: 3b5b 183e 6acb 66bd 7de0 f13d 9061 b8bd
000001e0: fd30 cabd 3129 1cbe 07a8 473d 486a f13b
000001f0: 1871 71bd 3e79 3f3d f4e0 ad3d ea80 cfbd
00000200: 4a17 d63d 595f 7ebd 07d7 643d fddd afbd
00000210: 235c b6bd 1780 183e 2d62 ebbd d74f f53c
00000220: 9dd3 22be eb53 923d c7dd 083e 3f9d 1cbe
00000230: 7c73 31be caf1 2fbe a259 213d 6a11 5dbe
00000240: d5e0 a53d 243d 343e 9b3c 32bd e7ad ee3d
00000250: b13c 36be 6fae 813d 138c 44bd 4b3e 1c3e
00000260: 0016 353e 30e2 b7bd e830 e6bc cce0 52bd
00000270: 3c52 d63d f5fb 2a3e da48 edbc a8be 223e
00000280: 6127 283e c97f 653c 7499 7a3d 1c0e f53d
00000290: c3f6 a6bc cf29 19be 4b67 a23d 0907 49be
000002a0: 561f 2f3d e8c6 39be 9c16 543e ca0f a2bd
000002b0: ec37 01be 13b4 973d 3803 c4bd f7a1 ed3d
000002c0: b4dc 5b3a 867a dc3d 4be3 2cbe 618d 303c
000002d0: 2ca2 d23d aca3 023e d92c 7e3c 241d 4b3e
000002e0: d8b4 f63d ddaf 5cbd 958d 08be 7417 3a3e
000002f0: 0fc1 333e 030a 80bd f399 02bd 5088 243d
00000300: 49b9 243e 5d6f 4bbd 83c8 a43d 7fb6 b9bd
00000310: 591f 953b cccc abbd 6f82 e23c c917 973d
00000320: e3c6 263c c539 c33d 51b0 aabd d971 acbd
00000330: b214 0e3e c0e3 a2bc e325 85bd 73ef 0d3d
00000340: 9fd5 163d cd0e 98bc 1fba fabd 99ea c0bd
00000350: 2c66 46bc f232 4e3d 30f1 30be 2826 223e
00000360: 6d68 ca3c 58d1 6e3c a9bd 293d 82c4 693d
00000370: 94ef 803d 06d5 bc3c a9aa 25bd b910 10be
00000380: c7f5 2f3d 6097 e73d ba4c 133e b255 43be
00000390: 3ebc 373e 1235 8b3d 11e5 4bbe 2228 513e
000003a0: 79dd fe3d 437f 423e 9d7b 24be fbe3 c9bd
000003b0: ba46 113d 1450 55bd 4c47 64bd 6d98 fdba
000003c0: f486 9d3d 6765 05be 3a62 853c b0aa 243e
000003d0: e0aa 0c3e 0525 4d3b e704 d2bd 06b5 13be
000003e0: e41e e33d 475b 2dbc 8796 6abd e385 2fbe
000003f0: 3e3b bebc 1275 5cbe 1122 043e 2573 863d

bias_ih_l0 f4 [96]
-0.064506344 -0.0036906053 -0.06836697 0.06729064 0.1396355 0.027502254 -0.0072958507 0.18766972
-0.08577323 0.17026496 0.11000512 0.16375844 0.21289277 -0.0041487096 0.015850589 0.05746355
-0.10132562 0.19437186 -0.010948076 0.10039627 -0.10148232 0.1759089 0.14877743 -0.11312495
0.16728178 0.08212796 0.15481329 -0.039661225 0.011849079 -0.092341736 0.22830838 0.23924257
-0.016760958 -0.23250616 -0.28633362 -0.21307303 0.0080526965 -0.15990257 -0.1407708 -0.07328871
-0.15345238 0.033410184 0.03595787 -0.22451799 -0.04258886 -0.04319879 -0.20389487 -0.14981581
0.012371394 0.0043642865 -0.0826586 0.12015745 0.05422313 0.10270901 -0.16446947 -0.07088141
-0.16398898 0.005510718 -0.14985465 -0.15652491 -0.09743955 -0.18584767 -0.2513272 -0.16691312
-0.1767346 -0.16064572 0.15826613 -0.030968651 -0.05876345 -0.058296427 -0.0441473 0.08317972
-0.04059005 0.07243864 0.061902374 -0.029844673 0.105728865 0.111970335 -0.15103945 0.16653454
-0.09976899 0.03752133 -0.03484043 0.045472395 -0.07421466 -0.062089942 -0.15197632 0.13711034
-0.14597335 0.10259307 -0.20233417 0.058443137 -0.1572358 -0.15244135 0.16728649 0.2336738
00000000: e71b 84bd 15de 71bb fb03 8cbd adcf 893d
00000010: 9cfc 0e3e 684c e13c 0812 efbb 7e2c 403e
00000020: e0a9 afbd f059 2e3e 5d4a e13d 4bb0 273e
00000030: 9000 5a3e e6f1 87bb 18d9 813c e65e 6b3d
00000040: cf83 cfbd 6b09 473e 8f5f 33bc 8f9c cd3d
00000050: f6d5 cfbd 7621 343e 1c59 183e 0eae e7bd
00000060: ea4b 2b3e b432 a83d 6087 1e3e cf73 22bd
00000070: a422 423c aa1d bdbd acc9 693e 01fc 743e
00000080: 474e 89bc 1816 6ebe 529a 92be d12f 5abe
00000090: 75ef 033c 80bd 23be 3826 10be 6418 96bd
000000a0: 9f22 1dbe 1ed9 083d 8f48 133d 0be8 65be
000000b0: a871 2ebd 37f1 30bd d1c9 50be 5169 19be
000000c0: 63b1 4a3c 4a02 8f3b e948 a9bd 1c15 f63d
000000d0: 1319 5e3d 1a59 d23d af6a 28be 462a 91bd
000000e0: baec 27be 4193 b43b 7f73 19be 1148 20be
000000f0: 638e c7bd da4e 3ebe f5ad 80be 46eb 2abe
00000100: eaf9 34be 5080 24be 8410 223e f8b1 fdbc
00000110: f1b1 70bd 3cc8 6ebd cdd3 34bd 215a aa3d
00000120: c141 26bd b65a 943d 588d 7d3d d17c f4bc
00000130: 6088 d83d b450 e53d 16aa 1abe 0888 2a3e
00000140: af53 ccbd f7af 193d d7b4 0ebd 4341 3a3d
00000150: dbfd 97bd 0652 7ebd ae9f 1bbe a766 0c3e
00000160: 0a7a 15be 511c d23d b030 4fbe 1262 6f3d
00000170: 6c02 21be 9619 1cbe 264d 2b3e 2f48 6f3e

bias_hh_l0 f4 [96]
-0.009015592 -0.15197118 -0.16428152 -0.05953163 0.09355 0.029728144 -0.17219363 -0.037136424
0.13751395 0.13495299 0.12313981 0.002274198 0.028013028 -0.07718471 -0.09596242 -0.06486298
0.075787455 0.014433118 0.03995391 0.01931582 0.108107254 -0.049346764 0.13497537 0.015368675
-0.07430798 0.02203374 0.10677963 0.0074796234 0.019394338 -0.060412895 -0.05832188 0.1748743
0.008500086 -0.15768099 0.008867046 -0.058378316 0.039488073 -0.19503888 -0.012662727 -0.16485703
-0.11550108 0.009087439 0.0489924 -0.0045976504 -0.083564445 -0.14800493 -0.1621732 -0.18818082
-0.0019921486 -0.022023784 -0.067661226 0.07989298 -0.25408778 0.043172 -0.32322684 -0.24427259
-0.02909868 0.0005253025 -0.13372102 -0.12201896 0.07963758 -0.009764269 0.04798382 -0.028631145
-0.08977641 -0.015874118 -0.10397193 0.049446113 0.012353178 0.11413207 -0.07483414 0.070560105
-0.016942231 0.16023932 0.15676324 -0.18523975 -0.12150735 -0.045678355 -0.10024641 0.045160804
-0.020146612 -0.038536113 0.1316829 -0.15200609 -0.16274376 0.028108528 -0.24745452 -0.18110834
-0.17625913 0.02707444 -0.22024284 0.0293932 0.17492892 -0.044109225 0.1977901 0.2586073
00000000: 22b6 13bc 559e 1bbe 6a39 28be 70d7 73bd
00000010: 2497 bf3d 7088 f33c 8753 30be 5d1c 18bd
00000020: 75d0 0c3e 1e31 0a3e ba30 fc3d b60a 153b
00000030: 947b e53c 0413 9ebd f287 c4bd e2d6 84bd
00000040: 7436 9b3d e278 6c3c b6a6 233d 363c 9e3c
00000050: 5667 dd3d d51f 4abd fc36 0a3e e5cc 7b3c
00000060: c82e 98bd 1a80 b43c 47af da3d a117 f53b
00000070: e0e0 9e3c 8373 77bd ece2 6ebd 4012 333e
00000080: f243 0b3c 2077 21be 1647 113c 1a1e 6fbd
00000090: 3fbe 213d 46b8 47be 5477 4fbc 48d0 28be
000000a0: d58b ecbd 7be3 143c 41ac 483d e3a7 96bb
000000b0: d623 abbd 9b8e 17be bb10 26be 79b2 40be
000000c0: b58e 02bb 396b b4bc f891 8abd ee9e a33d
000000d0: cb17 82be 20d5 303d fd7d a5be 9822 7abe
000000e0: 5b60 eebc 74b4 093a 2aee 08be 14e5 f9bd
000000f0: 0719 a33d 50fa 1fbc af8a 443d dd8b eabc
00000100: b2dc b7bd 700a 82bc 3cef d4bd 0288 4a3d
00000110: fc64 4a3c 13be e93d a442 99bd d181 903d
00000120: 6fca 8abc c715 243e 8b86 203e 7daf 3dbe
00000130: d8d8 f8bd 3a19 3bbd fd4d cdbd 89fa 383d
00000140: 820a a5bc 0bd8 1dbd e2d7 063e 7ca7 1bbe
00000150: 4da6 26be db43 e63c b864 7dbe 7774 39be
00000160: 467d 34be 37cb dd3c 5787 61be 02ca f03c
00000170: 9120 333e e0ab 34bd 7d89 4a3e 2d68 843e

weight f4 [32, 32]
-0.1906288 0.4920929 -0.37855643 -0.18264005 -0.22075552 0.35757688 0.32670456 0.24573241
-0.22223967 -0.22788242 0.20790705 0.45549726 0.3785948 0.10312986 -0.061876018 0.13152838
-0.352751 -0.043229382 0.4155697 -0.015961127 0.35184038 0.34012583 0.47617805 0.22556719
-0.33921748 -0.1927916 0.060190957 0.34381315 -0.018806249 0.1784307 -0.018156318 -0.28262785
-0.4942643 -0.05874905 -0.20106299 0.115126535 0.33041474 -0.26154682 0.17083211 0.24000338
0.12062745 0.3205177 -0.16294454 -0.28063127 -0.1772191 0.4674229 0.2763766 0.14862087
0.1644244 -0.40331894 0.44690204 -0.39263916 0.0446886 -0.3537445 -0.03447899 -0.3864059
-0.27259085 -0.13768147 0.31918857 0.26301312 -0.2619092 0.09739595 0.39152628 0.47834873
0.38056067 0.40671688 0.2588381 0.13348177 -0.47488317 0.40146756 0.5060019 0.29003748
-0.24194607 0.06508036 0.39287516 0.11745795 0.17842886 -0.32498533 0.55289584 -0.43685788
-0.10425998 -0.2755314 0.058319505 -0.15870307 0.081385985 0.38931385 -0.008853709 0.32154647
0.38614658 -0.29916322 0.044370357 0.3231958 -0.41861147 0.23934649 -0.4949644 -0.1307737
0.49625835 0.08870795 -0.33855185 -0.29289404 -0.23741685 0.060325287 0.20862907 -0.061489288
0.48189366 -0.07576761 -0.0010661775 0.49523488 -0.13634731 0.05913857 0.4050694 -0.21597946
-0.36243972 0.37993 0.17302355 0.39355284 -0.39563435 0.5473844 0.15674701 -0.27896342
-0.013977762 0.07098941 0.3825796 0.34694767 0.017468998 -0.16098851 -0.3580744 -0.33351338
0.2712681 -0.050122127 0.3093831 0.09986727 -0.24572028 -0.32084954 0.38756737 0.04385993
0.014531953 -0.17571013 0.13076739 -0.025780978 0.15192142 -0.22082771 0.3915825 -0.20563291
-0.40226543 0.22704273 -0.35737836 -0.3597671 0.35300615 0.24679469 0.25371423 -0.16445792
0.02024969 0.1635293 -0.061984472 0.090514466 -0.45700467 0.44228148 -0.5745738 -0.5656996
-0.26059556 0.26378372 -0.23143145 -0.052992232 0.50151056 0.2436399 -0.29900455 -0.04658202
-0.0019328119 -0.33788636 -0.43721056 0.20032328 0.39223713 0.010934361 -0.49428082 0.27170512
0.27878895 0.12681414 0.20485038 0.23420884 -0.26008996 0.3600928 -0.12690516 -0.021765837
-0.19478835 0.17577007 -0.3604911 0.26954123 -0.15537561 -0.498492 -0.058844276 0.30691373
0.21190606 -0.5487954 0.50168097 -0.52475303 0.48042902 -0.15458958 -0.42913362 -0.21360445
0.11070431 0.17041543 0.21617001 -0.5227058 -0.19725645 0.5057215 0.2152538 0.09013954
-0.1772445 -0.4509962 -0.11283762 0.22965418 0.43241322 -0.08622943 -0.16233641 0.17850907
-0.56528443 0.326788 -0.51281595 -0.29796195 -0.16215417 -0.17710362 0.346455 0.5530738
-0.40543643 0.14321204 -0.38925353 0.11676186 0.18773171 0.15627263 -0.20310257 -0.20468849
0.16687272 0.15922377 -0.31969452 0.3718299 -0.20848252 -0.06338015 0.2601105 0.32543847
-0.348496 -0.32272187 0.1811946 -0.04747998 0.2591627 -0.091577195 0.21511447 0.34316567
0.36919835 0.22673061 0.09239532 0.22952573 -0.018813035 -0.30260727 0.082085155 0.031177651
00000000: 3234 43be 9af3 fb3e 26d2 c1be fe05 3bbe
00000010: bc0d 62be 5114 b73e d245 a73e 47a1 7b3e
00000020: cc92 63be 025a 69be 96e5 543e f036 e93e
00000030: 2dd7 c13e bf35 d33d b571 7dbd 60af 063e
00000040: c79b b4be 4b11 31bd 8dc5 d43e e9c0 82bc
00000050: 6c24 b43e f924 ae3e 9ccd f33e 16fb 663e
00000060: eaad adbe 296b 45be cb8a 763d 4708 b03e
00000070: 900f 9abc 8ab6 363e 8fbc 94bc 99b4 90be
00000080: 3610 fdbe d8a2 70bd 75e3 4dbe 76c7 eb3d
00000090: 1f2c a93e 77e9 85be 9dee 2e3e 72c3 753e
000000a0: 860b f73d e51a a43e efda 26be e7ae 8fbe
000000b0: ec78 35be 0e52 ef3e 3c81 8d3e 1230 183e
000000c0: df5e 283e d27f cebe 58d0 e43e 0008 c9be
000000d0: 650b 373d 001e b5be d739 0dbd fed6 c5be
000000e0: 0791 8bbe 5ffc 0cbe af6c a33e a8a9 863e
000000f0: f618 86be 8777 c73d 2276 c83e 20ea f43e
00000100: d9d8 c23e 323d d03e 6d86 843e 72af 083e
00000110: e323 f3be 288d cd3e 5789 013f cb7f 943e
00000120: b6c0 77be da48 853d ef26 c93e cb8d f03d
00000130: 0eb6 363e 7a64 a6be 958a 0d3f d6ab dfbe
00000140: 4286 d5bd 7412 8dbe 6fe0 6e3d 0f83 22be
00000150: b2ad a63d 2554 c73e 260f 11bc bda1 a43e
00000160: 01b5 c53e ec2b 99be b1bd 353d eb79 a53e
00000170: 3e54 d6be 3f17 753e f96b fdbe 8ae9 05be
00000180: 9315 fe3e 84ac b53d ab56 adbe 35f6 95be
00000190: 671d 73be a617 773d dca2 553e 31dc 7bbd
000001a0: c4ba f63e 0c2c 9bbd fbbe 8bba 6d8f fd3e
000001b0: a19e 0bbe 493b 723d 4265 cf3e b829 5dbe
000001c0: b391 b9be 2f86 c23e 162d 313e c27f c93e
000001d0: 9690 cabe 6221 0c3f 4a82 203e 4bd4 8ebe
000001e0: fc02 65bc e562 913d 79e1 c33e 20a3 b13e
000001f0: 251b 8f3c 2cda 24be 8755 b7be 44c2 aabe
00000200: a7e3 8a3e dc4c 4dbd 7667 9e3e 3687 cc3d
00000210: 199e 7bbe 6446 a4be 3b6f c63e 78a6 333d
00000220: 6e17 6e3c 5bed 33be e3e7 053e a132 d3bc
00000230: 4a91 1b3e a920 62be 807d c83e 6f91 52be
00000240: bcf5 cdbe e47d 683e 4cfa b6be 6533 b8be
00000250: 39bd b43e bfb7 7c3e d5e6 813e a867 28be
00000260: aee2 a53c 3a74 273e 6ee3 7dbd a65f b93d
00000270: 84fc e9be b872 e23e 4517 13bf b0d1 10bf
00000280: c86c 85be a90e 873e 5efc 6cbe 620e 59bd
00000290: ff62 003f bd7c 793e 2017 99be cacc 3ebd
000002a0: 6856 fdba 71ff acbe 10da dfbe 8c21 4d3e
000002b0: 4ed3 c83e 0926 333c 6012 fdbe ef1c 8b3e
000002c0: 6dbd 8e3e 91db 013e 4cc4 513e 71d4 6f3e
000002d0: 832a 85be 155e b83e 6df3 01be 454e b2bc
000002e0: 9976 47be 12fd 333e 4a92 b8be 4f01 8a3e
000002f0: c91a 1fbe 583a ffbe b206 71bd cc23 9d3e
00000300: e7fd 583e db7d 0cbf 2a6e 003f 3756 06bf
00000310: cbfa f53e bb4c 1ebe 67b7 dbbe 20bb 5abe
00000320: f1b8 e23d 6281 2e3e ac5b 5d3e 0cd0 05bf
00000330: 98fd 49be f776 013f 7e6b 5c3e 149b b83d
00000340: 957f 35be f9e8 e6be 6917 e7bd 772a 6b3e
00000350: 4465 dd3e 0e99 b0bd 843b 26be 15cb 363e
00000360: 7bb6 10bf c250 a73e e847 03bf 788e 98be
00000370: be0b 26be a75a 35be 8d62 b13e 3f96 0d3f
00000380: 5d95 cfbe 2da6 123e 3d4c c7be d820 ef3d
00000390: be3c 403e ef05 203e 1ffa 4fbe dc99 51be
000003a0: afe0 2a3e 8e0b 233e 00af a3be 7d60 be3e
000003b0: 717c 55be 74cd 81bd 342d 853e df9f a63e
000003c0: 116e b2be cd3b a5be 148b 393e 5e7a 42bd
000003d0: f9b0 843e d38c bbbd f846 5c3e 69b3 af3e
000003e0: 9107 bd3e 122c 683e c239 bd3d cb08 6b3e
000003f0: cb1d 9abc 57ef 9abe 431c a83d 4668 ff3c

bias f4 [32]
-0.064269215 0.067327 -0.13746138 -0.13116394 -0.15120213 0.08427334 0.12853721 -0.034154147
-0.075479314 0.038606428 0.04220532 -0.016292294 0.094547436 0.030532217 0.11756726 0.015300168
0.022376215 0.0024626774 -0.026153732 0.07473874 0.025527168 0.031937655 0.018582042 0.030786622
0.07810188 0.07091213 -0.14126255 0.08080683 -0.037066653 0.05488524 -0.036576077 -0.061001383
00000000: 949f 83bd bde2 893d adc2 0cbe d74f 06be
00000010: bbd4 1abe 8097 ac3d 429f 033e 38e5 0bbd
00000020: e694 9abd c621 1e3d 7cdf 2c3d 6b77 85bc
00000030: 16a2 c13d b31e fa3c 1bc7 f03d 8ead 7a3c
00000040: 534e b73c df64 213b 5a40 d6bc a010 993d
00000050: 5a1e d13c 0fd1 023d 5e39 983c 3a34 fc3c
00000060: e1f3 9f3d 613a 913d 21a7 10be 0d7e a53d
00000070: 34d3 17bd 58cf 603d ccd0 15bd 96dc 79bd

weight f4 [8, 32]
0.103255846 0.19543499 -0.15841132 -0.32881564 -0.005096887 0.12492018 -0.068518594 -0.18972267
-0.14698714 0.1159738 -0.08515106 0.35345918 -0.16426386 -0.35397208 -0.3093351 0.28997767
0.30686554 -0.19405274 0.043609347 -0.2064031 -0.16008118 0.16769771 -0.30690193 -0.09121784
-0.20834032 -0.30376965 -0.18599214 -0.25372198 0.36310384 -0.3024973 0.352144 0.34044814
-0.31638855 -0.37060168 0.24670121 0.27107233 0.46797588 -0.4051036 -0.42370856 -0.03907295
-0.12110078 -0.16946179 -0.29576546 0.18667156 -0.032576807 0.32469338 -0.36238888 -0.29233253
0.16286424 -0.39748937 0.32313365 -0.3436779 -0.2871784 -0.18405713 0.24040186 -0.092424065
0.09135549 0.058761757 0.33918864 0.08916389 0.15050143 -0.12274467 -0.15028037 0.22086915
-0.28892627 0.15704703 -0.23879617 -0.29504126 -0.38335705 0.11785276 0.30242223 -0.41015798
-0.40350476 -0.06066438 0.13420781 -0.20084116 -0.031183088 0.21753228 0.36182547 0.12953645
0.21464193 -0.108127765 -0.37209207 0.13767795 0.14701508 -0.036657955 -0.42561132 -0.033687674
0.4794394 0.4073414 -0.3499304 0.20155004 -0.37744159 0.09272659 0.14429471 -0.031114383
0.0747669 -0.41203544 0.4370061 0.14553104 0.16192721 -0.43148923 0.23245956 0.3696567
-0.26473632 -0.3351616 -0.3353932 -0.2679681 -0.33508947 0.08797415 0.25759298 0.103996456
0.28723592 0.07928226 0.19098048 -0.3572554 0.06851093 0.12629713 0.16279675 0.398542
-0.26912296 -0.33044863 0.119118124 0.1501788 -0.07366276 0.3227361 -0.21673033 -0.4138562
-0.09834686 0.3489528 0.004315934 -0.15844418 -0.10761797 -0.10147633 0.09161219 -0.10740646
0.22698826 0.4052807 -0.4938936 -0.3764768 0.19498825 -0.27705118 0.40911853 0.07104704
-0.2471791 0.39305785 0.19193338 -0.44093728 0.46650037 -0.36572722 0.24340811 -0.02201915
-0.44384658 -0.085610606 -0.28261808 -0.3334288 0.28752357 0.05567017 -0.36075976 -0.16873698
-0.14826511 0.076471075 -0.12767224 0.4401999 -0.08769285 0.1810841 -0.33026025 -0.18573458
0.49948627 -0.30809382 0.30034763 -0.24830079 -0.2729797 -0.19007055 -0.39067864 0.33102515
-0.28233984 -0.01798621 0.11945844 -0.38978338 0.1824877 -0.2095191 0.04731121 0.33348447
-0.36549345 0.10542655 0.12525873 -0.09957606 0.028829847 0.1297067 0.45165908 0.08303249
0.14960615 -0.3969549 0.4532061 0.053954266 0.039028473 -0.091916606 0.103092946 0.37661102
-0.2538094 0.080974974 -0.2875832 -0.34817284 -0.17804858 0.17864801 -0.17831224 -0.15914924
-0.1342277 0.01105849 0.04253342 -0.16476868 0.28160134 0.35351527 0.077959225 -0.23407096
-0.07842983 -0.029517235 0.27636462 -0.3832337 0.22102423 -0.36478573 -0.24458553 -0.22285989
-0.1193976 0.1446614 0.35532665 0.116295464 0.16175395 -0.17381412 -0.26503974 0.37183487
0.46028718 0.11895766 0.19823878 -0.4395995 0.000652254 0.10445624 -0.45734337 0.081092134
-0.26020464 0.2478265 0.043865282 0.32734346 -0.070874035 -0.26122487 -0.08681002 -0.35451338
-0.34926307 -0.0035924853 0.12786478 0.0033519843 0.18352899 -0.2415723 -0.164023 -0.018225921
00000000: cd77 d33d 1c20 483e 9436 22be 865a a8be
00000010: c903 a7bb 27d6 ff3d 7a53 8cbd a946 42be
00000020: cc83 16be ac83 ed3d ae63 aebd 9af8 b43e
00000030: c934 28be d43b b5be 2c61 9ebe f477 943e
00000040: 7b1d 9d3e c3b5 46be b79f 323d 565b 53be
00000050: 52ec 23be f3b8 2b3e 4022 9dbe 6bd0 babd
00000060: 2a57 55be b287 9bbe b974 3ebe d9e7 81be
00000070: bfe8 b93e ede0 9abe 384c b43e 384f ae3e
00000080: aefd a1be 81bf bdbe 3e9f 7c3e fec9 8a3e
00000090: 899a ef3e bd69 cfbe 54f0 d8be f50a 20bd
000000a0: b003 f8bd 6487 2dbe 926e 97be d426 3f3e
000000b0: 426f 05bd 363e a63e 098b b9be 9cac 95be
000000c0: e2c5 263e ba83 cbbe c671 a53e 8df6 afbe
000000d0: 0c09 93be 7979 3cbe e82b 763e d448 bdbd
000000e0: 9618 bb3d 2bb0 703d 22aa ad3e 8f9b b63d
000000f0: 0c1d 1a3e 8f61 fbbd 19e3 19be 862b 623e
00000100: 25ee 93be f0d0 203e fc86 74be a60f 97be
00000110: 6047 c4be ca5c f13d 16d7 9a3e 3a00 d2be
00000120: 2d98 cebe 377b 78bd c66d 093e 4ea9 4dbe
00000130: ad73 ffbc c8c0 5e3e 3041 b93e 34a5 043e
00000140: 18cb 5b3e 1772 ddbd da82 bebe 73fb 0c3e
00000150: 1f8b 163e a726 16bd bae9 d9be 16fc 09bd
00000160: 1579 f53e 0d8f d03e 142a b3be 2263 4e3e
00000170: 0640 c1be 70e7 bd3d fec1 133e 97e3 febc
00000180: 631f 993d 4ff6 d2be 43bf df3e 1706 153e
00000190: 3fd0 253e 28ec dcbe e109 6e3e a543 bd3e
000001a0: 858b 87be 4d9a abbe a8b8 abbe 1d33 89be
000001b0: d990 abbe cb2b b43d 3ae3 833e 18fc d43d
000001c0: 9610 933e bd5e a23d 6390 433e 2eea b6be
000001d0: 754f 8c3d 0954 013e 31b4 263e b20d cc3e
000001e0: 7cca 89be 9030 a9be 34f4 f33d 79c8 193e
000001f0: 80dc 96bd ab3d a53e 8eee 5dbe f6e4 d3be
00000200: 146a c9bd f1a9 b23e ae6c 8d3b 313f 22be
00000210: cf66 dcbd d2d2 cfbd 2c9f bb3d ebf7 dbbd
00000220: 9c6f 683e f480 cf3e 9fdf fcbe 91c1 c0be
00000230: 00ab 473e a7d9 8dbe fc77 d13e 1c81 913d
00000240: 851c 7dbe e13e c93e 2f8a 443e 88c2 e1be
00000250: 23d9 ee3e 9940 bbbe fa3f 793e 8161 b4bc
00000260: dc3f e3be 9d54 afbd 51b3 90be 2eb7 aabe
00000270: 4a36 933e 6706 643d 81b5 b8be 63c9 2cbe
00000280: cfd2 17be de9c 9c3d 83bc 02be e261 e13e
00000290: 4f98 b3bd 1c6e 393e df17 a9be 3531 3ebe
000002a0: aabc ff3e 79be 9dbe 2ac7 993e 9042 7ebe
000002b0: ffc3 8bbe dba1 42be 0807 c8be 217c a93e
000002c0: d98e 90be d157 93bc a0a6 f43d b091 c7be
000002d0: 0ede 3a3e 2d8c 56be 66c9 413d 7abe aa3e
000002e0: f521 bbbe e0e9 d73d d343 003e 89ee cbbd
000002f0: 922c ec3c d5d1 043e dc3f e73e f00c aa3d
00000300: 5b32 193e ac3d cbbe a10a e83e 26ff 5c3d
00000310: 52dc 1f3d c63e bcbd 6522 d33d 29d3 c03e
00000320: 4ef3 81be 35d6 a53d 1b3e 93be b643 b2be
00000330: 5e52 36be 81ef 363e 7c97 36be 05f8 22be
00000340: fc72 09be ab2e 353c 8637 2e3d 1fb9 28be
00000350: 0d2e 903e f4ff b43e 16a9 9f3d 4cb0 6fbe
00000360: d29f a0bd 21ce f1bc aa7f 8d3e 3537 c4be
00000370: 2d54 623e 32c5 babe a174 7abe 6235 64be
00000380: bb86 f4bd 1e22 143e 60ed b53e 512c ee3d
00000390: d4a2 253e 54fc 31be 4ab3 87be 2461 be3e
000003a0: c3aa eb3e 13a0 f33d 1bff 4a3e 3013 e1be
000003b0: 06fc 2a3a 27ed d53d e928 eabe a213 a63d
000003c0: 8b39 85be 3bc6 7d3e 15ac 333d 9099 a73e
000003d0: 6826 91bd 44bf 85be 74c9 b1bd c782 b5be
000003e0: 9cd2 b2be e76f 6bbb fcee 023e f7ac 5b3b
000003f0: 06ef 3b3e bb5e 77be a5f5 27be 874e 95bc

bias f4 [8]
-0.019815892 -0.10404854 0.10458276 -0.07227119 0.013524028 -0.08939909 -0.120632604 -0.07018052
00000000: f054 a2bc 6717 d5bd 7c2f d63d eb02 94bd
00000010: e293 5d3c df16 b7bd 3a0e f7bd ceba 8fbd
