visualization/policy_nns/BP_MA/14x14/agent_state_dict_1.pt (torch, 38849 bytes, 12 tensors)

fc1.weight f4 [32, 5]
000000 86 5c 1d 3e ca 41 23 be e0 0b a6 bd 7b 0b 06 3f
       0.15367326 -0.15943065 -0.08107734 0.5236127
000010 9f a2 6a 3e 73 08 ef bd 5c ce c6 3d 58 e6 50 3e
       0.22913598 -0.116715334 0.09707329 0.20400369
000020 97 9a 7e bd d9 d6 ea be 6f 17 9f 3e 49 ff 8f be
       -0.062159147 -0.4586704 0.31072566 -0.28124455
000030 54 39 e0 be 4a a4 ad bd f6 46 03 3e 30 66 1b bd
       -0.43793738 -0.08478601 0.12820038 -0.03793925
000040 ce a6 3a 3d 7a ba fb 3e f6 ca 4f 3e fd a6 6f 3d
       0.045569234 0.49165708 0.20292267 0.05850886
000050 ba 22 94 be e8 88 98 3e c2 97 f5 be 41 83 0b bf
       -0.28932744 0.2979195 -0.47967345 -0.5449715
000060 09 92 70 be e1 ee e3 3e 4a 1e 16 3f be 69 1d 3f
       -0.23493208 0.44518188 0.5863997 0.61489475
000070 0d cc 51 be ef 74 7b be 62 f3 a5 3e cb 1f d7 3e
       -0.20487995 -0.24556325 0.3241225 0.42016444
000080 ce 63 0b bf 0d 89 e1 be 5f 8d e4 be 67 10 a0 be
       -0.54449165 -0.44049874 -0.44639108 -0.31262514
000090 21 ca fa bc 5f 06 a3 be 0c ff 84 3c c8 10 f3 3e
       -0.03061396 -0.31840798 0.016234897 0.4747374
0000a0 18 26 ec 3e 20 fa 80 be 4a 45 c5 be 5b 62 05 bf
       0.46122813 -0.2519083 -0.38529426 -0.52103204
0000b0 b7 2f 7b 3e 9a a3 c2 be e7 62 13 3e 12 16 e1 be
       0.2452992 -0.38015443 0.14393197 -0.4396215
0000c0 9e 15 c6 be da f9 c8 3e 07 b8 15 be a8 28 07 bf
       -0.38688368 0.39253122 -0.14620982 -0.5279641
0000d0 56 67 4b be 54 29 9b 3e 0b af 4e 3d a5 f6 8d bc
       -0.19863638 0.30304968 0.050459903 -0.017329523
0000e0 e9 c7 11 3f 56 6c 93 bc a3 41 13 bf 72 3c 8f 3e
       0.56945664 -0.017995995 -0.5752203 0.27975804
0000f0 99 c0 8b be 32 5b 9c 3e ef 94 51 bd 68 bf 00 3f
       -0.27295378 0.30538327 -0.051167425 0.5029206
000100 22 07 00 3f 65 c8 ac 3e 67 f1 9f be 27 1c 6e 3e
       0.50010884 0.3374664 -0.31238863 0.23252927
000110 de 2e 95 3e b4 53 69 bd 96 03 75 be 66 2b 22 bf
       0.2913732 -0.05696459 -0.23927149 -0.6334747
000120 e6 77 d9 bc c1 24 05 3f 1b e5 db 3c 3b 17 fd 3d
       -0.02654643 0.52009207 0.026842644 0.123579465
000130 18 60 24 be d8 97 3c 3e b1 52 1d bd 99 da 74 3e
       -0.16052282 0.18417299 -0.03840894 0.23911513
000140 26 10 d8 3e ad 59 0b 3f b2 bf b4 3e 92 57 c3 3d
       0.4219982 0.5443371 0.35302502 0.09538187
000150 9f 32 d1 be e2 11 dc be 25 9b 6f 3e 3a f9 af 3e
       -0.40858933 -0.42982394 0.23399027 0.34369832
000160 6a 74 ad be 42 57 7b 3e 4d 6d c7 be b5 8e 0c 3f
       -0.3387788 0.24545005 -0.38950577 0.54905254
000170 0b f1 2f 3f 71 c8 17 bd 5b 96 4f 3e b9 78 cc 3e
       0.6872718 -0.03705639 0.202722 0.39935854
000180 ec 74 94 be 69 03 f3 3d c5 0e a9 bc 47 51 b6 3e
       -0.28995454 0.11865885 -0.020636925 0.35608885
000190 6b e5 e6 be 4c 08 5a 3e 8c fe b8 3d f8 d3 93 3e
       -0.45096907 0.21292228 0.09032926 0.28872657
0001a0 e3 7c 8d be db 97 7c 3e ce b0 4a be d5 55 92 3e
       -0.27634344 0.24667303 -0.19794008 0.2858111
0001b0 5a c1 2d bf 6f 02 c7 be 7c a8 ec 3d 87 8c e9 3e
       -0.67873156 -0.38869044 0.11555573 0.45615026
0001c0 61 49 8b be 7d c7 58 be d5 95 85 3e c4 59 1d 3f
       -0.2720442 -0.21169849 0.26090875 0.61465096
0001d0 3c 11 ac bd 59 d1 fb be fd 3d a1 be 61 05 01 bf
       -0.08401725 -0.49183157 -0.31492606 -0.5039883
0001e0 2c 9a 9f bd df d4 95 be 84 a0 b6 3e 4f a3 d8 3e
       -0.07793078 -0.2926397 0.3566934 0.42312095
0001f0 40 4c 79 3e 0e e4 eb be 67 8c 14 bf cf 92 1b be
       0.24345493 -0.4607243 -0.58026737 -0.15192722
000200 07 b1 2e 3f c2 35 d8 3d 90 7d da 3e 22 31 f9 be
       0.6823887 0.105571285 0.42673922 -0.48670298
000210 ed 55 ea be d8 d6 1e 3d ba 32 d9 bd 99 b6 8a be
       -0.4576868 0.03877911 -0.106053784 -0.27092436
000220 ce 39 69 3e 60 71 d1 bc d5 25 be be 66 44 d6 be
       0.22775957 -0.025566757 -0.3713824 -0.4184906
000230 3b 2f ce 3e 18 c9 f6 3e 7c 23 9e be 1a 57 0f bf
       0.4027041 0.48200297 -0.30886447 -0.5599228
000240 fb a0 7f be 85 9d c6 3e 98 cf 2a be e2 45 91 be
       -0.24963753 0.38792053 -0.16680753 -0.2837363
000250 ab a1 0c 3d 12 93 0b bf 74 31 2e be 91 fa 45 be
       0.034333866 -0.54521286 -0.17011052 -0.19333865
000260 6c 8a 12 3f 30 f8 ed be 11 62 02 3f 3e d8 a1 3d
       0.57242465 -0.46478415 0.5093089 0.07902573
000270 7c 75 7b bd a3 9f 16 be 43 11 d0 3e 2f 32 ad bd
       -0.06139134 -0.14709334 0.4063817 -0.084568374

fc1.bias f4 [32]
000000 27 32 f2 3c 08 5e 69 3a f3 d5 1a 3c ae 0f 9e 3b
       0.02956493 0.00089022564 0.0094504235 0.0048236465
000010 4e 01 9d 3d 10 e5 e1 3d b1 06 73 bd b1 b9 90 bd
       0.076662645 0.11030018 -0.059332553 -0.07066668
000020 ff 53 23 3c fd d3 a4 bd 6e c5 57 3d 32 7e 60 3c
       0.009968757 -0.08048246 0.052678518 0.013701962
000030 db c9 a4 3a 50 06 d9 3d 17 99 1c bc aa a4 15 3e
       0.0012572365 0.10596907 -0.009557984 0.14613596
000040 7e f8 ef 3b 72 fe 32 3d a1 b6 e8 3d 69 6b 9b 3d
       0.0073233237 0.04369969 0.11362959 0.07588846
000050 27 59 97 bc 8d bc 39 3e f9 92 4d 3d 74 0b a8 3d
       -0.018475128 0.18138333 0.050188992 0.082053095
000060 51 1e 9f 3d 89 3d bf 3d b5 c2 85 3d 48 3b 8d b8
       0.07769454 0.09337909 0.06531278 -6.734446e-05
000070 f0 a4 9f 3d 42 cd 74 bc f4 b3 21 3e 6a 58 76 3d
       0.07795131 -0.014941515 0.15791303 0.060142912

fc2.weight f4 [32, 32]
000000 25 1f 24 be a0 a8 82 3e 6f 09 13 3e 6a 2e bb 3e
       -0.16027506 0.25519276 0.14359067 0.3655885
000010 fd 65 fc 3d d2 ac 2c be cf b4 a3 3e 46 4e 96 be
       0.1232414 -0.168628 0.31973884 -0.29356593
000020 30 ed c0 be 69 d3 d1 bd 62 1f 01 3f 57 19 f4 3d
       -0.3768096 -0.102454014 0.5043851 0.11918896
000030 4f 00 ca 3e f0 80 0a 3f 5a 7d 03 3f 6a de 9e bd
       0.3945336 0.54102993 0.51363146 -0.07757266
000040 72 a7 22 3b 2f 8f a7 be 0a 86 5a be 46 e7 fa 3d
       0.0024819043 -0.32726428 -0.21340194 0.12251143
000050 ae a9 b3 be 0a 44 52 be 87 db 0d 3e 2d ba c6 be
       -0.35090393 -0.20533767 0.13853274 -0.38813916
000060 b5 6f 18 be cc 2f 02 3f 67 10 83 be 8c 22 92 3e
       -0.14886363 0.5085418 -0.25598451 0.28541982
000070 9a a1 a6 bd 17 bb 71 3d e0 27 e3 be 9b a8 48 be
       -0.08136292 0.059016313 -0.4436636 -0.19595568
000080 4b 7b b9 be 3e 8c 2b 3e 96 a1 55 3e 3c f9 6e bd
       -0.36226878 0.16752717 0.20862421 -0.058343157
000090 6d 86 c2 3e 97 81 9c 3d 56 56 a8 be 72 7e 02 3e
       0.37993184 0.07641905 -0.3287837 0.12743548
0000a0 98 00 79 3d 9f 39 09 3d fa 63 3e bd c8 4a 9a be
       0.060791582 0.033502217 -0.046482064 -0.3013518
0000b0 9b ff ac be 1d 75 51 be 9e 70 bf 3e 00 39 3f bd
       -0.33788761 -0.20454831 0.37390608 -0.04668522
0000c0 0b 06 d7 be 7d f1 d1 3c 42 57 62 be b8 22 b5 bd
       -0.41996798 0.025627846 -0.22103599 -0.08844513
0000d0 a7 06 af 3c 55 34 06 bf 5f 43 22 3e 2d f9 4b 3e
       0.021365477 -0.524236 0.15846013 0.19919272
0000e0 03 f0 b6 be 1e 1b 11 be b5 4d 07 be ae 56 95 3d
       -0.3572999 -0.141705 -0.13213237 0.072919235
0000f0 fc 60 93 be f2 09 d2 be b7 b5 0e be 04 81 91 3e
       -0.2878493 -0.41023213 -0.13936506 0.28418744
000100 1b 88 24 be 7a 25 a7 3e d9 7d d2 3e e2 f3 b9 3e
       -0.16067545 0.3264578 0.4111164 0.3631888
000110 4a ac b6 3e 9e c2 cc 3e 0e e7 5e be 7b ba 86 3e
       0.3567832 0.3999223 -0.21767828 0.26314148
000120 20 4c 99 be d9 11 a8 be 6c c8 e2 be 12 ed dd bc
       -0.2994089 -0.32826117 -0.44293535 -0.027090583
000130 82 db f5 bc 6d cf 92 3d ed 8b 24 be 44 2b 06 3f
       -0.030011896 0.071684696 -0.16069002 0.5240977
000140 1b cc 11 3c 27 f8 9b be 24 bc 68 3e 54 80 d8 3e
       0.00889876 -0.30462763 0.2272802 0.42285407
000150 93 b4 5d 3e 20 c5 cb 3d 80 51 60 3e f6 52 ae 3e
       0.21650915 0.09949708 0.2190609 0.3404767
000160 2e 6b 45 3e 0d f5 fc be a5 55 09 3f 7e 1b ab 3e
       0.19279167 -0.4940571 0.5364631 0.33419412
000170 8a 06 76 be 74 63 2c 3e 07 c0 27 3e 9a 43 5c 3e
       -0.24025932 0.16834813 0.16381846 0.21510163
000180 ea c5 bb 3e 9b c0 c1 3d 43 00 b3 3e 95 21 23 be
       0.36674434 0.09460565 0.34961137 -0.1593078
000190 a8 62 fe 3e 2b 8b b5 3e 17 09 ac be 95 4f c7 3e
       0.49684644 0.3545774 -0.33600685 0.38927904
0001a0 98 3f 52 3e 8a c0 a9 3e 98 4b d5 be 4e 65 e7 3d
       0.20532072 0.33154708 -0.41659236 0.11298619
0001b0 dc c6 1b 3e da 9a 48 be b8 03 db be 79 47 6d 3d
       0.15212578 -0.19590321 -0.42776275 0.05792949
0001c0 da c1 2a 3d 51 45 e7 3e 51 d8 a1 3c cf 2d dc be
       0.041688778 0.45170072 0.019756468 -0.430037
0001d0 65 b0 47 be 14 67 b3 3e 57 c7 b6 3e 97 bd 38 3e
       -0.19500883 0.3503958 0.3569896 0.18041073
0001e0 bf 4b 9c be ff 05 dd be dd f6 1c 3e 80 d8 3d 3e
       -0.3052654 -0.43168637 0.15328546 0.1853962
0001f0 8f 17 00 3f 38 21 2c 3e 6b 15 04 3e 96 6c 1f 3e
       0.5003595 0.16809547 0.12898795 0.15568766
000200 5a 8d 13 be ee b5 a2 be 47 49 08 bc 18 79 ab 3d
       -0.1440939 -0.31779426 -0.008318252 0.08372706
000210 14 7c d8 be 71 b6 42 bd 15 af b8 3c 06 77 91 be
       -0.42282164 -0.04753727 0.022544423 -0.2841112
000220 fc 67 9b 3e 1e 20 89 be 38 b8 ba 3e 77 00 d7 be
       0.3035277 -0.26782316 0.36468673 -0.41992542
000230 c1 27 82 3e de 0f 94 bd 0a 38 b4 bd 41 56 16 3e
       0.25420955 -0.07229589 -0.08799751 0.14681341
000240 fc d5 5f 3e c4 7c b2 be f8 19 94 be 0d 49 5e 3e
       0.21858972 -0.34860814 -0.28926063 0.21707554
000250 56 f8 a4 3e 2e 9b 5d be 7b d8 81 be 8a b6 7e 3d
       0.32220715 -0.21641228 -0.25360474 0.0621858
000260 5a 41 eb 3e 3c f3 9d 3e 52 1b 65 be 54 0d 2b be
       0.45948297 0.30849636 -0.22373703 -0.16704303
000270 eb a8 eb be 6c c6 8b be dc e8 e0 be c8 1d 5e 3e
       -0.46027312 -0.2729982 -0.43927658 0.21691048
000280 46 bc 44 3e d6 cb 4e 3e c7 03 d0 bc a6 a3 ec 3b
       0.19212446 0.20194945 -0.025392426 0.007221657
000290 27 22 a0 3d 49 f0 b0 3e 50 fc 25 be ef ee 85 be
       0.07819014 0.34558323 -0.16209531 -0.26158854
0002a0 82 bb 87 3e ba d2 07 bd ad f8 cf 3d 68 af e0 3e
       0.26510245 -0.03315995 0.10154853 0.43883824
0002b0 24 e7 a5 be cc 67 34 3e 58 74 ce 3d 44 75 98 3e
       -0.3240291 0.1761772 0.100807846 0.29776967
0002c0 d7 5e 35 be 0c b7 be be d1 78 93 3e f6 5d 15 3e
       -0.1771196 -0.3724903 0.28803113 0.14586625
0002d0 64 6c 0c be 3e 35 5b be 14 8e 29 be 09 99 c6 3e
       -0.13713223 -0.21407029 -0.16558105 0.38788632
0002e0 45 25 0c be bc c7 54 3d 79 6b 38 3e d9 51 cb 3e
       -0.13686092 0.051948294 0.18009748 0.39710882
0002f0 13 45 f1 3e 5a e1 2c 3e f3 8e 9e be d8 09 fb be
       0.47123012 0.1688284 -0.30968437 -0.49030948
000300 d5 46 ea bd e8 76 95 3d 44 75 47 be b0 e4 41 3c
       -0.114392914 0.0729807 -0.19478327 0.0118343085
000310 39 f9 eb 3e 4c a0 ec bd b5 02 d5 3e 7f 0e 9c be
       0.4608858 -0.11554012 0.41603628 -0.3047981
000320 85 30 3a bd 7a fa 8b be b3 00 cf 3c d8 1a 1f 3e
       -0.045456428 -0.27339536 0.025268888 0.15537584
000330 bf 86 83 be f4 5c 44 be 52 cb 94 3e 0a bf 66 3c
       -0.2568874 -0.19176084 0.2906137 0.014083633
000340 2d 3a ee 3e 9a 07 85 bc 84 8e 7d bd fe 1a 09 be
       0.4652876 -0.016238976 -0.06190349 -0.13389203
000350 c7 07 bb be 11 93 ab be 91 99 dd 3d b8 c0 97 be
       -0.3652937 -0.3351064 0.10820306 -0.2963922
000360 2f e5 22 be 4b 4b ce 3d a5 1a c2 3e 90 79 10 be
       -0.15907739 0.10072955 0.37910953 -0.14108872
000370 af 81 4e 3e 2b 4c 1c be 88 d0 82 3e 39 3e 99 bc
       0.20166658 -0.15263431 0.25549722 -0.018706428
000380 71 c8 87 3d 86 f2 b8 3e 49 97 e2 bd 89 21 84 3d
       0.06630028 0.3612253 -0.110640116 0.06451709
000390 96 49 88 3e a0 35 03 3e d5 2c 9f be 63 17 34 3e
       0.26618642 0.12813425 -0.31088892 0.17587046
0003a0 6b 09 39 be 52 d2 24 3e af 68 be bd a3 a4 90 be
       -0.18069999 0.16095856 -0.092973106 -0.28250608
0003b0 55 54 8b 3d dd 23 11 be 2d 66 5b 3e e8 cb 95 3e
       0.068031944 -0.14173837 0.21425696 0.2925713
0003c0 0c d1 e3 be 5c fd ee be 1c b6 e7 be 30 fd 3d be
       -0.44495428 -0.46677673 -0.45256126 -0.18553615
0003d0 e3 0b 49 be fa 21 dc 3d cd 56 85 be ad fa 9d 3c
       -0.1963344 0.10748668 -0.26042786 0.01928457
0003e0 b3 d8 58 be 15 5a ee bd b3 95 ba bc 60 17 32 3e
       -0.21176414 -0.116382755 -0.02277646 0.1739173
0003f0 1b d5 10 be e7 bc 34 3e df f6 a1 3e 84 c6 89 bd
       -0.14143793 0.17650186 0.3163366 -0.06727317

fc2.bias f4 [32]
000000 eb 4a 6d 3d dc 18 95 bd 24 ed a6 3d 08 ca 48 3d
       0.057932775 -0.07280132 0.081507 0.049020797
000010 7f cb e0 3d 53 4c 0e 3d e9 2a 21 3d 8f 1b 2a bd
       0.10976314 0.034740757 0.039347563 -0.04153019
000020 72 2e 6e 3d 43 58 c1 3c a8 14 17 3e e1 04 9a 3d
       0.058149762 0.023601657 0.14753973 0.07520462
000030 b7 50 21 3d 8d 08 e8 3b 2c 61 00 3e a9 4e 1c 3b
       0.039383616 0.0070810975 0.12537068 0.0023850596
000040 46 bc 85 3c 44 de b9 3c 34 e7 8d 3d 53 5c 6b bc
       0.016325127 0.022688992 0.06928864 -0.0143652735
000050 94 76 a6 3d 27 15 85 3c b8 b2 f2 3d 73 8e 90 3c
       0.08128086 0.016245438 0.11850494 0.01764605
000060 ce 3e 7f 3d 81 33 06 3e a6 03 1e 3d d1 f4 f7 3c
       0.062315755 0.13105585 0.0385777 0.030268105
000070 80 30 85 3d 9f 41 21 3d e1 cb bf 3d 62 1c c7 3c
       0.06503391 0.03936922 0.09365059 0.024305526

gru.weight_ih_l0 f4 [96, 32]
000000 e4 5d 3a bd 64 cf 2c be 8e c6 63 3e 45 1e 04 3d
       -0.045499697 -0.16875988 0.22243711 0.03225543
000010 90 7b 8d bd 7a 55 c6 3d 1b 9d 0a bd fe b4 a1 bd
       -0.06908333 0.09684272 -0.033841234 -0.0789585
000020 84 26 7b 3d 40 b5 af 3d e7 10 33 be 81 b5 30 3d
       0.06131603 0.085794926 -0.17486916 0.043141846
000030 17 49 6f 3e 22 1c a9 bd 5d 86 84 3d 99 71 94 bd
       0.23367725 -0.08257319 0.0647094 -0.072482295
000040 08 d3 2b be 0f 07 84 bd b3 44 7d bc 8d c7 1a be
       -0.16779721 -0.06446659 -0.015458274 -0.15115185
000050 94 8c e4 3d 30 1e d7 3d 58 3d 0f 3e 0a a4 f8 3d
       0.11159626 0.10503805 0.13988245 0.12140663
000060 18 d1 a0 bd 5c f9 87 3d b5 17 90 3d 10 60 c8 bd
       -0.078523815 0.066393584 0.07035772 -0.097839475
000070 ef 1c b4 3b de 39 5f bd 56 8e da 3d ae 6c 28 ba
       0.005496613 -0.054498546 0.1067168 -0.0006424886
000080 d6 04 81 bd 59 83 4a 3d 48 3e 94 bd 68 0e 8d bd
       -0.062997505 0.04944167 -0.07238442 -0.068875134
000090 d5 48 5a 3b 7b cd 23 be 19 06 e5 bd 65 81 82 3d
       0.0033307571 -0.15996353 -0.11182804 0.06372336
0000a0 5e 4c 3c be fc bc 62 3d 87 3f 03 3e e8 4b 4d 3e
       -0.18388507 0.05535601 0.12817203 0.20048487
0000b0 22 1f b8 3d 30 75 9e 3d dc 6e 82 bd 59 de 5f be
       0.08990313 0.077371955 -0.06368801 -0.21862163
0000c0 0c ad 49 bd 14 36 db bd c8 4d 55 3e 61 d7 c5 bd
       -0.049237296 -0.10703674 0.20830452 -0.09660221
0000d0 da 4e af bd d1 c6 75 3e 21 b4 80 be eb 59 21 bc
       -0.085599616 0.24001624 -0.25137427 -0.009848098
0000e0 e3 9a e0 3d 8a 1a 21 be e3 57 9f bc 5f 88 58 3c
       0.10967042 -0.1573278 -0.019451087 0.013216107
0000f0 1c d5 a1 bd 20 fc 9a 3e 5e 6d 24 3e 51 53 ca bd
       -0.079019755 0.3027048 0.16057345 -0.098791726
000100 25 49 f0 bd e4 bd 06 bb ea a1 6f bd f4 7d 00 3e
       -0.11732701 -0.002055996 -0.058504023 0.12548047
000110 00 32 54 3d 97 1f 24 3e 6f c0 40 bd 40 1a 47 bc
       0.051805496 0.16027676 -0.04705852 -0.012152255
000120 5b 2a 2b 3e 2e c7 37 bd 2c 32 ac bd ee 1b 38 bc
       0.16715376 -0.044867687 -0.08408007 -0.011237128
000130 b1 fa 19 be 5e 03 c6 3d 0c 86 91 bd ce a1 7d 3e
       -0.15037037 0.09668611 -0.071056455 0.24768755
000140 1c 2f d2 bd 79 71 cc 3d 5a 36 a1 bb 82 a2 c8 3d
       -0.10262892 0.09982581 -0.0049198093 0.09796621
000150 e2 14 c1 3d c0 4b 26 be 69 a4 b5 bd 74 43 db 3d
       0.09427811 -0.16239834 -0.088692494 0.10706225
000160 b3 34 3c 3e 91 f7 02 be 0d 33 23 3e 7b 99 e2 bd
       0.18379478 -0.12789752 0.15937443 -0.1106443
000170 5b 21 e5 3d b6 ee 1f 3b 83 c0 ad 3d 75 16 e3 bd
       0.11188003 0.0024403757 0.08483984 -0.11088268
000180 8d a1 31 3a ad 91 45 be 6e 6c 4f 3c 2b 4b a3 3c
       0.0006776087 -0.19293852 0.012660129 0.019933304
000190 51 63 53 3d 93 2b 48 3e 1b 25 89 3c 64 86 98 3c
       0.051608387 0.19547872 0.016741326 0.01861877
0001a0 3b e0 b6 bd 6e 8a 3e 3e 1d 0c 05 3e e1 a7 c4 3c
       -0.08929487 0.18607494 0.12992902 0.024005832
0001b0 ba 64 14 3e 12 07 6e 3d 01 af 44 3e 6d 75 b4 bd
       0.14491549 0.05811221 0.19207384 -0.0881146
0001c0 90 1c 18 3e a3 15 9d bd 6f 26 02 bd 46 3b 38 3e
       0.14854646 -0.076701425 -0.031774934 0.17991361
0001d0 6b 80 06 3e 4d 7d fd bd 47 a2 98 bd 99 7c 01 3e
       0.13134925 -0.12377415 -0.07452827 0.12645186
0001e0 03 a1 f4 3d f5 05 50 3d 7c de 53 3d 33 5d 8b 3d
       0.11944773 0.05078693 0.05172585 0.06804886
0001f0 62 e6 e6 3d 63 e3 68 be 16 5e ad bd b7 6b 50 3e
       0.11274411 -0.22742991 -0.08465211 0.2035359
000200 44 0d 1a 3b b9 c6 fa bd 43 a5 e0 3d 62 d0 d7 bc
       0.0023506442 -0.122449346 0.10969021 -0.026344482
000210 21 81 1d be 32 83 6a 3e 05 5f d6 3d 32 b4 08 bd
       -0.1538129 0.2290161 0.10467342 -0.033374973
000220 c2 92 4d 3d a7 72 59 bd d3 16 16 be 51 7b 64 bc
       0.050188787 -0.053087857 -0.14657144 -0.013945417
000230 d6 15 ab bd d2 60 7c 3d 90 a1 98 bd 42 8b ad 3d
       -0.08353774 0.061615773 -0.074526906 0.08473827
000240 41 50 94 bb 08 99 ab 3d f2 89 a5 bd 0f fc 10 3b
       -0.0045261686 0.08378798 -0.080829516 0.0022122895
000250 dc d8 17 3e a6 8d 3b 3d e9 66 09 3e be c9 65 3e
       0.14828819 0.045789383 0.13418163 0.2244024
000260 2e c6 5b bd 3c 00 bd 3c ad e5 43 3e 41 3e 1f be
       -0.053655796 0.0230714 0.19130583 -0.15551092
000270 ff 69 00 3e 4c 1b b8 3d 23 e2 9c 3d 58 10 26 3e
       0.12540434 0.089895815 0.0766032 0.16217172
000280 33 ff 65 3d a6 07 a6 bd 25 d4 3c 3d a1 5e 9a 3c
       0.05615158 -0.081069276 0.046100754 0.01884395
000290 fe e3 a3 bd e5 d4 14 3e 81 91 45 3e 4d e0 3f be
       -0.080024704 0.14534338 0.19293787 -0.18737908
0002a0 9e 49 80 3d d3 4c 45 3d 58 18 11 be 06 04 16 3d
       0.06264041 0.04816897 -0.14169443 0.03662493
0002b0 2c 96 18 3d eb f1 55 be ae ff b6 bc 95 4a 9f bc
       0.03725259 -0.20893066 -0.022338714 -0.019444743
0002c0 1c eb 18 3c 39 8e 60 3e 94 76 68 be b7 31 b7 bd
       0.009333398 0.21929254 -0.22701484 -0.08945029
0002d0 b7 ea 88 bc e0 2d a9 3d 40 f4 16 bd 88 84 35 3e
       -0.016713483 0.08260703 -0.03685403 0.17726338
0002e0 21 49 10 be 03 c4 9d bd d5 a0 d0 bb 0d 7a ca 3b
       -0.14090396 -0.07703402 -0.006366829 0.0061791004
0002f0 3b 1f 23 3e c1 55 8b bd fb 55 c3 3d 9c 7a 52 3e
       0.15929882 -0.06803466 0.09537884 0.20554584
000300 0d 97 a2 bd 80 86 45 3e ee bb 61 3c 35 a4 aa 3a
       -0.07938967 0.19289589 0.013777716 0.0013018908
000310 e3 e4 32 3d e7 62 b9 3c 91 4d a0 bd 4b 9b 0c 3d
       0.043675315 0.022630168 -0.078272946 0.034327786
000320 8a 54 d0 bd 49 cc e1 bc 24 48 f7 bd 92 9e 2a 3e
       -0.101723745 -0.027563231 -0.120743066 0.16662052
000330 90 1c 0a 3e e3 67 c9 3d c6 c2 50 be 5c 6c 19 3d
       0.13487458 0.09834268 -0.203868 0.037456855
000340 92 5f 5c be 16 e9 18 3e 81 62 0c 3d cb e1 01 be
       -0.21520832 0.14932665 0.03427363 -0.1268379
000350 c2 8a af 3d 06 c9 d3 3d ca 29 a9 bb 0d 4f 2e be
       0.08571388 0.103410766 -0.0051624523 -0.17022343
000360 ba 71 16 bd d9 46 9f bd 03 6d df bd f5 be bb 3d
       -0.03672955 -0.07777185 -0.10909464 0.091672815
000370 07 a6 e5 3d 91 31 76 3e 12 86 8e bc 81 79 0d be
       0.11213308 0.24042346 -0.017397914 -0.13815881
000380 78 c0 23 3d 69 71 82 bd 19 c2 91 bc 0a bb 17 3e
       0.039978474 -0.063692875 -0.017792748 0.14817443
000390 a4 54 99 3d 2b 88 8c 3d 33 39 11 bd 9f b4 67 bd
       0.07486847 0.068619095 -0.03545494 -0.056568738
0003a0 68 03 3a 3d 72 71 e0 bc 3e 8f 17 be a1 eb 65 3d
       0.045413405 -0.027397845 -0.14800736 0.056132916
0003b0 ff 82 5c 3e 4e 60 bd 3d 5c 2d 26 bd 34 13 da bd
       0.21534346 0.09246884 -0.0405706 -0.10648194
0003c0 ce c9 07 3e 78 a6 31 3e 9a f2 23 3e 9a d1 cc bd
       0.13260576 0.17348659 0.16010514 -0.10000916
0003d0 cc d6 86 3d 13 08 07 be e1 e4 07 3e b0 ba 85 3e
       0.06583938 -0.13186674 0.13270904 0.26118994
0003e0 de 18 79 3d 18 fd 27 3e c8 b0 b7 bd 04 09 24 be
       0.06081473 0.16405141 -0.08969265 -0.16019064
0003f0 dd 1c ea 3d 9e 2d a7 bc 64 d7 e9 bd ee a4 a3 3d
       0.114312865 -0.020407494 -0.114180356 0.07990442

gru.weight_hh_l0 f4 [96, 32]
000000 5b 21 94 bd fe 74 84 bd 0e 27 e5 3c 3f 32 40 bd
       -0.072329246 -0.06467627 0.027972724 -0.04692292
000010 3f 58 95 bd f9 be 21 3e 0e cf 92 3d 21 4d 2b 3e
       -0.07292222 0.15795507 0.07168399 0.16728641
000020 a0 35 1c 3e b5 a8 ba bd dc 2c 09 be 6a 06 7d 3d
       0.15254831 -0.091142096 -0.13396019 0.061773695
000030 79 0e 5d be 1b f1 0a 3e 41 73 9b 3b 15 41 3e 3d
       -0.21587552 0.13568537 0.004743964 0.046448786
000040 9e 9b f7 3c f8 a5 94 bd 86 f5 c7 bc 4a 4d 8a 3b
       0.030225571 -0.072582185 -0.024409067 0.0042206394
000050 45 56 a4 bd 61 28 04 3e 92 fc 1c be 1a 23 2f 3e
       -0.08024267 0.12906028 -0.15330723 0.17103234
000060 10 85 48 be af b1 ba 3d c8 e4 4b bd 8d 64 a1 3d
       -0.1958201 0.09115922 -0.04977873 0.07880507
000070 a3 ba 2d 3e 24 4c 19 3e 79 05 d6 3d 50 ff 1e bd
       0.16965728 0.14970452 0.104502626 -0.038817704
000080 bb d4 9a 3d 0a 5f 88 bd 37 3a 0f 3d 3f 51 9e 3d
       0.07560106 -0.06658752 0.034967627 0.0773034
000090 73 cf 58 bd 88 8b cd 3d ab e4 ae 3d d6 3a 75 bd
       -0.052932214 0.10036379 0.08539709 -0.059870563
0000a0 6e fc 96 bd bb 15 9a 39 13 ea 0d be 1c b3 0c be
       -0.07372366 0.0002938936 -0.13858823 -0.137402
0000b0 a5 65 c8 3c b7 21 f4 bd e9 0b 11 bd 8a 6b 11 bd
       0.02446253 -0.11920493 -0.03541175 -0.035502948
0000c0 c1 95 0a be 3e 46 29 3e 57 db 0b be e3 cc 91 3b
       -0.13533689 0.16530702 -0.1365789 0.004449473
0000d0 b2 36 c5 bd 63 6e e6 bc ce 5d ce bd 72 62 85 3d
       -0.09629573 -0.028128808 -0.100764856 0.065129176
0000e0 0b b2 0c 3e 3e 86 a1 3c d7 35 0b 3e b6 fe c9 bd
       0.13739793 0.019717332 0.13594757 -0.098630354
0000f0 6b d9 e6 bd d5 e7 56 3c 03 73 1d bd ea 09 5b 3c
       -0.11271938 0.0131167965 -0.03843976 0.013369063
000100 55 b3 db 3d 1a e7 c8 3c 9c 5e 79 3d 86 10 f7 3d
       0.10727564 0.02452426 0.060881242 0.120636985
000110 12 83 ec 3d 17 04 c6 bd ad b8 97 bd f4 2f 67 3d
       0.11548437 -0.09668749 -0.07408271 0.056442216
000120 f8 3f f8 3d 43 19 09 be d4 35 ff 3a 8b 52 6d 3d
       0.12121576 -0.13388543 0.0019470998 0.057940047
000130 03 3a 15 be d7 c7 e0 3d 6b b3 31 bc 2d 95 19 3e
       -0.14572911 0.109756164 -0.010845999 0.14998312
000140 03 1f e7 bd 24 ab 14 be 56 83 45 bd 3d 41 58 3d
       -0.11285212 -0.1451841 -0.048220955 0.05279659
000150 bf dc 82 bb a5 90 36 3d 29 d5 d5 3d 64 13 2b bd
       -0.0039936 0.044571538 0.10441048 -0.04176654
000160 e1 f4 99 3d 77 bd 02 be 5f 7b cc 3d 0c 09 2f be
       0.0751741 -0.12767588 0.09984469 -0.17093295
000170 ef 28 c8 3d d9 4a 8e 3d e2 ad 97 bd c8 d8 12 3e
       0.097734325 0.0694787 -0.074062124 0.14340508
000180 d2 d9 17 3d 8e 13 a6 3d 45 ff ed bd b4 62 9c 3d
       0.037072964 0.081091985 -0.116209544 0.076360136
000190 10 c8 44 bd c4 a2 ac bd 37 cd b0 bc c0 e1 19 3e
       -0.048042357 -0.084294826 -0.021582229 0.15027523
0001a0 65 0f 2a bd 68 f2 7a 3d f8 d0 df 3d 33 97 2b 3e
       -0.041518588 0.061266333 0.109285295 0.16756897
0001b0 88 3e a6 bd a4 11 f5 bd 9f e0 a2 3b 7e 78 9f 3d
       -0.08117396 -0.11966255 0.0049706246 0.07786654
0001c0 28 84 07 3c e2 80 af bd 1d 03 be bc 8b 02 6e 3d
       0.008271255 -0.08569504 -0.023194844 0.058107894
0001d0 59 91 27 be d2 a4 d5 3d f3 00 51 3d 85 ad c9 bd
       -0.1636404 0.104318276 0.051026296 -0.09847549
0001e0 10 2b 0e be 1b 81 82 3c ea d0 02 3e 3a 35 a7 bd
       -0.13883615 0.015930703 0.12775007 -0.08164449
0001f0 fa 5e cd 3c e5 e8 16 3e f3 24 09 be 29 95 04 bd
       0.025069702 0.1473728 -0.13393001 -0.032368813
000200 5c a8 d0 bd 49 32 55 3e 65 dc 9b bb dd 90 be bd
       -0.10188362 0.20819964 -0.0047564977 -0.09304974
000210 7e b4 23 be ba 44 1d bd ce e7 39 3e 49 d8 0f 3c
       -0.15986821 -0.03839562 0.18154833 0.008779594
000220 62 93 14 3e 68 f7 b6 bd f2 7a b0 3d 89 89 05 be
       0.14509347 -0.08933908 0.086172 -0.13040747
000230 05 5c 37 ba 1a fe e0 bd 8c 4d 28 3d 65 da 21 3e
       -0.0006994608 -0.10985966 0.04108958 0.15805967
000240 96 6e fa 3d 6e aa d7 bd 6a 8c 21 bd 43 d4 e9 bd
       0.12228124 -0.10530554 -0.03944055 -0.11417439
000250 01 4f 1b be 73 cf b8 bd bc 89 49 3d fc 7d a1 bd
       -0.15166856 -0.09023943 0.04920362 -0.07885358
000260 13 32 c7 bd d3 61 9d bd 25 20 00 be db 5a a8 3d
       -0.09726348 -0.07684674 -0.12512262 0.08220454
000270 8e 5a 8f 3c 74 b4 d5 3d d8 e1 46 3e 7f f2 92 bc
       0.017499235 0.10434809 0.1942209 -0.017937897
000280 d7 1f 1f 3e 8d 9d 0b 3e 51 b6 24 3e d9 f1 bb 3d
       0.1553949 0.1363432 0.16085173 0.09176988
000290 c6 d9 13 be b1 eb 32 3e 26 7b 7f bd 52 8e 5c bc
       -0.14438543 0.17472722 -0.062373303 -0.013461666
0002a0 c7 fb 46 3e a1 86 c0 bc b1 e6 1d bd 52 44 cd bd
       0.19431983 -0.023501696 -0.038550083 -0.10022797
0002b0 ce ac 85 bd 66 fb 4b bc 77 9e dc 3d a2 03 c1 3d
       -0.065271005 -0.012450075 0.10772412 0.09424521
0002c0 93 d8 86 bc ad 91 fe bd 08 9d 04 3e 76 75 6a be
       -0.016460693 -0.12430129 0.12950528 -0.2289637
0002d0 f9 3c e1 bd 0b d4 58 3d 57 fe 70 be ed 15 1f bb
       -0.10997958 0.052936595 -0.23534523 -0.0024274543
0002e0 c9 dc 22 bd de eb e9 bd b5 d6 25 3d b5 34 9e bd
       -0.03976134 -0.11421941 0.040487964 -0.07724897
0002f0 98 75 32 3c ad 3f de bd 14 fa fc bd 1b b5 a9 bd
       0.010892294 -0.10851989 -0.12352386 -0.08286496
000300 30 16 73 bd c6 3e 04 3e 06 86 e9 bd e9 99 0a be
       -0.05934733 0.12914571 -0.11402516 -0.13535275
000310 bf d7 15 be f9 2c 13 bd d6 ad 94 bd 32 e8 4b be
       -0.14633082 -0.03593156 -0.07259719 -0.19912794
000320 3c 79 1b be ec bb 15 3e 0f 49 18 3d 86 a4 b6 bd
       -0.15182966 0.14622468 0.03717905 -0.08918099
000330 3c cb e5 3d e2 37 63 bd 78 fe ce bd 10 c9 d3 bd
       0.112204045 -0.055473216 -0.1010713 -0.10341084
000340 74 d3 ab 3d c4 17 4c 3e a3 ea 0a 3e 39 0d 88 3d
       0.08389941 0.19930941 0.1356607 0.06643147
000350 e5 d0 39 bd 13 09 ce bd 74 f5 4c 3d 05 61 37 be
       -0.045365233 -0.100603245 0.05003877 -0.17908104
000360 eb 7e 2a be 91 b7 b8 bc 5a 31 09 be be 37 18 be
       -0.16649978 -0.022548469 -0.13397732 -0.14865014
000370 5e 04 b5 3c f6 f3 55 3d 14 3b a1 3d 0f e8 a3 bd
       0.022096809 0.052234612 0.078725964 -0.08003246
000380 f2 70 4d 3e 3b 7e 0b 3e 10 e1 e3 bc 2e aa a3 bd
       0.20062616 0.13622372 -0.02781728 -0.079914436
000390 05 12 05 3e 35 48 7f 3d a7 c2 c6 bd 01 a8 1c 3e
       0.12995155 0.06232472 -0.09705096 0.15298463
0003a0 71 1a 00 3e b5 53 92 bc a5 da 75 3a ca f7 32 3d
       0.12510087 -0.01786218 0.0009378589 0.04369334
0003b0 4a 61 32 be f4 95 85 3d 32 01 b6 bd 81 a2 d0 3d
       -0.17419925 0.06522742 -0.08886947 0.10187245
0003c0 66 3a b6 bd 2c 51 0b be 0d 6d c3 bd e5 c2 00 be
       -0.08897857 -0.13605183 -0.09542284 -0.12574346
0003d0 88 0d 27 be ff e0 90 3c 20 74 18 3d 4e 84 ba 3d
       -0.16313756 0.017685411 0.03722012 0.09107266
0003e0 9c 07 2b be 09 42 a1 3d 1b 3d 13 3e 19 ac a6 3d
       -0.16702121 0.07873923 0.14378779 0.08138294
0003f0 c5 c2 50 3d 8c fe d7 3d 80 97 96 3d 0d 2b 74 bd
       0.050966997 0.10546598 0.07353115 -0.05961137

gru.bias_ih_l0 f4 [96]
000000 c5 56 b1 bd b7 da ee 3c 6f 57 88 3d 66 77 8c 3c
       -0.08659128 0.029157026 0.06657302 0.017146777
000010 3e 3c ad 3d 5b d8 db 3d c3 87 08 3d 02 19 50 bd
       0.08458756 0.10734626 0.033332597 -0.0508051
000020 fa 5b b3 3d 6f 70 38 bd 73 d4 0d 3c 29 20 3c bd
       0.087577775 -0.0450291 0.008656609 -0.045929108
000030 bb 8f b6 3c 24 fb 2f 3e 22 cb c4 3c 44 c7 f6 3d
       0.022285333 0.17185646 0.024022643 0.12049726
000040 f4 7f 1a 3d a0 d2 c3 3d 00 b6 ed 3d a1 2d 49 bc
       0.03771968 0.09561658 0.11606979 -0.012278945
000050 65 eb 86 3d f8 f8 9f 3d f2 c6 53 3c 1c dd ac bc
       0.06587867 0.07811159 0.01292585 -0.021101527
000060 84 ff 69 bd d6 c2 08 bd e1 96 21 3e c1 50 13 be
       -0.057128444 -0.033388935 0.15780212 -0.14386274
000070 05 52 b0 3d 76 1e 08 be be 85 4e bd 64 ed a4 3c
       0.08609394 -0.1329287 -0.050420515 0.020132728
000080 3a 4a 7a be e3 b8 5b be 0e e9 b7 bb 4f 78 79 be
       -0.24442378 -0.21457247 -0.005612499 -0.243623
000090 59 16 01 3d 6a 80 e1 3c ec 23 89 bd f5 be 26 3c
       0.031515453 0.027527053 -0.06696305 0.010177364
0000a0 7f 07 5a bd e2 17 fa bd bb 47 e2 3c 9a ea 24 bd
       -0.053229805 -0.122115865 0.027622094 -0.040262796
0000b0 01 d5 a9 3d d6 ee 61 be ae 04 22 be fd c5 34 3d
       0.082925804 -0.22063765 -0.15822098 0.04413413
0000c0 df ab 37 3d 8d b5 3d be 42 dc 80 be 24 65 a5 3c
       0.044841643 -0.18526287 -0.25168043 0.02018983
0000d0 ee fd e6 bd 63 c5 be bd 8d 12 a1 be fb 86 50 bd
       -0.11278902 -0.09314992 -0.31459466 -0.050909977
0000e0 ec b0 b3 bd 7c f9 8d be b9 31 c9 bd f9 47 33 be
       -0.087739795 -0.27729404 -0.09823937 -0.17507924
0000f0 fb 4a d4 bc a2 6b 73 3c 9d 64 0d be 25 92 50 be
       -0.02591466 0.014857205 -0.13807912 -0.2036825
000100 c0 3d 58 3e 07 65 17 bc 27 83 de bd fc e4 a1 ba
       0.21117306 -0.009240395 -0.10864859 -0.0012351568
000110 9e 70 93 3d dd 57 e7 3d 1a c3 1a be 86 26 b6 3d
       0.071992144 0.112960555 -0.15113488 0.088940665
000120 ff 5f e9 3d 7b f5 0c be 8e 6f 2f bc 46 47 a9 bd
       0.11395263 -0.13765518 -0.010707749 -0.082655475
000130 bd 42 35 3d 94 bd 83 bd cf 92 1e bd 7b 0c 69 3e
       0.0442531 -0.064326435 -0.038714226 0.22758667
000140 c2 e4 87 3d 59 05 df 3d a8 35 00 3e a6 81 86 bd
       0.06635429 0.10889692 0.12520468 -0.06567697
000150 84 11 1a 3e 08 84 41 3e 21 fa 31 be 74 82 b3 3d
       0.15045744 0.18898022 -0.17380573 0.08765116
000160 53 9e 72 3d b5 eb 2b bd 25 fd 22 bc 89 3a e6 bd
       0.05923302 -0.041972835 -0.00994805 -0.112416334
000170 25 2b 58 3d 56 f4 0b be 27 d3 01 3e fd ee 05 be
       0.05277552 -0.13667426 0.12678204 -0.13079448

gru.bias_hh_l0 f4 [96]
000000 71 dc b3 3d 39 f1 4e be 34 71 01 bd 51 0c e3 3d
       0.0878228 -0.20209207 -0.0316021 0.110863335
000010 2a b7 dd 3d d5 5a 0d 3d c5 a7 d3 3d 95 45 e6 3d
       0.108259514 0.034510452 0.10334734 0.112437405
000020 b6 22 1d be 3a ef da 3d 6a b8 2c 3e 9a c3 06 3e
       -0.15345272 0.1069016 0.16867223 0.13160554
000030 13 25 90 3d e1 52 cc bd 40 da a4 3c 1f 61 8c bd
       0.07038321 -0.099767454 0.020123601 -0.06854462
000040 2b 49 29 3b 45 57 25 3e bb 6b 27 bd 04 00 a1 bd
       0.0025830965 0.16146572 -0.040874224 -0.07861331
000050 15 68 cd bd b6 20 d3 bc 7c e7 44 3d c9 b9 2e 3d
       -0.10029618 -0.025772434 0.048072323 0.042657647
000060 03 da cb bd dc e5 84 bd 96 d7 23 bd f4 3c dd bd
       -0.09953692 -0.06489155 -0.04000052 -0.108026415
000070 97 21 02 3e 85 fb 83 3d a7 56 4b 3e 33 f8 ea bd
       0.12708126 0.06444458 0.19857274 -0.114731215
000080 2d 48 fc 3b 0d 4a 53 be dd 3d 44 3b 40 57 51 bd
       0.0076990337 -0.20633717 0.00299441 -0.0511086
000090 cd c3 6d be 52 b2 b2 3d 62 43 8e bc 2f 39 6b bd
       -0.23219223 0.08725418 -0.017366115 -0.05742758
0000a0 8a 05 19 3e fe c4 a7 bd cc b5 0d bb 63 2c d7 bd
       0.14943519 -0.0819187 -0.0021623252 -0.10506513
0000b0 8a b8 52 be f0 bf 89 be 03 3c 61 be 50 21 45 bd
       -0.20578209 -0.2690425 -0.21995549 -0.048127472
0000c0 f4 9d 16 3d c8 79 e2 bc 93 98 fc bd 03 46 d8 3d
       0.03677173 -0.02764596 -0.12333789 0.10560229
0000d0 ec bb ed bd 2f e2 39 be 28 53 57 be 65 8f 1b be
       -0.11608109 -0.18152688 -0.21027815 -0.1519142
0000e0 e8 f5 0d bb 61 f9 84 be f5 08 4b be 34 15 bd bd
       -0.0021661464 -0.2597151 -0.19827636 -0.0923256
0000f0 5c bf 3e 3d 0b 62 4d be 67 e0 45 be 35 38 0a be
       0.046569213 -0.20056932 -0.19323884 -0.13498004
000100 72 50 dd 3d ec e5 b6 3d 31 bd b7 3c 96 5b d2 3d
       0.10806359 0.08930573 0.02242908 0.10271375
000110 ef bd 1d be 52 86 6f 3d f9 40 ce bc 1d 2c 3e 3e
       -0.15404485 0.058477707 -0.025177466 0.18571515
000120 d1 fc f0 3d 30 01 b0 3d 1b 8b 0e bd 82 28 59 3e
       0.11766971 0.085939765 -0.03480063 0.21206859
000130 31 fa 8e 3d 75 2d 0a be ec a1 1e 3e 8c 48 06 3b
       0.06981314 -0.13493903 0.15491456 0.0020490019
000140 b7 d3 89 3d d9 df 85 bd 3c 91 07 be b5 59 ab bd
       0.067298345 -0.06536836 -0.13238996 -0.0836672
000150 78 d0 c4 bc 62 90 0d be 7d c9 45 bc 70 fc 7a 3e
       -0.024025187 -0.13824609 -0.012071964 0.2451036
000160 80 0e 14 be a3 d7 87 bc 27 49 01 bd 8a 54 2c be
       -0.14458656 -0.016582316 -0.031563904 -0.16829124
000170 24 7f 19 3d cb 15 8f bd 89 de 28 be 22 c2 9b bc
       0.037474766 -0.069865786 -0.1649114 -0.019013468

fc3.weight f4 [32, 32]
000000 a7 78 9b 3b ef 18 ba be 78 0d 9c be 19 7e e8 3c
       0.0047446075 -0.36347148 -0.30479026 0.02838044
000010 26 68 b1 3e dd 5e 4a be 0c fe 90 be ff 77 8d 3d
       0.3464977 -0.1976275 -0.28318822 0.06907653
000020 16 ea a3 3d 49 55 9f bd 54 5d 89 3e ef 40 da 3e
       0.08003633 -0.07779939 0.26829016 0.42627665
000030 23 5e 40 3e 4f 11 d2 be f0 f4 8b 3d f1 91 bb 3d
       0.1878591 -0.4102883 0.068338275 0.091586955
000040 2f 62 a1 3e fc 48 2f be 94 1f 94 be 4b 8b 8e bc
       0.3152022 -0.17117685 -0.28930342 -0.017400404
000050 2c 78 97 be b9 bd 28 3d 23 12 cd bc 45 5b ee 3e
       -0.2958387 0.04119656 -0.025033062 0.46554008
000060 d0 98 d9 3e 83 00 03 bf a9 1b a8 be f7 a0 97 be
       0.424994 -0.51172656 -0.32833603 -0.29614994
000070 85 ee 98 3e 0f 74 52 3d 09 ee a4 3e 4e 66 06 bf
       0.29869476 0.051380213 0.32212856 -0.52499855
000080 28 5d 74 be 6e 1f 94 be 13 43 08 be 42 a6 35 bd
       -0.23863661 -0.2893023 -0.13306837 -0.04434801
000090 f3 ee b7 3c 09 25 94 3e 8c fb 7f 3d 9f b4 e8 bd
       0.022452807 0.28934506 0.062495753 -0.11362576
0000a0 bc d9 51 be d3 a5 1d be a5 10 13 be 26 36 45 3d
       -0.20493215 -0.15395288 -0.14361818 0.048147343
0000b0 07 49 b9 be 23 98 4e 3e 86 42 9f 3e 81 c2 4b be
       -0.36188528 0.20175223 0.3110544 -0.19898416
0000c0 d1 91 93 3e 31 81 92 3e d2 46 54 3e 23 a5 1d bd
       0.28822187 0.2861419 0.20730141 -0.038487565
0000d0 f0 e2 de 3e 89 21 ba bd 72 04 ce be d5 d7 e7 bd
       0.43532515 -0.090884276 -0.40237767 -0.113204636
0000e0 8a be a8 3e 7d 04 66 be 48 11 4f 3d 1a 8e c5 be
       0.3295787 -0.2246265 0.05055359 -0.38584977
0000f0 1b 9e 79 3d 9c 46 6c be 60 01 87 be 31 ba 89 3e
       0.060941797 -0.2307381 -0.26368237 0.26899865
000100 57 39 71 bd a9 fe a8 3e 78 62 8f 3e cf cf b8 be
       -0.058892574 0.3300679 0.28004813 -0.36096045
000110 ad e3 1c bd 3e cf 14 3e 84 e0 fb 3d 4f 41 95 3e
       -0.038303066 0.14532182 0.12298682 0.2915139
000120 c9 39 80 3e dc 82 bb be 7d f5 05 3e 33 ae bf 3e
       0.25044087 -0.36623275 0.13081928 0.3743759
000130 e7 aa d3 be 64 92 c7 3e 0d fc 56 bd b3 78 b6 be
       -0.41341326 0.38978875 -0.052486468 -0.3563896
000140 5d 95 5a 3d f4 d7 a1 bd e5 5e bb 3e 68 b3 5e 3c
       0.0533651 -0.07902518 0.36595836 0.0135925785
000150 ee 78 19 3c 1e 3a a8 be f2 87 1d 3c d4 19 24 3e
       0.009367211 -0.3285684 0.009614931 0.16025478
000160 61 00 4e be 2f e7 83 3e 3f 65 67 be d2 2c 5c be
       -0.20117332 0.25762317 -0.22597216 -0.21501473
000170 13 d2 db be 5b f2 e1 be 56 59 c0 3d 01 50 a7 3e
       -0.4293371 -0.44130215 0.093920395 0.32678226
000180 71 e1 42 be 63 32 9f 3e 1d 4f 21 3e 18 55 aa 3d
       -0.19031312 0.3109313 0.15752836 0.083170116
000190 7e 5f 0c 3e 3a c4 76 3e f0 ad b5 be 0b 26 c8 3e
       0.13708302 0.24098292 -0.35484266 0.39091524
0001a0 d3 25 1a be b4 fc da be 1a cb a9 be 96 74 5d 3e
       -0.15053491 -0.42770922 -0.33162767 0.21626505
0001b0 dc 99 a1 bd 76 de 90 3e b4 d2 88 be a2 3c b2 3e
       -0.078906745 0.28294724 -0.26723254 0.34811884
0001c0 73 ce ce 3e d0 b2 ab be 09 b5 b6 3e 2d bd 8d 3c
       0.40391883 -0.3353486 0.35684994 0.01730212
0001d0 dc de 82 3e 7c 54 2e 3e 93 08 9a 3e 84 f9 0a be
       0.25560653 0.17024416 0.30084667 -0.13571745
0001e0 e3 3e cf 3e bf 9e 64 3e cb 7a cd bc 3c 60 d4 3e
       0.40477666 0.22326182 -0.025082966 0.4147967
0001f0 4b d7 92 3e be 9f 05 bd e0 ef bb 3d 2e 43 b9 bd
       0.2867988 -0.032623045 0.09176612 -0.09046017
000200 84 5b 9d 3e cd b6 af be ba a9 20 3d 11 e2 03 3e
       0.30733883 -0.34319153 0.039224364 0.12879206
000210 9b 16 ed bd fa 01 37 3d bf 2a b4 be df 9d a3 3d
       -0.11576577 0.04467962 -0.35188863 0.07989096
000220 a8 ac da 3e 74 74 4d be 27 43 16 3e 80 d5 e1 3e
       0.4270985 -0.20063955 0.14674054 0.441082
000230 47 d8 1c 3e 48 4c 8d 3e 19 e8 0c be 3a 77 b6 bd
       0.15316878 0.2759726 -0.13760413 -0.089094594
000240 fa 1b 95 3d 15 dd bb be 2b c0 c3 be 0c ac 25 be
       0.07280727 -0.3669211 -0.3823255 -0.16178912
000250 5f 2f 96 3d 25 bf f6 3e 42 05 3e 3e 7d 9f 21 3e
       0.07333254 0.48192707 0.18556693 0.15783496
000260 20 cc 6b 3d d6 29 15 bf e4 91 8a 3c 28 cb 0c bf
       0.057567716 -0.5826696 0.01691527 -0.5499749
000270 f1 87 b3 bc 03 cb c2 be 86 71 ff be 31 e7 a7 bd
       -0.021915408 -0.3804551 -0.498913 -0.08198393
000280 48 3e ab 3d ca c4 aa bd 03 c0 c4 be e2 1c cf bd
       0.083614886 -0.08338316 -0.38427743 -0.10112931
000290 ce e6 38 3d 79 fe f3 3e 75 37 75 3e 89 04 61 bd
       0.045141988 0.47655085 0.23946936 -0.054935966
0002a0 93 06 f5 bd 3e b6 88 be 8a a0 c6 3d d1 ed 69 be
       -0.119641446 -0.2670154 0.09698589 -0.22844626
0002b0 5f 99 a4 bd 1e 53 82 be d3 5b 95 3e 6c 0b 5f 3e
       -0.08037066 -0.25454038 0.2917162 0.21781701
0002c0 f8 ba 55 3e 7a 2e bd be 88 19 c9 3e 52 e0 5d 3e
       0.20872104 -0.3694952 0.3927729 0.21667603
0002d0 1a 10 a0 be 45 b1 31 bd 06 9d c9 3e 59 a6 e7 3e
       -0.31262285 -0.043381948 0.39377612 0.452441
0002e0 a5 38 30 be 6a c5 a4 3e 7b a8 9b 3d fb ac bb 3d
       -0.17209108 0.32181865 0.076004945 0.09163853
0002f0 af c2 e7 bd 53 6b 22 3e 3b a0 8c bd e8 90 a6 3e
       -0.1131643 0.15861253 -0.06866499 0.3253243
000300 8f ad 78 be be 85 69 3e ab 1b 89 3e 7a f0 45 3e
       -0.24284957 0.22804925 0.2677892 0.19330016
000310 0f df 3b 3e 36 fa 81 be 2a 52 e2 be 68 dc 09 3f
       0.18346809 -0.25386208 -0.4420331 0.5385194
000320 53 9f c3 3d 30 f3 94 be 93 cd 67 3d c2 d3 b4 3e
       0.09551873 -0.29091787 0.056592535 0.35317808
000330 09 2c dd bc 33 b1 80 3d cd 07 b1 be b1 d1 80 3d
       -0.026998537 0.06283798 -0.34576264 0.062899955
000340 af f5 68 3e 80 3d a2 3d 5e 4a e2 bd 1b 37 c9 3d
       0.22749971 0.079218864 -0.11049341 0.09824964
000350 3e 3f 4d 3e a7 88 55 3e a4 9f ff be bb 17 89 3e
       0.20043656 0.2085291 -0.49926484 0.26775917
000360 af 2c ac be ec d2 8b be c0 fc 94 be be 39 8d 3e
       -0.3362784 -0.27309358 -0.29099083 0.27583116
000370 b2 b0 4c be 7d 89 2a be ab ce d7 be 89 43 86 3e
       -0.19989279 -0.1665401 -0.42149863 0.262234
000380 62 de bf bd eb f6 d7 3e 19 64 2e be 21 ce 96 bd
       -0.09368588 0.4218057 -0.17030372 -0.07363535
000390 6b e2 7c be bd 3e b8 3b ab cf 41 be 78 94 c2 bc
       -0.24695747 0.0056227134 -0.18926875 -0.023752436
0003a0 eb 5a 4c 3e 4e 5a b1 be 6b 0b 62 3e cb d0 6b 3e
       0.19956557 -0.3463921 0.22074668 0.23028867
0003b0 2f ec f1 3d ab e5 d8 3e 7a e6 7b 3e 5e b3 44 bd
       0.118126266 0.42362723 0.24599639 -0.04802262
0003c0 bf bc 89 3e 65 25 93 3e d5 44 85 3e b4 c2 1f 3e
       0.26901814 0.28739467 0.26029077 0.15601617
0003d0 44 b4 a1 3d 33 4e 04 bd 98 27 f8 bb 53 94 75 3e
       0.07895711 -0.03230114 -0.0075730793 0.23982362
0003e0 55 72 d5 3d 54 ca c6 3d 33 79 83 3e 78 ed 3e be
       0.10422198 0.0970656 0.25678405 -0.18645275
0003f0 55 04 c4 be 09 f4 e0 3e ce 9d ee 3d 87 f9 91 be
       -0.38284555 0.43936184 0.116511926 -0.28510687

fc3.bias f4 [32]
000000 11 f1 e8 3d 16 a3 fb bc f7 bf 70 3c 55 e9 b1 bc
       0.11374105 -0.030717414 0.0146942055 -0.021717707
000010 b3 9e cf 3d 9f fc 0b 3d 0d aa d8 3d c5 1e 13 bd
       0.10137691 0.034176465 0.105793096 -0.035918016
000020 72 cb 98 3d 95 44 19 3d a3 99 11 3d 76 2f 8e 3b
       0.07460679 0.03741892 0.03554691 0.004339154
000030 48 b6 a7 3d 5b ee b0 3c 1f 78 37 3d 6b 38 5a 3d
       0.08189064 0.021598032 0.04479229 0.05327646
000040 0f 3e 0e bd 53 ba 5d 3c 58 d2 36 3d 83 68 c6 bb
       -0.034727152 0.013533193 0.044634193 -0.0060549392
000050 e3 c7 03 3e b0 60 31 3d 7b c8 27 bc 48 67 98 3c
       0.1286922 0.0433051 -0.010240669 0.018603936
000060 ed 13 bc bd 76 cb f8 3c 88 3a e6 bc b4 03 81 3d
       -0.09183488 0.030370455 -0.028104082 0.062995344
000070 7c 7f a6 3c 91 42 76 3d ea 14 9a 3c f9 13 d5 3d
       0.020324461 0.060122076 0.0188088 0.104042

fc4.weight f4 [8, 32]
000000 a0 e3 b4 3d b9 0f 71 3e 3d f2 91 3e ab 93 9e 3e
       0.088324785 0.23541154 0.28505126 0.30972037
000010 ca f0 fb bd b5 13 1e bc 9b 08 1f 3e 3e e3 ed be
       -0.12301786 -0.009648253 0.15530626 -0.46462435
000020 ef dc a2 be 9b 3f c2 3d 82 f1 60 3e 8c ea a1 3d
       -0.31809184 0.09484788 0.21967128 0.079060644
000030 82 9c cf be be 50 27 3e 30 d8 11 3d c0 00 85 be
       -0.40549093 0.16339394 0.035606563 -0.25977135
000040 85 0a 13 3e 17 9e d3 be 25 12 89 3d 52 5e 4b 3d
       0.14359482 -0.4133155 0.06692914 0.049650498
000050 e5 ac b0 bd 40 c5 2e be 97 e0 00 3e c6 78 ad be
       -0.08626727 -0.17067432 0.12585674 -0.33881205
000060 33 04 e2 3d 22 b5 b9 be 76 b7 8f be 96 c3 4b bd
       0.11035957 -0.36271006 -0.28069657 -0.049747072
000070 7c 6a 1f bd 40 95 7c be e3 c5 17 be 6e 08 b0 be
       -0.03891991 -0.2466631 -0.14821582 -0.3438143
000080 92 97 ea 3e 78 98 e5 bd c1 f8 4f be e3 fb 67 be
       0.45818764 -0.11210722 -0.20309736 -0.22654681
000090 74 b2 3b 3e d1 3d 94 bd 1c 59 f3 3c c2 8d e0 3d
       0.18329793 -0.07238353 0.029705577 0.10964538
0000a0 66 c7 b2 3e 98 04 c4 bd 3b 6b 25 be 9c 2e 76 3d
       0.34917754 -0.09571189 -0.16154186 0.060103044
0000b0 d7 db 9e be 63 e4 a6 be 69 26 e3 bd 22 d3 72 3e
       -0.310271 -0.3259612 -0.110913105 0.23713353
0000c0 86 66 80 3e e2 88 8b 3e a2 c1 c0 be 4f ea 64 3d
       0.2507822 0.2725287 -0.3764773 0.055887517
0000d0 16 47 1d 3d 6b 77 36 3e 8f 80 ff bd 27 91 aa be
       0.03839787 0.17818992 -0.124756925 -0.33313867
0000e0 a6 a7 3c 3e fe 24 9d 3e ba 99 88 be 1b 9f d7 3c
       0.18423328 0.30692285 -0.26679784 0.026320985
0000f0 e7 38 a3 be ec d6 23 3d 2c ee 61 3d f4 08 81 3e
       -0.3187935 0.039999887 0.05515878 0.25202143
000100 13 47 48 be 32 7f 92 3d cc b6 b1 be 38 b7 72 3d
       -0.19558363 0.07153167 -0.34709775 0.059256762
000110 d9 ee 96 3e 19 ec 3e 3e f2 bc 11 be 7f cb ee bd
       0.294791 0.18644752 -0.14232233 -0.116599075
000120 53 60 c0 be ae 39 0b 3d d3 cb 74 3e 73 92 c8 be
       -0.3757349 0.033990555 0.23905878 -0.39174232
000130 c8 53 89 bc 0e a0 c2 be db 80 25 be 2e 58 97 3e
       -0.016763583 -0.38012737 -0.16162436 0.29559463
000140 f2 80 3f be 52 54 84 be bf 2c 45 3e 0f 94 ad 3e
       -0.18701532 -0.2584558 0.1925535 0.33902022
000150 25 4d 90 3c d1 a1 55 3d 0b 6b 8b 3e f2 df 49 be
       0.01761491 0.052156273 0.27230105 -0.19714335
000160 60 5c bf 3e 88 72 d2 3d e0 c8 8e 3e 64 61 a2 be
       0.37375164 0.10275751 0.2788763 -0.31714928
000170 d1 39 e2 bd a1 39 89 3d 09 32 86 3e 1e 81 a2 3e
       -0.11046184 0.06700445 0.2621005 0.31739134
000180 bb 11 02 3f 17 4d 81 3d 68 47 a2 be 46 58 7e 3d
       0.50808305 0.06313532 -0.31695104 0.062095903
000190 52 37 f3 3e 26 6d ae be 18 4b eb 3e 48 3a c4 bd
       0.47503144 -0.3406765 0.4595573 -0.09581429
0001a0 ca a1 f8 3d 62 3e 67 3e 05 68 eb be 97 80 dc bd
       0.12140234 0.22582391 -0.45977798 -0.10766714
0001b0 0f c7 57 3e da 53 03 3e e0 de d9 bd 6c 98 8c 3e
       0.21072029 0.12824956 -0.10638213 0.2746004
0001c0 f9 2d f2 bd 63 bc b1 be f3 22 42 3e e8 f0 8e be
       -0.11825175 -0.3471404 0.18958645 -0.27918172
0001d0 40 a2 a1 3e c6 9b 00 bd 29 07 00 3e 94 55 8b 3e
       0.315691 -0.031398557 0.12502731 0.27213728
0001e0 fc c7 d6 be 27 10 13 be 8f cc fe 3c 29 ba f8 3e
       -0.4194945 -0.1436163 0.0311034 0.4857953
0001f0 f9 90 e5 3d 65 d5 d5 3e 3f 7b 52 3e 75 ef b3 3e
       0.11209292 0.4176437 0.20554827 0.3514363
000200 19 83 fe bc 23 06 95 be 8a 45 b5 3d a2 da 6d be
       -0.031068372 -0.29106244 0.08851154 -0.23227933
000210 e9 c8 31 3e 0b 75 a6 3d 93 53 5b 3e 1d ab db 3b
       0.17361797 0.08127793 0.214186 0.006703748
000220 2f 5a 0e bd c8 74 8c be 87 46 a1 3e 04 22 32 3e
       -0.034753975 -0.27432847 0.3149912 0.17395788
000230 a4 57 87 3e b8 97 83 3e f1 1b d8 be df 57 d9 be
       0.26434052 0.2570169 -0.42208818 -0.42449853
000240 5d 00 b8 be d6 c3 68 3e 15 f8 91 3e c3 4f 06 3f
       -0.35937777 0.22730955 0.28509584 0.52465457
000250 e6 e0 02 3e 93 32 86 bd 55 fa 87 3e f6 bf bb 3e
       0.12781104 -0.06552615 0.26558176 0.36669892
000260 c1 e4 09 3d aa 1e b7 3d 3b 18 95 be 2e 3f e7 bd
       0.033665422 0.089413956 -0.2912005 -0.112913474
000270 95 14 54 3e 5d 6b c3 be 54 47 3a be 1b 8f c4 3e
       0.20710976 -0.3816785 -0.18191272 0.3839043
000280 7e 5c a1 bd 8e 48 7e 3e 35 b9 b0 be 72 9f a3 be
       -0.078789696 0.24832365 -0.34516302 -0.31957585
000290 61 b3 da bd bf d8 86 be 69 35 ea 3c a1 c0 84 be
       -0.10678745 -0.2633724 0.028589921 -0.25928214
0002a0 14 29 d3 bd 16 2d 8f 3e 60 f8 55 bd 45 77 9b 3e
       -0.103105694 0.27964085 -0.052238822 0.30364433
0002b0 b5 10 c5 be f0 67 8d bd 8b b9 96 3c 69 6b 46 3e
       -0.3848931 -0.0690459 0.01839902 0.19376911
0002c0 74 69 bb 3e e8 c1 2c 3e c7 44 f0 bd d9 c7 bd be
       0.36603892 0.16870844 -0.11731868 -0.37066534
0002d0 56 7a dd be 17 ba e8 3e 87 e3 34 3e 42 e4 3b 3e
       -0.43257397 0.45454475 0.1766492 0.18348792
0002e0 8a 2f 33 3e 2b 02 84 be 5a 5d 90 3d a9 f6 6c 3e
       0.17498603 -0.25782904 0.070490554 0.23140968
0002f0 03 b9 77 3d 02 19 86 be b2 1b ee 3e e4 8b 83 be
       0.060479175 -0.26190954 0.46505505 -0.25692666
000300 97 a7 dd 3e 4a f0 87 3e 96 a5 4d be 8f 13 c9 be
       0.43291923 0.26550514 -0.20082697 -0.39272735
000310 bb c4 38 be e1 62 1b be 9f af 93 3e 6c d3 ba 3c
       -0.18043797 -0.15174438 0.28844926 0.022805892
000320 88 18 63 3e 4f 7f e8 bc eb 52 f3 bd 93 c3 87 be
       0.22177327 -0.028381018 -0.1188105 -0.265164
000330 e9 8e 0d be ef 13 9e 3e ca c1 24 3e 35 26 bb 3e
       -0.13824047 0.30874583 0.1608955 0.36552587
000340 73 fb 8d 3d fa c6 b3 be 5f 63 c3 be a2 fc c2 bd
       0.06932726 -0.35112745 -0.38161752 -0.09520842
000350 f6 1c ac bd bc 24 aa 3e 44 71 65 3d 2e dd 00 3e
       -0.08403961 0.3323115 0.05601622 0.12584373
000360 3a 63 ad bd fe e4 c5 be d4 8f 55 3e b5 50 9d be
       -0.084661916 -0.3865127 0.20855647 -0.30725637
000370 57 61 8d be 0e cd a5 be e3 b2 9b 3d 48 71 43 be
       -0.27613327 -0.32383007 0.07602479 -0.19086182
000380 84 1f b1 3e 19 04 8d be a0 a1 a1 be d8 9d a0 3e
       0.34594357 -0.2754219 -0.31568623 0.31370425
000390 4a 85 de 3d 3f 86 c9 be c8 e5 69 3e 84 23 6e 3e
       0.108652666 -0.39360234 0.22841561 0.23255736
0003a0 73 8b 1b be b0 4e e3 be df 64 cf be 0b 32 8d bd
       -0.15189914 -0.4439597 -0.40506646 -0.068943106
0003b0 cd ee a9 be bf 84 4b 3e 73 6b ad 3c f1 6f 22 3e
       -0.33190003 0.19874857 0.0211694 0.15863015
0003c0 2e 19 b1 3d a1 89 2b be 84 f3 a6 be 91 b2 ce 3e
       0.08647381 -0.1675172 -0.32607663 0.4037061
0003d0 9b f6 f7 be 2e 5c 6e be 14 44 95 3e 72 bf df 3d
       -0.48430333 -0.23277351 0.29153502 0.10925187
0003e0 f9 05 93 3e 32 5d f9 bd b2 86 c7 3c 01 a7 3e 3c
       0.28715494 -0.12175979 0.02435622 0.0116364965
0003f0 84 0d a3 3e ed a8 7f bc 8f 29 8d 3e ae 8a 67 be
       0.3184625 -0.01560424 0.2757077 -0.22611496

fc4.bias f4 [8]
000000 33 c8 cd bd 7c 3e ff 3b 26 8e 89 bd 0b 1a 8d 3d
       -0.100479506 0.007789431 -0.06716566 0.06889733
000010 19 09 e2 3b 6b 2a cf bd 3e 97 30 bb 10 de 8a bd
       0.006898057 -0.101155125 -0.0026945616 -0.06780636
