visualization/policy_nns/OSD_T/4R383827/agent_state_dict3.pt (torch, 38849 bytes, 12 tensors)

fc1.weight f4 [32, 6]
0.7072147 -0.2680579 0.5874044 -0.052641567 0.32009813 -0.179276 0.12469372 -0.0018639637
0.4731246 -0.62079185 -0.429039 0.48788887 -0.4909694 -0.1994758 0.3619712 -0.40448907
-0.470899 -0.3271905 0.54831386 -0.16269074 0.19971597 -0.062399548 0.646585 -0.011778693
-0.3704046 -0.21940954 0.40609878 0.36913684 0.26235092 -0.40523723 -0.22704476 0.29024118
-0.051393874 -0.76406264 0.2103307 0.07610029 -0.09946319 -0.6476187 0.38593617 -0.26571652
-0.5570171 -0.0864727 -0.4784748 -0.30189145 0.5235115 0.000116827876 -0.0039000234 -0.32210964
0.25531015 -0.101067044 -0.17727539 0.31360313 0.50849026 -0.47238657 0.21042508 -0.42794612
-0.3531132 -0.5234656 0.09041313 -0.47558838 0.45021778 0.444752 -0.11579638 -0.5765721
0.005727951 -0.028878469 -0.20785475 -0.5625802 -0.33931485 -0.12061902 0.27486575 -0.1625373
-0.5459414 -0.6015801 -0.3601088 0.16112277 0.43203175 0.24312553 0.1834918 -0.2920993
-0.08092351 -0.20851998 -0.351505 0.21368384 -0.23506637 0.35346156 0.27693605 -0.5754585
-0.0068168603 0.04176204 -0.47530076 -0.30592263 -0.014735063 0.42325893 0.052529886 0.53808945
0.61493665 0.26107854 0.4453013 0.7093291 -0.30664477 -0.34319082 0.33306926 -0.09254197
0.46826243 0.75530946 -0.060737938 0.122688085 -0.3578197 0.62799424 -0.009259334 -0.11619117
-0.22095329 0.33722234 0.2454624 -0.12272845 0.43424344 -0.02948631 -0.39261907 0.35787645
0.14715528 -0.2960714 0.07117672 0.19714104 -0.2324266 -0.13287337 0.46362847 0.53274864
0.49989483 -0.07732375 0.19503361 0.477617 -0.55769074 -0.39072263 0.045334727 0.15068427
0.050698906 0.19912608 0.38750634 0.108339325 0.4548096 -0.32450625 0.6373362 -0.30701143
-0.33191937 -0.31810114 -0.1260616 0.3102046 0.34362313 0.5892492 -0.4504645 0.24813955
0.028766053 0.46566248 0.19375663 -0.5010239 0.0921208 0.10307457 0.51084954 0.49497712
0.31954762 -0.4966876 0.20138052 -0.1345552 0.31602108 0.013422994 -0.67230123 -0.47621533
-0.10883083 0.39360437 0.6207747 -0.14858904 0.20038006 0.49672514 -0.3539476 0.3229955
-0.43964556 0.00842117 -0.24887483 -0.029260494 -0.22066669 0.1954431 0.22372922 -0.4740388
-0.3645975 -0.6106593 0.48627672 0.020258224 0.041427914 0.49988076 0.62989545 0.48509377
00000000: 060c 353f e33e 89be 2260 163f af9e 57bd
00000010: e7e3 a33e 2194 37be 6c5f ff3d 3e50 f4ba
00000020: 633d f23e 37ec 1ebf 00ab dbbe 92cc f93e
00000030: 5760 fbbe 6243 4cbe 4a54 b93e 3119 cfbe
00000040: ac19 f1be 8385 a7be 4c5e 0c3f 6798 26be
00000050: 5882 4c3e ab96 7fbd 9886 253f 6bfb 40bc
00000060: aca5 bdbe e5ac 60be 2eec cf3e 81ff bc3e
00000070: dc52 863e 417b cfbe 6c7e 68be 7e9a 943e
00000080: 6282 52bd 9c99 43bf ee60 573e 78da 9b3d
00000090: 5bb3 cbbd 57ca 25bf 6d99 c53e ff0b 88be
000000a0: ac98 0ebf 9918 b1bd a6fa f4be 8491 9abe
000000b0: da04 063f 7d01 f538 8997 7fbb 8eeb a4be
000000c0: 03b8 823e 3dfc cebd ae87 35be 9790 a03e
000000d0: 6b2c 023f a7dc f1be ac79 573e c11b dbbe
000000e0: 41cb b4be d701 06bf 852a b93d 5280 f3be
000000f0: f282 e63e 89b6 e33e a726 edbd 3b9a 13bf
00000100: 89b1 bb3b 8a92 ecbc e0d7 54be 4205 10bf
00000110: adba adbe 1b07 f7bd 34bb 8c3e 2e70 26be
00000120: d1c2 0bbf 2701 1abf 2e60 b8be 5efd 243e
00000130: 4433 dd3e e6f5 783e 46e5 3b3e 0a8e 95be
00000140: 3abb a5bd 4386 55be 77f8 b3be f0cf 5a3e
00000150: 3db5 70be eaf8 b43e 90ca 8d3e 4051 13bf
00000160: f85f dfbb ac0e 2b3d 9f5a f3be e4a1 9cbe
00000170: 556b 71bc 65b5 d83e 9429 573d 3bc0 093f
00000180: 7d6c 1d3f 16ac 853e 88fe e33e 9896 353f
00000190: 8b00 9dbe b5b6 afbe 0e88 aa3e a586 bdbd
000001a0: 18c0 ef3e f65b 413f 58c8 78bd e443 fb3d
000001b0: 2534 b7be 3bc4 203f 76b4 17bc a3f5 edbd
000001c0: 9441 62be 68a8 ac3e 7f5a 7b3e 0e59 fbbd
000001d0: 2855 de3e 468d f1bc 5e05 c9be 953b b73e
000001e0: e0af 163e ac96 97be 1ac5 913d 57df 493e
000001f0: 3d01 6ebe f50f 08be b660 ed3e 3762 083f
00000200: 37f2 ff3e ea5b 9ebd e4b6 473e 378a f43e
00000210: d2c4 0ebf cc0c c8be e8b0 393d fa4c 1a3e
00000220: a8a9 4f3d b5e7 4b3e 3b67 c63e 02e1 dd3d
00000230: cedc e83e af25 a6be 7728 233f 9a30 9dbe
00000240: 56f1 a9be 27de a2be 4b16 01be 23d3 9e3e
00000250: 5fef af3e 09d9 163f 48a3 e6be 4b18 7e3e
00000260: c9a6 eb3c 506b ee3e 2368 463e 1a43 00bf
00000270: d4a9 bc3d c318 d33d 09c7 023f a46d fd3e
00000280: bf9b a33e d64d febe b236 4e3e d7c8 09be
00000290: 84cd a13e 1eec 5b3c ef1b 2cbf 7fd2 f3be
000002a0: b3e2 debd 8386 c93e 17eb 1e3f ba27 18be
000002b0: 6e30 4d3e c252 fe3e 9f38 b5be ab5f a53e
000002c0: 3919 e1be f2f8 093c 0bd9 7ebe b4b3 efbc
000002d0: 73f6 61be 3c22 483e 4619 653e 37b5 f2be
000002e0: 86ac babe 2b54 1cbf 43f9 f83e 93f4 a53c
000002f0: 51b0 293d 5ff0 ff3e d440 213f 365e f83e

fc1.bias f4 [32]
0.07108714 0.19390902 0.24385674 0.049633406 0.19781196 0.22098288 0.09041737 -0.0067173317
-0.0356991 0.31566113 0.1305598 0.36184815 0.120384105 -0.009706161 0.09319537 -0.0058789765
0.004801388 0.07752645 0.076224506 -0.0125732375 0.06293434 0.002912422 0.11894321 0.18984416
0.06327956 0.032859582 0.021851217 0.23332898 0.027485028 0.030811822 0.19890323 0.038353145
00000000: 2296 913d 1690 463e 95b5 793e 664c 4b3d
00000010: 388f 4a3e 5649 623e be2c b93d 101d dcbb
00000020: 3839 12bd 569e a13e 78b1 053e 2944 b93e
00000030: f18b f63d 9706 1fbc 37dd be3d 6ea4 c0bb
00000040: f654 9d3b 30c6 9e3d 981b 9c3d fbff 4dbc
00000050: b8e3 803d 55de 3e3b 7f98 f33d 8266 423e
00000060: b798 813d c597 063d 5301 b33c cbed 6e3e
00000070: 4828 e13c 1369 fc3c 4aad 4b3e 3018 1d3d

fc2.weight f4 [32, 32]
-0.10591319 0.478674 0.0716489 -0.33447543 -0.39637637 -0.089818925 0.11646147 -0.31152824
0.15843423 0.3294311 0.069872886 -0.49148327 -0.54846454 0.29908007 0.1775467 0.35286087
0.17770305 -0.3231935 0.43343735 0.08477976 0.18148509 0.002078959 -0.038642995 -0.19056298
0.30582672 -0.37323287 0.046748493 -0.3327513 0.014591953 -0.07024531 0.081460126 0.29741672
0.19756073 0.030990204 0.024413232 0.18667258 0.014639803 -0.100112215 -0.18379866 -0.3305594
-0.41077307 0.25474948 0.41542643 -0.27789608 -0.10568983 0.046155427 0.50015193 0.018285211
0.20320399 -0.15609607 0.43063104 0.11361315 0.06681429 -0.0016780482 -0.30545765 0.017817885
-0.051859755 -0.2934446 -0.4189177 0.31304935 -0.24842131 0.2276962 0.31060812 -0.09202057
0.24333501 0.4805648 0.3276985 -0.37798032 -0.4746751 0.02768143 3.319291e-05 0.075756796
-0.5852105 -0.040614717 0.18760961 -0.39561224 -0.28744334 0.30212557 0.18517536 -0.08574243
0.1928942 -0.330609 0.4767282 0.2527616 0.22608924 -0.22654133 0.026411656 0.34292862
0.1525221 -0.10463965 -0.35558224 0.03302386 -0.14290543 -0.32819682 -0.2823671 0.20133018
-0.20921823 0.23442572 0.3701527 -0.45976424 -0.40992668 0.13818571 -0.03904452 -0.14139393
-0.24412751 -0.55525196 -0.30451667 -0.12697756 0.061392568 0.21153438 0.28067443 0.04232822
0.35062322 0.31214803 0.2378372 -0.012503187 0.32466507 0.5471727 0.10400389 0.37524608
0.20883566 -0.43295315 0.014849487 0.032983378 -0.22383505 0.1564675 -0.17816961 -0.26573655
0.23789814 -0.2330781 -0.3453108 0.3422528 0.028691445 0.020872071 -0.22566 0.1736956
-0.0030164218 0.22268322 0.017445315 -0.019830288 0.13802491 0.23668756 0.32761225 0.2612341
-0.19000709 0.502679 -0.16521272 -0.26910543 -0.035158563 -0.3870549 -0.1163462 0.16922425
-0.41130203 0.3930115 0.32887366 0.12854846 0.29488635 0.23225726 0.2988906 0.16529013
0.19882685 0.38952354 0.5617752 -0.34868887 0.22166608 0.22225715 -0.3526632 -0.29274127
-0.22756764 0.36639127 0.29891226 0.7166231 0.37703094 0.10659362 0.3289199 0.001594393
0.22114173 -0.16735564 -0.40744692 -0.12506373 0.32524654 -0.007422164 0.1499877 0.3955535
0.48962387 0.09196923 -0.44922626 0.5705947 0.16606846 0.3835294 -0.21494867 -0.24384257
0.12214902 0.11875418 -0.2980545 0.18984996 0.33129513 0.30531213 -0.2434953 0.46875343
0.109329075 -0.33865494 -0.3640843 0.45978552 0.50106776 -0.036274068 -0.24205182 -0.24162927
-0.123646334 0.5217498 -0.41324738 -0.20230983 0.40774196 -0.33359036 0.32828313 0.21776544
0.2095493 -0.10223304 0.28217715 -0.19752593 -0.29261327 0.34999636 -0.3654177 0.33745813
-0.3081614 -0.27023342 0.2442003 0.30791187 -0.32908365 -0.09587813 -0.09932996 0.3437186
0.103963315 0.1017034 0.022815298 -0.17201379 -0.5388101 0.24606456 -0.03647021 -0.058814574
0.52291477 0.39597243 0.32267645 0.22680591 0.16815567 0.60097426 -0.06770012 0.13783897
0.020135544 0.063205 -0.12461733 0.034523018 0.40753263 -0.27235427 -0.3193347 0.27836275
00000000: 04e9 d8bd c214 f53e a9bc 923d 5d40 abbe
00000010: d8f1 cabe fcf2 b7bd 5a83 ee3d a180 9fbe
00000020: 953c 223e 31ab a83e 8419 8f3d b2a3 fbbe
00000030: 2c68 0cbf 0621 993e cdce 353e 2eaa b43e
00000040: caf7 353e 9e79 a5be 80eb dd3e 03a1 ad3d
00000050: 3ad7 393e 253f 083b 1e48 1ebd f122 43be
00000060: 5295 9c3e 6118 bfbe 597b 3f3d 615e aabe
00000070: 1613 6f3c c6dc 8fbd 91d4 a63d 0147 983e
00000080: 5c4d 4a3e 2bdf fd3c 42fe c73c 1927 3f3e
00000090: c9db 6f3c a207 cdbd b735 3cbe 153f a9be
000000a0: d950 d2be 866e 823e c6b2 d43e 6548 8ebe
000000b0: e973 d8bd 790d 3d3d f509 003f deca 953c
000000c0: b514 503e a6d7 1fbe ac7b dc3e 03ae e83d
000000d0: eed5 883d f4f1 dbba f264 9cbe d0f6 913c
000000e0: e56a 54bd 5f3e 96be 617c d6be 0148 a03e
000000f0: 2862 7ebe 3129 693e 0708 9f3e 4875 bcbd
00000100: d02c 793e 970c f63e 19c8 a73e a386 c1be
00000110: 9d08 f3be 2bc4 e23c 9e38 0b38 6126 9b3d
00000120: 5bd0 15bf 9e5b 26bd bc1c 403e b08d cabe
00000130: c62b 93be 34b0 9a3e 9c9e 3d3e ba99 afbd
00000140: 0f86 453e 9545 a9be b815 f43e f869 813e
00000150: f083 673e 73fa 67be 425d d83c 5794 af3e
00000160: c12e 1c3e 504d d6bd e00e b6be 0744 073d
00000170: cd55 12be 6a09 a8be 6c92 90be 8029 4e3e
00000180: 4e3d 56be 4c0d 703e a884 bd3e 3866 ebbe
00000190: e9e1 d1be 8e80 0d3e 26ed 1fbd 92c9 10be
000001a0: 90fc 79be fe24 0ebf 9ce9 9bbe 6806 02be
000001b0: c676 7b3d 789c 583e 8fb4 8f3e 5b60 2d3d
000001c0: e384 b33e ded1 9f3e 988b 733e 2bda 4cbc
000001d0: 803a a63e 8313 0c3f feff d43d 4120 c03e
000001e0: 04d9 553e 09ac ddbe 434b 733c 9419 073d
000001f0: 0435 65be 0439 203e 1872 36be 9f0e 88be
00000200: 929b 733e 07ac 6ebe 94cc b0be c23b af3e
00000210: 520a eb3c e8fb aa3c 6a13 67be 42dd 313e
00000220: 29af 45bb 1207 643e 7ae9 8e3c 2173 a2bc
00000230: 6756 0d3e 395e 723e cbbc a73e 7ac0 853e
00000240: 3891 42be 92af 003f 862d 29be 30c8 89be
00000250: 6d02 10bd 0f2c c6be eb46 eebd 1f49 2d3e
00000260: 2e96 d2be ce38 c93e 2162 a83e 35a2 033e
00000270: 58fb 963e d9d4 6d3e 3008 993e d141 293e
00000280: 4499 4b3e a16f c73e 80d0 0f3f 5987 b2be
00000290: 6ffc 623e 6197 633e 4590 b4be 2fe2 95be
000002a0: 7e07 69be a397 bb3e 070b 993e 9d74 373f
000002b0: 330a c13e c14d da3d 3068 a83e f4fa d03a
000002c0: fa72 623e 475f 2bbe e29c d0be b510 00be
000002d0: b786 a63e a035 f3bb 6096 193e fd85 ca3e
000002e0: fbaf fa3e 5d5a bc3d fc00 e6be 7f12 123f
000002f0: da0d 2a3e f75d c43e 811b 5cbe deb1 79be
00000300: 4429 fa3d 6435 f33d 999a 98be 0768 423e
00000310: 849f a93e df51 9c3e d556 79be 7300 f03e
00000320: ece7 df3d 2e64 adbe 4269 babe 0269 eb3e
00000330: fa45 003f 1e94 14bd 6fdc 77be aa6d 77be
00000340: 4a3a fdbd 6591 053f 2995 d3be 4f2a 4fbe
00000350: 8ec3 d03e 5bcc aabe ba14 a83e e7fd 5e3e
00000360: 1794 563e 8e5f d1bd 8679 903e 3d44 4abe
00000370: 68d1 95be b932 b33e 0718 bbbe 50c7 ac3e
00000380: 55c7 9dbe 095c 8abe a50f 7a3e a0a6 9d3e
00000390: a77d a8be c15b c4bd 826d cbbd e2fb af3e
000003a0: b8ea d43d df49 d03d 26e7 ba3c 6224 30be
000003b0: 75ef 09bf 59f8 7b3e c961 15bd 8de7 70bd
000003c0: bedd 053f e6bc ca3e d935 a53e cf3f 683e
000003d0: 0031 2c3e 73d9 193f 5ca6 8abd a925 0d3e
000003e0: 4cf3 a43c 9f71 813d 5f37 ffbd 0268 0d3d
000003f0: 1ea8 d03e 0572 8bbe d67f a3be 9085 8e3e

fc2.bias f4 [32]
0.08004453 0.13953821 0.04534316 0.07573363 0.06858193 0.20495935 0.14150956 0.0020274136
0.030080512 0.023272436 0.025399677 0.018973283 -0.034898877 0.024487715 0.17999794 0.05515706
0.11375964 0.119938225 0.0952619 0.106755435 0.18359934 0.044889912 0.05684807 0.022962598
0.062055252 0.021905515 0.15361989 -0.043204203 0.042818673 0.25783333 -0.009672705 0.003671459
00000000: 63ee a33d 1be3 0e3e c0b9 393d 3c1a 9b3d
00000010: af74 8c3d dde0 513e e2e7 103e 5bde 043b
00000020: 686b f63c d6a5 be3c fc12 d03c dc6d 9b3c
00000030: 20f2 0ebd 769a c83c 6151 383e 5fec 613d
00000040: d0fa e83d 2ca2 f53d ac18 c33d 98a2 da3d
00000050: 7701 3c3e 7cde 373d 86d9 683d 0f1c bc3c
00000060: a62d 7e3d 3273 b33c 884e 1d3e e4f6 30bd
00000070: a262 2f3d bb02 843e 447a 1ebc dc9c 703b

gru.weight_ih_l0 f4 [96, 32]
-0.14334038 -0.25114563 0.120749734 -0.076863304 0.26262656 0.11659678 0.12054232 0.026640099
0.14783053 -0.017623825 0.037429206 -0.11618774 0.092785105 0.21388714 0.2007171 -0.028034374
0.29522473 0.15333912 0.27150047 -0.0869826 0.091329314 0.24100514 0.35387313 -0.059784602
0.09025044 -0.016645923 0.09681256 -0.025242865 -0.13252458 0.15807255 0.2961232 0.031068517
0.044600066 -0.07957054 -0.080877334 0.058795545 0.15925865 -0.21171215 0.16630238 0.034411147
0.10261386 0.062063653 0.15321253 -0.23257864 -0.009308085 0.10040142 -0.0371029 0.10986216
-0.09343103 -0.14493409 0.2223454 -0.2269738 0.12769699 -0.0675987 0.08229139 -0.08574958
-0.2610219 -0.011515765 0.17907561 -0.058914043 -0.12029851 -0.07979965 0.19003071 -0.20717293
0.21016487 -0.08010701 -0.045108028 0.30590457 0.029860493 0.07204215 0.15778653 0.055294186
0.1958487 0.14145713 0.12613639 0.09757315 0.22648653 0.07435769 0.10200524 0.33317867
-0.08337152 0.032214466 0.16795227 -0.025551451 -0.046322517 0.2082745 0.18754919 0.31395873
0.20904647 0.20980085 0.25384364 0.08758628 0.079110466 0.21237949 0.32530418 -0.13932112
-0.044110212 0.2510078 -0.16428551 -0.07302376 -0.16995753 0.06687597 0.22978091 -0.11280251
-0.06535151 -0.17022361 0.1337601 -0.2694564 0.0870283 -0.12883192 0.046066556 -0.040399577
0.15240559 -0.0044117915 0.017212514 -0.1782862 0.2953988 0.08872945 -0.1186922 -0.06857244
0.030761711 -0.05382038 0.26529244 -0.058359507 0.048901964 0.00887528 -0.13188462 0.26114416
-0.006884641 -0.2084971 0.0033276589 -0.123873405 0.21364439 -0.08432724 0.11822033 -0.013052946
-0.08052167 -0.18653461 -0.012337378 -0.02857056 -0.07940617 0.05768493 0.07955598 0.13287456
0.12921804 -0.13383847 -0.097666495 -0.2531338 -0.08152678 -0.14267859 0.3118953 -0.24890263
-0.10860645 0.016011847 0.11866294 -0.10074409 0.011618767 0.018110832 0.23860939 -0.060004767
-0.21324039 0.0414848 0.032465283 -0.04749696 0.27768236 0.1965023 0.013909051 -0.05578291
-0.034346245 -0.17588063 0.051751975 -0.1977363 -0.08429604 0.08613317 0.13602678 0.20131038
0.21148685 0.10910479 0.09483606 -0.11163964 0.121591695 0.30224267 0.3367504 -0.15086438
0.12867938 -0.016164359 0.15171361 -0.16230269 0.020378876 0.1895331 0.069876954 0.1630827
-0.010847142 -0.06207814 -0.05688496 -0.08370437 0.2100535 -0.057311527 0.24154565 0.14447734
0.08346137 0.057489317 0.1011702 -0.10388401 0.01964025 0.19932577 0.06682121 -0.04059122
-0.22465114 0.06283414 0.18783405 -0.15579866 -5.273254e-05 -0.03532335 -0.12018876 -0.16901593
-0.22674865 -0.13707802 0.050476003 0.099093094 -0.099011876 0.13554063 0.13188061 0.005843367
0.12977126 0.120329514 -0.0991017 -0.0704527 0.30127403 0.21906318 0.2784145 -0.08783707
0.20979534 -0.09818906 0.09064667 0.06234756 0.169645 0.11178742 -0.010959232 -0.046131857
0.22869779 0.31575024 0.03422957 0.11324546 0.18754604 0.18100363 0.18095958 0.10375515
0.12786508 0.24069494 0.31852055 -0.015520951 0.11907267 0.1042963 0.04104703 -0.036718056
00000000: d2c7 12be 2996 80be a34b f73d 826a 9dbd
00000010: fd76 863e 4bca ee3d e4de f63d 563c da3c
00000020: e360 173e d75f 90bc 5e4f 193d d6f3 edbd
00000030: 1e06 be3d 3b05 5b3e c988 4d3e 58a8 e5bc
00000040: b227 973e ee04 1d3e 1c02 8b3e ef23 b2bd
00000050: dd0a bb3d 0dca 763e dc2e b53e b3e0 74bd
00000060: 39d5 b83d 085d 88bc aa45 c63d 20ca cebc
00000070: 86b4 07be c5dd 213e 769d 973e 6783 fe3c
00000080: 8fae 363d e1f5 a2bd 04a3 a5bd 99d3 703d
00000090: b314 233e 12cb 58be 2c4b 2a3e b4f2 0c3d
000000a0: 3727 d23d 7536 7e3d bfe3 1c3e 1829 6ebe
000000b0: f080 18bc 429f cd3d 36f9 17bd 6aff e03d
000000c0: c558 bfbd 9a69 14be 83ae 633e d26b 68be
000000d0: 00c3 023e 3071 8abd 6388 a83d 7a9d afbd
000000e0: aaa4 85be 9fac 3cbc 995f 373e da4f 71bd
000000f0: 115f f6bd 006e a3bd 6997 423e 2425 54be
00000100: 7635 573e 250f a4bd 32c3 38bd 869f 9c3e
00000110: fe9d f43c d68a 933d cb92 213e 287c 623d
00000120: 908c 483e 23da 103e e629 013e 6fd4 c73d
00000130: 16ec 673e d848 983d 20e8 d03d 6596 aa3e
00000140: b0be aabd 51f3 033d aefb 2b3e 4751 d1bc
00000150: aebc 3dbd e945 553e e50c 403e 33bf a03e
00000160: 4710 563e 09d6 563e cbf7 813e 7060 b33d
00000170: ab04 a23d 027a 593e 458e a63e 32aa 0ebe
00000180: e9ac 34bd 1884 803e 763a 28be 7b8d 95bd
00000190: 5909 2ebe 45f6 883d b04b 6b3e 0105 e7bd
000001a0: 03d7 85bd 194f 2ebe 68f8 083e 30f6 89be
000001b0: e53b b23d 84ec 03be 49b0 3c3d 077a 25bd
000001c0: 3610 1c3e ca90 90bb 4201 8d3c a890 36be
000001d0: 833e 973e c9b7 b53d e514 f3bd b56f 8cbd
000001e0: fcff fb3c c272 5cbd 69d4 873e 610a 6fbd
000001f0: 6d4d 483d 9f69 113c c30c 07be b0b4 853e
00000200: 8e98 e1bb 4480 55be da14 5a3b 57b1 fdbd
00000210: 98c5 5a3e c3b3 acbd 801d f23d 06dc 55bc
00000220: 8ce8 a4bd ee02 3fbe b722 4abc cf0c eabc
00000230: b49f a2bd 0847 6c3d 3fee a23d 4510 083e
00000240: bc51 043e f40c 09be 5f05 c8bd c19a 81be
00000250: 83f7 a6bd 561a 12be beb0 9f3e 55e0 7ebe
00000260: 0f6d debd 472b 833c 8e05 f33d eb52 cebd
00000270: a45c 3e3c 2b5d 943c 0556 743e 8fc7 75bd
00000280: b05b 5abe f7eb 293d 51fa 043d 2c8c 42bd
00000290: 622c 8e3e e637 493e cae2 633c 9f7c 64bd
000002a0: a6ae 0cbd 0d1a 34be e1f9 533d 627b 4abe
000002b0: 67a3 acbd 9666 b03d 9b4a 0b3e 4f24 4e3e
000002c0: 0290 583e 5572 df3d 6939 c23d 53a3 e4bd
000002d0: 1105 f93d 8dbf 9a3e 8c6a ac3e 317c 1abe
000002e0: 87c4 033e 1e6b 84bc d05a 1b3e ad32 26be
000002f0: 9af1 a63c f714 423e a61b 8f3d 27ff 263e
00000300: 36b8 31bc a645 7ebd 3400 69bd 326d abbd
00000310: 4418 573e 7ebf 6abd be57 773e def1 133e
00000320: cbed aa3d eb79 6b3d 5232 cf3d 24c1 d4bd
00000330: 97e4 a03c 0e1c 4c3e 8fd9 883d fb42 26bd
00000340: f30a 66be 30af 803d 9257 403e af89 1fbe
00000350: 222d 5db8 38af 10bd 8625 f6bd 8312 2dbe
00000360: cc30 68be 2e5e 0cbe edbf 4e3d 52f1 ca3d
00000370: bdc6 cabd 2acb 0a3e b60b 073e b779 bf3b
00000380: c2e2 043e 526f f63d d5f5 cabd 8149 90bd
00000390: 9740 9a3e 1952 603e 588c 8e3e ece3 b3bd
000003a0: 97d4 563e 5917 c9bd f6a4 b93d 2860 7f3d
000003b0: 6bb7 2d3e cef0 e43d 5a8e 33bc c2f4 3cbd
000003c0: c12f 6a3e 04aa a13e 4e34 0c3d 3ced e73d
000003d0: 120c 403e 0459 393e 784d 393e 957d d43d
000003e0: 10ef 023e bc78 763e 2015 a33e 964b 7ebc
000003f0: 5fdc f33d 4c99 d53d ee20 283d ac65 16bd

gru.weight_hh_l0 f4 [96, 32]
0.16905794 0.017780544 0.19971046 -0.13064648 0.17807518 0.15540814 0.08124604 -0.21845433
-0.3260623 -0.20082283 -0.0036880707 -0.072308265 -0.15023093 -0.21027982 0.01708106 0.032583337
-0.069038376 -0.08403284 0.09388695 -0.15970176 -0.09596982 0.28413472 -0.053649046 -0.18973947
0.30765897 0.05289876 -0.020068653 0.11723537 0.15325241 0.14328268 -0.21236825 0.27180666
-0.038919505 -0.09794839 -0.11483475 -0.17871146 0.12564649 0.16029073 0.044555902 -0.018372376
0.08805376 0.046319693 -0.07789034 -0.19483985 -0.16251485 -0.18125612 0.09553434 -0.10971709
-0.114557765 0.08994529 0.25787485 0.09086345 0.0014627781 0.071295835 0.012033146 -0.19781666
0.019061664 -0.11781122 -0.13158046 0.12202746 0.013705971 -0.002246032 0.07395464 0.14186437
0.21915697 -0.251995 0.10307855 0.042372502 -0.0059911227 0.17464489 0.07974503 -0.2767753
-0.12169478 -0.17563428 -0.18911543 -0.07411838 -0.17183661 -0.33981034 0.0012301335 0.29677075
0.23218662 -0.1261717 -0.13310914 -0.14143033 -0.22954884 -0.016835881 0.25669026 -0.21359725
0.13812755 -0.021550965 -0.07753311 -0.026054174 0.23611039 -0.01963989 -0.18309751 0.1989098
-0.09111624 -0.018557213 -0.07139157 -0.028865278 -0.1699304 0.14030425 0.003944206 0.09988858
0.10029979 0.20249943 0.057119165 -0.0037568694 0.083417125 -0.031325247 0.010755743 -0.008581297
0.0187193 -0.09214252 0.06462035 0.17324325 0.039312184 0.19139445 -0.06715742 0.19851701
0.16844274 0.13661344 -0.22638254 0.03995853 -0.08986092 0.16874418 -0.15976584 -0.022178447
0.033183727 0.21893424 0.044523463 -0.017325014 0.1345433 0.120220795 0.00061769993 0.11748009
-0.08797824 -0.012455626 0.018628523 -0.013866725 -0.12670614 -0.0919151 -0.19494542 -0.0123845525
-0.041392718 -0.03820123 0.19110763 -0.14171144 0.114714965 -0.06022291 -0.18933699 -0.12593795
0.05194557 -0.036825195 0.056151222 -0.06599571 -0.012101731 0.12656303 -0.04008829 0.020216113
-0.042575076 -0.1528723 0.19888018 0.008100954 0.08105945 -0.12071422 0.08209809 0.110359594
0.16712286 0.05641373 0.15666479 0.0029914354 -0.072305046 0.13941345 0.13290825 0.121908925
-0.063810214 -0.05732561 0.19342873 0.029771836 0.060771227 -0.028268749 0.10446991 -0.04360266
0.099097796 -0.1232578 -0.003589898 0.08755518 -0.082741134 0.10032293 -0.001605943 0.19279365
0.06581324 -0.19648947 -0.36140537 -0.050591964 0.056746688 0.043060753 0.17307957 -0.08739547
0.14802381 0.18877026 -0.0749594 -0.09240462 -0.050682314 0.050339174 -0.015070255 0.111277975
0.057407007 -0.06197132 -0.08163157 -0.07182577 0.21883105 0.24155189 0.048543163 -0.1790745
-0.09999705 0.07980311 -0.14086372 -0.33117628 0.0850006 0.086505204 -0.032152086 0.008748576
-0.08319231 0.17996651 -0.24778432 -0.037698902 -0.0676945 0.15080848 0.15886687 -0.29457676
-0.17795889 0.04487461 0.16684932 -0.111529104 0.023889044 0.21683872 -0.004923601 0.015880493
0.14668813 -0.04142208 0.15160309 0.006394036 0.041833397 -0.07030917 -0.19104603 0.21747582
0.005923991 0.39999726 -0.104451895 -0.09590348 0.065979876 0.30171615 -0.0063283923 -0.16884364
00000000: 861d 2d3e 81a8 913c e680 4c3e 31c8 05be
00000010: 5759 363e 5023 1f3e 5364 a63d 7eb2 5fbe
00000020: a3f1 a6be 80a4 4dbe 8fb3 71bb 5b16 94bd
00000030: 23d6 19be 9853 57be 94ed 8b3c 1b76 053d
00000040: fe63 8dbd 6919 acbd cd47 c03d dc88 23be
00000050: d38b c4bd 1b7a 913e 1abf 5bbd 104b 42be
00000060: 7a85 9d3e 5fac 583d 0467 a4bc 1919 f03d
00000070: 33ee 1c3e b2b8 123e 1077 59be 3e2a 8b3e
00000080: 0f6a 1fbd 2a99 c8bd 7b2e ebbd 2300 37be
00000090: 79a9 003e 4123 243e 4080 363d aa81 96bc
000000a0: 8855 b43d b8b9 3d3d f884 9fbd 1984 47be
000000b0: 4b6a 26be 349b 39be 82a7 c33d 5bb3 e0bd
000000c0: 439d eabd 3c35 b83d 2c08 843e 9e16 ba3d
000000d0: b0ba bf3a 8d03 923d ac26 453c 7390 4abe
000000e0: 3527 9c3c 0247 f1bd 07bd 06be 88e9 f93d
000000f0: 028f 603c 2a32 13bb 8875 973d e544 113e
00000100: af6a 603e 7d05 81be d91a d33d ca8e 2d3d
00000110: 2e51 c4bb 1cd6 323e 5d51 a33d 7eb5 8dbe
00000120: 1d3b f9bd 79d9 33be 7aa7 41be 61cb 97bd
00000130: f0f5 2fbe 9ffb adbe 6e3c a13a 56f2 973e
00000140: 54c2 6d3e 2733 01be c34d 08be 1dd3 10be
00000150: da0e 6bbe 67eb 89bc e86c 833e 3db9 5abe
00000160: 4f71 0d3e a68b b0bc aec9 9ebd 906f d5bc
00000170: ecc6 713e d6e3 a0bc ea7d 3bbe 03af 4b3e
00000180: 279b babd 4c05 98bc be35 92bd e076 ecbc
00000190: 3c02 2ebe ebab 0f3e 663e 813b 6292 cc3d
000001a0: fa69 cd3d 035c 4f3e c9f5 693d cf35 76bb
000001b0: 99d6 aa3d e74e 00bd db38 303c 9198 0cbc
000001c0: 3859 993c 38b5 bcbd ad57 843d ae66 313e
000001d0: d005 213d e8fc 433e d489 89bd 0b48 4b3e
000001e0: 417c 2c3e 65e4 0b3e d3d0 67be 8eab 233d
000001f0: 0109 b8bd 46cb 2c3e a899 23be 93af b5bc
00000200: a9eb 073d 4c30 603e 3c5e 363d 30ed 8dbc
00000210: b8c5 093e 5236 f63d 24ed 213a 6799 f03d
00000220: ef2d b4bd af12 4cbc d89a 983c 4331 63bc
00000230: 41bf 01be fc3d bcbd c69f 47be 94e8 4abc
00000240: 698b 29bd e578 1cbd b8b1 433e ce1c 11be
00000250: aeef ea3d 4cac 76bd 8ee1 41be e1f5 00be
00000260: e1c4 543d 04d6 16bd d3fe 653d c228 87bd
00000270: 5746 46bc bd99 013e 9e33 24bd 439c a53c
00000280: 3463 2ebd 8e8a 1cbe 3fa7 4b3e ddb9 043c
00000290: 7f02 a63d 0439 f7bd 0b23 a83d 3604 e23d
000002a0: 4122 2b3e 1512 673d bc6c 203e f50b 443b
000002b0: ab14 94bd 66c2 0e3e 1a19 083e 63ab f93d
000002c0: eeae 82bd 42ce 6abd 2e12 463e 11e4 f33c
000002d0: 40eb 783d dd93 e7bc 52f4 d53d b498 32bd
000002e0: c9f3 ca3d 966e fcbd 7f44 6bbb 2150 b33d
000002f0: 2f74 a9bd 1c76 cd3d 817e d2ba b36b 453e
00000300: 18c9 863d 8934 49be 200a b9be 8539 4fbd
00000310: 376f 683d 7960 303d c53b 313e 65fc b2bd
00000320: 8e93 173e fe4c 413e 5084 99bd a23e bdbd
00000330: 4298 4fbd 7330 4e3d 3be9 76bc b5e5 e33d
00000340: 9c23 6b3d a4d5 7dbd 742e a7bd 6419 93bd
00000350: 3f15 603e 6159 773e 32d5 463d 4e5f 37be
00000360: 41cb ccbd d06f a33d 943e 10be f08f a9be
00000370: cb14 ae3d a429 b13d e8b1 03bd 3056 0f3c
00000380: bb60 aabd 2449 383e 2cbb 7dbe 2a6a 1abd
00000390: 6aa3 8abd 8a6d 1a3e ffad 223e c4d2 96be
000003a0: db3a 36be 70ce 373d 8cda 2a3e 5f69 e4bd
000003b0: f5b2 c33c f80a 5e3e 2956 a1bb cf17 823c
000003c0: 6a35 163e 33aa 29bd d73d 1b3e 1085 d13b
000003d0: 7f59 2b3d 41fe 8fbd 92a1 43be fbb1 5e3e
000003e0: 0a1e c23b 71cc cc3e e0ea d5bd 0b69 c4bd
000003f0: 7520 873d 8a7a 9a3e 675e cfbb 59e5 2cbe

gru.bias_ih_l0 f4 [96]
-0.08846777 0.024499768 0.32638466 -0.0038783574 0.034237806 -0.09223901 0.2251488 -0.016635386
0.1336585 0.008327134 0.03868831 0.094227165 0.0156077705 0.13236557 -0.102572046 0.1509647
-0.08114429 0.036775015 -0.11519462 0.18288302 0.0015249049 -0.09066815 -0.012130547 0.022547185
0.22947128 0.3236359 -0.04036672 0.17615916 0.07511596 0.122028634 0.30259642 0.120763175
0.123716176 -0.28188413 -0.20633003 -0.5406956 -0.36387074 -0.3256761 -0.18424548 -0.3093751
-0.48944286 -0.109396085 -0.5033181 -0.05870348 0.037671138 0.15681481 -0.11865646 -0.27289292
-0.3066103 -0.18312792 -0.026850924 0.17266436 -0.37505835 -0.49552315 -0.46170303 0.0309715
-0.38677642 -0.037829816 -0.08615023 -0.09987514 -0.12278605 0.07961189 -0.5190255 0.11684952
-0.109398946 -0.15159738 -0.087576166 0.11689031 0.21575816 0.07638553 -0.11301174 0.09298788
0.10257392 -0.12479659 -0.047623344 -0.16104709 0.043843985 -0.10063525 0.121618815 -0.012842838
0.41140464 0.103128135 -0.17934725 -0.117426895 -0.13564776 -0.10520251 0.047600973 0.15369341
-0.14708585 -0.09377502 -0.11758013 -0.06354963 0.1435853 -0.098892555 -0.097402625 -0.10136267
00000000: 972e b5bd bdb3 c83c e41b a73e 0a2c 7ebb
00000010: f13c 0c3d cee7 bcbd 688d 663e ef46 88bc
00000020: c6dd 083e 886e 083c a277 1e3d 2cfa c03d
00000030: bcb7 7f3c d78a 073e 4b11 d2bd 7e96 1a3e
00000040: fa2e a6bd 66a1 163d 28eb ebbd b045 3b3e
00000050: 51df c73a 39b0 b9bd 34bf 46bc e0b4 b83c
00000060: 85fa 6a3e 9bb3 a53e 9357 25bd 1163 343e
00000070: 65d6 993d 26ea f93d ebed 9a3e af52 f73d
00000080: e85e fd3d 1e53 90be 2e48 53be 076b 0abf
00000090: 444d babe 05bf a6be d9aa 3cbe 6a66 9ebe
000000a0: 4198 fabe 0e0b e0bd 74d9 00bf 0f73 70bd
000000b0: 0d4d 1a3d 1094 203e 2802 f3bd 9fb8 8bbe
000000c0: 06fc 9cbe e385 3bbe 78f6 dbbc edce 303e
000000d0: a607 c0be 36b5 fdbe 5764 ecbe f1b7 fd3c
000000e0: 8f07 c6be 70f3 1abd 886f b0bd 568b ccbd
000000f0: 4177 fbbd 8f0b a33d dbde 04bf cd4e ef3d
00000100: 8e0c e0bd 583c 1bbe 225b b3bd 3064 ef3d
00000110: b5ef 5c3e 0470 9c3d b372 e7bd 6e70 be3d
00000120: 4612 d23d 5b95 ffbd b210 43bd 87e9 24be
00000130: c095 333d db19 cebd 4913 f93d c46a 52bc
00000140: a1a3 d23e d834 d33d cea6 37be 837d f0bd
00000150: 3fe7 0abe 6a74 d7bd 3df9 423d ce61 1d3e
00000160: ac9d 16be 1e0d c0bd dacd f0bd 4f26 82bd
00000170: 0608 133e 2e88 cabd 077b c7bd 3b97 cfbd

gru.bias_hh_l0 f4 [96]
-0.102487944 0.21358348 0.22335151 0.11866478 0.0393736 -0.09363976 0.21094967 0.1345553
0.18716514 0.099315256 0.09994097 0.1295572 0.09163364 0.1687458 0.22187725 -0.010275431
-0.07447547 0.0057509555 -0.028478347 0.14731549 0.041174423 0.073833704 0.04266218 0.06820745
-0.050394453 0.24703588 0.061395872 0.20240544 0.3132587 -0.031136695 0.3295546 0.18560362
-0.04929244 -0.22868305 -0.27748287 -0.3477913 -0.10659545 -0.38467717 -0.18018822 -0.51336914
-0.5747831 0.013074194 -0.41090864 -0.0583441 -0.10652134 0.2291159 -0.12834159 -0.1250287
-0.57632965 -0.38091654 -0.06265762 0.21424645 -0.4655431 -0.39498723 -0.42138124 -0.097108245
-0.2962278 0.19225305 -0.24499148 -0.3274831 -0.29811826 0.14797556 -0.4935033 0.15611301
0.11651704 -0.16015255 -0.056541607 0.22675431 0.2626342 -0.19978453 0.08041971 0.17229064
0.14496459 0.125327 -0.28684738 0.054109458 0.0748491 0.20926219 0.1460979 0.13687809
0.21006525 -0.15004456 -0.038307536 -0.061488412 -0.31181118 -0.019045344 0.28073728 -0.15698464
0.14820568 0.080432266 -0.0064006452 -0.15771692 0.08747973 -0.21748585 -0.2418739 -0.1619232
00000000: 33e5 d1bd a1b5 5a3e 42b6 643e 8506 f33d
00000010: 3646 213d 34c6 bfbd 3103 583e ddc8 093e
00000020: 38a8 3f3e cc65 cb3d daad cc3d a5aa 043e
00000030: 6baa bb3d b3cb 2c3e ca33 633e 485a 28bc
00000040: 9886 98bd 8372 bc3b 6c4b e9bc dfd9 163e
00000050: 83a6 283d 2036 973d 8abe 2e3d 59b0 8b3d
00000060: 6a6a 4ebd f9f6 7c3e 3d7a 7b3d 5f43 4f3e
00000070: 7263 a03e 6212 ffbc 61bb a83e e00e 3e3e
00000080: dfe6 49bd e42b 6abe 3c12 8ebe b411 b2be
00000090: b74e dabd 68f4 c4be 4383 38be 296c 03bf
000000a0: fc24 13bf 2535 563c 9e62 d2be 39fa 6ebd
000000b0: dc27 dabd 5c9d 6a3e fa6b 03be 8607 00be
000000c0: 578a 13bf 7e07 c3be a352 80bd 6c63 5b3e
000000d0: aa5b eebe c43b cabe 48bf d7be b0e0 c6bd
000000e0: 2cab 97be fcdd 443e 0cdf 7abe ddab a7be
000000f0: f5a2 98be e886 173e 77ac fcbe 17dc 1f3e
00000100: 7ca0 ee3d 08ff 23be 2c98 67bd 4832 683e
00000110: fd77 863e 5194 4cbe 17b3 a43d f56c 303e
00000120: 9971 143e b955 003e a9dd 92be e1a1 5d3d
00000130: 7c4a 993d d448 563e b09a 153e c529 0c3e
00000140: 581b 573e 48a5 19be 5de8 1cbd 46db 7bbd
00000150: b7a5 9fbe fb04 9cbc ccbc 8f3e 95c0 20be
00000160: 3bc3 173e acb9 a43d 81bc d1bb 8b80 21be
00000170: 9328 b33d 9cb4 5ebe cbad 77be 32cf 25be

fc3.weight f4 [32, 32]
-0.21613729 -0.23964478 -0.20863813 -0.09896074 0.37216464 0.57181364 0.007561752 -0.1403538
-0.5206959 0.40423328 0.47919017 -0.29479682 -0.36665937 -0.42125687 0.57227 0.022426005
-0.08344972 -0.5554069 0.18738765 0.013281801 0.08715751 0.5578509 -0.4862494 -0.5841921
-0.18392785 0.3475627 0.13643205 -0.44896734 -0.052476212 0.24109352 0.26198882 0.025481325
0.12302494 0.23332459 -0.36140105 0.00975727 0.5280188 -0.31173044 0.6264724 -0.6799177
-0.18701214 0.19913141 0.18599993 -0.01090996 -0.47307748 -0.08563172 0.16842104 -0.13409829
-0.17170289 -0.4869639 -0.18294314 -0.022027012 -0.11817409 0.4170424 -0.22651926 -0.2234885
-0.10737535 0.16562869 -0.45087308 0.15614487 0.06018049 0.39705598 -0.42987585 0.39846486
0.1528017 0.29846767 0.37330788 -0.32608634 -0.39502624 -0.5079023 0.11417771 0.13316034
0.41095266 0.07086837 -0.17621979 0.35515338 0.072893225 -0.08832455 0.052616823 -0.12912771
0.21074645 0.12279022 -0.46137848 -0.09750322 -0.2597093 0.04727781 -0.30590665 0.40893725
0.2392749 0.17104806 0.19914839 0.014611687 -0.14742005 -0.048395745 0.07216134 0.3463378
0.2445003 0.4678424 -0.32142514 0.15802054 -0.020133188 -0.54334587 0.21404319 0.15540127
-0.192903 -0.48157662 -0.36753258 -0.450988 0.22098774 0.24113116 -0.18068637 0.4764303
0.23834088 0.29373267 0.63559103 0.020022 -0.51974136 -0.115550235 0.59094673 0.5472769
0.25326592 -0.1000528 -0.039059713 -0.17550817 0.5497798 -0.06528471 -0.42258063 -0.017922595
-0.26105452 0.028422892 -0.24464513 0.56126195 0.43382505 -0.33070883 -0.11504595 1.0269734
0.28164756 -0.15445772 -0.4368976 0.2707643 0.19135997 0.10808768 -0.06756543 0.20047659
0.42539752 0.2182094 -0.16254567 0.35734585 -0.20010933 -0.4566729 0.27936488 0.31039622
-0.47503448 -0.024216292 0.2914324 -0.2342344 0.046390012 0.3525019 -0.3969549 -0.5233991
0.45421317 -0.59977084 0.060223855 -0.39177066 0.5583291 -0.41873837 -0.37167114 0.0015666118
-0.055879302 -0.27046707 0.053245515 -0.34816852 0.35359132 -0.35624063 0.42691052 -0.2681799
0.023087336 -0.32962355 -0.33052644 -0.16294378 -0.16389649 0.30334657 -0.17295934 0.1936938
0.45084345 0.36161068 -0.08868499 0.22533907 -0.22509046 0.20206113 -0.070397854 -0.21842274
0.03638531 0.23344083 -0.5595422 -0.14748015 0.1280019 0.62980604 -0.12590009 -0.014048651
-0.097046606 0.32758763 -0.20700179 -0.3821531 0.13396838 0.21931645 -0.28150406 0.21154505
0.50422245 -0.33441728 0.4927601 0.24699713 -0.2108847 0.43430576 -0.50990915 0.27198255
0.3727634 0.25813025 -0.5536038 -0.19141026 -0.1056841 -0.06647647 0.20938273 0.17746042
-0.20564388 -0.12753135 0.121999815 0.25230366 0.08045772 0.11985995 0.29980704 0.66044164
0.6668967 0.33000603 -0.59331536 -0.18228884 -0.3809563 0.29774383 0.33314994 0.55022085
-0.044322126 0.33795494 -0.116656095 -0.20042217 0.13017309 0.042579945 0.49917313 -0.2202899
-0.10586963 0.25209075 0.20094505 9.2916234e-05 -0.022684736 -0.37064585 -0.3650878 0.14360037
00000000: 1853 5dbe 7165 75be 3ca5 55be eeab cabd
00000010: 5d8c be3e 6162 123f 93c8 f73b e8b8 0fbe
00000020: 544c 05bf aaf7 ce3e 6a58 f53e 9cef 96be
00000030: c7ba bbbe fbae d7be 4980 123f beb6 b73c
00000040: b0e7 aabd 262f 0ebf 8ce2 3f3e e99b 593c
00000050: a37f b23d 51cf 0e3f aef5 f8be 9d8d 15bf
00000060: 9557 3cbe bdf3 b13e d8b4 0b3e 0cdf e5be
00000070: 4cf1 56bd 38e1 763e 6623 863e 36be d03c
00000080: 80f4 fb3d a4ec 6e3e 8f09 b9be f5dc 1f3c
00000090: 3d2c 073f 229b 9fbe 7f60 203f 160f 2ebf
000000a0: 1c80 3fbe 1be9 4b3e c476 3e3e b0bf 32bc
000000b0: 3637 f2be af5f afbd 9176 2c3e 1051 09be
000000c0: e2d2 2fbe 5553 f9be 7255 3bbe fe71 b4bc
000000d0: 4205 f2bd 9586 d53e aaf4 67be 2bda 64be
000000e0: 9ce7 dbbd 919a 293e d6d8 e6be 71e4 1f3e
000000f0: d17f 763d ec4a cb3e b018 dcbe 9603 cc3e
00000100: 0d78 1c3e c1d0 983e 3622 bf3e caf4 a6be
00000110: e140 cabe e305 02bf 01d6 e93d 2f5b 083e
00000120: 6368 d23e 7023 913d f672 34be aad6 b53e
00000130: 0b49 953d 80e3 b4bd bd84 573d 0e3a 04be
00000140: ebcd 573e 7079 fb3d cd39 ecbe c5af c7bd
00000150: 9ef8 84be 60a6 413d cc9f 9cbe 3960 d13e
00000160: 7b04 753e 3927 2f3e 8eed 4b3e db65 6f3c
00000170: 48f5 16be 9e3a 46bd 53c9 933d 3053 b13e
00000180: 495e 7a3e 0a89 ef3e d691 a4be 23d0 213e
00000190: 5bee a4bc b718 0bbf 232e 5b3e 8321 1f3e
000001a0: 5d88 45be 3691 f6be 3b2d bcbe e6e7 e6be
000001b0: 9c4a 623e 16eb 763e d905 39be acee f33e
000001c0: a20f 743e 2164 963e 18b6 223f 2d05 a43c
000001d0: c50d 05bf 9aa5 ecbd 4948 173f 571a 0c3f
000001e0: 12ac 813e 7be8 ccbd 14fd 1fbd 6ab8 33be
000001f0: 5ebe 0c3f fdb3 85bd 7d5c d8be 68d2 92bc
00000200: f0a8 85be 20d7 e83c 4184 7abe ddae 0f3f
00000210: 511e de3e ab52 a9be 369d ebbd dd73 833f
00000220: 1c34 903e 2a2a 1ebe 0bb1 dfbe 9ea1 8a3e
00000230: def3 433e 135d dd3d bf5f 8abd bc49 4d3e
00000240: b4cd d93e 4972 5f3e 5f72 26be 09f6 b63e
00000250: 76e9 4cbe 08d1 e9be ea08 8f3e 41ec 9e3e
00000260: b837 f3be 3f61 c6bc a136 953e 24db 6fbe
00000270: 7403 3e3d 217b b43e ac3d cbbe 7cfd 05bf
00000280: a18e e83e 958a 19bf 4aad 763d 2a96 c8be
00000290: a8ee 0e3f e064 d6be ae4b bebe c556 cd3a
000002a0: b2e1 64bd a97a 8abe f817 5a3d 2543 b2be
000002b0: ec09 b53e 2c65 b6be 0494 da3e e04e 89be
000002c0: a721 bd3c 6bc4 a8be c33a a9be bcda 26be
000002d0: 7bd4 27be 3e50 9b3e 411c 31be ab57 463e
000002e0: f4d4 e63e 0925 b93e 7aa0 b5bd 49bf 663e
000002f0: 1d7e 66be 1de9 4e3e c02c 90bd 36aa 5fbe
00000300: c308 153d 1d0b 6f3e 283e 0fbf 0905 17be
00000310: ee12 033e f83a 213f f4eb 00be 502c 66bc
00000320: 5fc0 c6bd 91b9 a73e 47f8 53be 92a9 c3be
00000330: 022f 093e 7e94 603e 4d21 90be 449f 583e
00000340: b914 013f be38 abbe 0d4b fc3e d1ec 7c3e
00000350: 29f2 57be 535d de3e 6889 02bf 4c41 8b3e
00000360: d8da be3e a629 843e fbb8 0dbf 0d01 44be
00000370: e870 d8bd d124 88bd 6d68 563e 2fb8 353e
00000380: 4f94 52be 9497 02be 0adb f93d f22d 813e
00000390: 04c7 a43d 2279 f53d 4f80 993e b412 293f
000003a0: beb9 2a3f 8df6 a83e 84e3 17bf eda9 3abe
000003b0: b40c c3be e171 983e a192 aa3e 46db 0c3f
000003c0: 1e8b 35bd 6e08 ad3e 64e9 eebd 783b 4dbe
000003d0: 184c 053e 4f68 2e3d 9f93 ff3e ad93 61be
000003e0: 2dd2 d8bd 0a12 813e 8ac4 4d3e 06dc c238
000003f0: 57d5 b9bc 4bc5 bdbe caec babe fa0b 133e

fc3.bias f4 [32]
-0.020755019 0.03793027 -0.113665186 0.18737207 0.12912825 0.13120535 0.12848145 0.19507724
-0.057655893 0.01701511 0.05113065 -0.027260244 0.26778492 0.1291226 0.10183025 -0.048195466
0.07477495 0.032988902 -0.010201222 0.10727895 0.18700197 0.040241767 0.058047507 0.112600416
0.06027017 0.15215465 0.048190944 0.004717802 0.07240984 0.080974735 0.025988812 0.037303027
00000000: 6e06 aabc c55c 1b3d 4bc9 e8bd 77de 3f3e
00000010: 323a 043e b25a 063e a490 033e 54c2 473e
00000020: 9628 6cbd 4663 8b3c 5f6e 513d e050 dfbc
00000030: 1b1b 893e b738 043e 618c d03d 9c68 45bd
00000040: 9c23 993d 5f1f 073d 0723 27bc 11b5 db3d
00000050: 727d 3f3e 8dd4 243d 39c3 6d3d 0c9b e63d
00000060: dbdd 763d 6ece 1b3e de63 453d cb97 9a3b
00000070: 9c4b 943d 15d6 a53d 7de6 d43c 0fcb 183d

fc4.weight f4 [7, 32]
0.13502751 -0.3371203 0.118513204 -0.2606989 0.2822082 -0.5008801 -0.15372542 -0.14478448
-0.28901413 0.24806933 -0.23039518 -0.17586988 0.1767562 -0.17781028 0.026977295 0.29941002
-0.20807025 0.35989434 0.04294267 -0.31976712 0.13411313 -0.34136215 0.23957998 -0.31654882
0.28812298 -0.12552881 -0.40609303 0.16605908 0.07329417 -0.22133914 0.27598104 -0.074614175
0.52849364 0.3207774 -0.041220736 -0.4580022 -0.036697943 0.28709278 0.5305319 -0.4281796
0.24422757 0.34040987 -0.37296945 -0.064181305 -0.24819517 -0.5319537 0.47750288 0.07683528
0.043065008 0.17284207 0.61177784 0.32005 -0.2697448 0.18481974 0.4479483 -0.7188408
0.12342549 -0.111827224 -0.45254833 -0.23440813 0.32295647 -0.16210464 -0.38414907 -0.25412077
-0.26005626 0.53308195 0.24727617 0.25290573 -0.32386106 0.23089607 -0.054973256 -0.73808646
0.19619651 0.0028507644 0.20773682 -0.12731233 -0.68829817 0.25009736 0.123078674 -0.10832164
-0.18714078 -0.47484985 -0.18841669 0.54933906 -0.2883562 0.2687062 0.03871284 0.0742213
0.3445244 -0.7651871 0.15960184 0.3749744 -0.14655961 0.4591004 -0.21356742 0.096915424
-0.18610518 -0.047139987 -0.26234198 0.34293133 -0.34779957 -0.50828594 0.28075942 -0.36402008
-0.28826612 -0.57396036 0.5697158 0.17232952 -0.3000948 -0.60142654 -0.24253155 0.2259468
0.5821771 0.30227497 -0.040175024 -0.32482645 -0.31081384 0.33028087 -0.44910038 -0.18658338
-0.54474837 -0.19369595 -0.08064247 -0.17438689 0.293441 0.21777011 -0.033641998 0.57560664
-0.50036097 -0.545081 0.07994979 0.5304029 0.8760242 0.16129404 0.3250568 0.2956503
-0.39732152 -0.4423334 -0.28053567 -0.28162447 0.36409593 0.4006972 -0.34971064 -0.072114184
-0.41046613 0.116256066 -0.43038666 -0.35514694 0.32302675 -0.118026875 -0.11302734 0.05767134
0.24215762 -0.065462634 -0.43591112 0.29296175 0.45977792 0.15981431 0.033937756 -0.41950682
0.040332228 0.5112609 0.14637274 -0.14106603 -0.27065775 -0.19599128 0.0023180943 0.09038391
0.22766899 -0.22037293 -0.3286226 -0.24668463 0.308486 -0.02582553 0.24324338 -0.03842251
-0.3758728 0.12551089 -0.18977478 0.16557413 -0.0012127535 -0.12767717 -0.27843374 0.5465516
-0.3813765 0.22691983 -0.44502586 -0.38646537 0.59603196 -0.27962098 0.11240989 -0.074087374
-0.2929484 -0.17006876 -0.102132455 0.1727084 -0.28628746 0.25282532 -0.338975 -0.048916303
0.034222346 0.42058244 0.060673162 -0.43493754 0.38442352 0.32160893 -0.6017588 -0.18343312
0.21621577 -0.05438649 -0.45270163 -0.5381458 0.514332 0.5110945 -0.025929367 0.270917
-0.6007418 -0.24235184 -0.25187725 0.043561053 -0.29916194 -0.42261067 -0.45070398 0.34906998
00000000: a744 0a3e 089b acbe 0db7 f23d 547a 85be
00000010: 987d 903e ae39 00bf 326a 1dbe 6242 14be
00000020: a9f9 93be e305 7e3e b7ec 6bbe 3c17 34be
00000030: 94ff 343e e613 36be 7dff dc3c 454c 993e
00000040: 5e10 55be 1244 b83e a7e4 2f3d 84b8 a3be
00000050: f454 093e 05c7 aebe 7454 753e b012 a2be
00000060: db84 933e a08a 00be 6deb cfbe 640b 2a3e
00000070: 411b 963d baa6 62be 634d 8d3e 51cf 98bd
00000080: 5c4b 073f ef3c a43e 13d7 28bd 447f eabe
00000090: 9550 16bd d3fd 923e f0d0 073f 5b3a dbbe
000000a0: cb16 7a3e 344a ae3e daf5 bebe 7d71 83bd
000000b0: e026 7ebe 1e2e 08bf 427b f43e d15b 9d3d
000000c0: ef64 303d 83fd 303e 799d 1c3f 98dd a33e
000000d0: fe1b 8abe 6341 3d3e 7b59 e53e f305 38bf
000000e0: 81c6 fc3d ac05 e5bd 6ab4 e7be af08 70be
000000f0: 8d5a a53e c2fe 25be 30af c4be 1e1c 82be
00000100: 1826 85be 0f78 083f f735 7d3e dc7c 813e
00000110: 1ed1 a5be 0570 6c3e a32b 61bd 3cf3 3cbf
00000120: bde7 483e e4d3 3a3b f6b8 543e 2a5e 02be
00000130: 4f34 30bf c30c 803e ac10 fc3d bcd7 ddbd
00000140: d5a1 3fbe 851f f3be 4ef0 40be 7ca1 0c3f
00000150: 6da3 93be dc93 893e 5b91 1e3d 5601 983d
00000160: 8165 b03e 4de3 43bf aa6e 233e a5fc bf3e
00000170: b913 16be 350f eb3e 6bb1 5abe 987b c63d
00000180: 5b92 3ebe dc15 41bd b051 86be b294 af3e
00000190: c912 b2be 071f 02bf b3bf 8f3e d760 babe
000001a0: 9e97 93be 11ef 12bf e5d8 113f 2677 303e
000001b0: 07a6 99be 17f7 19bf 315a 78be 995e 673e
000001c0: 8f09 153f c9c3 9a3e 918e 24bd a74f a6be
000001d0: fe22 9fbe 931a a93e 7cf0 e5be b70f 3fbe
000001e0: a174 0bbf 3b58 46be e127 a5bd 7a92 32be
000001f0: e63d 963e 21ff 5e3e 31cc 09bd f55a 133f
00000200: a817 00bf 6e8a 0bbf b7bc a33d 7cc8 073f
00000210: 1f43 603f 442a 253e d86d a63e 7a5f 973e
00000220: ba6d cbbe 8679 e2be 5fa2 8fbe 1531 90be
00000230: c86a ba3e 2f28 cd3e 460d b3be 9ab0 93bd
00000240: 9e28 d2be a917 ee3d a45b dcbe d2d5 b5be
00000250: c363 a53e 13b8 f1bd e17a e7bd c838 6c3d
00000260: 2bf8 773e 4611 86bd be2f dfbe 15ff 953e
00000270: 0368 eb3e 5da6 233e 5102 0b3d 99c9 d6be
00000280: 6833 253d ffe1 023f bce2 153e 9d73 10be
00000290: a793 8abe f0b1 48be 2beb 173b 331b b93d
000002a0: 0f22 693e 71a9 61be 3941 a8be e59a 7cbe
000002b0: e1f1 9d3e 1090 d3bc cb14 793e ec60 1dbd
000002c0: 6672 c0be ed85 003e 5254 42be 448c 293e
000002d0: 41f5 9eba cebd 02be de8e 8ebe ceea 0b3f
000002e0: c843 c3be ac5d 683e 6eda e3be cade c5be
000002f0: 8d95 183f 7b2a 8fbe 2837 e63d 1fbb 97bd
00000300: 55fd 95be 8126 2ebe d22a d1bd 79da 303e
00000310: 4594 92be 5272 813e 228e adbe 765c 48bd
00000320: bb2c 0c3d 9556 d73e 6c84 783d 22b0 debe
00000330: 29d3 c43e eda9 a43e dd0c 1abf e4d5 3bbe
00000340: ab67 5d3e 5ec4 5ebd 82c8 e7be ecc3 09bf
00000350: 43ab 033f 17d7 023f d369 d4bc a2b5 8a3e
00000360: 37ca 19bf 152b 78be 0ef6 80be 136d 323d
00000370: c12b 99be 6d60 d8be acc2 e6be 4db9 b23e

fc4.bias f4 [7]
-0.1464849 -0.053871132 -0.104383655 0.049287003 0.15553504 0.056662157 0.044278108
00000000: 2300 16be faa7 5cbd 19c7 d5bd 2be1 493d
00000010: 9444 1f3e 9416 683d f65c 353d
