visualization/policy_nns/OSD_T/4R383827/agent_1.pt (torch, 42049 bytes, 12 tensors)

weight f4 [32, 23]
00000000: bbee c43e d4c5 1dbe 1e84 c73e 1af0 db3e
00000010: 5d41 863e 992e cd3e 56ae d4be bad4 7cbe
00000020: 53ef a0be b09d 7b3e 06fe f63d c81d c83e
00000030: 66a3 a0be 2918 15bf b21e b83e fd1a c33e
00000040: efee 8cbe 6b70 08bf 0e64 dabe 3241 b0bd
00000050: 94cf 69be 8b34 b73e c622 883e a020 77be
00000060: cfbd cebe 2650 e53e c46f 613e 4561 de3e
00000070: 6b73 17bd 11b8 5abe fbe6 a4bd 941c 23be
00000080: 4683 f8be 092c 9abe ff8e bdbe 4ee1 e7be
00000090: 50a3 503e 1a00 e33e b025 073e 238a 9c3e
000000a0: 6194 d8be fc00 cdbe b023 8d3d 5fb2 163e
000000b0: 72bc f2bd c3b9 983e d3d0 c9be 7c73 9dbe
000000c0: 1171 a5be 6ff9 39be 5db9 de3d fb51 193d
000000d0: 46ad 40be 0e7e 0a3d 43c3 82be c2ff 983e
000000e0: 5ec3 c9be dcb2 93be ef69 2c3d 909b 1e3f
000000f0: f667 89be d63f 003f b4ce 3a3e 3f1b e73e
00000100: 5415 5a3e 9ac2 d73e bbd8 8dbc b6f5 dabe
00000110: 5784 9cbe e673 813e a043 ee3d ea73 bdbe
00000120: 8738 8cbe 300c 8bbc 316b 58be 6976 0c3e
00000130: b3fc f1be 65ce 04bf 7f0e 843e b45f 8bbe
00000140: 95d1 b7be 4ba8 cb3e 67e2 ca3e 56f0 c1bc
00000150: b6ee a93e 988d d93e a828 b0be 4b19 dcbe
00000160: 5f41 88be 061e 98be 9dbc a4bd 3180 83be
00000170: d072 1abe 3465 4b3e 6e38 fe3e d29d a0be
00000180: 8be8 b03e 8298 a1be 31da fd3e 0eba b83e
00000190: 88e8 95bd 91a2 6c3c b685 e7be d7fe 61be
000001a0: 0ff8 4b3e 8cf9 efbe 1234 083e f70f acbe
000001b0: a4e1 9ebe c0a1 8dbd 60fe 4e3e 167c d33e
000001c0: 326e dc3e 4588 78bc 1734 46be 62a3 8d3e
000001d0: ea32 45bd 255d 8fbe 44c7 a43e 9529 84bd
000001e0: 72b6 03bf f0f0 eabd 00db 943e eccd aebd
000001f0: ef70 41bd 7cc1 e7be 60e1 83be 2c8c d13e
00000200: 4631 c53e 78fc 20be bdd0 14be 30e7 3cbe
00000210: 2da4 d23e c26f 90be 6334 a6bd 3610 c03e
00000220: 724d 11be 0347 b1be f2df a03e db6f 08be
00000230: cb78 65be 3691 ce3d 00a7 033f 1528 e03e
00000240: 6898 7cbe 093b 6e3d a5ca 65be 7343 20be
00000250: 30ed 503b 30b4 b2ba 29e6 533e a419 8bbe
00000260: 0fd2 d1be 6a44 d3be 4a9a c13e 9979 083f
00000270: 0933 cb3e 9a86 18be 641b 02bf 3dbc 63be
00000280: 395d afbe a6e8 3ebe 3fa3 ccbe 9a8a bc3e
00000290: 32a2 ee3c 5ee6 3f3e 050b b0be eb41 ea3e
000002a0: f110 dbbe 1e98 873e a631 e9be fa3a 48bd
000002b0: f9ea a1bd 39a2 bc3e 50b6 f9bc 104a 8e3d
000002c0: f0e1 e13e efc8 d03e b37e f7bc 1d8c 6e3e
000002d0: e3f8 653e 3a5a be3e 5838 de3e 9d74 953e
000002e0: 6f57 7b3e 75e3 643e 4d34 13bd 6026 a3be
000002f0: 21fb b53e d61d 8b3e cd1e 7c3e 2b35 ebbd
00000300: 5e7b 6d3d 36e0 d23d 3bcc b33e 198b b53e
00000310: c02a 46be abfc b7bd 4db0 673d 13ce d03d
00000320: d64e 71bc 3cf7 15bf 8e7f fabd cfdc 84be
00000330: 6328 c3bd 4c26 a53e f51b a0be 0b6f b6be
00000340: 66f3 a33e bd33 803e 05b1 6a3e 0981 85be
00000350: 4ba3 c13d 954f babe 6da6 67bd 3c10 1abe
00000360: 336e 203e 3a90 f33e c2c7 a9bd b3af e0bd
00000370: 4a0d ac3e 1a74 c33e 1d4d f53c d180 d93d
00000380: f347 0dbe 99ad b3be cd8f a6bd 01e3 d33d
00000390: 1dfc 2bbc e497 d3be 6343 7d3e e9c9 bb3e
000003a0: 6048 483e 2cd9 84be 7df4 f63d d06e 0fbf
000003b0: 72a4 e0be 047b 46be 5aaf 2fbe 01d4 cd3e
000003c0: cc0d 9bbe f634 6d3e 1d0b 5f3e 18bf 203f
000003d0: 1939 e4be db3e 963e 2621 d7be 50c1 8fbe
000003e0: 7b43 b23e 05de b03e 6999 073f 08f3 2e3e
000003f0: e83d 523e 0bf5 9f3e e023 9c3e 4580 ccbe
0.38463387 -0.15407497 0.38967985 0.4295662 0.26221743 0.40074614 -0.41539258 -0.24690524
-0.3143259 0.24571872 0.1206017 0.3908522 -0.31374663 -0.5823999 0.3596092 0.38106528
-0.27526042 -0.53296536 -0.4265446 -0.08606185 -0.22833091 0.35782275 0.2658903 -0.24133539
-0.40379187 0.4478771 0.22015291 0.43433586 -0.036975306 -0.21359278 -0.080518685 -0.1592887
-0.48537654 -0.3011172 -0.3702316 -0.4528908 0.20374799 0.44336015 0.1319797 0.3057414
-0.42300704 -0.40039814 0.068915725 0.1471648 -0.11852349 0.29829225 -0.39417133 -0.3075217
-0.32312825 -0.18161558 0.10875199 0.0374317 -0.18816099 0.03381162 -0.25539598 0.29882628
-0.39406866 -0.28847396 0.042093214 0.6195612 -0.26837128 0.50097406 0.18242913 0.45137975
0.21297199 0.42140657 -0.01731526 -0.42765588 -0.30569717 0.25283736 0.11633992 -0.37002498
-0.27386877 -0.016973585 -0.2113464 0.13717045 -0.47263107 -0.51877433 0.2579231 -0.27221453
-0.35902086 0.39776835 0.39625856 -0.023674171 0.33189934 0.4249084 -0.34406018 -0.42988047
-0.26612374 -0.29710406 -0.08043788 -0.2568374 -0.1508286 0.19862825 0.49652427 -0.31370407
0.34552416 -0.31561667 0.4958053 0.36079448 -0.073197424 0.014443056 -0.452192 -0.2206987
0.19918846 -0.46870077 0.13301113 -0.3360593 -0.31031525 -0.06915617 0.20214224 0.41305608
0.43052822 -0.015169208 -0.19355808 0.27663714 -0.04814426 -0.2800075 0.32183278 -0.06453244
-0.51450264 -0.114717364 0.29073334 -0.0853537 -0.047226842 -0.45264804 -0.25757885 0.40927255
0.38514155 -0.15721309 -0.14532752 -0.18447566 0.4114088 -0.28210264 -0.08115461 0.37512368
-0.141897 -0.3462449 0.31420857 -0.1332392 -0.2240936 0.100862905 0.51426697 0.4378058
-0.24667513 0.05816177 -0.22440584 -0.1565073 0.0031879656 -0.0013634022 0.20693268 -0.27168
-0.40980574 -0.41263133 0.37813026 0.53310543 0.39687374 -0.14895096 -0.50823045 -0.22239776
-0.3425081 -0.18643436 -0.39968297 0.36824495 0.029130075 0.18740222 -0.34383407 0.45753416
-0.42786363 0.26483244 -0.4554569 -0.04888437 -0.079061456 0.36842516 -0.030482441 0.0694772
0.4411769 0.407783 -0.030211782 0.23295636 0.22458224 0.37178212 0.43402362 0.2919053
0.24545072 0.22352393 -0.03593855 -0.31865215 0.3554316 0.271712 0.24621125 -0.1148475
0.05797898 0.10296671 0.35116753 0.35457686 -0.19352245 -0.089837395 0.056564618 0.101955555
-0.014728269 -0.58580375 -0.122313604 -0.25949714 -0.095291875 0.3225578 -0.3127133 -0.35631594
0.32021636 0.25039473 0.2291909 -0.2607501 0.09454974 -0.3638884 -0.0565552 -0.15045255
0.15667038 0.47570974 -0.08290054 -0.10971012 0.3360389 0.38174516 0.029943997 0.10620273
-0.13796978 -0.35093382 -0.081328966 0.10346032 -0.01049712 -0.4132682 0.24732737 0.36677483
0.19558859 -0.2594694 0.12058351 -0.5602846 -0.43875462 -0.19382864 -0.17156735 0.4020081
-0.30283964 0.23164734 0.21781583 0.62791586 -0.44574812 0.2934483 -0.42017478 -0.28077173
0.3481711 0.34544387 0.5296846 0.17084897 0.20531428 0.3124164 0.3049612 -0.39941612

bias f4 [32]
00000000: 9154 a33d 48a3 15bc 9476 b43d a905 97bc
00000010: 3ac3 253c a5af 1e3c ceee 263e 58dc 993d
00000020: 84d0 663d b6c6 013d a6ea 20bc 24b4 303d
00000030: 8cbc a6bd 7449 d33d b2a3 af3c 8006 7e3d
00000040: 0661 9e3d 994b a13c 42b5 c83d 0824 cb3d
00000050: 0de4 763d 09f3 2a3d 85f9 903d d2c6 0a3d
00000060: ac4b 093e 9801 143d a3c4 123e 54b3 8dbb
00000070: 5234 713d c4e4 b13d bdb6 af3d 572f d53c
0.07975114 -0.009133168 0.088116795 -0.018435316 0.010117346 0.009685432 0.16302034 0.0751273
0.0563512 0.031683646 -0.00982157 0.043140545 -0.08141431 0.103167444 0.02144036 0.062017918
0.077333495 0.019689368 0.09800197 0.09918982 0.06027608 0.041735683 0.07078842 0.033881016
0.13407773 0.036134332 0.14332823 -0.004324356 0.058887787 0.08686212 0.085797764 0.02602355

weight f4 [32, 32]
00000000: 8029 a13e a372 7b3e 0020 1cbe 2747 73be
00000010: b3ed d0be 4c5b 46be 52b2 f33e ff85 b23d
00000020: 9e61 babd 4c92 953e 0d10 a6be 4331 f23e
00000030: 9eb8 373e 568a 8c3e 09c4 b2be 00fd 9abe
00000040: 9912 10be c80d 36bd 447c 97bc 442b 38be
00000050: d9d8 c5bd b66f 933e c452 d63e 7000 b8be
00000060: cd42 663e 09cb 0f3e d0f7 213c 0281 9c3e
00000070: 985e ccbe f17a 5f3e 58ba bb3e 8694 8f3e
00000080: 41e5 b93e 0d3e aa3e 67f2 80bc 0ea8 debd
00000090: 6b1d aebd 37a1 fa3d e0b7 b93e ef11 9bbe
000000a0: 2487 b0bd 58b1 263c a20d dcbd 1334 a03e
000000b0: f1a9 8d3e 70d7 3b3d 7189 91bd 9e80 993e
000000c0: 1c09 2bbe 932b 91be d830 003f 6672 983e
000000d0: 39ed e7bd 407b 1f3e fbb8 4d3e ebfa 913e
000000e0: 8d51 d23e 6c1a 52bd c16e a43e 3ae3 d8be
000000f0: 160e a5be 1ab6 193d 88be 523e 47a0 94be
00000100: f1e8 94be 6ecc 4d3e 44ae 003f a474 8bbe
00000110: 0bfb 473e c67b 17be be5b 573d fe02 013f
00000120: 8841 ecbc 62f2 b13e 4b95 f93e 76d2 94bd
00000130: 8edd b33d 19ef 7b3e 8c9d c6be fa5f 893e
00000140: 4ba0 11be 3c67 c03e 54a7 45be f57f 31bd
00000150: a1d1 123e 22f1 803e 8235 dbbc ca05 d93e
00000160: 6347 d0bd 5ccd b9be 3e9e e8be c737 b8be
00000170: a212 8dbe 1bf3 763e b8c3 31be a8c8 163d
00000180: a9e7 28be 41c2 493e 06ba bdbe 5d2e b5be
00000190: 74b1 c5be d15b 9cbe 9ea8 d13d c728 e5be
000001a0: 2429 503e 6fe1 fdbb 0718 afbe 89c5 00be
000001b0: a0ad 9c3c b2ea adbe 305a 8cbe 1f1f cabd
000001c0: e9b5 3f3e 2539 eabe 419c da3e 95d2 c5bd
000001d0: 7077 a6be a775 3ebe f722 5e3d 98a5 b33d
000001e0: 1908 7d3e d7af 93be 69af 14be a88a 5b3c
000001f0: c763 0fbd 9ccd c83e 6370 1cbe 6023 c3be
00000200: 3a8b e9be c4d2 b0be 563d 803e b98d b13e
00000210: 8a6b f33e f69e 643e 461f 533e a08e 74bb
00000220: 125f 9abe e744 0cba e055 a63e ef72 11be
00000230: 62cc 283e ed6a 823e 4939 173d d748 c83e
00000240: 834d 56be 4038 1bbe 4fdd 36be b36b 7b3d
00000250: fddd 18be 5e19 57be 73c5 b0be dcec ff3d
00000260: ea8d ef3d c693 3f3e 2e17 88be 9168 b2be
00000270: 99f4 d23e aeca e2bd 480d cebe 4ad7 b63e
00000280: 5445 dcbe d26f 14be bfd8 d03e 1230 02be
00000290: 5716 3dbe 5eb0 eb3e f862 d2be ae55 c2be
000002a0: b92b c8be 529d fb3e f660 cc3e d861 af3e
000002b0: 0060 1b3e d897 bc3d 3492 99be aad5 ffbd
000002c0: 68b1 f0bd ee64 91be a35e 82be 7ecf a13e
000002d0: 90d2 943e 4353 093e 48a2 c13e e97e 44be
000002e0: a5b8 cebd bf16 12bd 88ea cdbe e781 ddbd
000002f0: 7af4 043c 3539 aa3e 87c4 a13e c339 093e
00000300: 6c23 1a3e c7f7 073e b875 b1be 21d8 ca3d
00000310: 7866 a0be ad27 98be 6aec 22be 8e33 2c3e
00000320: 24aa c73d 90ea 94be d690 cd3e f332 413e
00000330: aace 99be ebc2 abbe c7fe 19be d370 d13d
00000340: a186 5cbd 6279 1b3e acb5 353e 084d 083d
00000350: aaa7 f6be 4571 243e 03a5 a73e 93a9 32be
00000360: d12a 523d e6b7 d03e 0437 143d 8057 773e
00000370: 31ab 88be fa44 823e 7bf3 073e 4f75 e13d
00000380: a09c c53e fb19 933d 6503 89be 16ce debb
00000390: aa33 133e fd89 ac3e 568b 8a3e bdf1 b23e
000003a0: 0da4 e93e c48e a7be e00f a8be f5c6 00bd
000003b0: e91a e2be 5507 bbbd 26ba 7d3e 79e8 dcbe
000003c0: 2f8f f53e 3745 b2bd e495 453e 5486 173d
000003d0: 45e5 ae3b f822 083f ce47 72bc ffe3 babd
000003e0: c825 1ebd 16b4 903e ad6b 7d3e 27fb cfbe
000003f0: b897 eebe 0cd4 7b3e bfe8 d43e 87b9 d2bd
0.31476974 0.24555449 -0.15246582 -0.23757611 -0.4080635 -0.19370764 0.47596985 0.08716964
-0.0910065 0.29213178 -0.3243412 0.4730321 0.1794152 0.27449292 -0.34915188 -0.3027115
-0.14069594 -0.044446737 -0.018491872 -0.17985255 -0.09660501 0.28796166 0.4186002 -0.35937834
0.2248642 0.14042296 0.009885743 0.30567175 -0.3991592 0.21824242 0.36665606 0.28043002
0.3630772 0.33250466 -0.015740586 -0.10871898 -0.08501705 0.122377805 0.36273098 -0.3028712
-0.08619526 0.010174118 -0.10744788 0.3128973 0.27668718 0.045859754 -0.07106293 0.2998094
-0.16702694 -0.28353557 0.5007453 0.2977478 -0.113245435 0.1557436 0.20090096 0.28511748
0.41077843 -0.05129473 0.3211575 -0.4236086 -0.3223731 0.03752718 0.20580494 -0.29028532
-0.2908397 0.20097515 0.5026591 -0.27237427 0.19529359 -0.1479331 0.052577727 0.5039519
-0.028839841 0.34755236 0.48746714 -0.07266705 0.087824926 0.24602927 -0.38792074 0.26831037
-0.14221303 0.37578762 -0.19302112 -0.04333492 0.1433778 0.2518397 -0.026758913 0.4238723
-0.10169866 -0.3628949 -0.4543323 -0.35980055 -0.27553278 0.24116175 -0.17359817 0.036812454
-0.16494621 0.19703008 -0.37055987 -0.35386935 -0.38611948 -0.305388 0.10237239 -0.44757673
0.20328194 -0.007747821 -0.3419802 -0.12575354 0.01912576 -0.3396812 -0.27412558 -0.09869217
0.18721737 -0.45746723 0.42697337 -0.09659306 -0.32513 -0.18599568 0.054232564 0.08771819
0.2471012 -0.28845093 -0.14520039 0.013399757 -0.035007264 0.39219368 -0.15277247 -0.38112926
-0.45614034 -0.345358 0.25046796 0.34678438 0.47542983 0.22326264 0.20617399 -0.0037316456
-0.30150658 -0.00053508434 0.32487392 -0.14204 0.16484216 0.25472203 0.036919866 0.39118072
-0.20928006 -0.15158176 -0.1785786 0.061382007 -0.14928432 -0.2100577 -0.34525642 0.12496349
0.1169699 0.18708715 -0.26580185 -0.34845403 0.41202238 -0.11073814 -0.40244508 0.35711128
-0.43021643 -0.14495781 0.40790364 -0.1271365 -0.18465553 0.46032995 -0.41091132 -0.37955993
-0.39095858 0.49143463 0.39917725 0.34254336 0.1517334 0.092086494 -0.29994357 -0.12491925
-0.117525876 -0.28397316 -0.25462827 0.31603616 0.29066896 0.13410668 0.37819123 -0.19189037
-0.10093812 -0.035666224 -0.40217996 -0.108157925 0.008114928 0.3324677 0.3159525 0.1340094
0.15052575 0.13278113 -0.34660125 0.099045046 -0.31328177 -0.2971777 -0.15910497 0.16816542
0.097492486 -0.29085207 0.40149564 0.18867092 -0.30040485 -0.33547148 -0.15038596 0.10226598
-0.05383933 0.15183023 0.17745084 0.033276588 -0.48174793 0.16058834 0.3274308 -0.174475
0.051310364 0.40765303 0.03618528 0.24154472 -0.2669311 0.2544325 0.13276474 0.11008703
0.38596058 0.0718269 -0.26760402 -0.0067994697 0.14375177 0.33699027 0.2705943 0.34950057
0.45632973 -0.3272611 -0.32824612 -0.03143974 -0.44161156 -0.09132258 0.24778041 -0.43146113
0.47960803 -0.08704608 0.1929546 0.03699334 0.0053373897 0.5317836 -0.014787627 -0.09125518
-0.03861025 0.28262395 0.24748106 -0.40621302 -0.46600127 0.24592608 0.4158382 -0.10289293

bias f4 [32]
00000000: 4eae bd3d feda 2f3d f35f 413d ee1b a8bc
00000010: 378e 8f3d bba8 013d 4944 1bbd 27eb 7a3d
00000020: 39df 123d 4e0a 593d 87fb 6cbc 6fe5 2b3d
00000030: 0cba a03d eaad b03c 517c 6a3d f769 4b3d
00000040: bd99 143d a19a 5c3d ff5a 24bd 3f7b 9f3d
00000050: 06f1 5f3d 3eb8 993d 3db6 e6bc aa87 1e3d
00000060: 3b46 223d 8ca8 e93c 02f0 42bd 3644 083d
00000070: a434 c13c 7d1f 543a e8e8 2e3d 5ed1 8c3d
0.092617616 0.042933457 0.047210645 -0.02052113 0.07009547 0.031655055 -0.03790692 0.061259415
0.035857413 0.052988343 -0.014464266 0.04196685 0.078479856 0.021567304 0.057247464 0.049661603
0.03627943 0.053858403 -0.040125843 0.07787179 0.054673217 0.075058445 -0.02816307 0.038703598
0.03961776 0.028522752 -0.04759217 0.033268176 0.023584671 0.00080918503 0.042702585 0.06875871

weight_ih_l0 f4 [96, 32]
00000000: fa77 6dbd 3880 273e 6683 613c 9e6c fa3d
00000010: e225 5ebe 05af 45be b16e 9c3b eaf8 6a3e
00000020: c382 b8bd 0382 473e 5271 a63d 9ca3 b2bc
00000030: 0c97 733e 54ea 6ebd 6aed 113d a7b4 51be
00000040: 20d3 d0bd 6519 87bc d7c0 37bd 0da2 363e
00000050: 9248 54be 4c6c c53d 78e7 bebd a29b 6e3e
00000060: 7092 963d 9667 1c3e afd9 0ebe 0b4b 6a3e
00000070: f464 c53a eb19 a93d 303a 98bd a799 423e
00000080: e983 99bd dfe3 d9bd b3d3 a9bc 884b ea3d
00000090: a322 b03d dd46 033d 71db 26bd 58e7 0dbe
000000a0: 8a1d 653d 1011 00be 2fb9 e43d 5ba1 c33d
000000b0: d564 1cbe 7289 c73d d2b6 593e 12f2 4d3e
000000c0: 1f72 803e 90ae 5fbe 9012 26be 68e7 bbbd
000000d0: a680 92bc 46fc e9bd 2770 213e 3cc4 05bd
000000e0: e43a 043e 9052 1cbe 71e9 d33d 8515 543d
000000f0: 1e02 7a3c 4b9b 9fbd 74a0 3c3e 40a3 cabd
00000100: ead1 19be 04f0 843c 7ab3 613d 80d5 12be
00000110: 967c bdbd da7c 4a3e 1f71 f33d 8934 97be
00000120: c2d0 29bc 1701 a8bc 3a91 f43d b7af f9bd
00000130: 49b9 62be 4714 ec3d 48b2 5e3d 419e 90bd
00000140: 0528 373c 5980 8d3d bb85 f93d f3ca 803d
00000150: c68f f7bd 18ba 27be 63af a43c 1052 ccba
00000160: 7be1 e63d c6f3 ef3b 17a1 113d cc9e e7bd
00000170: 235d 99bd 5b4f a83d 2732 543d 45c4 07bc
00000180: ebe6 4dbe d7d9 31bd fb5d f23d be34 123e
00000190: 6e05 fbbb b8a8 183e fc62 ce3d 9d91 68be
000001a0: 20c1 f03d 79ae 64be 5d6d 793d 6f66 7c3d
000001b0: c5fa e8bc 9f29 c0bd 70c3 97bd f24a 1c3e
000001c0: 713d 0fbb 732e 8c3e 73e1 c33d 0707 c93c
000001d0: eb07 dabb 020b 73bd a632 97bb 11f8 8abd
000001e0: 0e92 69bd d158 ea3d 752c 0cbd 3d39 c7bd
000001f0: e641 9cbd 5a06 23be 538b 573d eabb ee3c
00000200: cc60 7f3e 094f 453e a477 593d 1c69 db3c
00000210: c2e7 08bd 78a5 e2bd b0fa 623c 7f99 533d
00000220: a66c 33bd ce07 31bd a097 06bd bfe2 da3c
00000230: de38 053e 99ed 9abc 1184 a73c 9047 f6bc
00000240: e151 a23d 86e0 39be 5c65 07be f49f a93c
00000250: cbec 15be caf5 5c3e 1be9 95bc 4155 ebbd
00000260: 69e0 2b3d 4740 e6bc 226d 1dbe 0079 2d3e
00000270: eb5e 83bd 63df 293d 7278 4d3e 04cf c13d
00000280: 3884 f43c 9415 abbd 494b 4fbe b934 e23c
00000290: c3dd 55be d17c dcbd 9a00 21be aa04 eb3d
000002a0: 3a3e cf3d 7f49 0b3e 2fee 0fbd ccfb 5bbe
000002b0: 345f 8bbd 52ff 3bbe cc1d 0b3e bbe2 673c
000002c0: 761e dd3c 20ee 7cbd 3dd6 0f3d fa7f 34be
000002d0: b188 25be 4bde f73d bd24 a73d ed00 bfbd
000002e0: dde5 cb3d 344e 093e 3af1 033d 8d7a dd3d
000002f0: c0bb 06be fc88 213c cb44 94bd 3a51 9fbd
00000300: 117e 0f3d b927 913c e5c0 003d 9b37 1dbe
00000310: 5916 523e 5a06 58be 1dfa ab3d 9470 07be
00000320: ea69 e5bc 78b1 f4bd 5fbf f63c 295b c5bd
00000330: eca6 cfbd dd6d b7bb 7b6b b43c 2a0e 28be
00000340: e52f c43d 3849 723d c216 023e ea7a 253c
00000350: f5ce 103e c179 973d c38d 54bd 7d2b 283e
00000360: 4023 58bd 9d71 6d3d 5fd6 d5bd f4e3 c0bd
00000370: 91d4 2bbd c1a6 0f3e cb3c a8bd a983 35be
00000380: b479 dabd d5b7 46be ec45 523e c46c f4bc
00000390: 28a7 443e 7ee8 463d f19d 19be 5b2c 5bbe
000003a0: a67b c33b 8e92 013d 29b9 dc3d 4fed 6dbc
000003b0: de2a 4bbe aa94 683d d8f4 cd3d bf8e 49ba
000003c0: bb6c 30be 610a 063e f304 67bd b15d 6b3d
000003d0: c48a 1b3e cfdf 51bc ff80 d6bc 8c33 35be
000003e0: d492 5f3b 5c6c 263e 19e4 86bc 8eff 83be
000003f0: beac 7cbd eec2 173d c279 20be 5a8c 1abe
-0.057975747 0.16357505 0.013764238 0.12227748 -0.21694139 -0.19305046 0.0047739376 0.22946516
-0.09009316 0.1948319 0.08127083 -0.02180653 0.23788089 -0.05832894 0.035626806 -0.2047907
-0.10196519 -0.016491601 -0.04486164 0.17835255 -0.20730808 0.096397966 -0.09321493 0.23301557
0.073521495 0.1527389 -0.13950227 0.22880189 0.0015059994 0.082568966 -0.074329734 0.19003926
-0.07495863 -0.10639166 -0.020730829 0.11440188 0.086003564 0.032050002 -0.04073662 -0.13857782
0.055936374 -0.12506509 0.111681335 0.095522605 -0.1527284 0.097430125 0.21261147 0.20111874
0.25087067 -0.21843934 -0.16218019 -0.091749966 -0.01788361 -0.114250705 0.15765439 -0.032657847
0.1291309 -0.1526587 0.1034726 0.051778335 0.015259294 -0.07793292 0.18420583 -0.09894419
-0.15021482 0.01622773 0.055102803 -0.14339256 -0.092522785 0.1977419 0.118868105 -0.2953227
-0.010364713 -0.020508332 0.11941762 -0.12191718 -0.22140993 0.11527305 0.05436924 -0.070614345
0.011178975 0.06909246 0.1218371 0.062887095 -0.120879695 -0.16379583 0.020103162 -0.0015588421
0.11273476 0.007322761 0.035554018 -0.11309585 -0.074884675 0.08218261 0.05180564 -0.00828654
-0.2010762 -0.04342064 0.118343316 0.14277932 -0.0076605594 0.14908111 0.100774735 -0.22711797
0.11755586 -0.22332181 0.060895313 0.061621126 -0.028439889 -0.093829386 -0.074103236 0.15262964
-0.002185669 0.27379188 0.095644854 0.024539484 -0.006653776 -0.05933667 -0.004614192 -0.06785596
-0.057024054 0.11442722 -0.034222085 -0.09727714 -0.07629757 -0.15920392 0.052623104 0.029142339
0.24939269 0.19268431 0.053092614 0.026783518 -0.033424146 -0.11066717 0.013853714 0.051660057
-0.043804787 -0.043220334 -0.032859445 0.02671945 0.13009974 -0.018912124 0.020448716 -0.03006342
0.079257734 -0.18152055 -0.1322226 0.020706154 -0.1464111 0.21578136 -0.01829963 -0.1149087
0.04196206 -0.028106822 -0.15373662 0.16940689 -0.064145885 0.041472804 0.20065477 0.09463313
0.029848203 -0.08353725 -0.20243563 0.02761303 -0.20885377 -0.10765994 -0.15722886 0.11475499
0.10119291 0.13602255 -0.03513926 -0.21482772 -0.06805268 -0.18359116 0.13585585 0.014153178
0.026992064 -0.06175053 0.035116423 -0.17626944 -0.16165425 0.12102946 0.08161304 -0.093263485
0.09955952 0.13408738 0.032212473 0.1081439 -0.13157558 0.00985932 -0.07239684 -0.077791646
0.035032336 0.017719137 0.03143396 -0.15353243 0.20516337 -0.21096173 0.08397315 -0.13226539
-0.028004605 -0.11947912 0.03012055 -0.09636528 -0.1013926 -0.0055978135 0.022023907 -0.16411653
0.09579448 0.059151858 0.12703994 0.010100106 0.14141448 0.073962696 -0.051893007 0.1642284
-0.052767992 0.05796968 -0.10441279 -0.094184786 -0.041950766 0.14028455 -0.0821472 -0.17726006
-0.10667744 -0.19406064 0.20534486 -0.02983702 0.1920439 0.048561566 -0.15001656 -0.21403639
0.005965668 0.031633906 0.10777504 -0.014521911 -0.19840571 0.056782402 0.10056466 -0.00076888123
-0.17228977 0.13089897 -0.056401204 0.057462398 0.15189654 -0.012809708 -0.026184557 -0.17695445
0.0034114616 0.16252273 -0.016466187 -0.2578091 -0.061688177 0.037051134 -0.15671447 -0.15092602

weight_hh_l0 f4 [96, 32]
00000000: 5a5d 303d e388 393e 4a49 74bd 47eb 38be
00000010: 7457 c83d 1e85 aeba ad94 e63c 0386 943e
00000020: ac8f 82bd 75ba 383e b559 94bd 9cd9 e7bc
00000030: f996 613d 971a b9bd 9610 0c3e b75a ddbd
00000040: 84bf 11be a464 f23c 09eb 18be 2301 8b3d
00000050: 8782 8cbb ba69 dbbc b202 f3bc 9ddf 063b
00000060: ce81 18be a7be a43d 0403 b13c e8d1 5e3e
00000070: 3a84 e03d be02 6ebd b63f 03bd 3dfd 07be
00000080: 4ba7 2dba ae34 653d b53c 01bd 55de 72bd
00000090: c2b0 efbd 91a4 a3bd 8e61 9f3a 422e 083e
000000a0: c00a ccbb 2446 dfbd 67ec f7bd cc9c f63d
000000b0: 7c60 b7bd e173 3f3d 9c9e 443e 9b33 743e
000000c0: 1e66 00be e4e4 63bd 1531 1f3e df78 143d
000000d0: 65bf 63bc 032c f43d 1c4a fc3b 97b0 3d3e
000000e0: d9ae d0bd a406 2f3d b283 9cbd 6274 15be
000000f0: 4890 30bc f6c8 1d3e 2c53 0cbd d747 f23d
00000100: a3c2 f43d f456 4fbd 491c 803d 680f 9cbd
00000110: 47e1 af3d 7a7f 18be f23a 9b3d 760f 25be
00000120: 15f3 97bd 655d 24bd e4a2 f1bd ebfb e83d
00000130: 4926 4cbc c12c c9bd a5d4 9e3b a85c 0cbd
00000140: e127 a13d 5a44 2b3d 570a 8e3b e65c bbbd
00000150: 90ee 05be 235d 9cbd e2da 193e 57f4 d6bd
00000160: ca44 243d a92c 33bb ff6a a53d 93b9 babd
00000170: 3bbe 1b3e 14c8 f6bc cd03 853c 56f4 403c
00000180: db84 4e3e 065b dc3d 2521 693e b5c8 833d
00000190: 535c b63d 4f4e 963d 283f 493d 3196 0dbc
000001a0: 2c3e 863d 2edc 33be b7d4 8b3d 6073 a93b
000001b0: 9d6d fb3c e05c 00bd f494 81bd 8787 083d
000001c0: 49fe 063e 040e d4bd 8a58 a5bc 5e65 62bd
000001d0: 8375 ecbd c500 e83d 9a09 923d 59c7 2b3d
000001e0: b56b 0e3e b07c dcbd 1d69 d13b dea0 2cbe
000001f0: 86ab cbbd 5ada febd 8b63 b4bd 8163 153e
00000200: e184 10be 1df0 9abc e3a5 9abe 7980 923c
00000210: ccab 333d f253 eebc 45e4 85bd 625f 543e
00000220: 64d1 393e 638b b0bd edfb 26be 4b49 c3bd
00000230: ac66 36b9 fe34 2cbe 0a9d 2f3e ea45 1cbd
00000240: f02c 9dbd 7c01 21be 26ba 09be 369e 9c3c
00000250: 7b29 6e3e 9c25 8f3c 6cb7 4dbd b414 483c
00000260: 9523 a13d 39ef babd afad b1bd 067e 13bc
00000270: ac8e 13be a8a1 373e 7b2c 0bbd 540e 0cbe
00000280: f76b e5bd 5158 863d d7fe 04be 1310 243e
00000290: 8fb8 303d 09ad c1bd 2dbe 343e dc23 223e
000002a0: e327 b3bb 88e5 103d a54d 73bc 68f7 09be
000002b0: 2fb0 fd3d 2f8c 95bd e1b3 6a3e 0592 113e
000002c0: 96a8 2ebe 31d5 403d 6a3a 143e fbdd 023e
000002d0: db70 dfbc 8a9d ddbd 1be2 ddbd e8a2 a5bd
000002e0: 9cad 023e 275c 4ebc c17a 393e 1f60 623d
000002f0: 9835 d5bd 1063 c7bd aca3 e5bd 3e58 00bd
00000300: 4ecb 813b f9bc ad3d bea0 ebbd c445 3fbe
00000310: 0a27 44bc 9a56 093e dbff 42ba 7179 7a3d
00000320: f569 6f3e edda 033e bb9d 34be 8e28 cd3d
00000330: 22bf 793d 7a87 80be 160b fd3c b6c4 153d
00000340: 12c2 2cbe 0216 ea3b b999 dc3d 4186 103e
00000350: e2b6 293e 7f18 9e3b efc2 2dbe 8328 8abe
00000360: 3dea 71be 7301 0bbe 209d 5b3d b0fd b03d
00000370: e45d 463e ae90 45bc fc5f 113e 59f4 34be
00000380: b5b1 e1bd 379a 15be 9e7c 033e 4fa0 413e
00000390: 545d 4c3e 1536 86bd d4be 6abd 0fb0 19be
000003a0: 2377 49bd 5613 213d 9cfd 9cbc 46e3 62bd
000003b0: e745 13be 5d21 5a3e e0bc f8bd 45b6 99bd
000003c0: f8ca 0dbe 6312 aebd afa7 2ebb d7c7 ef3d
000003d0: 54c8 b83d 58e0 47bd 76ad 453d 532e 81bc
000003e0: e49a 033e 09f1 0ebe 197f c43d 36f6 18be
000003f0: 3e48 843c c19d 5a3c fa9d 163e bbfd a3bc
0.043057777 0.18118624 -0.059640206 -0.18058501 0.09782305 -0.0013314818 0.028147066 0.29008493
-0.063750595 0.18039878 -0.07243673 -0.028302006 0.05507562 -0.09038275 0.13678202 -0.10808318
-0.14233214 0.029589005 -0.14933409 0.06787326 -0.004288021 -0.026783813 -0.029664371 0.0020580061
-0.14893267 0.080441765 0.021607883 0.2175976 0.1096272 -0.058108084 -0.03204318 -0.13280196
-0.0006624355 0.055958442 -0.031552035 -0.059294064 -0.11703636 -0.07990373 0.0012159811 0.13298896
-0.0062268674 -0.1090205 -0.12105637 0.120416254 -0.0895395 0.04674137 0.1920113 0.23847811
-0.12538955 -0.05563821 0.15546067 0.036248084 -0.0139006125 0.11922457 0.007699264 0.18524395
-0.101895995 0.042730942 -0.076423064 -0.14595178 -0.010776587 0.15408692 -0.034259006 0.118301086
0.119511865 -0.050620034 0.06255395 -0.07620126 0.0858789 -0.14892378 0.07579602 -0.16119179
-0.07419411 -0.04012813 -0.11798647 0.113761745 -0.0124603 -0.09822989 0.0048471265 -0.03426805
0.078689344 0.041813232 0.0043347287 -0.09148578 -0.13079286 -0.07634952 0.15024903 -0.10495823
0.040104665 -0.0027339852 0.080770485 -0.09117427 0.15209286 -0.030124702 0.016237164 0.011777004
0.20167868 0.10759549 0.2276655 0.06434766 0.08904328 0.07339155 0.049132496 -0.008641765
0.06554827 -0.1756446 0.068276815 0.0051712245 0.030691916 -0.031338573 -0.06327239 0.033332374
0.1318294 -0.10354236 -0.02018382 -0.055272453 -0.11545851 0.11328272 0.071307376 0.04193816
0.13908274 -0.1076597 0.0063907043 -0.16858241 -0.09944825 -0.12443991 -0.08808049 0.14588739
-0.1411319 -0.018913323 -0.30204687 0.017883526 0.04386501 -0.029092763 -0.065376796 0.2073951
0.18146282 -0.08620336 -0.1630704 -0.09535464 -0.00017395121 -0.1681709 0.1714975 -0.038152613
-0.07674587 -0.15723222 -0.13449916 0.01911841 0.23258011 0.017473988 -0.050223753 0.012211967
0.07868115 -0.09127659 -0.08675706 -0.009002214 -0.14409894 0.1793276 -0.033977967 -0.13677341
-0.11202233 0.06559814 -0.12987839 0.16021757 0.04314476 -0.09456832 0.17650671 0.15833992
-0.0054674014 0.035375148 -0.014850055 -0.13473284 0.1238712 -0.073021285 0.22920181 0.14215858
-0.17056498 0.047078315 0.14475408 0.12779991 -0.027275493 -0.10821064 -0.10834142 -0.080877125
0.12761539 -0.012595213 0.18113233 0.05526745 -0.10410613 -0.097356915 -0.112128586 -0.031334154
0.0039610034 0.08483309 -0.115052685 -0.18678957 -0.011972198 0.13411942 -0.0007438638 0.06115097
0.23380263 0.12876482 -0.17638294 0.10017501 0.060973294 -0.2510336 0.030889075 0.03656455
-0.16870907 0.007143737 0.10771508 0.14113714 0.1657367 0.0048246975 -0.16968893 -0.26984033
-0.23624511 -0.13574772 0.053616643 0.08642137 0.19371754 -0.01205842 0.14196771 -0.17671336
-0.11020223 -0.1460961 0.12840506 0.18908809 0.19957477 -0.06553284 -0.057310894 -0.15008567
-0.049185883 0.03932508 -0.0191639 -0.055392526 -0.14382134 0.2130179 -0.121454 -0.07505468
-0.13846958 -0.08499601 -0.002665024 0.11708038 0.090225846 -0.048797935 0.04826113 -0.01576916
0.12852055 -0.13959135 0.095945545 -0.14937672 0.016147729 0.0133432755 0.14708701 -0.020018449

bias_ih_l0 f4 [96]
00000000: de7f 2a3e 7f19 8dbd bc8a db3c fa30 bebc
00000010: 2bdb 0d3e d33b cd3c 238d bb3d 00bb 053e
00000020: b395 263e 1988 873d a6d2 073e f408 6fbc
00000030: 6e05 00be acdf c23d fc6a e3bc 84b5 103e
00000040: 840d 61bd c34d 863d f0cc 6b3d 85bf 2e3d
00000050: 6e30 41bd dc65 1b3d 9798 b3bd 6143 94bd
00000060: 750d fe3d ec0a 06bd 72c3 fdbd 44f9 043e
00000070: a800 51bd 75c4 20be 3801 c4bd 87ea c1bd
00000080: 10ea 9c3b 746f babd adf2 57be db36 97be
00000090: 2001 05bb afa8 c9bd 15ca 1abe 52e1 17be
000000a0: 33f4 2bbe 21c9 0fbe 4374 b2be 1836 93be
000000b0: 559b 95be 1686 60be 958c 583d c104 76be
000000c0: bb68 f9bd ad45 4cbd 6cd7 83be 5e7f c0bc
000000d0: f8a3 fcbd 56d2 583c 0f2e 2dbe b998 70bd
000000e0: 3e22 f8bd c16d de3d 7ce9 22be ea6d 7dbe
000000f0: 3cb9 e73d 0896 b9bd e943 093e d57b 6e3d
00000100: 419b 4bbe c441 acbd d423 4abd 0767 24be
00000110: 73a8 36bd c6d4 273e 5cdc 49bd 9d99 d73d
00000120: 44cc 423e 6c8e 4a3e 2835 463d 5360 523d
00000130: d94d e73d 4275 e73d c6b9 10be 9815 323b
00000140: 47d6 cf3d 42c1 2ebe 3b26 be3d c40c d73c
00000150: f444 533c 9080 913d 80a8 15bd 7139 e0bd
00000160: 8fd4 b2bd 3db9 b13c a2a9 16be dbc9 a7bd
00000170: b627 3abd 00b2 a33d 240d d03d 4f47 513d
0.1665034 -0.068896286 0.026799552 -0.023216713 0.13853137 0.02505294 0.09157779 0.13059616
0.16268043 0.066177554 0.1326395 -0.014589537 -0.12502071 0.09515318 -0.027760975 0.14131743
-0.05494453 0.065578006 0.05756849 0.042663116 -0.047165327 0.037938938 -0.087693386 -0.07239414
0.124049105 -0.03272526 -0.12390794 0.12985712 -0.051026016 -0.15699942 -0.09570545 -0.09468561
0.0047886446 -0.09103289 -0.21088667 -0.2953404 -0.002029486 -0.09846627 -0.1511615 -0.14832047
-0.16792373 -0.14041568 -0.34854326 -0.28752208 -0.2922007 -0.2192615 0.052868444 -0.24025251
-0.12178179 -0.049871136 -0.2575029 -0.023498233 -0.12335962 0.013233742 -0.16912101 -0.058739398
-0.12115906 0.10860778 -0.1590938 -0.2474896 0.113146275 -0.09061819 0.13404812 0.058223564
-0.19883443 -0.08410981 -0.049350575 -0.16054927 -0.04459424 0.1638976 -0.049282417 0.10527346
0.19023234 0.19780892 0.048390538 0.051361393 0.11294145 0.11301662 -0.14133367 0.0027173515
0.10148292 -0.1706591 0.09284636 0.026251204 0.012894858 0.071045995 -0.036537647 -0.10948456
-0.087319486 0.021694774 -0.14713147 -0.08192798 -0.045448028 0.07992935 0.101587564 0.051093396

bias_hh_l0 f4 [96]
00000000: 1945 b4bd f25d 1dbe 7106 39be e00f 153d
00000010: 602d 0c3e a2de 46be b755 98bd efab 26be
00000020: e403 b33d 3f57 1b3e 8c68 3b3b a7e5 d83d
00000030: a2e7 7e3c 0e98 223e f570 0cbd c650 0fbd
00000040: 0232 d93d 861e c1bd 6e29 813e a309 933d
00000050: 05bb d13c 97df 3ebd 0a50 d83c 9f72 d13d
00000060: 6bb7 8bbb 43be ccbd 934b 143c 06aa 893d
00000070: 0995 fe3d 0c7b b33c 69b0 82bd 255a df3d
00000080: d4bb 21be 69a7 84bc f8c5 07be 1055 0bbe
00000090: c822 03bd 8968 27be 7262 f9bd a835 31bb
000000a0: 7a83 f9bb 86f8 4dbe 119f b2bd 1dc2 94be
000000b0: b4a7 6fbe 5f3f 8bbe 498c 093e 9a53 8a3d
000000c0: db3b 613c 078a ddbd 42ae 663d 4774 adbd
000000d0: 246e 1cbe 95a5 19be f899 4abc b143 7dbe
000000e0: af10 67bd 34a0 9c3d ccf7 bdbd a9d4 3fbe
000000f0: f76d e63d 0767 96be 49cc 39be 414e 6cbe
00000100: 6cd4 15bd 7d73 e5bd d942 e03d ffe0 273e
00000110: e5dc 67be 4f9b 12be 0a30 803d de56 47bc
00000120: 376a 5d3e dcfc 023d dcd7 d3bd d265 4d3e
00000130: 7274 90bb 0181 86bd a832 ff3c f692 8abd
00000140: fbe2 a63d 229e 34be e4e7 44be 3af8 dfbc
00000150: 8348 333e 90f1 613d e9fc cd3d 3c16 a4bd
00000160: 6349 1ebd b9a9 263d be83 f63d 9acf 6abd
00000170: 0fb7 2bbc 3854 533e a771 153e 7d6e 5fbe
-0.08802242 -0.15367869 -0.18068863 0.036392093 0.13689184 -0.19420865 -0.07438224 -0.16276525
0.087409765 0.1517 0.002859625 0.10590678 0.015558155 0.15878317 -0.03428741 -0.03498914
0.10605241 -0.0942965 0.2522692 0.071795724 0.025601873 -0.04659995 0.026405353 0.1022694
-0.0042638085 -0.09997227 0.009051221 0.067218825 0.1243077 0.02190926 -0.06381304 0.109058656
-0.15794307 -0.016193109 -0.13259113 -0.13606668 -0.03201559 -0.16348471 -0.1217698 -0.0027040038
-0.00761455 -0.20114335 -0.08721746 -0.29054347 -0.23403817 -0.27196786 0.13432421 0.06754227
0.013747181 -0.10817342 0.05631853 -0.08469444 -0.1527639 -0.15004571 -0.012365811 -0.24732853
-0.056412395 0.07647744 -0.09275779 -0.18733467 0.11251443 -0.2937548 -0.18144335 -0.23076726
-0.036579534 -0.11203668 0.1095025 0.16394423 -0.22642858 -0.14317058 0.06259163 -0.012166707
0.21622549 0.031979427 -0.10343906 0.20058373 -0.0044084126 -0.06567574 0.031152084 -0.06766312
0.08148762 -0.17638448 -0.19229084 -0.027340043 0.1750813 0.055162013 0.100580044 -0.08012053
-0.038644206 0.040689204 0.120368466 -0.05732689 -0.010480656 0.20637596 0.14594136 -0.21819492

weight f4 [32, 32]
00000000: c09a acbe 10bc cfbe 20bb 953e a724 e63e
00000010: 545c 833e f532 373e 1b2e bb3e 2830 fdbc
00000020: d1a4 c13d 99ac b03e 014d d43e 5d76 d93e
00000030: 6792 263e b53b 1c3f acbd 3bbe 795d 14be
00000040: e2cf ba3e 5223 4e3e 6dcf ec3c f977 cf3d
00000050: 7f19 c5be 662a bb3e 9091 c03e da82 72bc
00000060: b85f a53e ec69 ff3e 1be2 02bf 8c76 05bf
00000070: 2ca3 be3d 2b24 76be af95 6f3e ad70 47be
00000080: 708e 2ebd 9c9f cebe b770 013e 69d8 cebe
00000090: 1286 e9be 47a6 013e df3f 64be a231 80bc
000000a0: f5df 143b abdf 573c ae00 aebd 0f55 dd3d
000000b0: 5ecd abbe 49ad b93e 41a8 a7be e7eb 53be
000000c0: b15b 083e 5ac7 0dbd f367 313e a16f 533e
000000d0: c756 cd3d 5b29 85be 6193 6bbe bfa9 b33e
000000e0: 40d5 953e 7d15 69be 8762 ffbe b598 8d3e
000000f0: 0ce9 10be 99d7 b23e 878d f73c bd05 5b3e
00000100: f1c8 e5be 7fca 0ebd aedc 93bd 17ea e6be
00000110: f3bb 42be 6b18 10bd 354a 823e a9d7 8a3e
00000120: 57eb 8abe a8b0 75be 63c7 863c a75d 54be
00000130: 653d 1abf fc4d f9be a265 62bc adf5 25be
00000140: 59e4 853e 0693 c83e 3ecf d6be 862a 80be
00000150: 7131 f03e e6ed ca3e 3b89 663e 3a21 d4be
00000160: 546c b7be d12e 00be 3709 80bd 14ea c83d
00000170: 370a 80be 82f0 e23b ebeb 85be 6170 09be
00000180: 6985 8f3e 5535 a6be efd7 f2bd 0c4b cd3e
00000190: 18bf 143e 392e 9a3e 1988 823e ee41 893e
000001a0: 58d7 173d dcac bbbe acb5 a53e 196d 6bbe
000001b0: 15d8 003f b7a3 3ebe d1c6 a53e 1bff 21be
000001c0: 4b2a 443e 7b51 173e 857c ec3d 8d7e 3abe
000001d0: d9ae b43e 3626 cc3e d3c2 4c3e 7b58 afbe
000001e0: 73db 583d bc0f aabd 9645 9a3c 97b5 a53e
000001f0: 8064 9d3e 7812 383e 5f7d 32be d1f9 7abe
00000200: e41a 653c 9ebe a6be 5923 febe 058c dbbd
00000210: dddc 63be e1de 963e aae2 473e ea53 c73e
00000220: 2311 7f3e 957f fb3d 6603 55bc 4f46 25be
00000230: bd2b c5be 308c 8f3c 63a9 efbd c9f5 083e
00000240: cb3e e0be cfb0 10bd 7d73 1fbe a2f5 ac3e
00000250: 8fa2 483e ccbb da3c 3bfd 903d 602b 9e3d
00000260: 6448 82be d18f 3ebe df8e 523d 134d 88be
00000270: a98e d3be 7525 1cbd ad95 62be af01 b23e
00000280: bf1f 4b3e fc28 aabe 66d5 ecbe c3e6 ad3e
00000290: 41fd c9be fe56 bb3e 0c35 1d3e f019 9b3e
000002a0: 00b1 073e ee21 6f3e 4af0 90be b253 da3e
000002b0: 9237 10bf 83ca 28be f9c6 14be b5c5 e3be
000002c0: 51ff d03c 48b5 8b3e 7154 a83d 3095 c93d
000002d0: f3c3 9abe e553 243d d026 b93d 691a 783e
000002e0: 8641 51bd 806f a43d abbc 8f3e 4768 53bd
000002f0: df80 953e 27a2 99bd ad42 85be 1206 81be
00000300: 98c3 c53e 50c0 89be ee80 df3e 4c4d a1be
00000310: 0eee a63e d129 a0be 8838 973d 09dc 203c
00000320: a81b 933b c2ca abbe 8819 103e 7b92 f2bd
00000330: 1277 22be a46c 75be 940b 5a3d d9fb bdbe
00000340: 7b58 b03c d71a 18bf d2a4 6cbe 73b0 1cbe
00000350: d060 99be f6a7 5abe c12c b4bc 40be d2bc
00000360: 20d9 e93d f034 8dbe 5b4b 223d 9b90 453d
00000370: e26f 2a3e 1e03 b43e f4b3 033e 66fb 1a3c
00000380: 4c8d 40be d022 0e3e 18eb c2be 6f1c e8be
00000390: 43dd cbbd a928 923e 1de4 993c e253 bf3e
000003a0: 1c22 59be a99a d23e 64c1 d0be 03bd 5d3e
000003b0: 37b9 14bf b530 e4be 7b32 663e 67f5 55be
000003c0: 0362 5e3e d7f6 993c a83b 84be d09d e7bd
000003d0: afff fc3e b8d3 2fbe e54d a93e 5b81 09bf
000003e0: 5028 773d 053b 14bd 3803 a93e 251b 143f
000003f0: dc39 b63e 0bb3 e83e 52d2 dbbd 9af8 24be
-0.33711815 -0.40573168 0.29244328 0.4494984 0.25656378 0.17890532 0.36558613 -0.030906752
0.09455264 0.34506682 0.41465 0.42473117 0.16266786 0.61028606 -0.18334073 -0.14488782
0.36486727 0.20130661 0.028907502 0.10130305 -0.38496014 0.36555785 0.37611055 -0.014801705
0.3229959 0.498855 -0.5112626 -0.52134013 0.09308466 -0.24037234 0.23396944 -0.19476576
-0.042616308 -0.40356147 0.12640654 -0.40399483 -0.456101 0.12661086 -0.2228999 -0.015648667
0.0022716497 0.013175885 -0.084962234 0.10807239 -0.3355512 0.3626502 -0.32745555 -0.20695458
0.13316227 -0.034613945 0.1732481 0.20648052 0.10026317 -0.26008114 -0.2300544 0.35090443
0.2926426 -0.22762103 -0.49879858 0.2765557 -0.141514 0.34930113 0.030218853 0.21388908
-0.4487987 -0.034861084 -0.07219826 -0.4510047 -0.1901701 -0.035179537 0.2544724 0.2711766
-0.27132675 -0.2399317 0.016452497 -0.2073885 -0.6024993 -0.4869231 -0.013818176 -0.16206999
0.26150778 0.3917467 -0.41954988 -0.25032443 0.4691272 0.39634627 0.22513287 -0.414316
-0.35824835 -0.12517859 -0.062517576 0.09810272 -0.25007793 0.0069256434 -0.26156554 -0.13421775
0.2803147 -0.32462564 -0.11857592 0.4009632 0.14526021 0.3011339 0.2549446 0.26808113
0.037070602 -0.3665532 0.32365167 -0.22990836 0.50329715 -0.1861714 0.32378247 -0.15819971
0.19156758 0.14777176 0.11547188 -0.18212338 0.35289648 0.39872903 0.19996195 -0.34247193
0.052943658 -0.08303782 0.01883201 0.32365105 0.30740738 0.17975795 -0.17430638 -0.2450936
0.013983462 -0.32567304 -0.49636343 -0.10720066 -0.22252221 0.29466918 0.19520059 0.3893121
0.24908881 0.12280194 -0.0130012985 -0.16140102 -0.38509932 0.017522901 -0.1170223 0.1337501
-0.43797907 -0.035324868 -0.15571399 0.33781153 0.19593261 0.026700877 0.0707955 0.07723117
-0.25445855 -0.18609549 0.051405784 -0.26621303 -0.4131978 -0.03812166 -0.2212741 0.3476691
0.19836329 -0.33234394 -0.4625656 0.3396512 -0.3945103 0.36589807 0.15352267 0.30293226
0.13251114 0.23352787 -0.28308326 0.4264198 -0.56334794 -0.16483502 -0.14529027 -0.44486776
0.02551237 0.27286744 0.08219231 0.098429084 -0.30227622 0.04011907 0.09040606 0.24228825
-0.05108788 0.080290794 0.2807363 -0.05161312 0.29199883 -0.07501631 -0.26027432 -0.25199944
0.3862579 -0.26904535 0.43653053 -0.31504285 0.32603496 -0.31281903 0.07383829 0.0098180855
0.004489381 -0.3355313 0.1407224 -0.11844345 -0.15865734 -0.23967224 0.053233698 -0.37106207
0.021526566 -0.59415954 -0.23109749 -0.15301685 -0.29956675 -0.21353135 -0.021993997 -0.025725484
0.114183664 -0.2757945 0.039622646 0.04823361 0.16644242 0.35158628 0.12861615 0.009459352
-0.188039 0.13880467 -0.38069987 -0.45334193 -0.09954312 0.28546646 0.01878553 0.37368685
-0.21204418 0.4113362 -0.40772545 0.21654133 -0.58095115 -0.4456841 0.22480194 -0.20894395
0.21717076 0.01879446 -0.25826764 -0.11309397 0.4941382 -0.17170608 0.3306724 -0.53713006
0.06034118 -0.036189098 0.33010268 0.5785392 0.35591018 0.454491 -0.10733475 -0.16110459

bias f4 [32]
00000000: f3b8 b13d 493a 9e3d 8cc7 613d 8e5f e2bc
00000010: e2f6 083d 23ea 4a3d fbae 543c 7788 8b3d
00000020: 10c6 fc3c 93f6 9f3d 58a4 16bb 31c4 82bc
00000030: 5816 40bd 88a9 a4bc ee1e fb3b 4192 913d
00000040: 0759 f3bc e67d 8f3c 19db 193d abcd 5d3b
00000050: e6d1 923b 9623 603d 3f60 c03c 2997 a23d
00000060: 2458 9e3d 9bed 1f3d 964f 8a3d f46f 903c
00000070: e2f5 d4bc 914b 33bd fe69 cfbc d2e7 813d
0.086778544 0.07725961 0.055121943 -0.027633455 0.03343857 0.049539696 0.012981172 0.06813138
0.030856162 0.07810702 -0.002298614 -0.015962692 -0.04689631 -0.02010037 0.007663599 0.07107974
-0.029705537 0.017516088 0.037562463 0.0033844511 0.0044805882 0.054721437 0.023483394 0.07938988
0.07731655 0.039044958 0.06753461 0.017631508 -0.025996152 -0.043773238 -0.025319096 0.06343044

weight f4 [5, 32]
00000000: 8a84 653d c1e9 90bd 5d0f a8bd a36e 4f3e
00000010: 8c77 28be f524 42be a0f4 adbe 6016 18be
00000020: 990b f0be 357a 58bd ce4f 1d3d 7f59 393e
00000030: ce55 8c3e 0774 5abe f870 b03e 5af2 d53e
00000040: 0141 a2be c10b 5cbd b88a f13d 2664 573e
00000050: a502 15bb cd47 153e 39db cbbe 43e4 d8be
00000060: 60ab 953d 8336 dfbc 63da 07be 0fed 983e
00000070: ef54 173e 72f2 553e d433 af3e 05f3 d93b
00000080: 80ad 7fbd 87c6 8b3e be76 04be 4977 613e
00000090: 3eb3 1ebe 6ff7 b3be f573 9cbd 1a20 953d
000000a0: bd33 60be fdfd a43e 410c 143d d26c eabe
000000b0: 5c19 6ebe 52e4 9cbe 2e16 eabc bc26 b0be
000000c0: 6c22 9ebe ed94 c8be fa0e 84be aa8d d7bd
000000d0: 05a7 cabe 1b26 d7bb 5824 96be 90d4 4c3e
000000e0: 1f5f 0d3f ed85 37bd 19dc a23e da9c 113f
000000f0: ce1b 5f3c 6438 b03e 1409 acbe 2d42 e9bb
00000100: 6188 8c3e a145 ca3e 5a40 b2bd ab6c 7a3e
00000110: 31c2 eabe 0d54 5a3e cbf1 88be a562 c8be
00000120: 6b12 c3be 5662 963d c4d3 15be 29e0 8fbe
00000130: 74f5 9ebd 1721 a6be 3149 cbbe f785 90be
00000140: 30ed c1be cf1c b5be a3a0 dfbd 5a17 743e
00000150: e0ee acbc 0632 96be 90ef 7b3e 62f9 d6be
00000160: 30fe f5be f0d8 723e c81c e23e 8f55 c6be
00000170: a42b 5ebb 0e17 8abe 2190 9abe 020a e2bc
00000180: bd52 03bf 7f1a 6ebe d9e5 fdbd cbbc d3be
00000190: 1dd9 b4be ba9b d2be acb9 ba3d d776 653e
000001a0: 1a15 91be 81fc 5dbe 96d4 763d ba1f cb3d
000001b0: c265 8c3e d0f5 be3e 2bb6 82be 0c98 eebe
000001c0: d519 ca3e 90a9 05bf 947a 07bf 710f ac3d
000001d0: e427 a23d e5e5 033d 24ca 4cbe 9bcc 513d
000001e0: 0c6c d2be c6a9 05bf 1171 efbd 875b 02be
000001f0: 8932 ae3e 1e5e a83e 5a01 a53e 92ef 08bf
00000200: a101 f0be 92a9 263e dbe3 c73e 922e 95be
00000210: a57c 893d ed7c 873e 79c5 a7be 9d13 fa3e
00000220: f0ac 0e3e 4d34 d6be 2cd6 99be c72e b93e
00000230: 8b0e babe d55a 95bd 93b8 6d3d 9c09 d63d
00000240: 989a 17be 5e79 c73d 84dd aa3e 843d 06bf
00000250: 2ce4 de3d d582 e73e 4a0c 933b b2f0 673e
00000260: 588d 4bbe 7a67 573d 4ded b4be 294f ffbe
00000270: a9b1 b6be f103 78be 48fa 45be d7a4 843e
0.056034602 -0.07075835 -0.08206055 0.20257048 -0.16451854 -0.1895941 -0.33975697 -0.14852285
-0.46883848 -0.05285092 0.038406186 0.18100546 0.27409214 -0.21333323 0.34461188 0.41786462
-0.3169022 -0.053722147 0.117940366 0.21034297 -0.0022737172 0.14578171 -0.3981569 -0.4236165
0.07308078 -0.027247673 -0.13266902 0.2986836 0.14778493 0.20893267 0.3421923 0.0066512846
-0.062421322 0.27299902 -0.12935922 0.2201816 -0.15498063 -0.35149714 -0.076393045 0.072815135
-0.21894737 0.32225028 0.0361445 -0.45786148 -0.23251861 -0.30642945 -0.02857503 -0.34404552
-0.30885637 -0.3917612 -0.25792676 -0.10525067 -0.3958055 -0.006565822 -0.29324603 0.20002961
0.5522327 -0.044805456 0.31808546 0.5687996 0.013617469 0.34418023 -0.33600676 -0.0071184845
0.274478 0.39506248 -0.0870368 0.24455516 -0.4585128 0.21321125 -0.26746973 -0.3913776
-0.3809999 0.07342975 -0.14631563 -0.28100708 -0.0776166 -0.3244712 -0.39704278 -0.28227207
-0.37876272 -0.35373542 -0.10919311 0.23837033 -0.021109998 -0.2933504 0.24603105 -0.4198714
-0.48045492 0.23715568 0.44162583 -0.3873715 -0.0033900524 -0.26970714 -0.30188087 -0.027592663
-0.51298124 -0.23252295 -0.123973556 -0.41354975 -0.35321894 -0.41134435 0.09117445 0.22408615
-0.28336412 -0.21678354 0.06026133 0.09918161 0.27421385 0.37296915 -0.25529608 -0.46600378
0.39472833 -0.52211857 -0.52921414 0.08401383 0.07917765 0.032201666 -0.19998986 0.051220518
-0.41098058 -0.5221218 -0.116914876 -0.12730227 0.3402293 0.32884306 0.32227594 -0.53490555
-0.46876243 0.16275623 0.39041027 -0.29137093 0.06713227 0.26462498 -0.32767847 0.4884309
0.13933158 -0.41836777 -0.30046213 0.361685 -0.3633922 -0.072927155 0.05803735 0.104510516
-0.14805067 0.09739946 0.33372128 -0.52437615 0.10883364 0.45217004 0.004487549 0.22650412
-0.19878137 0.052588917 -0.35337296 -0.49865082 -0.3568242 -0.24220254 -0.19333756 0.25907013

bias f4 [5]
00000000: ccfb 0dbd 85fe 7a3d 0ccd 873c f801 13be
00000010: e14f bf3c
-0.03466396 0.061277885 0.016577266 -0.1435622 0.023353519
