visualization/policy_nns/OSD_T/4R383827/agent_0.pt (torch, 41985 bytes, 12 tensors)

weight f4 [32, 23]
0.33222333 0.022269955 0.30578613 -0.22755955 0.08611451 -0.49474382 -0.23982449 0.32780454
0.26512298 0.3909834 0.22631171 0.14986183 0.5219659 0.56827974 -0.35781288 0.33865798
-0.21219972 -0.4862224 0.10887114 0.13643874 -0.19520262 -0.36809728 -0.38423783 0.2581047
-0.37337568 -0.116651125 -0.37713146 -0.19186272 -0.22093956 0.24635597 0.2037672 -0.35888848
0.26790768 -0.004078713 0.3685684 0.060047433 0.41314214 -0.4579091 0.40608856 -0.07122141
0.39908084 -0.21130235 0.029478177 -0.37625954 -0.105128095 -0.19071648 0.25604796 0.09354946
0.24775445 0.10889834 0.11209227 0.44838935 -0.28390628 0.5069446 0.16567455 0.041928597
0.1174839 0.17021568 -0.3244169 0.33641216 -0.25413153 -0.060321074 0.22282392 0.205851
-0.15581955 -0.37014905 -0.45915014 -0.11597862 -0.09347327 -0.057708263 0.2742495 0.26322886
0.015411203 -0.055887 -0.022666188 -0.4870209 -0.022008605 0.12779003 -0.32017267 0.047525134
-0.15827864 0.23398349 -0.53015053 0.14235313 -0.2394029 0.5167057 -0.01987884 0.14156143
0.3056691 -0.25072476 -0.34154573 -0.039933592 0.17851397 -0.28015548 0.30843696 0.13619229
0.33150086 0.3757838 0.317452 -0.28786463 -0.059444033 0.0038403578 0.3754541 0.13325071
-0.06394081 0.12463197 0.14474821 0.52034867 0.12118881 0.45126307 0.47915384 -0.44350109
-0.31948325 0.27889132 -0.5699937 -0.35112786 -0.35484064 0.41681606 0.014719234 0.2577918
-0.14982304 -0.12246302 -0.047290247 0.34325227 -0.13224307 -0.21299712 -0.21281758 -0.20354098
0.36420098 0.18073934 -0.039515812 -0.22790258 0.4555348 -0.412876 0.097704984 0.43044284
-0.39182854 -0.06559941 0.4018643 0.36769313 0.17270875 0.3901137 -0.18310055 0.25633642
0.1895522 -0.1943561 0.17067926 0.033345863 -0.09441397 0.27703556 0.29148605 0.31122097
0.47189328 0.38610923 0.22690625 0.2318201 0.13133012 -0.35550934 -0.2892838 -0.2936635
-0.25726077 -0.037890214 0.09460609 0.18971908 -0.31306794 -0.47278622 -0.45540047 -0.0072719585
0.07887932 -0.019109244 -0.14604096 -0.15734488 0.038217608 -0.04065264 0.12705006 -0.17327994
-0.19833674 -0.008950607 -0.30641812 -0.0376714 0.32675144 -0.36007655 0.23633516 -0.5113729
0.097202584 0.15190125 0.41358632 0.46579713 0.09557081 -0.14243424 0.60642225 0.094074175
-0.32326505 -0.054908525 -0.19316497 0.25795078 0.07032456 0.19825318 0.09680579 -0.043524522
0.24769104 0.17869234 -0.33700588 -0.06878453 0.275932 0.64922225 0.047879554 4.1893814e-05
-0.2580441 -0.4833463 0.35656375 -0.18185504 -0.34231696 0.31920987 0.3153571 -0.16313872
0.20954794 -0.45493186 -0.39620057 -0.056916207 0.22054818 -0.42093033 0.24497026 -0.23465303
-0.1977814 -0.035941124 -0.021490894 0.21937646 0.4752219 0.09803196 -0.22388552 0.101725936
-0.16787164 -0.36197007 -0.07450665 0.081105776 0.020788921 -0.24721025 -0.099917136 0.44440004
0.11114607 -0.00476904 -0.41867462 -0.19557197 0.40487042 0.42828378 0.24213277 -0.13420652
-0.39343056 -0.18501487 -0.2524616 -0.2320497 -0.13505197 0.26437047 0.031734217 0.10373887
00000000: 2d19 aa3e 7b6f b63c 0090 9c3e 5f05 69be
00000010: ce5c b03d 104f fdbe 8d94 75be ffd5 a73e
00000020: 33be 873e fa2e c83e 42be 673e 6175 193e
00000030: 8f9f 053f c87a 113f 4033 b7be 9464 ad3e
00000040: e24a 59be 24f2 f8be d5f7 de3d 99b6 0b3e
00000050: 32e3 47be 3f77 bcbe d2ba c4be 4d26 843e
00000060: 192b bfbe c9e6 eebd 6017 c1be a977 44be
00000070: fb3d 62be bd44 7c3e 59a8 503e 3bc0 b7be
00000080: 322b 893e b9a6 85bb ffb4 bc3e 4cf4 753d
00000090: 5e87 d33e 1073 eabe d7ea cf3e 88dc 91bd
000000a0: 5354 cc3e a55f 58be 387c f13c 17a5 c0be
000000b0: 664d d7bd 2e4b 43be b818 833e dc96 bf3d
000000c0: 58b3 7d3e 1806 df3d a290 e53d 4a93 e53e
000000d0: 2a5c 91be 1fc7 013f 97a6 293e 52bd 2b3d
000000e0: 669b f03d 054d 2e3e f919 a6be 373e ac3e
000000f0: 871d 82be 3b13 77bd f42b 643e 9bca 523e
00000100: 298f 1fbe 2d84 bdbe ba15 ebbe 3386 edbd
00000110: ea6e bfbd 805f 6cbd 6e6a 8c3e efc5 863e
00000120: 457f 7c3c c4e9 64bd 71ae b9bc ce5a f9be
00000130: 644b b4bc 64db 023e aced a3be b7a9 423d
00000140: cc13 22be 5e99 6f3e f2b7 07bf 05c5 113e
00000150: 0926 75be d346 043f f3d8 a2bc 7bf5 103e
00000160: a980 9c3e ff5e 80be 15df aebe 6891 23bd
00000170: 5ecc 363e 8a70 8fbe 73eb 9d3e fe75 0b3e
00000180: 7bba a93e bc66 c03e 1289 a23e fe62 93be
00000190: 967b 73bd 83ae 7b3b 853b c03e e072 083e
000001a0: 66f3 82bd 0c3f ff3d e038 143e 9235 053f
000001b0: d731 f83d f40b e73e a753 f53e 9312 e3be
000001c0: 4f93 a3be d8ca 8e3e 1beb 11bf 08c7 b3be
000001d0: acad b5be ea68 d53e f128 713c 49fd 833e
000001e0: 366b 19be e4cd fabd 6bb3 41bd c3be af3e
000001f0: ba6a 07be eb1b 5abe daec 59be 0c6d 50be
00000200: 8d78 ba3e bc13 393e 55db 21bd 4b5f 69be
00000210: db3b e93e 7c64 d3be 8d19 c83d 0163 dc3e
00000220: c09d c8be fc58 86bd 28c1 cd3e 4642 bc3e
00000230: 90da 303e fcbc c73e b67e 3bbe 873e 833e
00000240: f919 423e 4905 47be 8bc6 2e3e ac95 083d
00000250: 1d5c c1bd 9bd7 8d3e a93d 953e 5b58 9f3e
00000260: ff9b f13e 1cb0 c53e 1d5a 683e 4062 6d3e
00000270: 677b 063e 5205 b6be 021d 94be 105b 96be
00000280: afb7 83be c532 1bbd d6c0 c13d b845 423e
00000290: 714a a0be 0911 f2be 402a e9be 9c49 eebb
000002a0: 7b8b a13d fd8a 9cbc c38b 15be 041f 21be
000002b0: 118a 1c3d 6283 26bd 6919 023e 4c70 31be
000002c0: c918 4bbe 91a5 12bc d6e2 9cbe 534d 1abd
000002d0: f74b a73e f45b b8be d801 723e 56e9 02bf
000002e0: 2612 c73d 008c 1b3e 96c1 d33e f67c ee3e
000002f0: a1ba c33d 48da 11be 7d3e 1b3f f6a9 c03d
00000300: ff82 a5be c3e7 60bd 0acd 45be 2012 843e
00000310: 5306 903d e202 4b3e 1d42 c63d c546 32bd
00000320: b8a2 7d3e 20fb 363e 098c acbe e7de 8cbd
00000330: f646 8d3e 6e33 263f 5a1d 443d 24b7 2f38
00000340: 5b1e 84be 2b79 f7be 868f b63e 3538 3abe
00000350: 2b44 afbe 7a6f a33e 7c76 a13e d60d 27be
00000360: bc93 563e d4ec e8be cdda cabe f820 69bd
00000370: 62d7 613e 2e84 d7be 7cd9 7a3e e248 70be
00000380: 3587 4abe 0037 13bd ac0d b0bc 39a4 603e
00000390: 4950 f33e fbc4 c83d 3f42 65be b055 d03d
000003a0: 8be6 2bbe 2454 b9be f196 98bd c91a a63d
000003b0: 874d aa3c af24 7dbe 5ba1 ccbd 6788 e33e
000003c0: 8da0 e33d 9b45 9cbb 855c d6be 0544 48be
000003d0: 2d4b cf3e 0348 db3e a7f1 773e 6f6d 09be
000003e0: bb6f c9be 8a74 3dbe a642 81be 709e 6dbe
000003f0: 104b 0abe 915b 873e bdfb 013d 0b75 d43d

bias f4 [32]
0.031462573 0.06361175 -0.022298513 -0.017221658 0.14543858 0.032899834 0.0010125965 0.017787125
0.035943776 0.0046682106 0.07904179 0.019827306 0.08002681 -0.005414929 0.0834212 -0.008688166
0.11676044 0.008572692 0.10578483 0.031020802 0.13735193 0.02672341 0.0070955395 0.059128154
-0.019356472 0.10541423 -0.023732295 0.101931386 0.0007285634 -0.042050537 0.1055633 0.034713764
00000000: e6de 003d e146 823d 5fab b6bc 6f14 8dbc
00000010: daed 143e fac1 063d 1ab9 843a 4eb6 913c
00000020: c839 133d caf7 983b a9e0 a13d e06c a23c
00000030: 19e5 a33d b76f b1bb bcd8 aa3d cf58 0ebc
00000040: 1920 ef3d 7a74 0c3c b8a5 d83d 561f fe3c
00000050: fca5 0c3e 0deb da3c b381 e83b 5d30 723d
00000060: 7791 9ebc 6ae3 d73d 3b6a c2bc 67c1 d03d
00000070: 10fd 3e3a 2f3d 2cbd 9231 d83d 0530 0e3d

weight f4 [32, 32]
0.3734166 0.10346471 0.0399107 -0.40094963 -0.11165419 0.008941052 0.49461153 -0.22168095
-0.16491671 0.15957497 0.032281723 -0.38165012 0.4649056 -0.16874917 0.035493553 -0.0123968
0.41316086 -0.16866569 0.17951699 0.34194845 0.34626713 0.10552264 0.0665571 0.47506043
0.34537697 0.2456659 -0.08651115 -0.10242695 -0.10255862 -0.26740927 0.16404794 0.5469588
0.095678225 0.25755668 0.23232582 -0.39931458 0.16686393 -0.007373956 0.34939927 -0.46339926
-0.28251615 0.346591 -0.28131118 0.3025915 -0.18311454 -0.013194346 0.2683559 0.033836987
0.4514475 -0.4650996 -0.35179886 -0.26023176 0.22316861 -0.055718917 0.108635806 -0.31008166
-0.3057837 -0.12709454 -0.33167222 -0.11161309 0.25628242 -0.20556578 -0.36410558 -0.0619228
-0.07727655 -0.32203588 -0.18956363 0.3939879 -0.30753556 0.39033112 0.07586134 0.21008419
-0.29312938 -0.023702685 -0.42391965 0.14443362 -0.28762448 -0.016765138 0.07728269 -0.3304738
-0.25849786 0.22055161 0.085913725 -0.36570388 -0.32853946 0.49925628 -0.28061524 0.11875474
-0.16071774 0.052674025 0.21067253 -0.13749969 0.19322014 0.26036534 0.024558792 -0.52515316
0.15290219 -0.33953428 0.40775862 -0.43135965 0.36904913 0.23933259 -0.12763683 -0.04153962
0.11799796 -0.042076264 0.3783745 0.23587815 0.23218296 -0.17367794 0.2843783 -0.35998604
0.34183136 0.19448619 0.22396202 0.34239855 -0.0005851992 -0.17377117 0.15515295 -0.27884418
0.41096675 0.2147261 0.082297064 0.09226526 0.21275085 -0.267042 -0.45807543 -0.20661174
-0.009669442 0.12802337 -0.20321085 0.14972429 -0.1787612 -0.16428418 0.1700339 -0.26517177
0.21385263 -0.01357402 0.29430282 -0.32901356 -0.32520783 0.12524411 0.13743418 -0.22262782
0.00095378223 0.034878045 -0.08094714 -0.10909677 0.31109554 0.39885175 0.014737591 0.16919239
0.31433398 -0.3760567 -0.26768884 0.40635523 0.2516442 -0.17295071 0.451879 -0.08418617
-0.343231 0.47746885 -0.14041466 -0.27075168 0.00041408953 0.3586585 -0.040948976 0.086992465
-0.2283888 0.20010422 0.5235152 -0.2172178 0.07289965 0.46921366 -0.27558252 0.053485923
0.30752337 -0.14873448 0.40912226 0.2819798 0.50264305 0.2216277 0.23164901 0.48063692
-0.3272835 0.34538043 -0.39386588 -0.28115723 0.1092464 0.32230157 -0.087177016 0.09352912
0.26267496 0.11822662 -0.35874277 0.100694 0.23992229 0.08012955 0.034743123 -0.20980136
-0.038986314 -0.13704292 -0.23655207 0.51019305 -0.36396602 0.14147376 0.06667171 0.054381553
0.26987427 0.36022362 0.039033923 0.074384056 0.21630035 0.22698204 -0.008686511 -0.26667538
-0.22578701 -0.13778497 -0.2738642 -0.15755689 -0.19893631 -0.26108754 0.41286582 0.10563164
-0.025507402 0.33501494 0.4160454 0.2072184 -0.20547788 -0.22954349 0.18406042 0.33411598
0.38963127 0.12994699 0.07567435 0.15361874 0.45329148 -0.03481326 0.21600972 0.2750605
0.07216043 -0.22889307 0.23994812 -0.29987168 -0.23226343 -0.21063925 -0.382935 0.29634953
0.30261707 0.42946702 -0.30769926 -0.043778535 0.3156114 0.35373065 -0.20446336 -0.27622563
00000000: 7630 bf3e 4ee5 d33d 6779 233d 4549 cdbe
00000010: f4aa e4bd 7d7d 123c b93d fd3e 5500 63be
00000020: eddf 28be 9f67 233e d739 043d a567 c3be
00000030: 1b08 ee3e 95cc 2cbe b061 113d f31b 4bbc
00000040: d289 d33e b3b6 2cbe 4dd3 373e de13 af3e
00000050: ed49 b13e 411c d83d 174f 883d 1f3b f33e
00000060: 40d5 b03e d78f 7b3e c22c b1bd 39c5 d1bd
00000070: 410a d2bd dee9 88be 2ffc 273e 7e05 0c3f
00000080: f2f2 c33d 78de 833e d2e6 6d3e f672 ccbe
00000090: 61de 2a3e 3aa1 f1bb 76e4 b23e ab42 edbe
000000a0: f5a5 90be 6074 b13e 0508 90be 46ed 9a3e
000000b0: 6182 3bbe 192d 58bc f265 893e a798 0a3d
000000c0: 2024 e73e 8921 eebe fb1e b4be 193d 85be
000000d0: 5086 643e 8539 64bd 737c de3d 06c3 9ebe
000000e0: ae8f 9cbe 1225 02be f1d0 a9be 6795 e4bd
000000f0: 7337 833e d67f 52be 0c6c babe c3a2 7dbd
00000100: 2b43 9ebd e3e1 a4be f81c 42be c8b8 c93e
00000110: 4d75 9dbe 7bd9 c73e 315d 9b3d 4f20 573e
00000120: 0e15 96be 222c c2bc ff0b d9be 68e6 133e
00000130: 8443 93be 0b57 89bc 6346 9e3d dd33 a9be
00000140: d559 84be 48d8 613e 89f3 af3d 8a3d bbbe
00000150: 5336 a8be 859e ff3e cdac 8fbe af35 f33d
00000160: 3193 24be b8c0 573d 8aba 573e b8cc 0cbe
00000170: 80db 453e 9b4e 853e 852f c93c 7070 06bf
00000180: 6492 1c3e 70d7 adbe bdc5 d03e 2cdb dcbe
00000190: 02f4 bc3e 9a13 753e 3bb3 02be 7325 2abd
000001a0: eaa8 f13d 2958 2cbd 4dba c13e 0b8a 713e
000001b0: 5fc1 6d3e a1d8 31be 089a 913e 1750 b8be
000001c0: 8504 af3e 6327 473e 4d56 653e dd4e af3e
000001d0: 0e68 19ba 12f1 31be 6ae0 1e3e aac4 8ebe
000001e0: 3c6a d23e 29e1 5b3e 5d8b a83d 92f5 bc3d
000001f0: 5cdb 593e bbb9 88be dd88 eabe 0792 53be
00000200: 946c 1ebc 8f18 033e 8116 50be 5351 193e
00000210: 2d0d 37be 1d3a 28be 5e1d 2e3e 98c4 87be
00000220: 2ffc 5a3e 9165 5ebc dcae 963e 7774 a8be
00000230: a481 a6be fe3f 003e 8cbb 0c3e 8cf8 63be
00000240: 3e07 7a3a 48dc 0e3d 9dc7 a5bd 216e dfbd
00000250: ea47 9f3e 4c36 cc3e f075 713c c540 2d3e
00000260: 62f0 a03e 818a c0be 830e 89be cb0d d03e
00000270: 82d7 803e fe19 31be af5c e73e cc69 acbd
00000280: f9bb afbe cc76 f43e dcc8 0fbe f79f 8abe
00000290: 281a d939 16a2 b73e 1dba 27bd 1b29 b23d
000002a0: c1de 69be 1fe8 4c3e 1805 063f 586e 5ebe
000002b0: 694c 953d c63c f03e 2719 8dbe 0e14 5b3d
000002c0: b473 9d3e da4d 18be 7978 d13e a85f 903e
000002d0: 37ad 003f 5ff2 623e 6635 6d3e 0b16 f63e
000002e0: b491 a7be b4d5 b03e caa8 c9be d7f3 8fbe
000002f0: 94bc df3d b604 a53e dd89 b2bd 328c bf3d
00000300: 557d 863e cc20 f23d 22ad b7be a838 ce3d
00000310: 30ae 753e f61a a43d ce4e 0e3d 2bd6 56be
00000320: 1db0 1fbd fb54 0cbe b53a 72be 039c 023f
00000330: c159 babe 7fde 103e 2d8b 883d 31bf 5e3d
00000340: f62c 8a3e 3b6f b83e 09e2 1f3d ab56 983d
00000350: d77d 5d3e fb6d 683e de51 0ebc ad89 88be
00000360: b634 67be 8117 0dbe ee37 8cbe 9856 21be
00000370: f6b5 4bbe 44ad 85be 2663 d33e 6755 d83d
00000380: e6f4 d0bc 1487 ab3e e703 d53e 0f31 543e
00000390: cb68 52be 730d 6bbe 567a 3c3e 4011 ab3e
000003a0: c07d c73e d310 053e 27fb 9a3d 3b4e 1d3e
000003b0: d215 e83e 5998 0ebd a731 5d3e bbd4 8c3e
000003c0: d9c8 933d f262 6abe f6b4 753e c888 99be
000003d0: 77d6 6dbe d1b1 57be 0e10 c4be 20bb 973e
000003e0: a0f0 9a3e 1ae3 db3e c28a 9dbe 1f51 33bd
000003f0: d197 a13e 2f1c b53e d85e 51be 726d 8dbe

bias f4 [32]
0.02385155 0.023401268 0.1279516 0.021494852 0.07150161 0.024567038 0.10032728 0.011208513
0.08044691 0.080103874 0.057932906 0.015957695 0.037633043 0.073037304 0.043035787 0.08694777
0.03485937 0.0431647 -0.0455417 0.0287486 0.04154116 0.069606535 0.019338988 0.07261113
0.05224436 0.076397315 0.028483307 0.091436155 0.058008797 0.08135613 0.019517098 0.0406033
00000000: 5364 c33c 04b4 bf3c bf05 033e f915 b03c
00000010: 706f 923d d040 c93c 6478 cd3d e9a3 373c
00000020: 59c1 a43d 800d a43d 0e4b 6d3d b6b9 823c
00000030: 1b25 1a3d 9594 953d 4b46 303d ac11 b23d
00000040: b3c8 0e3d 78cd 303d ef89 3abd 2f82 eb3c
00000050: 1027 2a3d df8d 8e3d cc6c 9e3c 25b5 943d
00000060: 2ffe 553d 3276 9c3d d355 e93c e142 bb3d
00000070: a29a 6d3d 0b9e a63d 52e2 9f3c a54f 263d

weight_ih_l0 f4 [96, 32]
-0.089420296 0.12646246 0.0027104295 0.20248018 0.18127167 -0.13177323 0.1290195 -0.23029806
-0.10250046 0.004511461 -0.08994714 0.054593317 0.10272758 0.02929063 -0.1623001 -0.026255276
-0.065451644 -0.10197523 0.02209547 0.16172701 -0.05589171 0.0245729 0.043853115 -0.15683454
-0.12917517 0.09472457 0.014822271 -0.0700011 -0.089111656 0.2260548 -0.026892852 0.073036835
-0.027865436 0.023342498 0.1367944 0.0043841787 -0.16211155 -0.2607698 -0.05471569 -0.24899307
-0.13964109 -0.19248952 -0.19152468 0.0935619 -0.016290395 -0.17429729 -0.2542762 -0.16237345
-0.06512355 -0.1317073 0.06776973 -0.07686261 0.07770426 -0.052543677 0.16117246 0.035403468
-0.20676796 -0.09537891 -0.053643364 0.015790164 -0.17102535 -0.08437583 -0.24463804 -0.014364744
-0.09715172 0.06634024 0.30331114 0.25851235 0.08668587 0.007366412 -0.014535645 0.061141342
0.063334584 0.25501963 -0.04926262 0.16401568 -0.091152586 0.19949678 -0.0077054915 0.12801455
0.013346098 0.13917258 -0.017878484 0.23643935 0.24726996 0.19579384 0.071816765 -0.07031916
-0.095681466 0.15590383 -0.019471897 0.06498225 0.08382542 0.2833354 0.063041314 0.18542263
0.15323383 -0.02246621 0.24147736 0.06474633 -0.064779 0.12230012 -0.07581861 -0.13154137
0.01847652 0.19744366 -0.14066373 -0.01400953 0.001085165 -0.102072455 -0.03699335 -0.119125515
-0.16272773 0.2176535 0.15603898 0.11176552 0.046497907 0.23348282 -0.061002646 -0.13550237
0.013170289 0.25083575 0.028823465 -0.010516097 0.09022451 0.039797217 -0.03499136 0.12644076
0.15247467 0.16191761 -0.112970285 -0.02782569 0.015566415 -0.09685382 -0.2081859 0.15336695
0.049502138 -0.21428762 0.0601112 0.18038698 0.03784552 -0.1580326 -0.04185668 0.042639997
0.110683784 -0.110733956 -0.17282335 -0.12532833 0.06339036 -0.05032004 -0.16565351 0.0941225
0.31122625 0.04055281 0.007653888 0.11798327 0.037840586 -0.19269103 0.19656186 0.20006649
0.062210076 -0.1669028 0.21196827 -0.032906227 -0.11535746 0.03441286 0.21662919 -0.044380352
-0.2323411 -0.0063080764 -0.12512167 0.053919263 -0.08969838 -0.0008999774 -0.11382819 0.022997638
0.030583473 0.09064281 0.19870973 0.028583383 0.007446404 0.030835314 0.105633505 -0.10319222
0.06765327 -0.073852986 -0.13930324 -0.15044314 0.112555206 0.05704974 0.13468622 0.0753859
-0.07787227 0.11851923 -0.044473846 -0.16700129 0.056387715 0.039660104 -0.055303227 0.14026676
0.14177437 0.11657923 0.023020405 0.16352408 -0.034574483 0.15964581 0.1638885 -0.14625965
-0.08086522 0.005172099 -0.08131381 -0.030851541 -0.082312986 -0.16573459 -0.077652365 -0.039307725
0.13030925 -0.006081536 -0.020637374 0.1449978 0.03532144 -0.19522287 0.17317799 -0.16732462
-0.17263599 -0.18418679 0.20740068 0.12862803 -0.013216213 -0.10741287 0.20488544 0.027397959
-0.07190572 -0.0075094695 0.089273766 -0.13620344 0.100485094 0.040367726 -0.08312767 -0.099683836
-0.22866645 -0.051350933 0.042006925 -0.038654182 -0.049636394 0.14789091 -0.007644408 0.10187989
-0.09637267 0.039764717 -0.045657244 -0.11053589 -0.020627106 -0.041845884 -0.0060087317 -0.030086195
00000000: fd21 b7bd 607f 013e 76a1 313b f756 4f3e
00000010: 489f 393e 90ef 06be b01d 043e 41d3 6bbe
00000020: c3eb d1bd e1d4 933b 3536 b8bd 3e9d 5f3d
00000030: d662 d23d e7f2 ef3c ff31 26be 4e15 d7bc
00000040: 830b 86bd 64d8 d0bd 8f01 b53c c49b 253e
00000050: b5ee 64bd 1b4d c93c 539f 333d 3c99 20be
00000060: 7f46 04be f5fe c13d 1cd9 723c bd5c 8fbd
00000070: 2c80 b6bd e97a 673e 664e dcbc 5694 953d
00000080: 0e46 e4bc c438 bf3c d513 0c3e 28a9 8f3b
00000090: 9200 26be 9f83 85be 8f1d 60bd 0af8 7ebe
000000a0: 13fe 0ebe f91b 45be 0c1f 44be 629d bf3d
000000b0: 6f73 85bc fd7a 32be 7d30 82be 3a45 26be
000000c0: 7f5f 85bd 47de 06be dbca 8a3d 256a 9dbd
000000d0: 6923 9f3d 0a38 57bd 650a 253e 3a03 113d
000000e0: fbba 53be 0556 c3bd 25b9 5bbd 605a 813c
000000f0: 4521 2fbe 3ccd acbd 6582 7abe 1a5a 6bbc
00000100: 7bf7 c6bd 64dd 873d 994b 9b3e bb5b 843e
00000110: 5d88 b13d f161 f13b ea26 6ebc 586f 7a3d
00000120: 90b5 813d ef91 823e 9ac7 49bd baf3 273e
00000130: 35ae babd e248 4c3e 597e fcbb 3f16 033e
00000140: 98a9 5a3c 4283 0e3e e675 92bc 281d 723e
00000150: 5634 7d3e 2e7e 483e ab14 933d 7e03 90bd
00000160: a5f4 c3bd 41a5 1f3e 8783 9fbc 6a15 853d
00000170: a9ac ab3d 5611 913e ce1b 813d 6edf 3d3e
00000180: 54e9 1c3e 0f0b b8bc d745 773e b999 843d
00000190: daaa 84bd 7c78 fa3d ca46 9bbd c8b2 06be
000001a0: 125c 973c ac2e 4a3e 270a 10be 3a88 65bc
000001b0: 183c 8e3a 5d0b d1bd 5786 17bd 14f8 f3bd
000001c0: 19a2 26be 8fe0 5e3e afc8 1f3e 52e5 e43d
000001d0: 9774 3e3d 1f16 6f3e e9dd 79bd 22c1 0abe
000001e0: 32c8 573c 8b6d 803e 301f ec3c b54b 2cbc
000001f0: a1c7 b83d 6802 233d 1a53 0fbd b079 013e
00000200: 5222 1c3e bbcd 253e f75c e7bd b4f2 e3bc
00000210: 470a 7f3c 4c5b c6bd af2e 55be 3a0c 1d3e
00000220: c1c2 4a3d 376e 5bbe 2937 763d 5db7 383e
00000230: e703 1b3d 4cd3 21be e971 2bbd 47a7 2e3d
00000240: 2eae e23d 7cc8 e2bd 9bf8 30be 1256 00be
00000250: ced2 813d 631c 4ebd 13a1 29be 4cc3 c03d
00000260: 0c59 9f3e b41a 263d 77cd fa3b 36a1 f13d
00000270: bbfe 1a3d cc50 45be 8347 493e 3bde 4c3e
00000280: fecf 7e3d 91e8 2abe 360e 593e aec8 06bd
00000290: 8840 ecbd 80f4 0c3d 0bd4 5d3e 2cc8 35bd
000002a0: d3ea 6dbe fbb3 cebb e51f 00be 72da 5c3d
000002b0: c9b3 b7bd 76ec 6bba c11e e9bd 8b65 bc3c
000002c0: 318a fa3c f0a2 b93d 907a 4b3e b327 ea3c
000002d0: f700 f43b 579a fc3c 6156 d83d 7156 d3bd
000002e0: cc8d 8a3d 3c40 97bd 82a5 0ebe c40d 1abe
000002f0: 5883 e63d fdac 693d 2feb 093e ec63 9a3d
00000300: 7f7b 9fbd 36ba f23d 352a 36bd 6302 2bbe
00000310: cef6 663d a272 223d a385 62bd 17a2 0f3e
00000320: 4d2d 113e 17c1 ee3d 4a95 bc3c db72 273e
00000330: f99d 0dbd 317a 233e 63d2 273e 17c5 15be
00000340: aa9c a5bd b67a a93b db87 a6bd 5fbc fcbc
00000350: b693 a8bd 54b6 29be 3408 9fbd 2301 21bd
00000360: ca6f 053e 9f47 c7bb b60f a9bc 4e7a 143e
00000370: 37ad 103d 81e8 47be 9255 313e 2557 2bbe
00000380: 7dc7 30be 769b 3cbe d860 543e 11b7 033e
00000390: d188 58bc 47fb dbbd 7dcd 513e af71 e03c
000003a0: 4e43 93bd ff11 f6bb 2ad5 b63d ea78 0bbe
000003b0: 21cb cd3d a158 253d d73e aabd 0a27 ccbd
000003c0: 8a27 6abe 5b55 52bd 740f 2c3d d953 1ebd
000003d0: 884f 4bbd b770 173e f17d fabb 67a6 d03d
000003e0: 095f c5bd 54e0 223d 1703 3bbd a460 e2bd
000003f0: 2dfa a8bc 9766 2bbd e5e4 c4bb 5377 f6bc

weight_hh_l0 f4 [96, 32]
0.008929331 0.10897241 0.08885921 -0.20497714 -0.035482615 -0.16978024 0.03418692 -0.19936672
0.17671965 -0.16653487 0.18847394 0.21849154 0.100687824 0.037431758 0.15715896 0.051542968
-0.0680331 0.0802239 0.09415126 0.009397398 0.061888557 -0.004435359 0.04721661 -0.13614042
0.0679687 0.0036027234 -0.24715328 0.04468451 -0.051394884 -0.01770118 0.15348792 -0.14476576
0.109929085 -0.0732448 0.045163143 0.20219555 -0.028894944 -0.08483942 -0.108873695 -0.15931866
0.008910371 0.15483998 0.109166585 -0.15578075 0.076226585 0.21268107 0.2107548 -0.17621809
-0.104715 -0.200468 0.15600152 0.15368684 0.017524304 -0.16968049 0.19847259 0.036651872
-0.20165144 0.07322668 0.038673993 -0.08823331 -0.038262367 -0.11252991 0.0590311 0.1553436
0.018333763 0.01474293 0.05112691 -0.1733474 0.11382726 -0.027698996 -0.0057311617 -0.2091968
0.11437939 0.04725607 0.19671904 0.016522642 -0.116248704 0.10419483 0.030836364 -0.21184954
0.055903062 0.1711319 -0.014883161 -0.039629154 -0.14385529 0.07382385 -0.09547245 -0.09963458
0.14738724 -0.057677153 0.008503542 0.03413651 -0.13060227 -0.05950231 -0.20654249 -0.26387283
0.049913242 -0.21043949 -0.21846743 -0.15797263 0.0071842712 0.19346994 0.1293079 0.041361336
0.1289904 0.082491376 -0.00028228114 -0.025269905 -0.100307606 0.03450302 0.08655659 -0.052637752
-0.100482024 0.19480929 0.02838396 -0.08656931 -0.084637724 0.06418224 0.09198803 -0.07074231
0.14210261 0.11206316 -0.10736818 -0.073739536 0.0028033701 -0.11655646 -0.14630309 0.030471742
-0.13763265 0.07819863 0.069233365 -0.056541286 -0.20955305 -0.0880573 -0.17906906 -0.11922451
0.14615396 0.16704889 0.13997869 -0.14093289 -0.20477082 0.13197128 0.068110496 -0.009066798
0.043952662 0.13229589 -0.0073233647 -0.123558335 -0.12827381 -0.0004660057 0.011408451 0.10234523
0.08986791 -0.17376192 -0.05398566 0.1315829 -0.0522877 0.124136 0.01584498 0.18289703
0.0445776 -0.083472185 0.16824529 -0.21794847 0.10434939 -0.063017346 -0.15153462 -0.11866294
0.029443918 -0.12022391 0.035645008 0.06101936 -0.2145725 -0.091941826 0.11403987 0.101846926
0.12741618 -0.047490127 0.1287922 0.045741968 -0.07928561 0.13065113 -0.23854072 0.1111769
-0.06391051 0.03275616 0.12459934 -0.16394988 -0.0018197498 0.011722526 0.016113814 -0.13613413
-0.17028126 0.06307435 -0.1903846 0.08297197 -0.007219622 0.13293314 -0.031757638 0.19828631
-0.2138908 0.14746134 0.098637596 -0.1251605 0.22674242 0.043800026 -0.17856051 -0.08921083
-0.15849152 -0.20127915 -0.21482047 0.09135603 0.0187451 -0.12573647 0.026768478 -3.7978218e-05
-0.14217126 -0.096985035 -0.0039304867 -0.14510252 -0.08796678 0.20176397 -0.0954987 -0.16127777
0.11015555 0.053864405 0.08044764 0.09131689 0.10885345 -0.15989463 -0.13989806 0.10639669
-0.014124976 0.1926904 -0.16028483 0.19020115 0.15658236 -0.1249117 0.0504834 -0.028333412
-0.17507021 0.082425915 0.01600773 -0.1245879 -0.11265548 0.122491635 -0.008497612 -0.09861398
0.117204785 -0.14498118 0.10817071 0.050035033 0.07725655 -0.027888583 -0.13435112 -0.011693617
00000000: 544c 123c ed2c df3d d1fb b53d 87e5 51be
00000010: 3856 11bd dfda 2dbe 9507 0c3d ca26 4cbe
00000020: fff5 343e 1e88 2abe 50ff 403e 3fbc 5f3e
00000030: 6b35 ce3d 0b52 193d 47ee 203e b81e 533d
00000040: f054 8bbd 6e4c a43d 60d2 c03d 8bf7 193c
00000050: db7e 7d3d 7d56 91bb 3466 413d 6568 0bbe
00000060: 2c33 8b3d ab1b 6c3b c015 7dbe 1b07 373d
00000070: 7183 52bd 1102 91bc f02b 1d3e 7a3d 14be
00000080: 8022 e13d 5f01 96bd fdfc 383d 5a0c 4f3e
00000090: 17b5 ecbc 4ac0 adbd 2cf9 debd 6e24 23be
000000a0: cefc 113c 5f8e 1e3e bb92 df3d fd84 1fbe
000000b0: af1c 9c3d 11c9 593e 1bd0 573e 8472 34be
000000c0: d174 d6bd 7c47 4dbe ddbe 1f3e 1560 1d3e
000000d0: 218f 8f3c b9c0 2dbe 663c 4b3e 4620 163d
000000e0: b77d 4ebe dff7 953d 9f68 1e3d aab3 b4bd
000000f0: 00b9 1cbd 1576 e6bd 98ca 713d 6512 1f3e
00000100: b030 963c 558c 713c 736a 513d fb81 31be
00000110: 441e e93d 01e9 e2bc 78cc bbbb b037 56be
00000120: be3f ea3d 958f 413d b770 493e 7e5a 873c
00000130: cd13 eebd 1964 d53d 8b9c fc3c 16ef 58be
00000140: 9cfa 643d 333d 2f3e 80d8 73bc 2e52 22bd
00000150: cd4e 13be f530 973d 0f87 c3bd 370d ccbd
00000160: aeec 163e e13e 6cbd 7152 0b3c bad2 0b3d
00000170: 9abc 05be b2b8 73bd e07f 53be 571a 87be
00000180: d471 4c3d 737d 57be edb5 5fbe 94c3 21be
00000190: 096a eb3b fc1c 463e 4a69 043e 816a 293d
000001a0: 0f16 043e 3df1 a83d 22ff 93b9 d502 cfbc
000001b0: 136e cdbd 0a53 0d3d 9544 b13d af9a 57bd
000001c0: 85c9 cdbd 167c 473e 7a85 e83c 404b b1bd
000001d0: 8b56 adbd fa71 833d 3864 bc3d 58e1 90bd
000001e0: 5983 113e 5f81 e53d d9e3 dbbd c104 97bd
000001f0: bfb8 373b 27b5 eebd 7ad0 15be e09f f93c
00000200: 93ef 0cbe 9a26 a03d 39ca 8d3d d697 67bd
00000210: 1395 56be 6357 b4bd e15d 37be fb2b f4bd
00000220: 62a9 153e dd0e 2b3e 9356 0f3e b650 10be
00000230: 71af 51be 7b23 073e 847d 8b3d e88c 14bc
00000240: b507 343d 9378 073e d6f8 efbb 270c fdbd
00000250: 365a 03be 3a52 f4b9 83ea 3a3c 609a d13d
00000260: ab0c b83d a5ee 31be 1120 5dbd abbd 063e
00000270: a12b 56bd 043b fe3d 55cd 813c 5c49 3b3e
00000280: 0097 363d 77f3 aabd 7e48 2c3e e22d 5fbe
00000290: 22b5 d53d 3d0f 81bd e42b 1bbe 8e05 f3bd
000002a0: 5f34 f13c f437 f6bd 8000 123d 70ef 793d
000002b0: e5b8 5bbe ff4b bcbd bc8d e93d 1f95 d03d
000002c0: 6379 023e 0285 42bd 1ae2 033e ee5b 3b3d
000002d0: 7e60 a2bd 69c9 053e 0544 74be b7b0 e33d
000002e0: 83e3 82bd 532b 063d f02d ff3d 7ae2 27be
000002f0: ac84 eeba d60f 403c 1e01 843c bf66 0bbe
00000300: 365e 2ebe 202d 813d 2ef4 42be 35ed a93d
00000310: 9492 ecbb a01f 083e 4c14 02bd 910b 4b3e
00000320: 3106 5bbe 1b00 173e 8202 ca3d 132a 00be
00000330: 2a2f 683e a867 333d 91d8 36be 2bb4 b6bd
00000340: 9a4b 22be 1f1c 4ebe e6f9 5bbe df18 bb3d
00000350: 538f 993c 10c1 00be 9149 db3c cd4a 1fb8
00000360: 5895 11be 17a0 c6bd 50cb 80bb c195 14be
00000370: ed27 b4bd 379b 4e3e d394 c3bd 0026 25be
00000380: 3c99 e13d eca0 5c3d bbc1 a43d 5a04 bb3d
00000390: 8fee de3d 6bbb 23be 7041 0fbe 82e6 d93d
000003a0: 716c 67bc a250 453e b521 24be 17c4 423e
000003b0: 2057 203e b5d1 ffbd aec7 4e3d 791b e8bc
000003c0: 9b45 33be ebce a83d a522 833c f127 ffbd
000003d0: ebb7 e6bd e5dc fa3d 9139 0bbc 20f6 c9bd
000003e0: 1009 f03d f275 14be 9b88 dd3d 89f1 4c3d
000003f0: af38 9e3d 9976 e4bc 5793 09be 9696 3fbc

bias_ih_l0 f4 [96]
-0.08603692 -0.091605246 -0.060234983 0.101457514 0.11252779 -0.08718389 -0.007503609 -0.05581066
-0.054328673 -0.056458957 0.23840909 0.09348732 -0.107485205 0.19326092 0.19250332 0.0033139158
0.13500203 0.12164475 -0.07528551 0.10298628 -0.10060989 0.030689066 0.28913933 -0.030956985
-0.11944166 0.0978832 0.076830246 0.1295074 0.11687253 0.017581552 0.15834527 0.06808209
-0.29157248 -0.02187375 -0.2956614 -0.057665333 -0.23455936 -0.110438205 -0.08725875 -0.021115985
0.047514923 0.0119195385 0.16858791 -0.07099763 -0.2522303 -0.1986571 -0.18984345 -0.23623388
-0.16290984 -0.015009232 -0.14754234 -0.27791712 -0.020272776 -0.022969576 -0.0066618314 -0.29064167
-0.15375283 -0.32617003 -0.08796732 -0.14711355 -0.09597395 -0.20535228 0.22469042 -0.0766336
0.12864964 0.05647511 0.125207 -0.11229306 -0.1392104 -0.14979468 0.17274709 0.08247371
-0.18235928 0.11976097 0.1293141 -0.11038335 0.07992383 -0.16008408 -0.13562079 0.016994542
0.059595775 0.15188517 -0.17107841 -0.11258222 0.066275015 0.024513528 -0.025710857 0.11369657
0.07861343 0.0616805 0.14116119 -0.22435834 -0.21313883 -0.13811976 0.092851095 -0.13758796
00000000: 2034 b0bd 889b bbbd f5b8 76bd f5c8 cf3d
00000010: f874 e63d 788d b2bd d6e0 f5bb b899 64bd
00000020: be87 5ebd 8241 67bd 8321 743e 4876 bf3d
00000030: 3421 dcbd 31e6 453e 971f 453e 482e 593b
00000040: f93d 0a3e e220 f93d 4a2f 9abd 79ea d23d
00000050: 8f0c cebd a367 fb3c 120a 943e 8199 fdbc
00000060: d49d f4bd fd76 c83d 2d59 9d3d 969d 043e
00000070: dd5a ef3d 3007 903c 4325 223e 9f6e 8b3d
00000080: fd48 95be 9430 b3bc ee60 97be 7c32 6cbd
00000090: 5430 70be 6d2d e2bd b7b4 b2bd 6efb acbc
000000a0: 029f 423d 2b4a 433c 4fa2 2c3e 3567 91bd
000000b0: 5424 81be c46c 4bbe 5266 42be 4be7 71be
000000c0: d6d1 26be 48e9 75bc 5715 17be 274b 8ebe
000000d0: 1813 a6bc b12a bcbc 7e4b dabb fcce 94be
000000e0: 6271 1dbe c2ff a6be 3628 b4bd efa4 16be
000000f0: fe8d c4bd de47 52be 3f15 663e 14f2 9cbd
00000100: bbbc 033e 7252 673d 4436 003e e7f9 e5bd
00000110: 2c8d 0ebe c763 19be 9de4 303e fae7 a83d
00000120: 64bc 3abe 3d45 f53d ea6a 043e aa10 e2bd
00000130: 1baf a33d 15ed 23be 2de0 0abe 2338 8b3c
00000140: b31a 743d c987 1b3e 2e2f 2fbe 8291 e6bd
00000150: 32bb 873d 98d0 c83c 939f d2bc bfd9 e83d
00000160: 1400 a13d b1a4 7c3d 8f8c 103e 31be 65be
00000170: 1141 5abe 446f 0dbe b728 be3d dce3 0cbe

bias_hh_l0 f4 [96]
-0.11579411 -0.097489744 0.04009823 -0.08084488 -0.16961649 0.09772787 0.06574762 -0.09121391
0.08626683 -0.20835342 0.13108787 0.20167777 0.03669153 0.1854343 -0.09291597 0.13848984
0.009978329 0.22898714 -0.11991885 0.006926001 0.08207451 -0.034863748 0.23790582 0.091189995
0.13278171 0.057375737 -0.0526441 0.07607261 0.1334405 0.120846085 -0.022466071 -0.15595703
-0.034705132 -0.040929433 -0.22753476 -0.13674966 -0.26829612 -0.21801516 0.10059154 0.026627272
0.012222492 0.0172311 -0.062207606 -0.277676 -0.042295378 0.05911127 0.0119774835 -0.24785435
-0.035988685 0.03627791 -0.17361286 -0.02181747 -0.04516639 -0.10724669 -0.23623586 -0.04445691
-0.27104634 -0.27234918 -0.19158727 -0.21647575 -0.11892861 -0.0318658 -0.022471804 -0.28103352
0.112403 0.026585834 -0.06934046 -0.07964242 0.039230146 0.018445008 0.079999104 0.1409364
0.07690668 0.1883803 0.28072688 0.043315925 -0.10668061 -0.015385537 -0.17712037 -0.019923465
0.050916497 -0.08252643 0.040544856 -0.006254439 0.1117318 0.04017656 -0.08464791 -0.14454618
-0.06758609 -0.20817286 0.11699606 -0.0791839 0.08714661 -0.014907956 0.077563226 0.1306583
00000000: 7625 edbd b4a8 c7bd 0b3e 243d 0092 a5bd
00000010: f2af 2dbe 8d25 c83d b0a6 863d 5cce babd
00000020: aaac b03d 995a 55be e63b 063e 9e84 4e3e
00000030: dc49 163d 7de2 3d3e ba4a bebd 48d0 0d3e
00000040: 257c 233c 9b7b 6a3e 0498 f5bd 82f3 e23b
00000050: ae16 a83d 4acd 0ebd 959d 733e d2c1 ba3d
00000060: eef7 073e d202 6b3d 57a1 57bd f5cb 9b3d
00000070: a0a4 083e 277e f73d c40a b8bc 33b3 1fbe
00000080: f826 0ebd 9fa5 27bd dffe 68be 1a08 0cbe
00000090: 1c5e 89be 5e3f 5fbe f002 ce3d 7021 da3c
000000a0: d940 483c 3c28 8d3c 67cd 7ebd 8c2b 8ebe
000000b0: eb3d 2dbd a91e 723d 353d 443c 88cd 7dbe
000000c0: df68 13bd 2598 143d 92c7 31be 8dba b2bc
000000d0: 6400 39bd 27a4 dbbd d0e7 71be 7318 36bd
000000e0: 96c6 8abe 5a71 8bbe 742f 44be d2ab 5dbe
000000f0: d890 f3bd b785 02bd ca16 b8bc a0e3 8fbe
00000100: 8b33 e63d 89ca d93c 5f02 8ebd 911b a3bd
00000110: caaf 203d fc19 973c 92d6 a33d a251 103e
00000120: 4081 9d3d c4e6 403e 6fbb 8f3e 0a6c 313d
00000130: 5d7b dabd 9f13 7cbc 0b5f 35be 8936 a3bc
00000140: d18d 503d 9e03 a9bd 5d12 263d 09f2 ccbb
00000150: a4d3 e43d 2d90 243d e25b adbd ea03 14be
00000160: 936a 8abd 442b 55be a19b ef3d 2b2b a2bd
00000170: ec79 b23d 8040 74bc 78d9 9e3d 4acb 053e

weight f4 [32, 32]
0.04909909 0.12405854 -0.03662199 -0.1984955 -0.12591267 0.18641782 -0.08046719 0.30622125
-0.396224 -0.07335319 0.36113834 0.16061042 0.30867788 0.4845625 -0.17948276 0.14050831
-0.33782175 -0.40101755 0.27335045 -0.25609824 0.0023234342 0.18234828 -0.361713 -0.063483104
-0.020312125 0.09288089 0.1445075 -0.29366863 0.21828288 0.13223952 -0.49122688 -0.4270388
-0.26695415 0.2750655 0.4622805 -0.15311655 0.3241938 -0.31737554 0.26625764 -0.14677498
0.49461985 -0.1518335 0.245109 0.077207215 0.42077532 -0.56114763 -0.22672775 -0.2469326
0.09820307 0.17032097 0.017285133 0.05575028 0.024238074 0.068028554 0.012669221 0.05594004
0.0058309 0.059012372 -0.38788223 0.09464062 -0.3955764 0.44953552 0.24145001 0.3219431
0.04017804 0.036870483 0.10383419 -0.16937627 -0.18406163 0.089096196 -0.31428298 -0.37159118
-0.19699591 0.15483847 -0.124553666 -0.08822706 0.1806698 -0.15284471 0.372551 -0.41107082
0.2957198 -0.089786045 -0.18424788 0.35977754 0.41190934 -0.24817431 -0.11887575 -0.045810226
-0.030555395 -0.035452668 0.41811928 -0.1099712 0.1152361 -0.1919712 0.33726752 0.006779258
0.22498067 0.2517685 0.37282753 -0.21809196 -0.08772551 -0.10710496 -0.014888559 -0.1621796
-0.064443484 -0.40126196 -0.007892118 -0.06776275 0.3462705 -0.19548649 0.3666438 0.2086045
0.36218697 -0.033436604 -0.05593105 -0.21266636 -0.05649137 0.121737726 0.15477057 -0.19479522
0.5225756 -0.29984373 -0.10161359 -0.23231079 -0.22135015 -0.13825454 0.3880819 -0.25830698
-0.3043527 -0.24014892 0.5118348 0.18736342 -0.37128073 -0.36800957 0.054047063 -0.271534
-0.31745905 0.12545343 0.22104123 -0.4299186 0.5129488 0.28497356 0.007169225 0.2828391
0.2512458 0.43954444 -0.02446406 -0.59648985 -0.0053275987 -0.27228406 -0.5056291 0.31726158
0.3228359 -0.2085382 -0.2962257 0.29484695 -0.39094546 -0.17975906 0.30933663 -0.32524326
0.33213982 -0.106239684 -0.3261517 -0.17767663 0.3479687 0.51094955 -0.37908238 0.04373136
-0.094733775 0.0889081 0.09840379 -0.17203327 -0.045470875 -0.22427857 0.29812497 -0.36437133
0.4832411 -0.04849674 -0.13614278 0.3072686 -0.0827986 0.3010495 0.115250394 -0.16819464
0.14477362 0.18042019 -0.40561518 0.15208094 -0.11433501 -0.0606024 -0.12417897 0.24165504
0.019790256 -0.42930058 -0.22460139 -0.49530536 -0.019919602 0.22287005 0.37969476 0.095216274
0.125121 -0.28439802 0.053081278 -0.15022413 0.45050576 -0.06840383 -0.47634602 -0.2623445
0.063996695 0.2675745 0.27498892 0.028966416 -0.48699608 0.38706565 -0.57950306 -0.1127424
-0.23320374 -0.1776051 0.25138178 -0.35006765 -0.35952508 -0.062076483 -0.1532041 0.24771371
-0.22279298 -0.00698581 -0.18971337 0.1504361 -0.099695496 -0.07773685 0.23178911 -0.36701196
0.23980795 0.2589409 0.3855709 0.30081698 -0.49516615 -0.422017 0.34464863 0.24787228
-0.025461808 0.42069238 -0.033757586 0.2725884 -0.34014976 0.16877851 -0.37222898 -0.016805736
0.5204146 0.16250046 -0.30774122 -0.07755764 -0.3481491 -0.100125425 0.29840633 -0.18909031
00000000: 211c 493d 6712 fe3d f100 16bd 6842 4bbe
00000010: 40ef 00be 50e4 3e3e fbcb a4bd 08c9 9c3e
00000020: dfdd cabe 333a 96bd 20e7 b83e 0f77 243e
00000030: 070b 9e3e 9318 f83e 54ca 37be 69e1 0f3e
00000040: f9f6 acbe 2c52 cdbe 97f4 8b3e 4f1f 83be
00000050: c244 183b 82b9 3a3e 7232 b9be 6e03 82bd
00000060: 9d65 a6bc 5638 be3d c6f9 133e bc5b 96be
00000070: 8c85 5f3e cc69 073e 1782 fbbe d4a4 dabe
00000080: 37ae 88be 63d5 8c3e 08b0 ec3e 96ca 1cbe
00000090: bbfc a53e 0c7f a2be ec52 883e 2e4c 16be
000000a0: d03e fd3e 3e7a 1bbe dbfd 7a3e d11e 9e3d
000000b0: dd6f d73e 5fa7 0fbf 522b 68be e6db 7cbe
000000c0: b11e c93d 9f68 2e3e 8d99 8d3c 685a 643d
000000d0: ed8e c63c 8e52 8b3d 9092 4f3c 6221 653d
000000e0: 2211 bf3b f5b6 713d 8098 c6be f1d2 c13d
000000f0: fd88 cabe 8529 e63e ac3e 773e bad5 a43e
00000100: ba91 243d 8105 173d 05a7 d43d f970 2dbe
00000110: a77a 3cbe 1178 b63d b3e9 a0be 3341 bebe
00000120: 4cb9 49be fa8d 1e3e fe15 ffbd 64b0 b4bd
00000130: 8101 393e 5383 1cbe 01bf be3e e077 d2be
00000140: 9668 973e bfe1 b7bd 7aab 3cbe c334 b83e
00000150: c8e5 d23e 6821 7ebe 2175 f3bd 81a3 3bbd
00000160: 4f4f fabc d136 11bd bb13 d63e 9538 e1bd
00000170: e800 ec3d 1994 44be 54ae ac3e 8a24 de3b
00000180: 5561 663e cde7 803e 40e3 be3e 8053 5fbe
00000190: 6fa9 b3bd d859 dbbd 24ef 73bc 6912 26be
000001a0: f2fa 83bd 3572 cdbe f14d 01bc 32c7 8abd
000001b0: 5e4a b13e 9c2d 48be bcb8 bb3e 6b9c 553e
000001c0: 9270 b93e d2f4 08bd f517 65bd 36c5 59be
000001d0: 7f63 67bd a151 f93d 2d7c 1e3e 6678 47be
000001e0: 84c7 053f 1e85 99be c91a d0bd e1e2 6dbe
000001f0: 9da9 62be 9992 0dbe acb2 c63e d040 84be
00000200: 1ed4 9bbe 99e9 75be 9b07 033f 32dc 3f3e
00000210: 8218 bebe c06b bcbe 7460 5d3d 8106 8bbe
00000220: fe89 a2be dd76 003e a258 623e 4a1e dcbe
00000230: 9d50 033f 0ee8 913e d1eb ea3b 49d0 903e
00000240: 4aa3 803e f80b e13e da68 c8bc 8fb3 18bf
00000250: 2393 aebb d168 8bbe e970 01bf 1c70 a23e
00000260: bf4a a53e 0a8b 55be e5aa 97be 2ef6 963e
00000270: 012a c8be c212 38be 5f61 9e3e 4986 a6be
00000280: 3b0e aa3e 3194 d9bd 5bfd a6be ddf0 35be
00000290: f428 b23e 97cd 023f 1617 c2be a81f 333d
000002a0: c803 c2bd 7315 b63d ed87 c93d 7d29 30be
000002b0: ab3f 3abd 48a9 65be d6a3 983e e18e babe
000002c0: 616b f73e 85a4 46bd 0369 0bbe 4f52 9d3e
000002d0: 5092 a9bd 2923 9a3e 6608 ec3d 373b 2cbe
000002e0: 893f 143e 12c0 383e cbac cfbe 1bbb 1b3e
000002f0: 7928 eabd 393a 78bd 8b51 febd 6b74 773e
00000300: 2d1f a23c 49cd dbbe e8fd 65be aa98 fdbe
00000310: 6f2e a3bc 0c38 643e 5a67 c23e c000 c33d
00000320: b81f 003e 9e9c 91be c16b 593d 5bd4 19be
00000330: b1a8 e63e 4f17 8cbd a0e3 f3be 0552 86be
00000340: b310 833d 86ff 883e 59cb 8c3e fa4a ed3c
00000350: 8d57 f9be 782d c63e 505a 14bf 7de5 e6bd
00000360: f6cc 6ebe 1dde 35be 1db5 803e 113c b3be
00000370: ac13 b8be e943 7ebd 89e1 1cbe aaa8 7d3e
00000380: d823 64be 39e9 e4bb 3944 42be ec0b 1a3e
00000390: 272d ccbd 7f34 9fbd 205a 6d3e fee8 bbbe
000003a0: 3790 753e e793 843e 8d69 c53e af04 9a3e
000003b0: 6b86 fdbe 9d12 d8be c975 b03e 3bd2 7d3e
000003c0: 4895 d0bc fe64 d73e 6545 0abd b590 8b3e
000003d0: 1c28 aebe 46d4 2c3e cc94 bebe 2fac 89bc
000003e0: e439 053f 8566 263e 4290 9dbe 8ad6 9ebd
000003f0: 9940 b2be 8f0e cdbd b7c8 983e e4a0 41be

bias f4 [32]
0.030736556 0.13546012 -0.04289063 0.07317978 0.09857797 0.021189375 0.08933116 0.064882115
0.06904516 0.030942058 0.022124127 0.04479942 0.022272222 -0.0097402455 -0.0050407364 0.016205557
0.047818232 -0.08776504 0.050934177 -0.0334205 -0.017744089 0.076410815 0.03605155 0.07209035
0.017592384 0.06358193 0.04293837 0.08331803 0.025207557 0.016497934 0.028929844 0.10728379
00000000: 3bcb fb3c 0fb6 0a3e 16ae 2fbd 48df 953d
00000010: 3fe3 c93d 5795 ad3c 41f3 b63d eae0 843d
00000020: 8d67 8d3d 337a fd3c a83d b53c 997f 373d
00000030: 3c74 b63c 8d95 1fbc c32c a5bb 84c1 843c
00000040: 0ddd 433d 28be b3bd 5ba0 503d efe3 08bd
00000050: 0d5c 91bc 467d 9c3d caaa 133d 1ba4 933d
00000060: e71d 903c 3e37 823d 25e0 2f3d a5a2 aa3d
00000070: 1480 ce3c ad26 873c 48fe ec3c 9bb7 db3d

weight f4 [5, 32]
-0.4028306 0.5341953 -0.011342434 0.20072067 0.22238721 -0.17161293 0.43291685 -0.2453994
-0.43657023 0.3345659 -0.25605682 0.2314519 -0.14192349 0.0668601 0.18047121 0.07482321
0.48726213 -0.15944284 0.040291395 0.32810873 -0.06552422 -0.352823 0.023938356 0.24580504
-0.3576085 -0.28976968 -0.12145364 -0.08243328 -0.4473363 0.10436866 0.3919563 0.17720202
0.3942521 -0.54158837 -0.36486626 -0.30352235 -0.49379885 -0.0069961767 -0.25305095 -0.21513674
0.17425583 0.29780373 -0.25395882 0.34119284 -0.026053218 -0.054176696 -0.15849279 -0.38823995
0.2632744 0.10037445 0.1212726 -0.27836347 0.13456704 -0.0915031 0.34517264 -0.17695725
-0.12568563 -0.2360722 -0.36318427 0.14276119 0.41278645 -0.3837 0.14317572 -0.32000384
0.3353345 -0.25649557 0.3236994 -0.24992254 -0.14877531 0.09914192 0.17772451 -0.06978685
0.48584726 -0.34136075 -0.37663636 0.4573353 -0.14191294 -0.26846877 0.18023412 -0.38050207
-0.1084217 0.03331095 0.05233684 0.30112556 -0.054732945 0.108077414 0.1374324 -0.22536257
0.44078854 0.06598039 0.3257521 0.03811245 -0.05409721 0.28739706 0.1453712 0.22636434
-0.5363441 0.22863948 0.21119717 -0.30664453 -0.13194735 -0.14440049 -0.40066797 -0.5145356
0.15237087 -0.54776436 0.09831639 -0.058083404 0.2336266 0.1876142 0.3791256 0.20089978
-0.03726339 -0.14212854 0.040519115 0.11550907 0.009885695 -0.41879445 -0.10583553 -0.38165212
0.2544647 -0.0046231262 0.097918 0.23778675 -0.27293 0.17447011 0.07402422 -0.25998512
-0.26182294 0.2548994 0.03168582 0.02022066 -0.50219953 0.3066853 0.08823233 0.10636912
-0.5013088 -0.23612581 0.49949852 -0.3412161 0.46079376 -0.53632927 0.17022413 -0.33840966
0.018094638 0.17659754 -0.27565694 -0.34656987 0.3164597 -0.18695657 -0.111301936 0.41177884
-0.34889776 0.30550033 0.4663865 0.40906215 -0.3995429 0.2631055 -0.32418254 -0.58912814
00000000: d03f cebe 06c1 083f 9ed5 39bc b889 4d3e
00000010: 79b9 633e 4dbb 2fbe 47a7 dd3e fb49 7bbe
00000020: 2286 dfbe 394c ab3e e119 83be ba01 6d3e
00000030: 6454 11be f3ed 883d 72cd 383e e93c 993d
00000040: 6c7a f93e fc44 23be 9708 253d defd a73e
00000050: 9031 86bd 37a5 b4be 5f1a c43c 51b4 7b3e
00000060: 7618 b7be b15c 94be b0bc f8bd c8d2 a8bd
00000070: 4309 e5be 3cbf d53d 7fae c83e 7274 353e
00000080: 69db c93e 89a5 0abf c0cf babe 4867 9bbe
00000090: 34d3 fcbe 2f40 e5bb e58f 81be ce4c 5cbe
000000a0: 1f70 323e bb79 983e e406 82be d4b0 ae3e
000000b0: 8f6d d5bc 62e8 5dbd ef4b 22be 63c7 c6be
000000c0: e7cb 863e 1f91 cd3d c55d f83d a885 8ebe
000000d0: f1cb 093e fa65 bbbd 78ba b03e 4834 35be
000000e0: bcb3 00be e9bc 71be 4af3 b9be fd2f 123e
000000f0: bf58 d33e 5474 c4be a89c 123e 8bd7 a3be
00000100: f7b0 ab3e 6353 83be eebb a53e b2eb 7fbe
00000110: 8e58 18be eb0a cb3d 6afd 353e 68ec 8ebd
00000120: f9c0 f83e d6c6 aebe 7bd6 c0be da27 ea3e
00000130: a051 11be bd74 89be 4b8f 383e 2bd1 c2be
00000140: 320c debd 1071 083d 285f 563d 212d 9a3e
00000150: a72f 60bd b157 dd3d 14bb 0c3e 72c5 66be
00000160: 09af e13e ba20 873d fbc8 a63e cd1b 1c3d
00000170: 0995 5dbd b525 933e 30dc 143e 0ecc 673e
00000180: d94d 09bf 7820 6a3e 1244 583e 8300 9dbe
00000190: 351d 07be b9dd 13be 5a24 cdbe 9bb8 03bf
000001a0: 1c07 1c3e 493a 0cbf 1a5a c93d dde8 6dbd
000001b0: d03b 6f3e f01d 403e c01c c23e acb8 4d3e
000001c0: 7fa1 18bd 258a 11be 5ff7 253d 0590 ec3d
000001d0: 9cf7 213c 3a6c d6be 4cc0 d8bd e867 c3be
000001e0: 3249 823e 987d 97bb 3b89 c83d 5f7e 733e
000001f0: 7bbd 8bbe 4ba8 323e 039a 973d c51c 85be
00000200: a80d 86be 2d82 823e fec8 013d cca5 a53c
00000210: 2690 00bf db05 9d3e 27b3 b43d 0ed8 d93d
00000220: c655 00bf f7ca 71be 45be ff3e e0b3 aebe
00000230: 29ed eb3e e04c 09bf 3c4f 2e3e 0844 adbe
00000240: 353b 943c fcd5 343e e822 8dbe 9b71 b1be
00000250: 0107 a23e 8b71 3fbe 45f2 e3bd add4 d23e
00000260: baa2 b2be 8a6a 9c3e 36ca ee3e 9870 d13e
00000270: e390 ccbe c4b5 863e 41fb a5be 1ad1 16bf

bias f4 [5]
0.03911734 -0.019374346 0.02421298 -0.14716116 0.02026047
00000000: 8139 203d f3b6 9ebc 4d5a c63c 6ab1 16be
00000010: 49f9 a53c
