visualization/policy_nns/OSD_T/4R383827/agent_2.pt (torch, 42049 bytes, 12 tensors)

weight f4 [32, 23]
0	0x3f1b5ca2	0.6068822
1	0xbf0b1359	-0.543264
2	0xbf017b6e	-0.50578964
3	0x3ea5bab2	0.32369
4	0x3e487250	0.19574857
5	0x3e6452fb	0.2229728
6	0x3e0e2904	0.13882834
7	0x3e8067f7	0.2507932
8	0x3e445895	0.19174416
9	0x3e8ad617	0.27116463
10	0x3ca73bbc	0.020414226
11	0xbeca1e93	-0.3947645
12	0x3e0fd1d8	0.14044893
13	0x3e88f0df	0.2674627
14	0xbe73a32e	-0.23792717
15	0xbe4a14eb	-0.19734542
16	0x3e4c4ce7	0.19951211
17	0x3eafbf92	0.34325844
18	0x3e6c1bcb	0.23057477
19	0xbe8f4472	-0.27981907
20	0x3e3f8383	0.18702511
21	0x3ec4a118	0.38404155
22	0xbe5d6359	-0.2161993
23	0xbe039976	-0.1285151
24	0x3e8afa5d	0.27144137
25	0xbed20e0c	-0.41026342
26	0x3ddb4ea2	0.107083574
27	0xbe1fd57b	-0.1560878
28	0xbf0beb27	-0.5465569
29	0xbcd8eeae	-0.026480999
30	0xbe4df15d	-0.20111604
31	0x3e9715e0	0.29508877
32	0xbec4d52e	-0.38443893
33	0xbef0b15c	-0.47010314
34	0xbe3ba9d9	-0.1832651
35	0x3e50f15b	0.2040457
36	0x3e339eb8	0.17541015
37	0xbe072972	-0.13199404
38	0xbe503593	-0.20332937
39	0xbe97fbb7	-0.2968423
40	0xbeb0bc37	-0.34518597
41	0x3f0294da	0.5100838
42	0x3eae97a1	0.3410006
43	0xbd99460b	-0.07484063
44	0x3e131a8a	0.14365593
45	0x3c6eb205	0.01456881
46	0x3d0447bc	0.032294974
47	0x3df35284	0.11880973
48	0xbe674ee7	-0.22588693
49	0x3eb9b5b5	0.36271444
50	0xbe486e7b	-0.19573395
51	0x3e39a05e	0.18127581
52	0x3eec4b97	0.4615142
53	0xbef331ad	-0.47498837
54	0xbeac6e93	-0.3367811
55	0x3d80f5aa	0.06296857
56	0x3e344ac4	0.17606646
57	0xbe07fbce	-0.1327965
58	0xbba5c365	-0.0050586932
59	0xbe4b5225	-0.19855554
60	0x3f14901e	0.58032405
61	0xbea40d05	-0.32041183
62	0x3dc1efd4	0.09469572
63	0xbec4c9e9	-0.38435295
64	0xbc8ea6c9	-0.017413514
65	0x3de1e9a3	0.11030891
66	0xbe87facb	-0.26558527
67	0x3efce5d5	0.49394098
68	0xbda744bf	-0.08167409
69	0xbf04682e	-0.51721466
70	0x3ed6c10f	0.41944167
71	0xbe5012c7	-0.20319663
72	0xbd0f134c	-0.034930512
73	0x3cac99fc	0.02106952
74	0xbdaafac8	-0.08348614
75	0x3ea6ba7e	0.32564157
76	0xbdde2d47	-0.1084848
77	0xbe09e8c1	-0.13467695
78	0x3e249b6a	0.16074911
79	0xbe2ef067	-0.17083894
80	0x3ddc52a0	0.10757947
81	0x3e97b2d0	0.2962861
82	0x3ef3adb2	0.47593457
83	0xbe8f1a8a	-0.27949935
84	0x3e85e246	0.26149195
85	0x3e9ef607	0.3104708
86	0x3e0a461d	0.13503309
87	0x3d0fd0c6	0.03511121
88	0xbe8d710b	-0.27625307
89	0xbe83870e	-0.25688976
90	0xbec0734f	-0.37587973
91	0xbe5e577d	-0.21713062
92	0x3b681703	0.0035414107
93	0xbe9b8d72	-0.30381352
94	0xbe230930	-0.15921474
95	0xbe0b0b51	-0.13578536
96	0xbee290c9	-0.44251087
97	0xbeae16c2	-0.34001738
98	0x3e35ad9c	0.17742008
99	0x3e4e080a	0.20120254
100	0x3ec28ef6	0.37999696
101	0xbd6bfd3c	-0.05761455
102	0x3ed62686	0.41826266
103	0x3e0674d8	0.1313051
104	0x3ec86ea1	0.39146903
105	0xbeca9266	-0.39564818
106	0xbee9ba0e	-0.4564976
107	0x3ca6d5de	0.020365652
108	0xbddd48a2	-0.10804869
109	0x3bec01b8	0.0072023533
110	0xbe8e68b5	-0.2781426
111	0xbda4884f	-0.08033811
112	0xbe64fcbf	-0.2236204
113	0xbe418a84	-0.18900496
114	0x3ed6b2cc	0.41933286
115	0xbea151e5	-0.31507793
116	0xbe4f8770	-0.20266509
117	0xbea3a6b2	-0.31963116
118	0xbe90bc53	-0.2826868
119	0x3d4bb108	0.049729377
120	0xbe4693e8	-0.1939236
121	0xbd353ebb	-0.044249278
122	0x3e196153	0.14978532
123	0x3ed4c8aa	0.41559345
124	0xbdeed9a7	-0.11662608
125	0xbea9278f	-0.33037993
126	0xbeefd7d2	-0.46844345
127	0xbe8eccfd	-0.2789077
128	0x3f140a7d	0.57828504
129	0x3d1f0a75	0.038828332
130	0xbebc1d71	-0.36741212
131	0x3e64c6c0	0.22341442
132	0x3f1856df	0.59507555
133	0x3de97200	0.11398697
134	0x3ec800e7	0.39063188
135	0x3e1653dd	0.14680429
136	0xbe7de098	-0.24792707
137	0xbee104d7	-0.43949005
138	0xbcec4b22	-0.02884442
139	0xbd85342c	-0.065040916
140	0xbcf8eaae	-0.030385341
141	0xbdc70812	-0.09718336
142	0xbebb0c0f	-0.36532637
143	0x3e90a4c5	0.2825071
144	0xbec4f0ae	-0.38464874
145	0x3db573a4	0.08859947
146	0x3dd43429	0.10361511
147	0x3ef9908d	0.48743096
148	0xbe4d9092	-0.2007468
149	0xbed0db75	-0.40792432
150	0xbdd0f9c2	-0.102038875
151	0x3ee8ed9a	0.45493776
152	0xbd25e412	-0.040500708
153	0x3e49c2ef	0.19703268
154	0x3e8a056c	0.26957262
155	0x3ed1cdd5	0.4097735
156	0xbe38fbd1	-0.1806481
157	0x3e2ff32a	0.17182603
158	0xbd3372b8	-0.043810576
159	0xbeeac642	-0.45854384
160	0xbee77d66	-0.4521286
161	0x3c9970cd	0.018730545
162	0xbe075236	-0.13214955
163	0xbe14a537	-0.1451615
164	0x3e87ea63	0.2654601
165	0xbd6e6c17	-0.05820855
166	0x3ec79914	0.38983977
167	0xbd070c5d	-0.032970775
168	0xbdb2466d	-0.08704839
169	0xbd04acf8	-0.03239152
170	0xbe91037a	-0.28322965
171	0xbeacd2e2	-0.3375464
172	0xbe61d68d	-0.22054501
173	0x3e66d95f	0.22543858
174	0x3f088d6b	0.53340787
175	0x3efaadfe	0.4896087
176	0xbeba201c	-0.36352623
177	0xbe1bd3c8	-0.15217507
178	0xbeab0cdc	-0.33408248
179	0xbd7426b2	-0.059607215
180	0xbe2108b3	-0.15725975
181	0x3ed3ed78	0.41392112
182	0x3d67a135	0.056550223
183	0xbe552c57	-0.20817696
184	0xbc853581	-0.016260864
185	0xbe0e918f	-0.13922714
186	0x3e76abd6	0.24088988
187	0x3edaf8b5	0.42767873
188	0xbebb2a11	-0.36555532
189	0xbe79ace8	-0.24382365
190	0x3e8d325b	0.2757748
191	0xbea20116	-0.31641454
192	0x3e85f453	0.26162967
193	0xbe5574ef	-0.20845388
194	0xbdd6faad	-0.10497031
195	0xbd425df6	-0.04745289
196	0x3eaa9d31	0.33323053
197	0xbdba3256	-0.09091632
198	0x3ebcae0b	0.36851534
199	0x3eef2a7b	0.46712098
200	0xbd9d425d	-0.076786734
201	0x3e90377a	0.28167325
202	0x3e71039a	0.2353653
203	0xbee996a6	-0.45622748
204	0xbe829b05	-0.25508896
205	0xbe370e4c	-0.17876548
206	0x3f059b08	0.52189684
207	0xbdb733f0	-0.08945453
208	0xbe2ee427	-0.1707922
209	0xbe723fb3	-0.23657112
210	0xbdfed48a	-0.12442882
211	0x3b98e218	0.0046656244
212	0x3e9a88fd	0.3018264
213	0x3dc23c0e	0.09484111
214	0x3e46b404	0.19404608
215	0xbe09a24e	-0.1344082
216	0xbe76378d	-0.24044628
217	0xbc0411cc	-0.008060884
218	0x3ed35bdd	0.41281024
219	0x3d28c178	0.04120013
220	0x3dfcdc83	0.12346747
221	0x3de014f5	0.10941497
222	0x3ee9e0e5	0.45679393
223	0xbddd48bd	-0.10804889
224	0xbe86bcbf	-0.26315877
225	0xbea641cd	-0.32472077
226	0xbea3eeaf	-0.3201804
227	0xbd5ecbef	-0.054393705
228	0xbe49b11c	-0.19696468
229	0xbe7d4a5f	-0.24735402
230	0x3e4200d9	0.18945636
231	0xbe99dba4	-0.30050385
232	0x3edfb875	0.43695417
233	0x3e8f678a	0.28008682
234	0x3dcb0b6f	0.0991429
235	0xbe6e0459	-0.23243846
236	0x3e85509f	0.26038072
237	0xbe365890	-0.17807221
238	0xbec5c5d7	-0.38627502
239	0xbecabe40	-0.39598274
240	0xbe7b0abd	-0.24515815
241	0x3cf74c0c	0.03018763
242	0xbe1ce4f8	-0.1532172
243	0xbec0f0f2	-0.37683827
244	0x3f01708b	0.5056235
245	0xbc87708a	-0.016533155
246	0xbbef3549	-0.0073000533
247	0x3c78bcb2	0.015181707
248	0xbe1751b9	-0.14777268
249	0x3e8a8d0c	0.27060735
250	0x3c715741	0.014730276
251	0x3ee6b58c	0.45060384
252	0x3c0ce9f5	0.008600702
253	0xbe6b860c	-0.23000354
254	0xbeb2afa9	-0.34899643
255	0x3b530d73	0.0032204061

bias f4 [32]
0	0x3d82118c	0.06351003
1	0x3cb9b261	0.022668066
2	0x3e3cc16a	0.18433157
3	0x3d830b8d	0.063986875
4	0xbdb9a4ad	-0.090646125
5	0x3e06471a	0.1311306
6	0x3ce82a98	0.028340623
7	0x3c06747d	0.008206484
8	0x3d996ed1	0.0749184
9	0x3de2687c	0.11055085
10	0xbb3f7909	-0.002921643
11	0x3d50f8f7	0.05101868
12	0x3dc0f7d3	0.09422269
13	0x3d09216c	0.03347914
14	0xbd6c7ef0	-0.057738245
15	0x3e0cce55	0.13750584
16	0xbd238c49	-0.03992871
17	0x3da960db	0.08270427
18	0x3d663b39	0.056208823
19	0x3dad2beb	0.08455642
20	0x3d86eadf	0.06587767
21	0x3d079c6c	0.03310816
22	0x3dd458be	0.10368489
23	0x3d0b31b8	0.033982962
24	0x3cde6dd8	0.027151987
25	0xbb76ec42	-0.0037677442
26	0x3dba1f11	0.09087957
27	0x3cc058dd	0.023479873
28	0x3d7ad0aa	0.061234154
29	0x3d0345f2	0.032049127
30	0x3dda6ab4	0.10664883
31	0xbcda2cf5	-0.026632765

weight f4 [32, 32]
0	0x3e640bbd	0.22270103
1	0xbeb227f5	-0.3479611
2	0x3f073030	0.52807903
3	0xbd818eee	-0.0632609
4	0xbe82b905	-0.25531784
5	0xbf049596	-0.5179075
6	0x3ebe9e17	0.37229988
7	0x3edf0bd2	0.43563706
8	0x3e95fe75	0.29295698
9	0x3c2fd8e1	0.01073286
10	0x3df7ad7f	0.12093639
11	0x3d07fe24	0.03320135
12	0x3e08cfae	0.13360474
13	0xbdb92ef6	-0.0904216
14	0xbce5dd69	-0.028059678
15	0xbdc3ed8a	-0.09566791
16	0xbdc9fd54	-0.09862772
17	0xbecfb13d	-0.4056491
18	0x3ee4c3e1	0.44680694
19	0xbe9be8d3	-0.30451068
20	0x3ed87d6b	0.42283186
21	0x3cba23c4	0.022722133
22	0x3eb4df6f	0.35326716
23	0xbedc9e87	-0.43089697
24	0x3c97249b	0.018450072
25	0xbe0beb32	-0.13663939
26	0x3da85268	0.08218843
27	0x3e8a0f9e	0.2696504
28	0x3ea6a277	0.32545826
29	0x3c93bd1b	0.018034508
30	0x3e668c0b	0.2251436
31	0x3ec77aef	0.38960978
32	0xbdbe4eb6	-0.09292357
33	0x3ecf9c03	0.40548715
34	0x3ec443ee	0.38333076
35	0x3e35b985	0.17746551
36	0xbd22f475	-0.039783914
37	0x3deb97d9	0.11503572
38	0x3e6bbedc	0.23022026
39	0x3eab4330	0.33449697
40	0x3ea86255	0.3288752
41	0xbe2fa14b	-0.17151372
42	0x3e15d61b	0.14632456
43	0xbe976f50	-0.29577112
44	0xbea3d644	-0.3199941
45	0x3eebc064	0.4604522
46	0xbeaaf559	-0.3339031
47	0xbea4b32a	-0.3216794
48	0xbe96b802	-0.29437262
49	0xbe28507a	-0.1643695
50	0xbe99a805	-0.30011
51	0x3ed2cfb4	0.4117409
52	0x3e996d49	0.2996619
53	0x3ec40382	0.38283926
54	0xbe85adf9	-0.26109293
55	0xbdb85f8a	-0.09002598
56	0xbdcd2883	-0.100174926
57	0xbe4686af	-0.19387315
58	0x3eba7007	0.36413595
59	0xbe881893	-0.2658125
60	0x3e3d7cce	0.1850464
61	0x3e6bc9ae	0.23026153
62	0xbe83e822	-0.2576304
63	0xbd92ec85	-0.07174019
64	0x3e790fd3	0.24322443
65	0x3de8bd80	0.11364269
66	0xbc74847c	-0.014924165
67	0x3cd75f09	0.026290433
68	0xbdcb8fcc	-0.099395365
69	0xbed6c85a	-0.4194973
70	0xbefabf6a	-0.48974162
71	0xbd921932	-0.07133712
72	0x3e6dfdd0	0.23241353
73	0xbe8d3880	-0.2758217
74	0xbd59b82e	-0.053154163
75	0x3d829de9	0.06377775
76	0x3dda7d86	0.10668473
77	0x3d3a6f50	0.045516312
78	0x3e4d2f59	0.20037593
79	0xbe853e83	-0.26024255
80	0xbd014916	-0.03156384
81	0x3e149085	0.14508255
82	0x3ea69320	0.32534122
83	0xbea186d8	-0.3154819
84	0xbd3f51b1	-0.046708766
85	0x3edcd847	0.43133757
86	0x3edc64ef	0.43045756
87	0xbe486f3c	-0.19573683
88	0x3ef4d61c	0.47819602
89	0xbd86677f	-0.06562709
90	0xbe9747af	-0.29546878
91	0xbd490c1c	-0.049083814
92	0x3e52ff31	0.2060516
93	0x3e1408d8	0.14456499
94	0xbe16ef88	-0.14739811
95	0xbd1bea0c	-0.038065
96	0x3dd3abdf	0.10335516
97	0xbe3f746e	-0.18696758
98	0x3da546a5	0.08070115
99	0x3ea6a66e	0.3254885
100	0xbd9bb6f1	-0.07603253
101	0x3e507519	0.20357169
102	0xbe6e26a8	-0.23256934
103	0xbe6097df	-0.21932934
104	0x3e56168d	0.2090704
105	0xbdf5217a	-0.11969276
106	0xbdc45c85	-0.09587959
107	0x3efb5e85	0.4909555
108	0xbeef3e58	-0.46727252
109	0x3dbf2104	0.09332469
110	0xbb1811d9	-0.0023203997
111	0x3eb64099	0.3559616
112	0x3da4cf4b	0.080473505
113	0xbe9adb73	-0.3024555
114	0x3ce43265	0.027856061
115	0x3eda0eee	0.42589515
116	0x3db247fa	0.08705135
117	0x3ea4b581	0.32169726
118	0xbe21b38e	-0.15791151
119	0x3e84c3dd	0.25930682
120	0xbed6006d	-0.417972
121	0x3f03990e	0.5140542
122	0x3e026008	0.12731946
123	0x3db6b369	0.089209385
124	0x3ec5991a	0.3859337
125	0x3e52e2b1	0.20594288
126	0x3e9f5890	0.31122255
127	0x3e3c1629	0.18367828
128	0xbd635868	-0.055504233
129	0x3e81571d	0.25261775
130	0x3bd0a32c	0.006367108
131	0x3e701855	0.23446782
132	0xbe88e152	-0.26734406
133	0x3e98cedd	0.29845324
134	0x3d7d6e55	0.0618728
135	0x3e01a955	0.12662251
136	0xbdf518d2	-0.11967625
137	0x3d61341a	0.05498133
138	0x3e2b41db	0.1672434
139	0xbeab934e	-0.33510822
140	0x3d603692	0.054739542
141	0x3df9c481	0.12195683
142	0x3e887c15	0.26657167
143	0x3e899d11	0.26877645
144	0xbe282cf2	-0.16423395
145	0xbd9d84df	-0.07691359
146	0x3ec2e102	0.38062292
147	0x3e831659	0.25602987
148	0xbed8c790	-0.42339754
149	0xbe050de1	-0.12993576
150	0xbe35051d	-0.17677732
151	0x3f0572dd	0.5212839
152	0xbe9f3c54	-0.31100714
153	0xbe8d842f	-0.2763991
154	0xbefed98a	-0.49775344
155	0xbd96c832	-0.07362403
156	0x3d78fd8b	0.060788672
157	0x3e82c70f	0.25542495
158	0xbeaec05a	-0.34131128
159	0x3c9279a1	0.017880263
160	0xbdd4471e	-0.10365127
161	0x3e0d6ae7	0.13810311
162	0x3e91bfa2	0.28466517
163	0x3ce5fa55	0.02807347
164	0x3ea2ad9d	0.3177308
165	0x3e03bdf2	0.12865427
166	0x3e6d3c1d	0.23167463
167	0xbe3b124c	-0.18268698
168	0x3e171285	0.14753158
169	0xbe03cfbd	-0.12872215
170	0xbe47e92d	-0.19522543
171	0xbea2c627	-0.31791803
172	0xbe597141	-0.21234609
173	0xbe9b804a	-0.30371314
174	0x3e6efd6f	0.23338865
175	0xbed6379f	-0.4183931
176	0xbed7cdf4	-0.42149317
177	0xbe83a5c8	-0.2571242
178	0x3e86adf8	0.26304603
179	0x3ddf9f94	0.10919109
180	0x3db8c22e	0.09021412
181	0x3d1e1085	0.038589973
182	0xbdd23451	-0.10263885
183	0x3dd96948	0.10615784
184	0x3c554d51	0.013018922
185	0xbc8af8c6	-0.016964328
186	0x3efc263b	0.49247918
187	0x3eb8c8ac	0.360906
188	0x3ea6ae88	0.32555032
189	0xbec48d80	-0.38389206
190	0x3c04f752	0.008115606
191	0x3c66e376	0.014092317
192	0x3ed470b1	0.41492227
193	0xbeb24fe6	-0.34826583
194	0xbca0508d	-0.01956966
195	0xbeb9f52b	-0.3631986
196	0x3e716772	0.23574618
197	0x3e8390f3	0.25696525
198	0x3e89d92a	0.26923496
199	0x3ea1d13d	0.3160495
200	0x3d65edb7	0.056134906
201	0x3dd8ea00	0.10591507
202	0x3ed60e2d	0.4180769
203	0x3e812709	0.25225094
204	0x3e810271	0.25197175
205	0x3e456952	0.19278458
206	0x3eb79137	0.35852978
207	0x3ec6c7b8	0.38824248
208	0x3e5458bf	0.20736979
209	0xbe0955ab	-0.13411586
210	0x3ec986cf	0.39360663
211	0x3e51e9d8	0.2049936
212	0xbe54e0ed	-0.20788927
213	0x3e97b310	0.296288
214	0x3ebff87e	0.37494272
215	0x3eb8ba71	0.36079744
216	0x3d24532a	0.040118374
217	0xbeb89ef9	-0.36058787
218	0xbee0d3ec	-0.43911684
219	0x3b9b1ede	0.0047339043
220	0x3df5ca49	0.120014735
221	0xbd90f819	-0.07078571
222	0x3ea4377d	0.32073584
223	0xbec15367	-0.37758943
224	0x3c9e4b3e	0.019322988
225	0x3e28d524	0.16487557
226	0x3ed9e67d	0.4255866
227	0x3f028fc7	0.51000637
228	0xbedccb83	-0.43124017
229	0xbe7d43e6	-0.24732932
230	0xbe122917	-0.14273487
231	0x3d5e866d	0.054327417
232	0x3e8c47f0	0.27398634
233	0xbc8dc167	-0.017304135
234	0x3e06a4be	0.13148782
235	0x3d196402	0.03744889
236	0xbea24983	-0.3169671
237	0xbe8f0357	-0.27932236
238	0xbe989388	-0.29800057
239	0x3e956ef6	0.2918622
240	0xbe31a67f	-0.1734867
241	0xbc91dc1a	-0.017805148
242	0x3eae4ae5	0.34041515
243	0x3dd2544b	0.10269984
244	0xbdff6834	-0.12471047
245	0x3ed346e5	0.41265026
246	0x3e97b2c7	0.29628584
247	0xbe58bff6	-0.21166977
248	0x3e0a6e46	0.13518628
249	0x3e79b864	0.24386746
250	0x3e122fa1	0.14275981
251	0x3e939fee	0.28832954
252	0x3e428a14	0.18997985
253	0x3e3db65b	0.18526594
254	0x3e51f01e	0.20501754
255	0x3e4ae49d	0.19813772

bias f4 [32]
0	0x3dad122d	0.084507324
1	0x3da1f696	0.07908361
2	0x3d01813c	0.031617388
3	0x3dea202c	0.114319175
4	0x3d9dfc11	0.077140935
5	0xbcc10cef	-0.023565738
6	0x3da0ef02	0.07858087
7	0x3da830c5	0.08212427
8	0x3dbd263d	0.09235809
9	0x3dc65226	0.09683637
10	0x3cb604d5	0.022219101
11	0x3d02be89	0.03191999
12	0x3d8bf516	0.06833856
13	0x3dd25d4c	0.10271701
14	0x3dc185f5	0.094493784
15	0x3d6141a5	0.054994244
16	0xba911b3d	-0.001107074
17	0x3d235193	0.039872717
18	0x3d9ef42b	0.07761415
19	0x3da009d0	0.078143716
20	0xbc30c263	-0.010788533
21	0x3d61d6c5	0.05513646
22	0x3d740c56	0.059582077
23	0x3ddeca39	0.10878415
24	0x3d880589	0.06641681
25	0x3dca6eff	0.09884452
26	0x3d8b7334	0.068090826
27	0x3ddd32b1	0.10800684
28	0x3d631763	0.055442225
29	0x3d46d4ed	0.048542906
30	0x3d3b1c00	0.045681
31	0x3d4fd27d	0.050737847

weight_ih_l0 f4 [96, 32]
0	0xbd8613ea	-0.06546767
1	0xbd0b849a	-0.034062006
2	0xbe153dd6	-0.1457437
3	0x3d51de49	0.05123738
4	0x3e2c5223	0.16828208
5	0x3dc9b53d	0.098490216
6	0x3c82a498	0.015947625
7	0x3c0263db	0.007958378
8	0x3e8e4856	0.27789563
9	0x3c82bdec	0.015959702
10	0xbe0ea0bb	-0.13928501
11	0x3de26738	0.11054844
12	0xbdb10963	-0.086443685
13	0xbecd6ad8	-0.40120578
14	0xbd112189	-0.035432372
15	0x3ce3ece5	0.027822921
16	0x3e116ade	0.14200923
17	0x3b9bdd3a	0.004756597
18	0xbd5d7c4f	-0.054073628
19	0xbc41b4d9	-0.011822903
20	0x3db71759	0.0894
21	0xbba5859e	-0.005051329
22	0xbdb4e43c	-0.08832595
23	0x3e1b9293	0.15192632
24	0xbca8bf0e	-0.020598914
25	0x3dcfc18c	0.10144338
26	0x3e6adf06	0.22936639
27	0x3e39353d	0.18086715
28	0x3d611066	0.05494728
29	0xbde4a5d7	-0.11164444
30	0x3e0b8ed9	0.13628711
31	0x3d48c63c	0.049017176
32	0xbe115a7c	-0.14194673
33	0xbcf84109	-0.030304449
34	0xbc51020a	-0.012756834
35	0x3c0e8efe	0.008701084
36	0xbe1f544e	-0.15559503
37	0x3c1723a2	0.009224804
38	0xbcd954ae	-0.026529636
39	0xbd5fb79c	-0.054618463
40	0xbe618c0c	-0.2202608
41	0xbdec3673	-0.11533823
42	0xbdf21df7	-0.118221216
43	0xbc7a1483	-0.015263679
44	0x3d24c3cc	0.04022579
45	0x3d92df6e	0.07171522
46	0x3da92449	0.08258874
47	0xbe118c71	-0.1421373
48	0x3e1da630	0.15395427
49	0xbe28dec5	-0.1649123
50	0xbe560fab	-0.20904414
51	0x3c749fd0	0.01493068
52	0x3e2dac55	0.1696027
53	0xbe0ecc24	-0.13945061
54	0xbe4d088f	-0.20022796
55	0xbdd63471	-0.10459221
56	0x3e2c944b	0.16853444
57	0xbe301799	-0.17196502
58	0xbd619947	-0.055077817
59	0x3d335300	0.043780327
60	0xbe6923c6	-0.22767553
61	0x3c954427	0.018220974
62	0xbba2e0ff	-0.0049706693
63	0xbd9782f5	-0.07398025
64	0x3e0b0d83	0.13579373
65	0xbe3238ba	-0.17404452
66	0x3e5203ed	0.2050931
67	0xbdcd5663	-0.100262426
68	0x3e50370d	0.203335
69	0xbdc6402d	-0.09680209
70	0xbe12c3c0	-0.14332485
71	0xbe0bec97	-0.1366447
72	0x3d1b9f52	0.037993737
73	0x3ad382a9	0.0016136962
74	0x3e3c9ee4	0.18419987
75	0x3e26fe28	0.1630789
76	0xbdd9d716	-0.106367275
77	0x3f0600ab	0.5234477
78	0xbe1600b9	-0.14648713
79	0xbcb3854c	-0.021914147
80	0x3d73f983	0.059564125
81	0xbc54baf2	-0.012984024
82	0xbd8153e2	-0.063148275
83	0xbe3daf6b	-0.18523948
84	0x3e14225a	0.14466229
85	0xbe91c50e	-0.28470653
86	0xbe366bf7	-0.17814623
87	0xbe1d02b4	-0.15333062
88	0xbe157898	-0.14596784
89	0x3dee6075	0.116394915
90	0x3df43076	0.11923306
91	0x3d394a15	0.045236666
92	0x3d9f7a22	0.07786967
93	0x3e9de72b	0.3084043
94	0x3e5a8864	0.21341091
95	0xbe0a1e03	-0.13488011
96	0x3e3c81fa	0.18408957
97	0x3e5e0504	0.21681601
98	0xbe09730f	-0.13422798
99	0x3d822b89	0.0635596
100	0xbdbf36ff	-0.093366615
101	0x3e44c9c6	0.19217595
102	0xbc92124a	-0.017830987
103	0xbdd1af71	-0.10238541
104	0x3c92d0d2	0.017921839
105	0xbd5f93fa	-0.05458448
106	0xbd0e5b9d	-0.034755338
107	0x3dc0162e	0.093792304
108	0x3e0909da	0.13382664
109	0xbe0e4ee0	-0.13897276
110	0xbd566185	-0.052339096
111	0xbd8bd749	-0.06828172
112	0x3e49ae85	0.1969548
113	0x3d724788	0.05915025
114	0x3d7d45ae	0.06183403
115	0x3e0d568b	0.13802545
116	0x3e1b213c	0.15149397
117	0xbdb82d33	-0.08992996
118	0xbdfb2db0	-0.122645736
119	0x3e00d216	0.12580141
120	0x3da8b8b5	0.08238355
121	0x3e2ba39d	0.16761632
122	0x3e1d0ab1	0.1533611
123	0x3d6a2c98	0.057171434
124	0x3e754b81	0.23954584
125	0x3e179c78	0.14805782
126	0xbdb56243	-0.088566326
127	0xbce2e25e	-0.02769583
128	0x3e2217a4	0.1582933
129	0xbbe05ebb	-0.0068472303
130	0x3e6aa262	0.22913507
131	0x3e37a2ab	0.17933147
132	0x3cc49e94	0.024001397
133	0xbc4864d0	-0.012231067
134	0xbb916806	-0.0044374494
135	0x3dcc7bfc	0.09984586
136	0x3e599714	0.21249038
137	0x3d06ea09	0.032938037
138	0xbd447fb7	-0.04797336
139	0x3d35f238	0.04442045
140	0x3e522cca	0.20524898
141	0xbe2dd770	-0.16976714
142	0xbdef1a7b	-0.116749726
143	0x3e46805c	0.19384903
144	0x3e61da9f	0.22056054
145	0x3e5694bc	0.20955175
146	0x3df0524c	0.11734447
147	0xbc909d53	-0.017653143
148	0x3b4766ea	0.0030426332
149	0x3ddb68f8	0.107133806
150	0x3df65815	0.12028519
151	0x3e40cae9	0.18827404
152	0x3e464f5f	0.19366215
153	0xbb61b002	-0.0034437184
154	0xbe1bcd13	-0.15214948
155	0x3e5c9d89	0.2154447
156	0x3dd0f463	0.10202863
157	0xbd831bc7	-0.064017825
158	0xbe035981	-0.12827112
159	0x3e36c816	0.17849764
160	0x3e1140ca	0.14184871
161	0xbc763455	-0.015027125
162	0xbdce1642	-0.10062839
163	0xbd751782	-0.059836872
164	0x3e238d42	0.15971854
165	0x3e3749dd	0.1789927
166	0xbd845723	-0.064619325
167	0xbcf28fc8	-0.029609576
168	0xbd6b88cd	-0.05750351
169	0xbd0d3963	-0.034478556
170	0x3e07b341	0.13251974
171	0x3e014bcd	0.12626572
172	0xbc250839	-0.010072761
173	0xbddc2a57	-0.10750263
174	0xbdb3c1fe	-0.087772354
175	0xbd71b840	-0.059013605
176	0xbd1af55f	-0.03783166
177	0x3e0333cf	0.12812732
178	0xbbccc607	-0.0062491926
179	0x3db25416	0.08707444
180	0xbcb94989	-0.022618072
181	0xbe17000c	-0.14746112
182	0x3e1447fb	0.14480583
183	0xbdbfb6f5	-0.09361068
184	0xbddbc994	-0.10731807
185	0x3e0a0afd	0.13480754
186	0x3d9091ce	0.0705906
187	0x3e5272cf	0.20551609
188	0x3e20b079	0.15692319
189	0x3d84fd9b	0.06493684
190	0x3e12c3c6	0.14332494
191	0x3d752c2f	0.05985659
192	0x3e7b6bb3	0.24552803
193	0x3a073dc0	0.0005159043
194	0x3da1fee7	0.07909947
195	0x3e9b27ed	0.30303898
196	0xbc4e51ff	-0.012592792
197	0x3db65ae7	0.08904057
198	0x3e4ea5f4	0.20180494
199	0x3e2d6a2a	0.1693503
200	0x3e21603a	0.15759364
201	0x3e423b34	0.18967897
202	0xbdc1181c	-0.094284266
203	0x3dd44eb9	0.10366578
204	0xbdb16958	-0.08662671
205	0x3d80658e	0.0626937
206	0x3dddb5dc	0.108257025
207	0x3e54014d	0.20703621
208	0x3eaa8631	0.33305505
209	0x3c4aab92	0.012370007
210	0xbd2a30b7	-0.041550364
211	0x3dd87bc6	0.10570483
212	0x3d5908b0	0.0529868
213	0x3cfc2f04	0.030784138
214	0xbc0d7fc4	-0.008636419
215	0xbb9c39bc	-0.0047676247
216	0x3dc0dfcc	0.09417686
217	0x3c7b5063	0.01533899
218	0xbe5fbc74	-0.21849233
219	0x3e76dbcc	0.24107283
220	0x3e27bc55	0.16380437
221	0x3d8fa192	0.07013239
222	0x3e8941b9	0.26807955
223	0x3d10071d	0.035163034
224	0xbd087ab2	-0.033320136
225	0xbe070815	-0.13186677
226	0xbc4647e7	-0.012102104
227	0xbe09b67a	-0.13448516
228	0x3cffd332	0.031228635
229	0x3de7d96c	0.11320767
230	0x3e148de5	0.14507253
231	0x3daf89ed	0.08571229
232	0xbc89ee76	-0.01683734
233	0x3e92a0c4	0.2863828
234	0xbd9866bd	-0.07441471
235	0xbe4a79dc	-0.19773048
236	0xbd7b7b27	-0.061396744
237	0x3e237233	0.15961532
238	0xbe112aed	-0.14176531
239	0xbdaf65f6	-0.085643694
240	0xbd21682c	-0.039405987
241	0xbc842ed3	-0.016135609
242	0xbcf1ff03	-0.029540544
243	0x3d32fb33	0.043696593
244	0xbe372d75	-0.17888434
245	0xbda2d6f3	-0.079511546
246	0x3b91cd2b	0.0044495068
247	0xbe25b09f	-0.16180657
248	0xbe7cefae	-0.24700806
249	0x3d83c77b	0.06434532
250	0x3d376d2e	0.044781856
251	0x3e25b7c5	0.16183384
252	0x3e086cfb	0.13322823
253	0x3d561f97	0.05227622
254	0x3cb4424c	0.022004269
255	0xbdb41cce	-0.087945566

weight_hh_l0 f4 [96, 32]
0	0xbd6ea284	-0.058260456
1	0x3df863b8	0.12128395
2	0xbe2c2b47	-0.16813384
3	0x3e100d4e	0.14067575
4	0x3dfe87c9	0.12428243
5	0x3d8a2970	0.06746185
6	0xbd91fc85	-0.071282424
7	0x3c634e98	0.013873719
8	0xbdb49e97	-0.08819311
9	0x3d569904	0.05239202
10	0x3dadb9ea	0.08482726
11	0xbd625080	-0.055252552
12	0xbe196c33	-0.14982681
13	0xbdec5da8	-0.11541301
14	0xbd366031	-0.04452533
15	0x3dec1a0b	0.11528405
16	0x3e2654e9	0.16243328
17	0xbe03e023	-0.1287847
18	0xbd00a9ab	-0.031411808
19	0xbdb41f45	-0.08795027
20	0x3e137489	0.14399923
21	0xbe2af648	-0.16695511
22	0x3cd15975	0.025555352
23	0xbe1944e5	-0.14967687
24	0xbd7e76c0	-0.062124968
25	0xbc297b93	-0.010344404
26	0x3e5c576c	0.21517724
27	0xbdb43a69	-0.08800203
28	0xbdb1f020	-0.08688378
29	0x3e52b78c	0.2057783
30	0x3da24815	0.07923905
31	0x3b3ecd6f	0.0029114147
32	0xbe577960	-0.21042395
33	0x3e03a1e4	0.12854725
34	0x3e4c39d8	0.1994394
35	0x3c5f1eac	0.013618153
36	0xbd508afc	-0.050913796
37	0xbd12bece	-0.035826497
38	0xbdc11880	-0.09428501
39	0x3d70fe0e	0.058836035
40	0x3d37b283	0.044847976
41	0x3e1c65d9	0.15273227
42	0x3e619d77	0.22032724
43	0xbd312bc5	-0.043254633
44	0x3c7e8a26	0.015535867
45	0xbe1783b7	-0.14796339
46	0xbdd4ed76	-0.103968546
47	0x3dd92f22	0.10604693
48	0xbe39c9fb	-0.18143456
49	0xbdd382aa	-0.103276566
50	0xbc23858a	-0.009980569
51	0xbd324f86	-0.04353287
52	0x3e15d43c	0.14631742
53	0x3e93367a	0.287525
54	0xbd35f0f1	-0.044419233
55	0x3e4416a5	0.19149263
56	0xbe8cc576	-0.274944
57	0x3e1a5fa0	0.1507554
58	0xbdfcc3cd	-0.123420335
59	0x3ddf9c24	0.10918453
60	0xbe21d35d	-0.15803285
61	0x3e1df483	0.15425305
62	0x3e61490b	0.2200052
63	0x3d34f9b2	0.04418344
64	0x3d713c98	0.058895677
65	0x3d8a994c	0.0676752
66	0xbbb50036	-0.005523707
67	0x3e025934	0.12729341
68	0xbdfbbd60	-0.1229198
69	0xbc926c64	-0.01787395
70	0x3de613c6	0.1123424
71	0xbd42f2e1	-0.04759491
72	0xbdae4f80	-0.08511257
73	0xbdcb0a61	-0.09914089
74	0x3c9cb3e7	0.019128753
75	0xbe0e7821	-0.13913013
76	0x3d75c980	0.06000662
77	0x3dc6bad7	0.097036056
78	0xbe4c3be3	-0.1994472
79	0x3e1b9395	0.15193017
80	0x3deb6d58	0.11495465
81	0x3dc50477	0.09619992
82	0xbd58e7a6	-0.052955292
83	0x3d5355bf	0.051595446
84	0xbc8def6d	-0.017326081
85	0xbe309698	-0.17244947
86	0xbdff8a8d	-0.12477598
87	0x3d5db0b4	0.054123595
88	0xbcb5ae00	-0.022177696
89	0xbdd4fb7b	-0.103995286
90	0x3db5de33	0.08880272
91	0x3d3930e3	0.045212638
92	0x3e1b33b2	0.15156439
93	0xbd2c19fb	-0.042016964
94	0xbcf397d5	-0.029735485
95	0x3e0f1d71	0.13976075
96	0x3e05a803	0.13052373
97	0xbc708398	-0.014679812
98	0xbe0f769a	-0.14010087
99	0xbd222cce	-0.03959351
100	0x3e0f0455	0.13966496
101	0x3e89177d	0.26775733
102	0xbe096311	-0.13416697
103	0xbe018ba2	-0.12650922
104	0xbe16913d	-0.14703842
105	0xbe461314	-0.19343215
106	0x3d645854	0.0557483
107	0x3db3465b	0.087536536
108	0xbdea0500	-0.11426735
109	0x3db8c560	0.09022021
110	0x3d956d80	0.07296276
111	0x3d57b2f1	0.052660886
112	0x3b21431d	0.0024606653
113	0x3d013e05	0.031553287
114	0xbe3cb426	-0.18428096
115	0x3cfd841a	0.03094678
116	0xbd35f7ac	-0.04442565
117	0xbe149f8c	-0.14513987
118	0xbca107af	-0.019656984
119	0x3d9d2b64	0.07674292
120	0x3e8a434d	0.2700447
121	0xbe312ade	-0.17301509
122	0xbe2e0179	-0.1699275
123	0xbdaa0e9f	-0.0830357
124	0xbd86ea82	-0.065876976
125	0xbc2adb18	-0.010428213
126	0xbe2987e1	-0.1655574
127	0x3d3395d4	0.04384406
128	0x3e805bb5	0.25069967
129	0x3de1b20d	0.110202886
130	0xbcbd6e23	-0.023123806
131	0xbd958c1d	-0.07302115
132	0x3e355053	0.17706423
133	0x3e4c4cb1	0.1995113
134	0xbcee70cc	-0.02910652
135	0x3d575743	0.052573454
136	0x3db2bdba	0.08727594
137	0xbd96adf2	-0.07357396
138	0x3e1654fa	0.14680853
139	0x3cf7481d	0.030185753
140	0x3c82c902	0.015964989
141	0xbd548007	-0.05187991
142	0xbd98c57d	-0.07459543
143	0x3bd221db	0.0064127273
144	0x3e3274fc	0.17427438
145	0x3db0f3af	0.08640229
146	0xbdace684	-0.08442405
147	0xbd8d960a	-0.06913383
148	0xbccc7fa7	-0.024963213
149	0xbe72be8b	-0.23705499
150	0xbdc67450	-0.096901536
151	0xbb630993	-0.0034643158
152	0x3d05a3d8	0.032626957
153	0xbe5fb859	-0.21847667
154	0x3d8c0642	0.06837131
155	0x3dbeda47	0.09318977
156	0x3e2fc569	0.1716515
157	0xbdd5a1b9	-0.10431237
158	0xbd1734cc	-0.036915585
159	0x3da690f7	0.081331186
160	0x3e4000bb	0.18750279
161	0x3d609701	0.05483151
162	0xbd715f1f	-0.058928605
163	0x3e1642c1	0.14673902
164	0xbd0e4bf2	-0.034740396
165	0x3db74c26	0.08950071
166	0x3de0cdbf	0.10976743
167	0x3e79c423	0.24391226
168	0xbd8e647d	-0.0695276
169	0xbdaa4084	-0.08313087
170	0x3d895cb1	0.067071326
171	0xbd23d6e1	-0.039999846
172	0xbd121365	-0.035663027
173	0xbd77f142	-0.060532816
174	0xbdc97e49	-0.0983854
175	0x3e0334ff	0.12813185
176	0x3e6d6720	0.2318387
177	0x3d8f031c	0.06983015
178	0x3cc8b120	0.024498522
179	0x3b08253b	0.0020774144
180	0xbdfc68e8	-0.12324697
181	0xbc57ab02	-0.01316333
182	0x3cc23a06	0.023709308
183	0x3d9f6451	0.07782806
184	0x3e00e53e	0.12587449
185	0xbe0e3a56	-0.13889441
186	0x3def6e53	0.116909645
187	0x3cd9f0a1	0.026603999
188	0x3d9ff132	0.07809676
189	0x3e682d23	0.22673468
190	0x3d41f4b4	0.047352508
191	0xbda3690c	-0.079790205
192	0x3d9d9ec7	0.076963
193	0xbccba40b	-0.024858495
194	0x3c828667	0.015933229
195	0x3e6746c1	0.22585584
196	0x3d984212	0.07434477
197	0x3d27aea3	0.04093803
198	0xbd6c2c73	-0.057659578
199	0x3e35218e	0.17688581
200	0x3cd101cf	0.025513558
201	0xbe9cec6d	-0.3064913
202	0xbc8e3a04	-0.017361648
203	0x3e8c96c9	0.2745879
204	0xbde74ba4	-0.11293724
205	0xbd6d8417	-0.0579873
206	0x3da9ef44	0.082975894
207	0x3ddc1ea4	0.10748032
208	0x3e7fa8e3	0.24966769
209	0x3ce8de0d	0.028426195
210	0xbd3a17fc	-0.04543303
211	0xbda9d20f	-0.082920186
212	0xbb051b9e	-0.002031065
213	0xbd151154	-0.03639348
214	0xbd3457ba	-0.044028975
215	0xbd421124	-0.047379628
216	0xbd94a9d9	-0.07258958
217	0x3d470f65	0.048598666
218	0x3d4afc39	0.049556945
219	0x3e04d406	0.12971506
220	0x3e5a5240	0.21320438
221	0xbe36bcaf	-0.17845415
222	0xbdd205be	-0.102550015
223	0xbe7ad0a0	-0.24493647
224	0xbb540c64	-0.0032356018
225	0x3e52be97	0.20580517
226	0x3dfa8691	0.12232698
227	0xbdd794f5	-0.10526458
228	0x3cd41358	0.02588813
229	0xbe0d25ef	-0.13784002
230	0x3c991109	0.01868488
231	0xbc9fb36b	-0.019494733
232	0x3e366973	0.17813663
233	0x3db3fd5c	0.08788559
234	0x3e501931	0.2032211
235	0xbdb835c3	-0.08994629
236	0x3dc648f9	0.09681887
237	0x3d9b12a3	0.07571914
238	0xbd27b20a	-0.040941276
239	0x3df9cda5	0.12197427
240	0xbe1e55dc	-0.1546244
241	0x3d820bcf	0.063499086
242	0x3e3e7544	0.18599421
243	0x3d7b6e01	0.061384205
244	0x3d1f00f8	0.038819283
245	0x3e4a1086	0.19732866
246	0xbd7b77b8	-0.06139347
247	0x3e04f027	0.12982236
248	0x3dfec810	0.12440503
249	0x3d6f71c5	0.05845811
250	0x3deea034	0.1165165
251	0xbc1995cb	-0.009374092
252	0xbe02154c	-0.12703437
253	0x3e372fb0	0.17889285
254	0xbd894831	-0.067032225
255	0x3c07f4fa	0.008298153

bias_ih_l0 f4 [96]
0	0x3e092427	0.13392697
1	0xbe6a60fd	-0.2288856
2	0xbdb000e3	-0.08593919
3	0x3c871ad9	0.016492294
4	0x3e3f2795	0.18667443
5	0xbd9e7062	-0.07736279
6	0x3e78df87	0.24304019
7	0xbe1a16e6	-0.15047798
8	0xbe3c2ab0	-0.18375659
9	0x3e11985c	0.14218277
10	0xbd8d633a	-0.069036916
11	0x3db1b435	0.0867695
12	0xbdb52b00	-0.08846092
13	0xbdce5697	-0.100751095
14	0x3e682365	0.22669752
15	0x3e046856	0.12930426
16	0x3cf49688	0.029856935
17	0xbd74b847	-0.059746053
18	0x3d6f1617	0.058370676
19	0xbe10ef66	-0.14153823
20	0xbd7c8842	-0.061653383
21	0x3d4d3492	0.050098963
22	0x3cad1e74	0.021132685
23	0xbd7841fd	-0.060609806
24	0x3e5f97d0	0.21835256
25	0x3e849611	0.25895742
26	0xbdae919b	-0.08523866
27	0xbd28fd54	-0.041257218
28	0xbd3516ff	-0.044211384
29	0x3daef1c4	0.08542207
30	0x3e2203ec	0.15821809
31	0x3dbb7f01	0.091550834
32	0xbdf65bea	-0.1202925
33	0xbca47ee6	-0.020080041
34	0xbd6b8571	-0.057500307
35	0x3d0ffbfa	0.035152413
36	0xbe8c7547	-0.27433226
37	0x3e198a89	0.14994253
38	0xbe9d1d30	-0.3068633
39	0xbe529520	-0.20564699
40	0xbea7bda3	-0.3276187
41	0xbd327fd2	-0.04357893
42	0xbe0bc74b	-0.13650243
43	0xbe8501f3	-0.2597805
44	0xbc23a7bd	-0.009988722
45	0xbe978b73	-0.2959858
46	0x3c159227	0.009129084
47	0xbe0d4a57	-0.1379789
48	0xbe61e1f0	-0.22058845
49	0xbe3b0022	-0.1826177
50	0xbd962c72	-0.07332696
51	0xbc5e0824	-0.013551746
52	0x3d4c07bf	0.049812075
53	0x3e41eeed	0.18938799
54	0xbe5a11b4	-0.21295816
55	0xbd31953a	-0.043355204
56	0xbd58b4d2	-0.05290682
57	0xbdd17515	-0.1022741
58	0xbe755f96	-0.23962244
59	0xbea39f9a	-0.31957704
60	0xbe4cf721	-0.20016147
61	0xbe848d3d	-0.25889006
62	0xbe042e26	-0.12908229
63	0xbd23c290	-0.03998047
64	0xbe020bdc	-0.12699836
65	0xbd0d4e30	-0.034498394
66	0x3d885a33	0.06657829
67	0x3dfd68be	0.123734936
68	0x3bcf50f3	0.0063267886
69	0xbd82d5aa	-0.063884094
70	0xbd273976	-0.040826283
71	0x3e24ffe6	0.16113243
72	0xbd9582ab	-0.073003136
73	0xbe0d176e	-0.13778469
74	0xbd90f75e	-0.070784315
75	0x3d812b56	0.06307094
76	0xbdda1a5f	-0.10649561
77	0xbcc24e60	-0.023719013
78	0xbe371511	-0.1787913
79	0x3e0b1d87	0.13585483
80	0x3d935ae1	0.07195068
81	0x3d5196d8	0.051169246
82	0xbdf0b715	-0.1175367
83	0x3da050c9	0.078279085
84	0xbd081ede	-0.033232562
85	0x3d25f937	0.040520873
86	0x3e0bc71c	0.13650173
87	0xbe20da8c	-0.15708369
88	0x3d05ca2b	0.032663506
89	0xbc91a0f9	-0.017776953
90	0x3df973ee	0.12180315
91	0xbc41ebae	-0.011835976
92	0x3da64e80	0.081204414
93	0xbd8b7745	-0.06809858
94	0xbd1b9f5b	-0.03799377
95	0x3e0fe4db	0.14052145

bias_hh_l0 f4 [96]
0	0x3dc97491	0.098366864
1	0x3d4c12c3	0.04982258
2	0xbcfe2c4f	-0.031026987
3	0x3e618245	0.2202235
4	0x3e4ffe45	0.2031184
5	0xbd992aee	-0.07478891
6	0x3e3ea8f7	0.18619142
7	0x3e0c89bb	0.13724415
8	0xbe16270f	-0.14663337
9	0xbc6599bd	-0.014013705
10	0x3e3a2bd1	0.18180777
11	0x3d8432b8	0.06454986
12	0x3e48af68	0.19598162
13	0x3e2ce76e	0.16885158
14	0x3d926a41	0.071491726
15	0x3db7184c	0.08940181
16	0xbd6e99e3	-0.058252227
17	0x3d6332f5	0.05546852
18	0x3d5b1191	0.05348355
19	0x3d801550	0.06254065
20	0xbca0bdcc	-0.019621752
21	0xbdcb534f	-0.09927999
22	0x3d8ded72	0.06930055
23	0x3df8a178	0.12140173
24	0x3e2faab4	0.17154962
25	0xbd135533	-0.035969924
26	0x3c838f6c	0.0160596
27	0x3e8597e4	0.26092446
28	0xbcb2f9ee	-0.021847691
29	0x3e4ae64d	0.19814415
30	0xbc3ede57	-0.01164969
31	0x3c41d511	0.011830584
32	0xbdcd2b9f	-0.10018086
33	0x3d0cbcb0	0.034359634
34	0xbca6e71f	-0.020373879
35	0x3e1a81a1	0.15088512
36	0xbdeaa1b4	-0.11456624
37	0xbd8f7093	-0.07003894
38	0xbe051fbb	-0.13000385
39	0xbe265c1f	-0.16246079
40	0xbe8135b0	-0.25236273
41	0xbe812d63	-0.2522994
42	0x3e02c90b	0.12772004
43	0xbe98630e	-0.29763073
44	0xbd8ac70c	-0.067762464
45	0xbd39c460	-0.045353293
46	0xbd0ce5b3	-0.034398746
47	0xbe883119	-0.2659996
48	0xbe02c99b	-0.12772219
49	0xbd7b5447	-0.06135967
50	0xbdde71bf	-0.10861539
51	0xbdfe3a2c	-0.12413439
52	0x3de22c8e	0.110436544
53	0x3e1090da	0.14117756
54	0xbe341bed	-0.17588778
55	0xbe0cdb62	-0.13755563
56	0x3e5747b4	0.21023446
57	0xbe852bdf	-0.26010033
58	0xbeae4123	-0.3403407
59	0xbea8bc98	-0.32956386
60	0xbe5a4070	-0.21313643
61	0xbe4a62f0	-0.19764304
62	0xbe494ac9	-0.19657435
63	0xbe2ce789	-0.16885199
64	0xbe0208b8	-0.12698638
65	0x3df7c62c	0.12098345
66	0x3dcf6ea8	0.10128528
67	0x3d85c1d9	0.06531114
68	0xbc8e05b6	-0.017336708
69	0xbde6d2fc	-0.11270711
70	0xbe139ad2	-0.14414528
71	0xbded587c	-0.11589143
72	0x3d000770	0.031257093
73	0xbdfd12dc	-0.12357113
74	0xbe6b8f25	-0.23003824
75	0x3d1f4714	0.038886145
76	0x3d7e647d	0.06210755
77	0xbe19fe5e	-0.1503844
78	0x3e1a5591	0.15071703
79	0xbc4bd1b3	-0.012440133
80	0xbe0e3e35	-0.13890918
81	0xbdf78d9b	-0.12087556
82	0x3e0602a8	0.13086951
83	0x3dfb3e68	0.122677624
84	0xbe2aa4e2	-0.1666446
85	0xbe357a5e	-0.1772246
86	0xbe0ca550	-0.13734937
87	0xbe494f70	-0.19659209
88	0xbdc21a4e	-0.094776735
89	0xbc92f1d8	-0.017937586
90	0xbd0d1990	-0.034448206
91	0xbe30c7e8	-0.17263758
92	0x3d6619d1	0.056176964
93	0x3dd544f7	0.104135446
94	0xbdbe36c8	-0.092877924
95	0xbb007b1b	-0.0019604627

weight f4 [32, 32]
0	0x3dfa17f4	0.122116
1	0x3c657f40	0.01400739
2	0xbf064126	-0.5244316
3	0xbd7d67e3	-0.061866652
4	0x3dce48f4	0.100725085
5	0x3e25f421	0.16206409
6	0xbe26a889	-0.16275229
7	0xbce2fb39	-0.027707683
8	0xbee29b0f	-0.44258925
9	0x3e879a49	0.26484898
10	0xbd6d581c	-0.057945356
11	0x3e5b1b6a	0.21397176
12	0x3e9544ef	0.29154155
13	0xbf0c43ca	-0.5479094
14	0x3e07ff9e	0.13281104
15	0x3eb80436	0.35940713
16	0x3eb2ef5b	0.3494824
17	0x3cd75e25	0.026290009
18	0xbe4fe98c	-0.20303935
19	0x3ecab404	0.39590466
20	0x3c02f333	0.0079925535
21	0x3e99426f	0.29933497
22	0xbdf6d4b9	-0.120522924
23	0x3ea140f8	0.3149488
24	0x3e0f3ab4	0.13987237
25	0xbeaf5389	-0.3424342
26	0xbe28d632	-0.16487959
27	0x3f1e7a20	0.619051
28	0x3c15e09d	0.00914779
29	0x3dea6db7	0.11446708
30	0x3ec306ff	0.38091275
31	0x3e900d3a	0.2813509
32	0xbe0a4eda	-0.13506642
33	0x3e90d20b	0.2828525
34	0xbe9625bc	-0.29325664
35	0x3d6aa917	0.057290163
36	0xbe406816	-0.18789706
37	0x3d74b655	0.059744198
38	0xbe921b7c	-0.28536594
39	0xbf02c07e	-0.5107497
40	0x3e46010a	0.19336334
41	0xbe11ed62	-0.1425071
42	0xbddf8761	-0.10914493
43	0x3cfbac6c	0.030721866
44	0x3ce30930	0.027714342
45	0xbe786d2d	-0.24260397
46	0x3d6bbf64	0.05755557
47	0x3eb125b5	0.3459908
48	0xbd126340	-0.035739183
49	0x3daacb2c	0.08339533
50	0x3e834adb	0.25643048
51	0x3dab0e68	0.08352357
52	0xbe8c63c9	-0.2741988
53	0xbda35655	-0.07975451
54	0x3ecd1ea0	0.40062428
55	0x3d3802bd	0.044924486
56	0xbdd84e1d	-0.10561774
57	0x3efcfcec	0.49411714
58	0x3ea5defe	0.32396692
59	0xbef09f3f	-0.46996495
60	0xbecdc99a	-0.40192872
61	0x3d4a06a7	0.04932275
62	0xbd10c643	-0.035345327
63	0xbf01696c	-0.50551486
64	0xbe94ca83	-0.29060754
65	0x3eb1cc4d	0.34726182
66	0x3ecf8c30	0.40536642
67	0xbe877e65	-0.2646362
68	0x3ed128da	0.4085148
69	0x3ed668d5	0.41876855
70	0xbe5e77f1	-0.21725442
71	0xbe2ef5b3	-0.17085914
72	0xbe587b97	-0.21140896
73	0x3e77ba3a	0.24192134
74	0x3e8ff9e7	0.28120348
75	0x3e1265d4	0.14296657
76	0xbe8ca0a0	-0.27466297
77	0xbeabf5e9	-0.33586052
78	0x3dd1cdc6	0.10244326
79	0xbe880826	-0.26568717
80	0x3e902db1	0.2815986
81	0x3eb7f599	0.35929564
82	0x3d1fe2c8	0.039034635
83	0xbe02dc4e	-0.12779352
84	0xbed696b1	-0.41911843
85	0xbe32d212	-0.17462948
86	0xbd4d7f35	-0.050170142
87	0xbeaa15b7	-0.33219692
88	0x3cdff7ff	0.027339933
89	0xbe827998	-0.25483394
90	0x3ede766d	0.43449727
91	0xbe81c5b6	-0.25346154
92	0x3ea8649a	0.32889253
93	0xbe93e39c	-0.2888459
94	0xbef59fc6	-0.4797346
95	0xbeb5a65f	-0.35478494
96	0xbe813d58	-0.25242114
97	0xbe89944b	-0.2687095
98	0x3e4bd953	0.19907121
99	0x3e337ff1	0.17529275
100	0x3ea41e6b	0.32054457
101	0xbe735d68	-0.237661
102	0x3ec4296f	0.3831286
103	0xbe0ba604	-0.13637549
104	0x3e213e40	0.15746403
105	0xbe9d34f3	-0.3070446
106	0xbda166bc	-0.07880923
107	0xbeb03799	-0.34417418
108	0xbdb897ef	-0.09013354
109	0x3ea8e5fa	0.32987958
110	0x3e92aebc	0.28648937
111	0xbcef5cf5	-0.02921913
112	0xbe6fae79	-0.234064
113	0xbe2c5e29	-0.16832794
114	0xbd14e4ca	-0.036351003
115	0x3ecc9458	0.39956927
116	0xbec16a0a	-0.37776214
117	0xbed9d719	-0.4254692
118	0x3dcf9907	0.101366095
119	0xbe1b62ff	-0.15174483
120	0xbaaee460	-0.0013343208
121	0xbe5d09e8	-0.2158581
122	0xbc850081	-0.016235592
123	0xbe4fed95	-0.20305474
124	0xbea50973	-0.32233772
125	0x3db76d64	0.089564115
126	0xbc641323	-0.013920578
127	0x3df55464	0.11978987
128	0x3e85c27c	0.26124942
129	0x3e9849a0	0.2974367
130	0xbe94b723	-0.29045972
131	0x3e24a290	0.16077638
132	0x3e57c569	0.210714
133	0xbd174a8b	-0.036936324
134	0xbecdc3fe	-0.40188593
135	0xbf06911a	-0.5256516
136	0x3f192c07	0.59832805
137	0xbe91a5ca	-0.284468
138	0xbebe3ba9	-0.37154892
139	0x3eb10900	0.3457718
140	0xbe81a7ad	-0.2532324
141	0x3f179cac	0.5922344
142	0xbeb15cab	-0.34641013
143	0x3ef8c262	0.48585802
144	0xbc611b6d	-0.013739449
145	0x3edc9312	0.43080956
146	0xbce74365	-0.028230378
147	0xbe3d42e8	-0.18482554
148	0xbee011e0	-0.43763638
149	0xbe0e4057	-0.13891731
150	0x3e7811d0	0.24225545
151	0xbdbfab7f	-0.09358882
152	0x3e4849b0	0.1955936
153	0x3dc278f3	0.094957255
154	0x3eb2a6ae	0.34892792
155	0xbe0d16ed	-0.13778277
156	0x3e1b31d6	0.1515573
157	0xbf14bb3c	-0.58098197
158	0xbeaefbfe	-0.3417663
159	0x3de97370	0.11398971
160	0xbee8bfa6	-0.45458716
161	0xbdce2eb1	-0.100674994
162	0x3c295c7e	0.010336993
163	0xbe9cf61e	-0.30656523
164	0x3e8581c1	0.26075557
165	0x3ee3d88b	0.44501147
166	0xbed8f0ec	-0.4237131
167	0x3e724abf	0.23661326
168	0x3d8ab607	0.06773
169	0x3dc5c2f2	0.096563235
170	0xbef38de1	-0.47569183
171	0xb9df6c08	-0.00042614364
172	0x3ea3cd67	0.31992647
173	0x3ce835ac	0.028345905
174	0x3f0001d9	0.5000282
175	0x3ed454ac	0.4147085
176	0xbe342575	-0.17592414
177	0xbe3317f3	-0.17489605
178	0xbe091064	-0.13385159
179	0x3c04054d	0.008057904
180	0x3ebe55ca	0.37174827
181	0x3e098245	0.134286
182	0xbeb25aa5	-0.3483478
183	0xbee28c5a	-0.44247705
184	0xbe9064f0	-0.2820201
185	0xbece029e	-0.40236372
186	0xbe5d065f	-0.21584462
187	0x3ee87325	0.45400348
188	0xbe0c164d	-0.13680382
189	0x3ef7ef20	0.48424625
190	0x3eae49d1	0.34040692
191	0xbe797604	-0.24361426
192	0x3d5660bf	0.052338358
193	0x3eb0ade3	0.34507665
194	0x3c83bfa5	0.016082594
195	0x3e9ae87a	0.3025549
196	0xbe6306ee	-0.22170612
197	0xbe944aa8	-0.28963208
198	0xbf197664	-0.59946275
199	0xbc08b588	-0.008344062
200	0x3e39c573	0.18141727
201	0xbc263efd	-0.0101468535
202	0xbd8800bd	-0.06640766
203	0x3efdcc50	0.4956994
204	0xbeaf551b	-0.34244618
205	0xbe4e6bbe	-0.20158288
206	0xbec36b70	-0.38167906
207	0x3daa2933	0.083086394
208	0x3e987a8a	0.2978099
209	0xbf0428f3	-0.51624984
210	0xbce77bbc	-0.028257243
211	0xbeb58b2e	-0.35457748
212	0xbe947824	-0.2899791
213	0x3da730c8	0.08163601
214	0x3db496f4	0.088178545
215	0xbc007aa7	-0.007841743
216	0xbe1985af	-0.14992402
217	0x3c3a914a	0.011387179
218	0x3e5107d3	0.20413141
219	0xbe65659c	-0.22402042
220	0x3e7bf7ff	0.24606322
221	0xbe6435ad	-0.222861
222	0xbe73959a	-0.23787537
223	0xbe648d03	-0.22319417
224	0x3dae1b17	0.08501261
225	0xbebd9a5b	-0.37031826
226	0xbe739cfc	-0.23790354
227	0xbec101d3	-0.37696704
228	0x3e86ceec	0.26329744
229	0x3eb43df3	0.35203514
230	0xbdfc3735	-0.123152174
231	0x3ee04204	0.43800366
232	0x3de56945	0.11201719
233	0xbe403c49	-0.18772997
234	0x3ed3a276	0.41334885
235	0x3df16e42	0.11788608
236	0xbe690f19	-0.22759666
237	0x3e555270	0.20832229
238	0x3f0b1b2f	0.54338354
239	0x3e724281	0.23658182
240	0x3e92b808	0.2865603
241	0xbc1ab66f	-0.00944291
242	0x3e6bb8e1	0.23019744
243	0xbe6ded09	-0.23234953
244	0xbeadc711	-0.33940938
245	0x3e3a14a9	0.18171944
246	0xbe9f6172	-0.31129032
247	0x3ea9cdef	0.33164927
248	0xbcc40ffe	-0.023933407
249	0xbe91b9d8	-0.284621
250	0xbeca9653	-0.39567813
251	0x3da7beff	0.081907265
252	0x3e35a724	0.1773954
253	0xbe08e119	-0.13367118
254	0xbeb70a41	-0.3575001
255	0x3ef2cdc5	0.47422615

bias f4 [32]
0	0x3d74f58a	0.059804477
1	0x3ce28986	0.027653467
2	0x3d04db42	0.032435663
3	0x3cd67f7e	0.02618384
4	0x3d7a2983	0.061074745
5	0x3d7b2668	0.061315924
6	0x3d98a8b9	0.07454056
7	0xbb3fa164	-0.0029240483
8	0x3d0d82ee	0.034548692
9	0x3da4fc06	0.08055882
10	0x3dbb13d7	0.091346435
11	0xbc1225e5	-0.008920168
12	0x3db16957	0.0866267
13	0x3b14bae7	0.002269441
14	0x3c2f5943	0.010702434
15	0x3d849469	0.064736195
16	0x3d16f9ec	0.036859438
17	0x3d27a52f	0.040929016
18	0x3d9a32bc	0.07529208
19	0x3d6b6450	0.057468712
20	0x3c848505	0.01617671
21	0x3d60bf25	0.05486979
22	0x3d5cd8f0	0.053917825
23	0x3d8ed59d	0.06974337
24	0xbd13e5a7	-0.036107685
25	0xbc3dd4c4	-0.011586372
26	0x3ce0f305	0.02745963
27	0x3c5cb3a8	0.013470568
28	0x3d17b366	0.037036322
29	0x3cc1d9fd	0.023663515
30	0x3c306bd3	0.010767895
31	0x3c54f85b	0.012998666

weight f4 [5, 32]
0	0xbeaa80b6	-0.33301324
1	0x3f054e9c	0.52073073
2	0x3ed61d14	0.4181906
3	0xbee457cf	-0.44598243
4	0x3e275b4f	0.16343425
5	0xbec75d93	-0.3893858
6	0x3e85f87f	0.2616615
7	0xbecdecec	-0.4021982
8	0xbec8a0f2	-0.39185292
9	0x3e1ef99f	0.1552491
10	0xbdc6ab06	-0.09700589
11	0x3ea3df89	0.3200648
12	0x3ec28449	0.3799155
13	0x3e7f557b	0.24934952
14	0xbedd122c	-0.43177927
15	0xbdfef0eb	-0.12448295
16	0xbe2459cf	-0.16049884
17	0x3d8e3ca0	0.06945157
18	0xbd4c9296	-0.049944483
19	0x3ec9978a	0.39373428
20	0xbd95314f	-0.072847955
21	0xbe3bd36d	-0.18342371
22	0x3ecb4ee6	0.39708632
23	0xbea7b87c	-0.32757938
24	0xbe5a397b	-0.2131099
25	0x3ed19550	0.4093423
26	0xbe1f7826	-0.15573177
27	0xbe5cf158	-0.2157644
28	0xbeba3c08	-0.36373925
29	0xbeb3f18c	-0.35145223
30	0xbd4f8923	-0.050667893
31	0xbec61dd2	-0.38694626
32	0xbec50833	-0.38482818
33	0xbe21c5c0	-0.15798092
34	0xbecf8c45	-0.40536705
35	0x3ea01b48	0.31270814
36	0xbe4f6f9f	-0.20257424
37	0xbe8cf731	-0.27532342
38	0xbf06ea76	-0.5270151
39	0xbd46853a	-0.0484669
40	0x3e8e2bef	0.27767894
41	0x3ec70fc9	0.3887923
42	0x3e670ed6	0.22564253
43	0xbe8a604f	-0.27026603
44	0x3ded295a	0.11580153
45	0xbcec0e66	-0.02881546
46	0xbe8eb131	-0.2786956
47	0x3efa6392	0.4890409
48	0xbe1b98f3	-0.15195064
49	0x3e7a31f9	0.24433126
50	0x3eb767f3	0.35821494
51	0xbed941bd	-0.42432967
52	0x3deeae96	0.116543934
53	0x3e9a19fd	0.30097952
54	0x3edaac9b	0.42709813
55	0x3e4682f1	0.19385888
56	0x3e13e169	0.14441456
57	0x3e5931d7	0.21210419
58	0x3dcf64a2	0.10126616
59	0x3ec09399	0.37612608
60	0xbed1d575	-0.40983167
61	0x3d78cac4	0.060740247
62	0xbe5205ce	-0.20510027
63	0x3d7b8684	0.06140758
64	0x3d989776	0.07450764
65	0x3e7728a5	0.24136598
66	0x3e985005	0.2974855
67	0x3ed80552	0.4219156
68	0xbe8951e9	-0.26820305
69	0xbd62dd82	-0.055387028
70	0xbe53796d	-0.20651789
71	0xbef468fe	-0.47736353
72	0x3e9b4d02	0.3033219
73	0x3da2f916	0.079576656
74	0xbf0c81fd	-0.54885846
75	0xbed4638c	-0.41482198
76	0xbe183da1	-0.1486726
77	0x3e8360a9	0.25659683
78	0x3e30fff4	0.17285138
79	0x3ebfc54f	0.37455222
80	0x3ee4838f	0.4463162
81	0x3e886eac	0.26646936
82	0xbf067ad4	-0.5253117
83	0xbd55c7ac	-0.052192375
84	0xbeec1214	-0.46107543
85	0x3e9e2318	0.3088615
86	0xbef93bd8	-0.4867847
87	0xbeb9a9f2	-0.3626247
88	0xbda20900	-0.07911873
89	0x3e90e6ce	0.2830109
90	0xbe2af96a	-0.16696706
91	0x3e8af205	0.2713777
92	0xbe529247	-0.20563613
93	0x3dff665d	0.12470696
94	0xbcf638a4	-0.030056305
95	0x3dd2b4a1	0.102883585
96	0x3d9932b6	0.074803755
97	0xbe56da6e	-0.20981762
98	0x3e94d67e	0.29069895
99	0xbc231166	-0.009952879
100	0xbef3a9be	-0.4759044
101	0xbe283302	-0.16425708
102	0xbdad67c7	-0.084670596
103	0x3e7e7989	0.2485105
104	0xbea757cb	-0.32684168
105	0xbec6d823	-0.38836774
106	0x3e01b414	0.1266635
107	0x3ea930a7	0.3304493
108	0xbe828a7e	-0.25496286
109	0x3da3e04a	0.08001764
110	0xbef02aad	-0.4690756
111	0x3e973f3a	0.29540426
112	0x3d862b39	0.06551213
113	0xbd52869e	-0.051397912
114	0xbe535a87	-0.20640002
115	0xbef67844	-0.4813863
116	0x3e9cdba6	0.30636328
117	0x3eb90108	0.361336
118	0xbe115a57	-0.14194618
119	0xbec96a58	-0.39338946
120	0x3e38e995	0.18057854
121	0xbc8559c4	-0.016278155
122	0xbd5c9bae	-0.053859405
123	0xbe68a0cd	-0.2271759
124	0xbe823e8f	-0.25438353
125	0xbe1998da	-0.14999714
126	0xbd1fc248	-0.03900364
127	0xbe4f0ef7	-0.20220552
128	0x3e8df560	0.2772627
129	0xbe20f1b8	-0.15717208
130	0x3d61e98e	0.055154376
131	0xbdbf0ecf	-0.093289964
132	0xbeb1588e	-0.34637874
133	0x3ef48164	0.47754967
134	0x3e507118	0.20355642
135	0xbdfb568c	-0.12272367
136	0x3ebe1ea4	0.37132752
137	0x3db33f1f	0.08752274
138	0x3ec43f1f	0.38329408
139	0xbd9d663e	-0.07685517
140	0x3e061114	0.13092452
141	0xbc392029	-0.0112991715
142	0x3ecd5a68	0.40108037
143	0xbef73f27	-0.4829037
144	0xbe856693	-0.2605482
145	0xbef7e6c8	-0.4841826
146	0x3e3f2de8	0.18669856
147	0x3ed6a10e	0.4191975
148	0x3ea37a7a	0.3192938
149	0x3e3803cc	0.17970198
150	0xbed2c11f	-0.41162965
151	0x3e7d4d2b	0.24736468
152	0x3e652219	0.22376288
153	0xbe931792	-0.2872892
154	0xbec251aa	-0.3795293
155	0xbd34e651	-0.04416496
156	0x3e23e557	0.16005455
157	0x3f01a30f	0.5063943
158	0xbef34422	-0.4751292
159	0xbefc17af	-0.4923682

bias f4 [5]
0	0x3d52c6d8	0.051459163
1	0x3be084eb	0.0068517826
2	0xbcb0b1b3	-0.021569109
3	0xbdf042a5	-0.117314614
4	0x3cda5b01	0.026654722
