visualization/policy_nns/OSD_F/v040/agent_state_dict2.pt (torch, 41537 bytes, 12 tensors)

fc1.weight f4 [32, 28]
0	0xbe48f949	-0.19626345
1	0xbe02cbfe	-0.1277313
2	0x3e08a507	0.13344203
3	0x3f01701a	0.5056168
4	0x3dc1a6ee	0.094556674
5	0xbcfd045c	-0.030885868
6	0xbd9293de	-0.0715711
7	0xbddb985c	-0.107224196
8	0x3de98684	0.1140261
9	0xbe4b172e	-0.19833061
10	0x3cae0f38	0.021247491
11	0x3e78ea92	0.24308231
12	0xbe43c07a	-0.19116393
13	0xbdf7897f	-0.12086772
14	0xbe3992dd	-0.1812243
15	0xbe74c6e3	-0.23903994
16	0xbec19367	-0.37807772
17	0xbe92535c	-0.28579223
18	0x3ce3589e	0.027752217
19	0x3ee91f8c	0.4553188
20	0x3e517c81	0.2045765
21	0xbe2f88eb	-0.17142074
22	0xbd505e78	-0.050871342
23	0xbe1c4d89	-0.15263952
24	0x3e42b8b8	0.19015777
25	0x3d8c425c	0.068485945
26	0xbec8f0e4	-0.39246285
27	0x3e95977e	0.29217142
28	0xbce1cd89	-0.027563827
29	0xbe9ac1f3	-0.30226097
30	0xbeb5b464	-0.3548919
31	0xbdd5eaf0	-0.104452014
32	0xbd859fdf	-0.065246336
33	0xbd331cdd	-0.043728698
34	0xbdc91888	-0.09819132
35	0x3e90d6ba	0.28288823
36	0x3e95da44	0.29268086
37	0x3c37df18	0.011222623
38	0x3e45d0db	0.19317953
39	0xbd359430	-0.044330776
40	0x3e600dfb	0.21880333
41	0xbd86b1c5	-0.065768756
42	0x3e836844	0.25665486
43	0x3e82e645	0.25566307
44	0xbe993760	-0.2992506
45	0xbeb60c77	-0.35556385
46	0x3debb3e1	0.115089186
47	0x3d17323c	0.03691314
48	0xbdfe8f21	-0.124296434
49	0xbeb0fab4	-0.3456627
50	0x3d78ab14	0.060710028
51	0x3f0352f3	0.51298445
52	0xbd47176a	-0.048606314
53	0xbe812b4a	-0.2522834
54	0xbce07049	-0.027397292
55	0x3e91d924	0.28485978
56	0x3df07d15	0.117426075
57	0xbed2e332	-0.4118896
58	0xbe07abf5	-0.1324919
59	0x3ef6045c	0.480502
60	0xbec90f4d	-0.39269486
61	0xbd76101a	-0.06007395
62	0xbea811c0	-0.32826042
63	0xbe20930a	-0.15681091
64	0xbe23cb72	-0.15995577
65	0xbd532e2e	-0.051557712
66	0xbeaa1b57	-0.33223984
67	0xbda35d23	-0.07976749
68	0xbd8c04f2	-0.06836881
69	0x3b46e6d3	0.0030349984
70	0x3e3704b0	0.17872882
71	0xbed39c56	-0.41330212
72	0xbecdbbec	-0.40182436
73	0x3e8cbf12	0.27489525
74	0x3ec9834e	0.3935799
75	0xbdd1b751	-0.10240043
76	0xbe06266b	-0.13100593
77	0x3ea7b6ef	0.32756755
78	0xbe3ec7ef	-0.18630956
79	0x3eb71dc7	0.35764906
80	0x3d76cd62	0.060254462
81	0x3c93de5b	0.018050363
82	0xbd316a4a	-0.043314256
83	0xbea9d2a7	-0.33168527
84	0x3f013b37	0.5048098
85	0x3eb6fc11	0.35739186
86	0xbdae41ce	-0.08508645
87	0x3e559e06	0.20861062
88	0x3e9371fb	0.28797898
89	0x3e943155	0.28943887
90	0x3f1c076b	0.6094882
91	0x3e7d9e68	0.24767458
92	0xbe9614fd	-0.29312888
93	0xbe291d2b	-0.16515033
94	0xbedf4110	-0.43604326
95	0x3ec6a383	0.38796625
96	0x3ed418ca	0.41425163
97	0xbe69c64e	-0.22829553
98	0xbe80ce17	-0.25157234
99	0x3d0cda00	0.03438759
100	0x3eab0624	0.33403122
101	0x3eaa2833	0.33233795
102	0x3d149c6c	0.036281988
103	0x3f0fa4f2	0.5611106
104	0xbeb03a90	-0.3441968
105	0x3e40e5d2	0.1883767
106	0xbea57729	-0.32317474
107	0xbec64ee3	-0.3873206
108	0xbea87d5f	-0.3290815
109	0xbe41b811	-0.18917872
110	0xbe9fd6be	-0.31218523
111	0x3ed2c474	0.41165507
112	0x3d3e4a69	0.04645768
113	0x3ebc8579	0.36820582
114	0xbeeb1345	-0.4591314
115	0x3e8a9a2d	0.27070752
116	0xbe92b58e	-0.2865414
117	0x3ebf4d7a	0.37363797
118	0x3e90bcee	0.28269142
119	0xbeb028d5	-0.34406152
120	0xbc6c90dd	-0.014438835
121	0x3d36baa7	0.0446116
122	0xbe42760d	-0.18990345
123	0x3ecc3cac	0.3989004
124	0x3e04c5c7	0.12966071
125	0x3db54132	0.08850326
126	0xbf0bc87b	-0.54602784
127	0xbdcfdac5	-0.10149149
128	0xbe2dd919	-0.16977347
129	0xbd6e1375	-0.058124024
130	0xbe36206f	-0.1778581
131	0x3e255725	0.16146524
132	0x3eee3d80	0.46531296
133	0xbe97f1e8	-0.29676747
134	0x3e938de3	0.28819188
135	0xbe62cba3	-0.22147994
136	0x3ec13f5a	0.37743646
137	0x3e64068e	0.22268125
138	0x3e37b8c1	0.17941572
139	0xbe0b8500	-0.13624954
140	0x3e49b91b	0.19699518
141	0xbeab92ba	-0.3351038
142	0x3d99bb82	0.075064674
143	0x3e17b751	0.14816023
144	0xbecad53c	-0.3961581
145	0x3e96d019	0.2945564
146	0x3d36a6c7	0.044592645
147	0x3e2061a5	0.15662248
148	0xbf01b6d2	-0.50669587
149	0x3ea2a8a4	0.31769288
150	0x3c6c4b52	0.014422255
151	0xbe1bba84	-0.15207869
152	0xbe7fdebc	-0.2498731
153	0x3df0c1fa	0.11755748
154	0x3e069735	0.13143618
155	0xbef0ff61	-0.4706984
156	0xbe5c8e53	-0.21538667
157	0xbe91a8b5	-0.28449026
158	0xbe95b116	-0.29236668
159	0xbe6471e4	-0.22309071
160	0x3ec2429e	0.3794145
161	0xbe78e7ed	-0.24307223
162	0x3dc275ce	0.09495126
163	0x3e8c4077	0.27392933
164	0x3ada565f	0.0016657821
165	0x3d231b12	0.039820738
166	0xbed730f4	-0.42029536
167	0x3ec770c2	0.38953215
168	0x3d35cf4e	0.044387154
169	0xbd249beb	-0.040187757
170	0x3d428e70	0.04749912
171	0xbef78e76	-0.48350877
172	0x3d159094	0.036514834
173	0x3edb9294	0.42885268
174	0xbec7f910	-0.39057207
175	0x3e46f6be	0.19430062
176	0xbd5abc1b	-0.053402048
177	0xbeb6acc8	-0.35678697
178	0xbeb14fb4	-0.3463112
179	0xbddd574d	-0.10807667
180	0xbde06d81	-0.10958386
181	0x3d519c88	0.05117467
182	0xbe90107a	-0.2813757
183	0xbe21f078	-0.15814388
184	0x3e511bfb	0.2042083
185	0x3ecff499	0.406163
186	0x3ecea618	0.40361094
187	0x3e851c16	0.2599799
188	0x3d77a472	0.06045956
189	0x3d59a2d2	0.053133793
190	0xbe0f27e9	-0.13980068
191	0xbd8be959	-0.06831617
192	0x3ee7d4ae	0.4527945
193	0xbeb0e876	-0.34552354
194	0xbef4d3be	-0.47817796
195	0xbea38722	-0.31939036
196	0xbdebfd40	-0.11522913
197	0xbe158db8	-0.14604843
198	0x3eccad00	0.3997574
199	0x3ec1584f	0.37762687
200	0xbe4437cc	-0.1916191
201	0x3e0755e3	0.13216357
202	0xbf030e46	-0.51193655
203	0x3e58e6b7	0.2118176
204	0xbd9ea414	-0.07746139
205	0x3ec07318	0.3758781
206	0xbeaa45b6	-0.3325631
207	0xbe2a8755	-0.16653188
208	0xbe974a50	-0.29548883
209	0x3e40e16a	0.18835989
210	0x3e90d75b	0.28289303
211	0x3e9176c8	0.28410935
212	0x3eb59948	0.35468507
213	0xbeb7a8fa	-0.35871106
214	0xbcf3bcd1	-0.02975312
215	0xbebddc25	-0.3708202
216	0xbe879446	-0.2648031
217	0x3e8af51c	0.2714013
218	0x3e6a8049	0.229005
219	0x3e993bb2	0.29928356
220	0x3ee3896b	0.4444078
221	0xbd98f1b4	-0.07467976
222	0xbe26545a	-0.16243115
223	0xbd5ac010	-0.05340582
224	0x3e89746c	0.26846635
225	0x3cd512f0	0.026010007
226	0x3e7f3c9a	0.24925461
227	0xbe6a3d78	-0.22875011
228	0xbe85c0d9	-0.26123694
229	0x3e86268d	0.26201287
230	0xbe609c30	-0.21934581
231	0xbc1f6970	-0.009729728
232	0xbe1a4eaa	-0.1506907
233	0xbd99c242	-0.07507755
234	0x3f22bd19	0.6356979
235	0x3e37d5e3	0.17952685
236	0x3de61edf	0.11236357
237	0x3d0048bb	0.03131936
238	0x3ef78bfa	0.4834898
239	0xbeb8ed1c	-0.361184
240	0xbec451ea	-0.38343745
241	0x3e255424	0.16145378
242	0x3d3fdbe7	0.046840575
243	0xbec20795	-0.3789641
244	0x3ebfe80d	0.37481728
245	0x3db7e251	0.08978713
246	0xbe7f1fbe	-0.24914452
247	0x3da49fc5	0.08038286
248	0x3e90f9f4	0.283157
249	0xbcf12bdd	-0.029439861
250	0x3c452800	0.0120334625
251	0x3e759c58	0.23985422
252	0x3e8d9bbf	0.27657887
253	0xbe4f8f6b	-0.20269553
254	0x3e4e6825	0.20156915
255	0x3c0937c0	0.008375108

fc1.bias f4 [32]
0	0xbbe651a7	-0.0070287767
1	0x3c46b7da	0.012128795
2	0x3d2ccd60	0.04218805
3	0x3e02b40a	0.12763992
4	0x3e087cd5	0.1332887
5	0x3c662917	0.0140478825
6	0x3d488ffe	0.048965447
7	0xbd59f0e1	-0.053208236
8	0x3d125dd7	0.035734024
9	0x3d552b62	0.052043326
10	0xbdb1c358	-0.08679837
11	0x3dc699e6	0.096973225
12	0x3d39468d	0.045233298
13	0x3d8bf4cd	0.068338014
14	0x3d56e024	0.05245985
15	0x3ca24fe0	0.019813478
16	0x3da382f0	0.07983959
17	0xbd2c355e	-0.042043082
18	0x3d8c45f3	0.06849279
19	0x3d4dfd5f	0.05029046
20	0x3d88e34e	0.0668398
21	0x3df49abe	0.11943577
22	0xbc973217	-0.018456502
23	0x3e035559	0.12825526
24	0x3de45dfb	0.11150738
25	0x3d33675d	0.043799747
26	0x3d69223e	0.05691742
27	0xbcd496c5	-0.025950799
28	0x3d8d50eb	0.069001995
29	0x3dcc2f0d	0.09969912
30	0x3c8d9b85	0.017286072
31	0x3c09d7fe	0.008413313

fc2.weight f4 [32, 32]
0	0xbe576b4b	-0.21037023
1	0xbd9d7ade	-0.07689451
2	0x3e6e5b99	0.23277129
3	0x3ed41c75	0.4142796
4	0x3ea49a44	0.32148945
5	0x3ed3b9f4	0.41352808
6	0xbe8a8384	-0.27053463
7	0xbef4faa8	-0.47847486
8	0x3dea314c	0.11435184
9	0x3cc5ea07	0.024159444
10	0xbeafd251	-0.34340146
11	0x3eb026c4	0.34404576
12	0xbe6e92a1	-0.23298122
13	0x3c13f9da	0.009031737
14	0xbd96ae59	-0.07357473
15	0xbe9f89e5	-0.31159893
16	0x3d236c01	0.039897922
17	0xbc9c65c4	-0.019091494
18	0x3ecb7953	0.39741
19	0xbe5d3f8b	-0.21606271
20	0xbe1d746c	-0.15376443
21	0x3efb7d06	0.49118823
22	0xbeb9644e	-0.3620934
23	0xbeb9616f	-0.36207148
24	0x3e3480e9	0.176273
25	0x3da7ef37	0.081999235
26	0x3c6cf95a	0.014463747
27	0x3b9e9bf1	0.004840367
28	0x3d54709b	0.0518652
29	0xbe541578	-0.20711315
30	0xbead387a	-0.3383215
31	0x3d8b7046	0.06808524
32	0x3d3df56f	0.04637664
33	0xbe26a83b	-0.16275112
34	0x3dd4ead2	0.10396351
35	0xbe1e5a74	-0.15464193
36	0x3ef11d46	0.47092646
37	0xbe752729	-0.2394072
38	0xbe842258	-0.25807452
39	0x3cd96ed6	0.026542109
40	0x3e7c171f	0.24618195
41	0x3d2638cb	0.040581506
42	0xb9c94b3f	-0.0003839377
43	0xbe2e3064	-0.17010647
44	0x3ef2eb5e	0.47445196
45	0xbe8292ef	-0.25502726
46	0xbd9518dd	-0.07280133
47	0xbe4d5d51	-0.20055129
48	0x3ea997c0	0.3312359
49	0x3e473a38	0.19455802
50	0xbe44b69b	-0.19210283
51	0x3ecdfb07	0.4023058
52	0xbeba31a2	-0.36365992
53	0x3d97a476	0.07404415
54	0x3cc851db	0.024453094
55	0xbd4bc7fa	-0.04975126
56	0xbdcbbefa	-0.09948535
57	0x3f1227a9	0.57091767
58	0xbe4b0126	-0.19824657
59	0xbeb7beba	-0.358877
60	0x3ecacf88	0.3961146
61	0x3dfce8a9	0.12349064
62	0x3e31ac2f	0.17350839
63	0xbe8e5a8b	-0.27803454
64	0x3c92f158	0.017937347
65	0x3ebd7a5f	0.37007424
66	0x3e54f091	0.20794894
67	0xbecc85bf	-0.3994579
68	0x3ed32336	0.412378
69	0x3e884e6f	0.2662234
70	0x3e80d398	0.25161433
71	0x3e14ba16	0.14524111
72	0xbbe96ca1	-0.0071235453
73	0xbe8abc21	-0.27096656
74	0x3c5af5a7	0.013364232
75	0xbe0e870d	-0.13918705
76	0xbdb18132	-0.0866722
77	0x3eb854b7	0.36002132
78	0x3e3f9681	0.18709756
79	0xbebb15c6	-0.3654005
80	0x3e8cafff	0.27478024
81	0x3ddd9986	0.10820298
82	0x3ea95d85	0.33079162
83	0xbe53fd08	-0.20701993
84	0xbe0b3c0e	-0.13597128
85	0xbebf6cf4	-0.37387812
86	0xbe9c422b	-0.30519232
87	0xbe3b74f6	-0.18306336
88	0xbe9538f3	-0.2914501
89	0xbe93f730	-0.28899527
90	0x3ec06fb0	0.3758521
91	0x3d0ceed3	0.034407448
92	0x3ec3d2d6	0.38246793
93	0x3e22f1f6	0.15912613
94	0xbd036da7	-0.032086994
95	0xbe3c35c4	-0.18379885
96	0xbce1288e	-0.027485158
97	0xbe5b2408	-0.21400464
98	0xbe880cb7	-0.265722
99	0xbe8704b6	-0.26370782
100	0x3e823816	0.25433415
101	0x3ddb76ac	0.10715994
102	0xbe1fe2f3	-0.15613918
103	0xbe154f34	-0.14580995
104	0xbd2f64b4	-0.042820647
105	0xbea5c881	-0.32379535
106	0x39aaa584	0.00032548246
107	0xbe5867fc	-0.21133417
108	0xbeca66b0	-0.3953147
109	0x3ec4b31f	0.3841791
110	0xbda812a4	-0.082066804
111	0x3ed16ebb	0.40904793
112	0x3ecbb0b7	0.3978326
113	0xbe71dbf7	-0.23619066
114	0x3e867649	0.2626212
115	0xbbc4bc60	-0.0060039014
116	0x3ec9f123	0.39441785
117	0x3e41cd94	0.18926078
118	0xbe24d667	-0.16097413
119	0x3f07148e	0.5276574
120	0xbe739f17	-0.23791157
121	0xbebfb8df	-0.37445733
122	0xbe9baa9d	-0.30403605
123	0xbc8f51ce	-0.017495062
124	0x3c3afa30	0.011412188
125	0x3f074fa3	0.5285589
126	0x3ebc2fb7	0.36755154
127	0x3e70d957	0.23520409
128	0x3eac19d9	0.3361347
129	0xbe054c90	-0.13017488
130	0xbcac7e03	-0.02105618
131	0x3eb4e1c9	0.3532851
132	0x3e6b9522	0.23006108
133	0xbe08c340	-0.13355732
134	0x3ea2ef7c	0.31823337
135	0xbebcb56a	-0.36857158
136	0xbe8b2831	-0.271791
137	0x3e8db76a	0.27678996
138	0x3dae62f4	0.085149676
139	0xbe9a8f9e	-0.30187696
140	0xbe43366c	-0.19063729
141	0x3e93f9aa	0.28901416
142	0x3e625723	0.22103553
143	0x3e917294	0.2840773
144	0x3ee12c34	0.43979037
145	0x3bbb1c22	0.005710141
146	0xbe54e335	-0.20789798
147	0xbe84947c	-0.25894535
148	0xbe6b0d6c	-0.22954339
149	0x3e9bce6e	0.3043093
150	0xbea50367	-0.32229158
151	0x3ee996fd	0.45623007
152	0xbe933d22	-0.28757578
153	0x3ce4e797	0.027942462
154	0xbefb502e	-0.4908461
155	0xbe134189	-0.14380468
156	0xbe9fb4d4	-0.31192648
157	0x3e54d2e5	0.20783575
158	0xbe81635c	-0.25271118
159	0xbd3e02a4	-0.046389237
160	0xbd542d7e	-0.051801197
161	0xbe015400	-0.126297
162	0x3df923cb	0.1216503
163	0xbeef8324	-0.4677974
164	0xbea7d153	-0.3277689
165	0xbda1965e	-0.078900084
166	0x3d81c417	0.06336229
167	0xbe9509f7	-0.29109165
168	0x3eb96d87	0.36216375
169	0xbe1d7227	-0.15375577
170	0xbccfe723	-0.02537877
171	0xbea7f5e9	-0.32804802
172	0xbee42f4c	-0.44567335
173	0x3e784ae8	0.24247324
174	0xbe279fe4	-0.16369587
175	0xbe0c63e0	-0.13709974
176	0x3ea96f6e	0.33092827
177	0x3ee04208	0.43800378
178	0x3ebfd89c	0.37469947
179	0x3ecb8f8e	0.3975796
180	0x3e811cc7	0.25217268
181	0x3eb7eeb1	0.35924295
182	0x3e48d12d	0.19611044
183	0x3dec12a9	0.11526997
184	0x3eca4ee9	0.3951333
185	0x3e09b576	0.13448128
186	0xbe9a9b17	-0.3019645
187	0x3e2bfcef	0.16795705
188	0xbe2b2294	-0.1671241
189	0xbdef9148	-0.11697632
190	0xbe46fe65	-0.19432981
191	0xbeae75d7	-0.3407428
192	0xbe3e0797	-0.18557583
193	0xbe4747a1	-0.19460918
194	0x3e97e298	0.29665065
195	0x3e9674d9	0.29386023
196	0xbdf927fc	-0.121658295
197	0xbebf7944	-0.37397206
198	0xbe256366	-0.16151199
199	0xbec2e2fc	-0.380638
200	0x3d4618ce	0.0483635
201	0x3ebb043b	0.36526665
202	0xbe99c44a	-0.3003257
203	0xbea33192	-0.31873757
204	0xbe7157b9	-0.2356862
205	0x3e3a7731	0.1820953
206	0x3ecb7f7e	0.39745706
207	0xbe939bca	-0.28829795
208	0x3a82e3e1	0.0009986126
209	0xbc65da01	-0.014029027
210	0xbd83eede	-0.06442045
211	0x3d1ee3e2	0.038791545
212	0xbe858d7d	-0.2608451
213	0x3ebfe0c1	0.3747616
214	0xbe2a4a57	-0.16629921
215	0x3e91c030	0.2846694
216	0x3ea4e489	0.32205608
217	0x3d21ad4c	0.03947191
218	0x3ebbff4d	0.36718217
219	0x3e9f73ab	0.31142935
220	0xbe2b1803	-0.16708378
221	0x3cf17478	0.029474482
222	0xbac33eae	-0.0014895999
223	0x3dffd836	0.12492411
224	0xbe88bbb0	-0.26705694
225	0xbe07774c	-0.13229102
226	0x3ec563b0	0.38552618
227	0x3d569d84	0.052396312
228	0x3d422549	0.04739884
229	0x3d8d0eda	0.06887598
230	0x3d354c38	0.04426214
231	0x3f0e3ad9	0.55558544
232	0x3e43cadb	0.19120352
233	0x3e04d102	0.12970355
234	0xbe9e77a7	-0.30950662
235	0xbe5ace12	-0.21367672
236	0x3e9753bc	0.29556072
237	0x3e385efa	0.1800498
238	0xbe1c4545	-0.15260799
239	0x3e5d0df2	0.21587351
240	0x3eba4a91	0.36385015
241	0x3f0c6391	0.54839426
242	0xbe79b15b	-0.24384062
243	0xbe72d710	-0.23714852
244	0x3e5965e3	0.21230273
245	0x3e43a473	0.19105701
246	0x3ebdd1ac	0.3707403
247	0x3e2762bd	0.1634626
248	0xbe07dd8f	-0.13268112
249	0x3f139940	0.57655716
250	0xbeb9f192	-0.36317116
251	0xbe00a81c	-0.12564129
252	0x3e14577f	0.14486502
253	0xbeb97f66	-0.3623001
254	0xbdd7ff9c	-0.105468005
255	0x3decc4c2	0.11560966

fc2.bias f4 [32]
0	0x3dce3ec0	0.10070562
1	0x3d9969f7	0.07490914
2	0x3d886c63	0.06661298
3	0x3db2bf1d	0.08727858
4	0x3db02ea1	0.08602644
5	0x3d949126	0.07254247
6	0x3d76f856	0.060295425
7	0x3dd4cedc	0.10391018
8	0x3d430c40	0.047619104
9	0x3d844abf	0.06459569
10	0x3df87d4c	0.121332735
11	0x3c3574f1	0.011075244
12	0x3c9a256b	0.01881667
13	0x3db19c6a	0.08672412
14	0x3dab6b26	0.08370046
15	0x3d3d5eaf	0.046232875
16	0x3cb06f93	0.021537578
17	0x3d185ebe	0.03719973
18	0x3d94e4eb	0.07270225
19	0x3da08076	0.07837002
20	0x3c882073	0.016617035
21	0x39eb02a0	0.0004482465
22	0x3dacbf14	0.08434883
23	0x3cb71528	0.022348955
24	0x3dd019d5	0.10161177
25	0x3d3ca614	0.046056822
26	0x3d7bc110	0.061463416
27	0x3d255a39	0.040369246
28	0x3dd3e727	0.10346823
29	0x3db044ec	0.08606896
30	0x3d54fbbc	0.051997885
31	0x3c8043ce	0.015657332

gru.weight_ih_l0 f4 [96, 32]
0	0x3e5fab23	0.21842627
1	0x3e8ffaea	0.2812112
2	0xbdb62dec	-0.08895478
3	0x3da11a49	0.078663416
4	0x3da1e5bc	0.079051465
5	0xbdbd2b10	-0.09236729
6	0x3e9509a9	0.29108933
7	0x3d473d59	0.04864249
8	0x3e26b870	0.16281295
9	0x3e564751	0.20925643
10	0x3e4bd0fc	0.1990394
11	0x3de36f0c	0.11105165
12	0xbd66adc0	-0.056318045
13	0x3e18d161	0.14923622
14	0xba8ae6eb	-0.0010597383
15	0x3d2c22bb	0.04202531
16	0x3e055177	0.13019358
17	0xbdd8e8ed	-0.10591302
18	0x3daf5bf0	0.085624576
19	0x3dc934bc	0.098245114
20	0xba60454d	-0.00085552485
21	0xbd74242c	-0.05960481
22	0xbba780f2	-0.005111807
23	0x3e036666	0.1283203
24	0xbc57fb67	-0.013182498
25	0xbd4992ed	-0.049212385
26	0x3dc8b6be	0.0980048
27	0x3e1f154d	0.1553547
28	0x3e24ea8c	0.16105098
29	0xbc1f5cb2	-0.00972669
30	0x3dfbf2dd	0.12302182
31	0x3d41bdf1	0.047300283
32	0xbe497102	-0.19672015
33	0x3d1efb3d	0.03881382
34	0x3d816d77	0.06319707
35	0xbd8140e0	-0.06311202
36	0xbc3f41ad	-0.011673373
37	0xbe3007b7	-0.17190443
38	0xbcb77363	-0.022393888
39	0x3d3bbb7d	0.0458331
40	0x3e449247	0.19196425
41	0xbdeedcb4	-0.116631895
42	0x3d711255	0.058855373
43	0x3e3ac731	0.18240048
44	0xbd5e306b	-0.054245394
45	0x3df25c55	0.11834017
46	0xbd4cf1b5	-0.050035197
47	0xbd823388	-0.06357485
48	0x3de96b7a	0.11397453
49	0x3d08b8a8	0.033379227
50	0x3e0f620a	0.14002243
51	0xbe3f9232	-0.18708113
52	0xbc8748a0	-0.016514122
53	0x3e4f617a	0.20252028
54	0xbd6b6fb3	-0.05747957
55	0xbd548e19	-0.051893327
56	0x3cd504e2	0.026003305
57	0x3d11a27a	0.03555534
58	0x3e6c1615	0.23055299
59	0x3dd06ee8	0.10177404
60	0x3cabbda8	0.020964459
61	0x3e0161df	0.12634991
62	0x3e855ca7	0.2604725
63	0x3e20ae2c	0.15691441
64	0xbd083e8f	-0.033262786
65	0x3d814886	0.06312661
66	0xbe04d873	-0.12973194
67	0xbe2417cd	-0.16024704
68	0x3de7b6bd	0.113141514
69	0xbda5825b	-0.08081504
70	0xbbaec8fd	-0.0053340183
71	0x3e76e51d	0.24110837
72	0xbc3d5102	-0.011554958
73	0x3e859c0f	0.26095626
74	0x3cae64fa	0.021288384
75	0xbdfd001e	-0.12353538
76	0xbe45ea30	-0.19327617
77	0xbdde42e3	-0.108526014
78	0x3db11907	0.08647352
79	0xbbb1ae02	-0.0054223547
80	0x3ca25e9d	0.019820506
81	0x3bbe0878	0.0057993494
82	0x3d1ddf31	0.03854293
83	0x3e88eaff	0.26741788
84	0xbda95db9	-0.08269829
85	0x3df2c2fc	0.118535966
86	0x3e5b5e45	0.2142268
87	0x3de8a5f8	0.11359781
88	0x3e668d9e	0.2251496
89	0x3d319f4e	0.043364815
90	0xbd776f25	-0.06040873
91	0xbe11c1b8	-0.14234054
92	0x3ca2bf5e	0.019866642
93	0xbdd2a414	-0.10285202
94	0xbb9da634	-0.0048110727
95	0xbe67a6f1	-0.22622277
96	0xbdc70ff5	-0.097198404
97	0x3e1826e6	0.14858589
98	0x3e3ee334	0.18641359
99	0xbd7cbbba	-0.061702468
100	0xbd6eb32e	-0.058276348
101	0x3d51c90e	0.05121713
102	0xbe64bdfb	-0.22338097
103	0xbda6de9c	-0.08147928
104	0x3deba01e	0.11505149
105	0x3d16e14f	0.036835965
106	0x3d21ce23	0.039503228
107	0xbd65488f	-0.0559774
108	0x3e567cfc	0.20946115
109	0x3dd2ed96	0.10299222
110	0xbcfb576d	-0.030681336
111	0x3d773b0d	0.06035905
112	0x3e1792c7	0.14802085
113	0x3e6ff387	0.23432742
114	0xbd459c35	-0.048244674
115	0xbdb9b601	-0.090679176
116	0xbcb044d1	-0.02151719
117	0x3e64c8d3	0.22342233
118	0xbda9f848	-0.08299309
119	0x3e1a1db4	0.15050393
120	0xbdb5667a	-0.088574365
121	0xbdd49c98	-0.103814304
122	0xbdc44fb9	-0.095855184
123	0x3dc15e4e	0.09441815
124	0x3da77b9b	0.08177873
125	0x3dab0aac	0.08351645
126	0x3e2b62f2	0.16736963
127	0x3e8471b9	0.25868014
128	0x3d9fde52	0.07806076
129	0x3d9369c1	0.07197905
130	0xbba638dc	-0.005072696
131	0x3d150c57	0.03638872
132	0xbd16b593	-0.036794256
133	0xbcc6671f	-0.024219094
134	0x3e93a95d	0.2884015
135	0xbdb9069b	-0.09034463
136	0x3e24d63d	0.1609735
137	0x3e301778	0.17196453
138	0xbd5d0ac4	-0.053965345
139	0xbd475af8	-0.04867074
140	0xbb4a7f31	-0.0030898566
141	0x3e2c101d	0.16803022
142	0x3e939cba	0.2883051
143	0x3daf5ef0	0.0856303
144	0xbe458df8	-0.19292438
145	0xbdeb4542	-0.11487819
146	0x3c879bfc	0.016553871
147	0x3de61199	0.11233825
148	0xbe26516c	-0.16241997
149	0xbb889f6b	-0.0041693947
150	0x3e867809	0.26263455
151	0xbe0a6e04	-0.1351853
152	0x3e0af739	0.1357087
153	0x3d3115d3	0.043233704
154	0xbe19b57e	-0.1501064
155	0xbdad378a	-0.08457859
156	0x3cb28bdd	0.021795208
157	0x3dd01383	0.101599716
158	0xbe9a3b76	-0.3012349
159	0x3dbce2d3	0.09222951
160	0xbd59b46c	-0.05315058
161	0x3d286884	0.0411153
162	0x3ce2b8a5	0.027675936
163	0x3dec5025	0.11538724
164	0xbc07d2bb	-0.008289988
165	0x3d996491	0.07489885
166	0x3e2ad3f6	0.16682419
167	0xbdfb27e9	-0.12263472
168	0x3dae50a5	0.085114755
169	0xbdab6d57	-0.08370464
170	0xbdc48208	-0.09595114
171	0xbd906682	-0.07050802
172	0x3e4332a2	0.19062284
173	0x3e5b02de	0.21387812
174	0xbe0f0f2a	-0.13970628
175	0x3cb9bdfd	0.022673601
176	0x3e820aa4	0.25398743
177	0x3e37a978	0.17935741
178	0xbe1ab0fc	-0.15106577
179	0x3cc15d26	0.023603987
180	0x3e73ca01	0.23807527
181	0x3e2e19e8	0.1700207
182	0x3be09672	0.006853872
183	0xbc765780	-0.01503551
184	0x3d5edee1	0.054411773
185	0x3e1350d8	0.14386308
186	0x3e30a8a3	0.1725183
187	0x3e190675	0.1494387
188	0xbdb145ab	-0.08655866
189	0x3cbf3541	0.023340823
190	0x3e780d7d	0.24223895
191	0xbda63b90	-0.081168294
192	0x3e07b6d8	0.13253343
193	0xbe386cc0	-0.18010235
194	0x3d092a06	0.033487342
195	0xbd6a3311	-0.057177607
196	0xbd04be8e	-0.03240829
197	0x3e59a5bb	0.21254627
198	0xbd698d3b	-0.057019453
199	0x3eb1253a	0.34598714
200	0x3e317439	0.17329492
201	0x3d9dfbf1	0.0771407
202	0x3d4f14e4	0.050557032
203	0xbd6acebb	-0.05732606
204	0x3d8d8bc7	0.06911426
205	0x3d89599e	0.06706546
206	0x3d474a55	0.048654873
207	0x3dec1e8f	0.11529266
208	0x3e082375	0.13294776
209	0x3e20373a	0.15646067
210	0x3d96053c	0.07325217
211	0xbe69596c	-0.22788018
212	0x3e6e0520	0.23244143
213	0xbd7b5cb5	-0.06136771
214	0x3da21a33	0.07915153
215	0x3e47abce	0.19499132
216	0xbe372667	-0.17885743
217	0x3d78fb0c	0.060786292
218	0xbdc89917	-0.097948246
219	0xbca45345	-0.020059237
220	0xbe33b74c	-0.17550391
221	0xbc79dd22	-0.015250476
222	0xbc8558b1	-0.016277643
223	0xbd1951ab	-0.0374314
224	0xbdb053ae	-0.08609711
225	0x3dd5492e	0.104143485
226	0xbd1defd6	-0.038558803
227	0xbdb1dce0	-0.08684707
228	0x3c8c8f06	0.017158043
229	0xbd1fc945	-0.039010305
230	0x3d88dbec	0.06682572
231	0x3d8d9702	0.06913568
232	0x3e1ac1b9	0.15112962
233	0x3e7635fb	0.2404403
234	0x3ce6a028	0.02815254
235	0x3dc60f88	0.09670931
236	0x3d96ed28	0.07369453
237	0xbd864ad0	-0.06557238
238	0x3e1a1281	0.15046121
239	0x3de476e6	0.111554906
240	0x3e0e1fcf	0.13879322
241	0xbe38cf6f	-0.1804788
242	0x3e958d76	0.2920949
243	0x3d550549	0.052006993
244	0x3d81a68b	0.06330594
245	0x3d6f33d4	0.058399037
246	0xbd86d36c	-0.06583294
247	0x3cc58cf3	0.024115061
248	0xbe686f30	-0.22698665
249	0x3db500e6	0.08838062
250	0xbdae14aa	-0.08500035
251	0xbdcc5acf	-0.09978258
252	0x3e456dfb	0.19280235
253	0x3c8a1064	0.016853519
254	0xbe0cefd9	-0.1376337
255	0xbe291eeb	-0.165157

gru.weight_hh_l0 f4 [96, 32]
0	0x3dc62d2c	0.096765846
1	0xbde83af2	-0.11339368
2	0x3d964e30	0.07339132
3	0xbc814d3a	-0.015783895
4	0x393efda6	0.00018214303
5	0xbcec53e0	-0.028848588
6	0xbcb24194	-0.021759786
7	0xbeb5409d	-0.3540086
8	0xbe2baa70	-0.16764235
9	0xbe7ea748	-0.248685
10	0xbccd01b3	-0.025025224
11	0xbb1cadd8	-0.002390733
12	0xbe17257d	-0.14760394
13	0x3d7c4ab0	0.061594665
14	0x3dc63581	0.09678174
15	0x3dd27dc0	0.10277891
16	0x3dba4a9d	0.090962626
17	0xbd9fb6ee	-0.07798563
18	0xbe668fc5	-0.22515781
19	0x3e2258d7	0.15854202
20	0xbe374bd6	-0.17900023
21	0xbcbd4e68	-0.023108676
22	0xbdf9793a	-0.12181325
23	0x3e304dfb	0.17217247
24	0x3da18961	0.07887531
25	0x3dd11665	0.102093495
26	0x3d612104	0.054963127
27	0xbca550b9	-0.020180093
28	0x3dbedd69	0.093195744
29	0x3e572c34	0.21012956
30	0xbcef87b3	-0.029239511
31	0x3cdc452b	0.02688845
32	0x3e3821c4	0.1798163
33	0x3d9a0700	0.075208664
34	0x3ce219a8	0.027600124
35	0xbdad622c	-0.084659904
36	0x3e2cca18	0.16873968
37	0xbcbdb248	-0.0231563
38	0xbcaa5f3f	-0.02079737
39	0xbc0394ed	-0.008031112
40	0xbe0292ab	-0.12751262
41	0xbdae90c4	-0.085237056
42	0x3d041320	0.0322448
43	0xbe0fdaba	-0.14048281
44	0x3e125805	0.1429139
45	0x3e0de7e3	0.13857989
46	0x3e665259	0.2249235
47	0x3d5da5f4	0.054113343
48	0x3e2cf561	0.1689048
49	0x3d809d9d	0.06280062
50	0xbe0cba50	-0.13742948
51	0xbce070df	-0.027397571
52	0xbe142588	-0.14467442
53	0x3df15839	0.11784405
54	0xbe4db39f	-0.20088051
55	0xbd502d39	-0.050824378
56	0xbd3491f6	-0.04408451
57	0x3c84f396	0.016229432
58	0x3d8bb84f	0.068222634
59	0x3d3b85cd	0.0457819
60	0xbe244fb3	-0.16046028
61	0x3dd39dea	0.10332854
62	0x3e388629	0.18019928
63	0xbe100c4e	-0.14067194
64	0x3e3babbc	0.1832723
65	0xbd592a4a	-0.053018846
66	0x3cec6bdc	0.028860025
67	0xbdae0ed6	-0.084989235
68	0xbcf0c6ff	-0.029391764
69	0x3dc1bc21	0.09459711
70	0x3e1e1607	0.1543809
71	0xbe046436	-0.12928852
72	0xbe250ed2	-0.16118935
73	0xbd06767b	-0.032827836
74	0x3e9f344f	0.31094596
75	0xbddcae99	-0.10775489
76	0x3d88bcd3	0.0667664
77	0xbe21c0cb	-0.15796201
78	0x3ddc7ffc	0.107665986
79	0x3d987dd3	0.07445874
80	0x3e13791b	0.14401667
81	0x3e2deb94	0.16984397
82	0x3e3e697b	0.18594925
83	0xbd68ecf1	-0.05686659
84	0x3ce43681	0.02785802
85	0xbdbf693e	-0.09346245
86	0x3d7810be	0.06056284
87	0x3d51fbad	0.051265407
88	0xbdf9ff2f	-0.122068755
89	0x3e012542	0.12611869
90	0x3dab1d4c	0.08355197
91	0xbe32edfc	-0.17473596
92	0x3e1ac09b	0.15112536
93	0x3c8de44f	0.01732078
94	0x3e2636cd	0.16231842
95	0x3bca28a4	0.0061693955
96	0x3d14d8b3	0.036339473
97	0xbe67c2f7	-0.22632967
98	0x3e6354f4	0.22200376
99	0xbe4a4d15	-0.19755967
100	0x3e3bfbde	0.18357798
101	0xbe82f6ed	-0.25579014
102	0x3d4c037c	0.04980801
103	0x3cf3e3fe	0.029771801
104	0xbe8cc31b	-0.27492604
105	0xbe95d0a3	-0.2926074
106	0x3e0bd836	0.13656697
107	0xbe81a1d8	-0.2531879
108	0xbdc5654d	-0.09638462
109	0xbe1a37fd	-0.1506042
110	0x3e409c39	0.18809594
111	0xbe809e9c	-0.2512101
112	0x3e48bbf4	0.19602948
113	0xbd85609f	-0.0651257
114	0xbdcdb82a	-0.10044892
115	0x3c976277	0.018479569
116	0xbe526442	-0.20546058
117	0x3d5165a1	0.05112231
118	0xbe135865	-0.14389189
119	0x3dce6fe2	0.10079934
120	0xbe003eb1	-0.12523915
121	0xbcce54b4	-0.025186874
122	0x3e4496d5	0.19198163
123	0xbdda266a	-0.10651858
124	0x3cbcc60f	0.02304366
125	0x3e0fbb9a	0.14036408
126	0xbe192dd4	-0.14958888
127	0xbde6d6ca	-0.112714365
128	0xbc461761	-0.012090535
129	0xbe12d820	-0.14340258
130	0x3e79a377	0.24378763
131	0xbe06f0a6	-0.13177738
132	0x3d83abe2	0.064292684
133	0xbe4a8090	-0.19775605
134	0x3dee8e15	0.11648194
135	0xbea5bd2a	-0.32370883
136	0xbd219689	-0.039450202
137	0xbe3d4d7e	-0.18486592
138	0x3de0f052	0.109833375
139	0xbd4dce64	-0.050245658
140	0xbdb96d7b	-0.09054085
141	0x3d1d00b5	0.038330752
142	0xbd81c176	-0.06335728
143	0x3d505606	0.05086329
144	0xbc46342b	-0.012097399
145	0xbcdc7a50	-0.026913792
146	0x3dd7ae2f	0.1053127
147	0x3e192b49	0.14957918
148	0xbdad95b4	-0.08475819
149	0xbe336df8	-0.17522418
150	0x3cdda6b0	0.027057022
151	0x3e0ae1f4	0.13562757
152	0xbdf4e293	-0.11957278
153	0x3c578e34	0.013156462
154	0xbd0a48ca	-0.033760823
155	0x3da62d72	0.08114137
156	0xbd5e7749	-0.054312978
157	0x3cf87f07	0.030334009
158	0xbd69d02d	-0.057083298
159	0x3d45640a	0.048191108
160	0x3e1be4fd	0.15224071
161	0xbe4a6b25	-0.19767435
162	0x3e085545	0.13313778
163	0xbdb84a45	-0.08998541
164	0x3d61831c	0.055056676
165	0x3d6db011	0.058029238
166	0x3d58de35	0.05294629
167	0x3e5b9350	0.21442914
168	0xbe6a7f76	-0.22900185
169	0xbe28e293	-0.16492681
170	0x3d2981f7	0.04138371
171	0xbd628a46	-0.05530765
172	0xbd617ce8	-0.05505076
173	0xbddbc257	-0.10730427
174	0x3e452c01	0.19255067
175	0xbb91b2f9	-0.004446384
176	0x3d4c01e9	0.04980651
177	0xbe14640e	-0.14491293
178	0xbe5704bb	-0.20997898
179	0xbd3f4152	-0.046693154
180	0x3d2fe84c	0.042946145
181	0xbe6691e2	-0.22516587
182	0x3d4f4915	0.050606806
183	0x3d5ea06d	0.054352213
184	0xbd57a227	-0.052644875
185	0x3d1c75e6	0.038198374
186	0x3e13c62e	0.14431068
187	0xbda26448	-0.079292834
188	0xbe08f5ce	-0.13375017
189	0x3daf70f5	0.08566467
190	0x3bd42d31	0.006475114
191	0xbeacb1d0	-0.3372941
192	0xbb8b5c73	-0.004252964
193	0xbd927618	-0.07151431
194	0xbda80c6c	-0.08205494
195	0x3dada038	0.08477825
196	0xbbd10687	-0.006378952
197	0xbdcd80f3	-0.10034361
198	0xbe4ccee0	-0.20000792
199	0x3dc03143	0.09384396
200	0xbd96575c	-0.07340881
201	0x3dbf62b4	0.09344998
202	0x3e0e4291	0.1389258
203	0xbd3611f2	-0.044450708
204	0x3dec163e	0.1152768
205	0x3dc79bc4	0.09746507
206	0xbda7fc29	-0.082023926
207	0xbe78c7cd	-0.24294968
208	0x3cf0f7f5	0.02941511
209	0xbdb895dd	-0.09012959
210	0xbd45734f	-0.04820567
211	0xbd8f1142	-0.069857135
212	0xbe493c64	-0.19651943
213	0x3d841ed8	0.064511955
214	0xbe153439	-0.14570703
215	0xbd2d9e9e	-0.042387597
216	0x3d91cc1c	0.07119009
217	0xbe3a9bf1	-0.1822355
218	0x3cfcb9f6	0.030850392
219	0x3d679736	0.05654069
220	0xbdc0a54d	-0.094065286
221	0xbde14e70	-0.11001289
222	0x3c5bfa65	0.013426398
223	0xbe18e8b2	-0.14932516
224	0xbdf92faf	-0.12167298
225	0xbde74906	-0.11293225
226	0x3e1aaea3	0.15105681
227	0xbe1e8f9a	-0.15484467
228	0x3cbbe700	0.022937298
229	0x3ddebcb3	0.10875835
230	0x3d5cea15	0.053934176
231	0x3ea52113	0.32251796
232	0xbc89458e	-0.0167568
233	0x3df68c08	0.120384276
234	0x3db52f1e	0.088468775
235	0x3e1c9d6b	0.15294425
236	0xbd0d99f5	-0.034570653
237	0xbd2cfcf4	-0.042233422
238	0x3d98ccac	0.07460913
239	0x3c1838f4	0.009290922
240	0x3e60e34f	0.21961711
241	0x3d3d8bf0	0.046276033
242	0x3eb011e7	0.34388658
243	0xbd69abef	-0.057048734
244	0xbdb0b161	-0.08627582
245	0x3de35d33	0.11101761
246	0x3dfad2bc	0.12247226
247	0x3def8539	0.11695332
248	0xbc857861	-0.016292753
249	0x3d867669	0.06565554
250	0x3e79b378	0.24384868
251	0xbdbf8fa6	-0.09353571
252	0x3dad1093	0.08450427
253	0x3de35fd6	0.11102264
254	0xbd8704fd	-0.06592748
255	0xbe268b63	-0.1626411

gru.bias_ih_l0 f4 [96]
0	0x3e7b619b	0.24548952
1	0x3e06aef5	0.13152678
2	0x3ca07a66	0.019589614
3	0xbd35c84f	-0.044380482
4	0x3e0061c7	0.12537299
5	0x3dc24149	0.094851084
6	0x3e587cf2	0.21141413
7	0x3e49a4fd	0.19691844
8	0x3c50b3fb	0.012738223
9	0xbdb94b6f	-0.09047591
10	0x3da6c9aa	0.08143933
11	0xbdee1ca4	-0.116265565
12	0xbe11955e	-0.14217135
13	0xbc882cce	-0.016622927
14	0xbe229cbb	-0.158801
15	0x3e11b421	0.1422887
16	0x3e65eb87	0.22453128
17	0xbd6aecb8	-0.05735466
18	0x3db99e5c	0.09063408
19	0xbcaa03ae	-0.020753708
20	0xbe324c6f	-0.1741197
21	0x3e580e3f	0.21099184
22	0x3e733371	0.23750092
23	0x3db1fa8a	0.08690365
24	0x3e112a6f	0.14176343
25	0x3e8155e6	0.25260848
26	0x3e342eb5	0.17595942
27	0xbcabe714	-0.02098421
28	0x3dddedce	0.10836373
29	0xbdf40407	-0.11914831
30	0xbe26a8b1	-0.16275288
31	0xbe0a294b	-0.13492315
32	0xbe852ea2	-0.2601214
33	0xbe6746b3	-0.22585563
34	0xbea765ab	-0.32694754
35	0xbead16ba	-0.33806401
36	0xbdcfa574	-0.101389796
37	0xbe6dcd84	-0.23222929
38	0xbe86043f	-0.26175115
39	0xbe3a9ae5	-0.1822315
40	0xbe9e3377	-0.3089864
41	0xbdc4ae28	-0.0960353
42	0xbe6120e7	-0.21985207
43	0xbe506455	-0.20350774
44	0xbeb04faa	-0.3443578
45	0x3d840caf	0.06447732
46	0x3d30585a	0.04305301
47	0xbec40346	-0.38283747
48	0xbea189ec	-0.3155054
49	0xbe3b008d	-0.18261929
50	0xbe405040	-0.18780613
51	0x3e082a9a	0.13297501
52	0xbd444362	-0.047915824
53	0xbdf2cec4	-0.11855844
54	0xbe14ed7e	-0.14543721
55	0xbe292e88	-0.16521657
56	0x3e3bbf0f	0.18334602
57	0x3dd88ea1	0.10574079
58	0xbdf7e9c2	-0.12105133
59	0xbe25489b	-0.16140978
60	0xbe76b9f9	-0.2409438
61	0xbe4e398b	-0.20139138
62	0xbea1ba08	-0.31587243
63	0xbe8de67f	-0.27714917
64	0xbd1a73dc	-0.03770815
65	0xbe03d088	-0.12872517
66	0xbd89a799	-0.0672142
67	0xbe310edf	-0.17290829
68	0x3e087537	0.13325964
69	0xbdf12d96	-0.11776273
70	0xbe222f78	-0.1583842
71	0x3d33a45d	0.04385792
72	0xbe01021c	-0.12598461
73	0xbe834b8e	-0.2564358
74	0xbd887c82	-0.06664373
75	0xbdea4e4b	-0.114407144
76	0x3cf14eca	0.029456515
77	0x3d96c8e0	0.073625326
78	0xbd980d06	-0.07424359
79	0x3db95834	0.090500265
80	0xbdb5ed17	-0.08883112
81	0xbe1e0be6	-0.15434226
82	0x3dfd2d25	0.12362126
83	0x3c60689c	0.013696816
84	0xbda58798	-0.08082503
85	0x3d8d6786	0.06904511
86	0xbc98e969	-0.018665986
87	0x3d4f4bfc	0.050609574
88	0xbd132479	-0.035923455
89	0x3db980a6	0.09057741
90	0x3e1a8200	0.15088654
91	0xbe34c502	-0.17653278
92	0x3cd60cc3	0.026129132
93	0x3e261328	0.16218245
94	0xbd69d33b	-0.05708621
95	0xbe095169	-0.13409962

gru.bias_hh_l0 f4 [96]
0	0x3e2ea9f6	0.17057022
1	0x3dfd6dcf	0.1237446
2	0xbcffaf70	-0.031211585
3	0x3e2cda20	0.16880083
4	0xbd9cc010	-0.076538205
5	0xbd4643a0	-0.048404336
6	0x3ce3b4d2	0.027796183
7	0xbbaf712f	-0.0053540687
8	0xbdf22c66	-0.118248746
9	0x3d942a01	0.07234574
10	0xbd244ae1	-0.040110473
11	0x3e2e7e02	0.17040256
12	0xbe444d4a	-0.19170108
13	0x3c9e4bc3	0.019323235
14	0x3e2e5f76	0.17028603
15	0x3db14534	0.086557776
16	0x3de70122	0.11279513
17	0x3dc3f261	0.095677145
18	0x3e28383e	0.16427705
19	0xbdd7ba7f	-0.10533618
20	0x3e0b4533	0.13600616
21	0x3ce700b4	0.028198577
22	0xbc950339	-0.018190013
23	0xbe00613d	-0.12537093
24	0x3dfa3ea8	0.12218982
25	0x3d0cb249	0.034349713
26	0xbc4c5ef8	-0.012473814
27	0x3e17f261	0.14838554
28	0xbc9aa7be	-0.018878814
29	0xbdbc9b4f	-0.0920931
30	0xbe269fa0	-0.1627183
31	0x3e246ec7	0.16057883
32	0xbe557ff0	-0.20849586
33	0xbc0dac35	-0.008647014
34	0xbe230581	-0.15920068
35	0xbd58e77b	-0.052955132
36	0x3d04bcb1	0.032406513
37	0xbe1792be	-0.14802071
38	0xbdf68234	-0.12036553
39	0xbde84856	-0.11341922
40	0xbe9fdc7e	-0.3122291
41	0xbe94b0b4	-0.29041064
42	0xbd89b928	-0.06724769
43	0xbe6c1482	-0.23054698
44	0xbdc9140e	-0.09818278
45	0xbcf9410b	-0.030426523
46	0x3d4dffff	0.050292965
47	0xbe5dda15	-0.21665223
48	0xbe9f17f7	-0.3107297
49	0xbe4af707	-0.19820796
50	0xbd03e62e	-0.03220194
51	0x3d43a251	0.04776222
52	0xbc5d3792	-0.0135020185
53	0x3c365992	0.011129754
54	0xbe0e8425	-0.13917597
55	0xbeb4b21c	-0.35292137
56	0x3e8ec809	0.2788699
57	0x3de5464a	0.11195047
58	0xbe2d7163	-0.16937785
59	0xbdda0695	-0.10645787
60	0xbda72f65	-0.08163337
61	0xbe9af9c0	-0.3026867
62	0xbe58d241	-0.21173956
63	0xbddb73a5	-0.10715417
64	0x3e31f921	0.17380191
65	0x3dde95b6	0.10868399
66	0x3d5eb128	0.054368168
67	0xbe07d20c	-0.1326372
68	0xbd11bafa	-0.035578705
69	0x3e1b6dc8	0.15178597
70	0xbce7ee27	-0.028311802
71	0x3e3a0f17	0.18169819
72	0xbe4b339a	-0.19843903
73	0xbe77563b	-0.24153988
74	0x3e0f3343	0.13984399
75	0x3d594155	0.05304082
76	0x3de7a7a7	0.11311274
77	0xbe0c340c	-0.1369173
78	0x3d77a75c	0.06046234
79	0xbdc94009	-0.09826667
80	0x3e1083be	0.14112756
81	0x3da0fcf8	0.0786075
82	0x3d8698eb	0.065721355
83	0x3d9160ec	0.070985645
84	0xbdc94ba1	-0.09828878
85	0xbde7b6a7	-0.11314135
86	0xbe736755	-0.23769887
87	0x3e4a4227	0.19751798
88	0xbdd060e9	-0.10174734
89	0xbe79caa5	-0.24393709
90	0x3e2bbdb5	0.16771586
91	0xbcb62899	-0.022236155
92	0xbd9ad3dc	-0.0755994
93	0x3d0d0cbe	0.03443598
94	0xbb800229	-0.0039065075
95	0xbe37994e	-0.17929575

fc3.weight f4 [32, 32]
0	0x3deaa748	0.114576876
1	0x3ae8a1b9	0.0017748392
2	0x3c2392e9	0.009983757
3	0xbf18170e	-0.5941018
4	0x3dc8efc5	0.098113574
5	0x3e175ac5	0.1478072
6	0xbeabcf62	-0.33556658
7	0xbe93de97	-0.2888076
8	0xbeee66b7	-0.4656274
9	0x3c479b61	0.012183041
10	0xbe9d7796	-0.307553
11	0xbe3c2112	-0.1837199
12	0x3dfc736d	0.12326703
13	0x3c3c6e70	0.01150094
14	0x3eab60f0	0.33472395
15	0x3dd803c6	0.10547595
16	0xbe941ef1	-0.28929856
17	0xbde94f35	-0.11392061
18	0x3f195355	0.5989278
19	0x3d2921bf	0.04129195
20	0x3eab9c6e	0.33517784
21	0x3e9251c0	0.28577995
22	0xbed13fe4	-0.40869057
23	0xbead9a95	-0.33907
24	0x3ea14497	0.31497642
25	0xbeda9ed0	-0.4269929
26	0xbdde06dc	-0.10841152
27	0xbd992626	-0.07477979
28	0xbf0c8c08	-0.5490117
29	0x3eb754cb	0.3580688
30	0x3e527b7d	0.2055492
31	0xbe56bf0e	-0.20971319
32	0x3c560a55	0.013063987
33	0xbe18ede7	-0.14934503
34	0xbdad21a2	-0.084536806
35	0xbf2198d7	-0.6312384
36	0x3ef5fac1	0.48042873
37	0x3eab7e95	0.33495012
38	0x3dba4920	0.09095979
39	0x3e7b31d3	0.24530725
40	0x3ebbbcd3	0.366675
41	0xbea850cf	-0.32874152
42	0xbe6f47bc	-0.23367208
43	0x3e8fb867	0.28070375
44	0xbd8bb757	-0.06822079
45	0xbe633c94	-0.22191077
46	0x3e8cca53	0.2749811
47	0xbec097bb	-0.3761576
48	0xbdf207ad	-0.1181787
49	0xbe994488	-0.29935098
50	0x3ef33d4e	0.4750771
51	0xbebf0cec	-0.37314546
52	0xbd8e33fb	-0.06943508
53	0xbeb0f995	-0.34565416
54	0x3e8a8e30	0.27061605
55	0xbd65f2bd	-0.056139696
56	0x3e9b7a1e	0.30366606
57	0xbe862c88	-0.2620585
58	0x3e205400	0.15657043
59	0xbe95f92a	-0.2929166
60	0x3d0acf2d	0.033888984
61	0xbf0ddebf	-0.5541801
62	0xbcf027cb	-0.02931585
63	0xbd627ed6	-0.05529674
64	0x3e8463fb	0.2585753
65	0x3e790e79	0.24321927
66	0x3ea3f4fd	0.3202285
67	0x3e916116	0.28394383
68	0xbdfbe440	-0.122993946
69	0x3eaacbed	0.33358708
70	0x3e97bf13	0.29637966
71	0xbe123153	-0.14276628
72	0x3ebeaaff	0.37239835
73	0xbe585089	-0.21124472
74	0xbe2fbd56	-0.1716207
75	0x3ecb090e	0.39655346
76	0xbe30ae36	-0.17253956
77	0xbe7f1a34	-0.2491234
78	0x3da44090	0.08020127
79	0xbd4a7723	-0.049430024
80	0xbe6a0c59	-0.22856273
81	0xbe87480e	-0.2642216
82	0xbe1024fb	-0.14076607
83	0xbee267d2	-0.44219834
84	0x3eb60121	0.35547736
85	0xbe979515	-0.29605928
86	0x3e32e798	0.17471159
87	0x3db77ca1	0.08959318
88	0xbefadc39	-0.48996142
89	0xbe33d29c	-0.1756081
90	0xbeea9eec	-0.45824373
91	0x3e16d600	0.14730072
92	0xbeb298c5	-0.3488218
93	0xbd58f9c6	-0.052972578
94	0x3e17db2f	0.14829706
95	0x3e2a349a	0.16621628
96	0xbe949aa8	-0.29024243
97	0xbf004d25	-0.50117713
98	0x3d8a8754	0.06764093
99	0x3e5db964	0.21652752
100	0x3ef23c7b	0.47311768
101	0xbee8b64a	-0.45451576
102	0xbea5ff2d	-0.32421246
103	0x3e9b02b9	0.30275515
104	0x3f085169	0.5324922
105	0x3e605ca1	0.21910335
106	0xbeffd795	-0.49969164
107	0x3eabb450	0.33536005
108	0x3e394652	0.18093231
109	0x3e3499d2	0.17636803
110	0x3ebb253b	0.36551842
111	0xbe98ce25	-0.29844776
112	0xbead5053	-0.33850345
113	0x3ecb1f2c	0.3967222
114	0x3e4d9b98	0.20078886
115	0xbe9e277e	-0.30889505
116	0xbe844357	-0.25832626
117	0x3e9e0d3a	0.30869466
118	0xbdfaa25a	-0.12237997
119	0xbd70eed7	-0.058821525
120	0xbd8838c7	-0.066514544
121	0x3e55c95c	0.20877594
122	0x3e7d24c5	0.24721058
123	0xbd6edf1d	-0.058318246
124	0x3daa7346	0.08322768
125	0xbde66130	-0.11249006
126	0x3ef81a05	0.4845735
127	0x3da22792	0.07917704
128	0x3d3d033b	0.04614566
129	0xbf08665a	-0.53281176
130	0x3d20fa1e	0.03930103
131	0x3d369d2d	0.04458349
132	0xbd84bd77	-0.0648145
133	0xbdaef012	-0.085418835
134	0xbf03331c	-0.5124986
135	0x3ef666a4	0.48125184
136	0xbdd58e31	-0.104275115
137	0xbd8b5871	-0.06803978
138	0xbdb74e57	-0.08950489
139	0xbf046750	-0.5172014
140	0xbec48899	-0.38385466
141	0x3dbfe95b	0.09370681
142	0x3ea5751c	0.3231591
143	0xbf15de1b	-0.5854203
144	0x3f15a656	0.58456933
145	0x3e9f3a4b	0.31099162
146	0x3ed203c0	0.41018486
147	0xbca35b26	-0.019940924
148	0xbf01f9c1	-0.5077172
149	0x3eddb234	0.4330002
150	0x3c4686ae	0.012117071
151	0x3e5a11f6	0.21295914
152	0xbefb6015	-0.49096742
153	0xbed6fc44	-0.41989338
154	0xbe14095c	-0.14456695
155	0xbf1fa375	-0.6235879
156	0xbcacd32d	-0.02109679
157	0xbe38e33b	-0.18055432
158	0xbd832a1c	-0.06404516
159	0xbeea1d40	-0.4572544
160	0x3ef19eed	0.47191563
161	0xbe1be161	-0.15222694
162	0x3f50dbdd	0.81585485
163	0xbe35b1c8	-0.177436
164	0xbdcfd33b	-0.10147711
165	0xbe893b81	-0.2680321
166	0xbe94a72f	-0.290338
167	0x3ca01756	0.019542377
168	0xbef89528	-0.48551297
169	0x3dcf04b8	0.10108322
170	0x3e723f28	0.23656905
171	0xbed53c5f	-0.41647622
172	0x3e0e63d1	0.13905264
173	0xbf039093	-0.5139248
174	0x3c4622d3	0.012093264
175	0x3e832ae0	0.2561865
176	0x3e6d2f2d	0.23162527
177	0x3d8cfd95	0.068843044
178	0x3d1c53e1	0.03816593
179	0x3e47e701	0.19521715
180	0xbe748252	-0.23877838
181	0x3e92ccb7	0.2867181
182	0xbd99f395	-0.07517163
183	0x3bb6600a	0.005565648
184	0x3c5a15d8	0.013310872
185	0x3e7ce959	0.2469839
186	0xbeb09e63	-0.3449584
187	0x3d380596	0.044927202
188	0xbe84f7d0	-0.25970316
189	0x3ed1a554	0.40946448
190	0xbef222e2	-0.47292238
191	0xbe721dcd	-0.2364418
192	0xbdece2fe	-0.11566733
193	0x3de829dc	0.11336109
194	0x3f3a4b77	0.727714
195	0xbeb62c5e	-0.35580724
196	0x3d42b226	0.047533177
197	0x3eb1f7da	0.34759408
198	0xbe52e3ba	-0.20594683
199	0x3e8119b2	0.25214916
200	0xbd8ee969	-0.06978113
201	0xbedc1e18	-0.4299171
202	0x3ef9f0a3	0.48816404
203	0xbef87d7e	-0.48533243
204	0xbba912a9	-0.005159695
205	0xbe5fd466	-0.21858367
206	0x3e7347c8	0.23757851
207	0xbed6d0c1	-0.41956142
208	0x3e1bceda	0.15215626
209	0xbd8b51d8	-0.0680272
210	0xbde2b23d	-0.110691525
211	0x3e226675	0.15859397
212	0xbe6172db	-0.2201647
213	0xbdbeade8	-0.09310514
214	0x3e8b9508	0.2726214
215	0xbd57cb3a	-0.052684046
216	0x3ebb7b81	0.36617664
217	0xbed60f9a	-0.41808778
218	0x3f0c2b6c	0.54753757
219	0x3e1a239a	0.15052643
220	0xbecde4c9	-0.40213612
221	0x3f10bf16	0.56541574
222	0xbd0859c9	-0.03328875
223	0x3e1ed875	0.1551226
224	0xbed3f9d6	-0.41401547
225	0xbe335a2a	-0.17514864
226	0xbe7b1b51	-0.24522139
227	0xbe2196fc	-0.15780252
228	0xbe7b4321	-0.24537326
229	0xbe918673	-0.2842289
230	0x3e056a1d	0.1302876
231	0xbe147d4e	-0.14500925
232	0xbdbec057	-0.0931403
233	0x3edd79df	0.43257043
234	0x3e97f365	0.29677883
235	0xbd167ab6	-0.03673812
236	0x3e5b6192	0.21423939
237	0x3d9ab019	0.07553119
238	0x3eb14204	0.34620678
239	0xbe447a78	-0.19187343
240	0x3e36474e	0.17800638
241	0xbe6d1a6d	-0.23154612
242	0x3e32c23b	0.17456906
243	0x3edd70e5	0.43250194
244	0xbe97ec1f	-0.29672334
245	0x3db1edee	0.086879596
246	0x3b101e05	0.002199055
247	0x3e672b00	0.22574997
248	0xbe1e2a17	-0.15445744
249	0x3e8b3354	0.27187598
250	0xbeab863b	-0.33500847
251	0x3e538cc5	0.20659168
252	0xbe0c3433	-0.13691787
253	0x3ea269c2	0.31721312
254	0x3ea07a6d	0.31343403
255	0xbdee858e	-0.11646567

fc3.bias f4 [32]
0	0x3c8724c2	0.01649702
1	0x3d14faf7	0.03637215
2	0xbb44a926	-0.0030008047
3	0x3d24c127	0.040223267
4	0x3df3f9c0	0.119128704
5	0x3d74a876	0.05973097
6	0x3de0632b	0.10956415
7	0xbcf0812e	-0.029358473
8	0xbd165f32	-0.03671188
9	0x3de6340a	0.112403944
10	0x3bc9b8a9	0.0061560464
11	0x3db7eb0a	0.08980377
12	0x3d0ed999	0.034875486
13	0x3de0b3fc	0.10971829
14	0xbd56b5e4	-0.05241956
15	0x3b3050c6	0.0026903613
16	0x3dbbf786	0.09178071
17	0x3d7c7ce0	0.061642528
18	0x3d2289b8	0.03968212
19	0xbdb2a5fc	-0.08723065
20	0x3c526aa0	0.012842804
21	0x3d9ef93b	0.07762381
22	0xbd036c9c	-0.032086
23	0x3b13eae5	0.0022570428
24	0x3d1f4991	0.038888518
25	0x3c8593f0	0.016305894
26	0x3d35f6ab	0.044424694
27	0x3e08c725	0.13357218
28	0x3df68afc	0.12038228
29	0x3d57fd8b	0.05273203
30	0xbcb419e6	-0.021985006
31	0x3d81cd8b	0.06338032

fc4.weight f4 [6, 32]
0	0xbea9d384	-0.33169186
1	0xbe0ea649	-0.1393062
2	0xbe2c3aa9	-0.16819252
3	0x3e588c82	0.2114735
4	0x3e5c9241	0.21540166
5	0xbf0a04aa	-0.53913367
6	0xbee84aa2	-0.4536944
7	0x3e1917ec	0.14950532
8	0x3d3d483d	0.04621147
9	0x3eedf582	0.4647637
10	0xbe5270b7	-0.2055081
11	0x3e55f2dd	0.20893426
12	0x3e367f10	0.17821908
13	0xbef6a674	-0.4817387
14	0xbdf98b52	-0.12184776
15	0x3e007b45	0.12547024
16	0x3edfd674	0.43718302
17	0x3ede1c95	0.4338118
18	0xbe824a0f	-0.25447127
19	0xbddfb6d1	-0.10923541
20	0xbec263e0	-0.37966824
21	0xbebc23c1	-0.36746028
22	0xbf079b09	-0.5297094
23	0x3e9f1e9d	0.31078044
24	0x3ea2be4b	0.31785807
25	0xbefe33b2	-0.49648815
26	0x3ebd10d7	0.3692691
27	0x3dcc2297	0.09967535
28	0xbdd89696	-0.10575597
29	0xbd1be8b7	-0.03806373
30	0xbcd3cdba	-0.025854934
31	0x3e5d88d2	0.21634224
32	0x3e95e53d	0.29276457
33	0x3ce13151	0.027489336
34	0xbeb17739	-0.34661272
35	0xbe9d66cc	-0.3074249
36	0xbee1f815	-0.44134584
37	0xbe3aacf7	-0.18230043
38	0x3d72d592	0.059285708
39	0xbdf116c4	-0.1177192
40	0x3e9eaf34	0.30993044
41	0x3cf42873	0.029804444
42	0x3cdf569c	0.027262978
43	0xbe281d41	-0.1641741
44	0x3e8a4a96	0.2701003
45	0x3ddb70d6	0.10714881
46	0x3d80bbc5	0.06285814
47	0x3ec1ac22	0.3782664
48	0xbc773c79	-0.015090101
49	0x3e8ed836	0.2789933
50	0x3df7799c	0.12083742
51	0xbda3a741	-0.079908855
52	0x3e8655e3	0.262374
53	0xbe8cab0d	-0.2747425
54	0x3ea209d8	0.31648135
55	0x3ebf2fb6	0.37341088
56	0x3d237467	0.03990593
57	0xbe9b01b0	-0.30274725
58	0x3eab4d87	0.33457586
59	0xbe0b42a0	-0.13599634
60	0xbecc64c7	-0.39920637
61	0xbdfebde1	-0.1243856
62	0x3d7fd419	0.06245813
63	0x3e5f36b2	0.21798208
64	0x3d89e184	0.06732467
65	0x3ecd8f92	0.40148598
66	0xbde4da9d	-0.1117451
67	0x3ea355fe	0.31901544
68	0x3ec63bb0	0.38717413
69	0xbdff61ff	-0.12469863
70	0x3e3dd0d1	0.18536688
71	0xbe09a855	-0.1344312
72	0xbea996c8	-0.3312285
73	0x3e922452	0.28543335
74	0xbeda9b96	-0.42696828
75	0xbd10dc3a	-0.035366274
76	0x3b17a343	0.0023138083
77	0x3eca50ed	0.39514866
78	0x3d8db861	0.06919933
79	0xbe4bec7c	-0.1991443
80	0xbe5352d2	-0.20637062
81	0xbe81cc28	-0.2535107
82	0xbe547bd6	-0.20750365
83	0x3e8d666b	0.276172
84	0x3e82485b	0.25445828
85	0xbeb99218	-0.36244273
86	0xbe890eb4	-0.2676903
87	0xbe69f1a4	-0.22846085
88	0xbee02b6e	-0.43783134
89	0x3c7186a8	0.014741577
90	0x3ef8055c	0.4844159
91	0x3e0bcc26	0.13652095
92	0xbecd5158	-0.40101123
93	0xbe6cf407	-0.23139964
94	0xbeacc676	-0.33745164
95	0xbe31e4d1	-0.17372443
96	0x3ebea09f	0.3723192
97	0x3c2e05b5	0.010621478
98	0x3daa6377	0.08319753
99	0x3d19b530	0.03752631
100	0x3c98dc15	0.01865963
101	0xbca7c5fc	-0.020480148
102	0x3c30b3cd	0.010785055
103	0xbe20ac3f	-0.15690707
104	0xbe297e01	-0.16551973
105	0xbdaf2d93	-0.085536145
106	0xbe254268	-0.16138613
107	0xbf0c24f0	-0.5474386
108	0xbee2b7f4	-0.4428097
109	0xbe8829e0	-0.26594448
110	0x3e616df5	0.22014602
111	0x3eabb67a	0.33537656
112	0x3eca1323	0.39467725
113	0x3ea7ffa8	0.32812238
114	0x3ea29b43	0.3175908
115	0xbe270c26	-0.16313228
116	0x3eb89759	0.3605297
117	0xbdd69697	-0.104779415
118	0x3ee59d05	0.4484636
119	0x3e9cfe27	0.30662653
120	0xbee161d8	-0.4401996
121	0x3ec14b7e	0.37752908
122	0x3ebeae51	0.37242368
123	0xbd2f4b11	-0.0427962
124	0xbdfb0c9c	-0.122582644
125	0x3d765555	0.060139973
126	0x3ddbe790	0.107375264
127	0x3dfeeabd	0.124471165
128	0xbf1f1324	-0.6213858
129	0xbc6dc282	-0.014511706
130	0x3e59d5d4	0.21272975
131	0x3ddd8a0d	0.10817347
132	0xbe132067	-0.1436783
133	0xbe52e259	-0.20594157
134	0xbcf6e961	-0.03014058
135	0x3ef66461	0.48123458
136	0xbd86392c	-0.065538734
137	0xbed65c0d	-0.41867104
138	0x3ea4a290	0.32155275
139	0x3e5bf6c8	0.21480858
140	0x3e5523b8	0.20814407
141	0xbe8596f6	-0.26091737
142	0xbe019451	-0.12654234
143	0xbeebfe8d	-0.46092644
144	0xbf021586	-0.5081409
145	0xbecaa22c	-0.39576852
146	0xbcfca97f	-0.03084254
147	0x3e3711bf	0.17877863
148	0x3ec32ead	0.38121548
149	0xbdbd899e	-0.09254764
150	0x3eaae996	0.33381337
151	0x3ee5e093	0.448979
152	0xbdbadaaf	-0.09123742
153	0xbcfcd903	-0.030865198
154	0xbe2ea5f1	-0.17055489
155	0xbea2542f	-0.31704852
156	0x3e0385c6	0.12844
157	0xbd3e6888	-0.046486408
158	0xbe32f11a	-0.17474785
159	0x3b4eaff7	0.0031537989
160	0x3dfe2dcb	0.12411078
161	0xbe8443a5	-0.2583286
162	0xbe5af572	-0.21382692
163	0xbf0e50e9	-0.5559221
164	0x3ec3994c	0.38202894
165	0x3ea5a980	0.3235588
166	0x3f0f3583	0.5594103
167	0xbd14c76f	-0.036323007
168	0xbe98f492	-0.29874092
169	0xbe8117c4	-0.25213444
170	0x3e1b78a2	0.15182737
171	0x3d0c09d1	0.03418905
172	0x3d7bd6db	0.0614842
173	0x3ea1061e	0.3144998
174	0xbe164976	-0.1467646
175	0x3e88ce7e	0.2672004
176	0x3e3e4622	0.18581441
177	0x3e533722	0.206265
178	0x3c3052bd	0.010761914
179	0xbe04c3bd	-0.12965293
180	0xbe1148ea	-0.14187971
181	0x3f250a42	0.6446878
182	0xbd9acb8e	-0.07558356
183	0xbe5726e8	-0.21010935
184	0x3e77a6d2	0.2418473
185	0xbdfd6137	-0.12372058
186	0xbf0c5bdc	-0.54827666
187	0x3e62bf2d	0.2214324
188	0x3f18f9af	0.59755987
189	0xbf267dd1	-0.6503573
190	0xbece705e	-0.40320104
191	0x3ec0673d	0.37578765

fc4.bias f4 [6]
0	0x3d6d018b	0.0578628
1	0xbd407d6d	-0.046994615
2	0x3d6e50a8	0.05818239
3	0xbd94d1bd	-0.07266567
4	0xbe467e35	-0.19384082
5	0x3d9fdc59	0.078057
