visualization/policy_nns/OSD_F/v040/agent_state_dict0.pt (torch, 41537 bytes, 12 tensors)

fc1.weight f4 [32, 28]
00000000: 4d9a f8bd 7af6 a23e bfc6 3e3e 095f 123e
00000010: b60f c3be 5013 72be 8bf6 0a3f a74a 073f
00000020: a727 7b3e 3e55 bebd 14e1 94be 1f02 6e3e
00000030: 5a23 553c a6a7 f3bd 1997 debe c891 5c3d
00000040: 6bd1 b23b 7c98 4d3e 1253 febe a852 a63d
00000050: fb09 dbbe 18f9 863d 74ca 7abe b6f2 a83d
00000060: 1901 83be f622 783d 760b e8bc bb89 82be
00000070: ba19 6e3e f9c5 343e df7b 313e cec8 e5be
00000080: 483e 543e 3b1a d13e 5c85 b3bd 6750 a63e
00000090: 9cc2 71be fcd9 c0bd 6c38 093e a637 e2bc
000000a0: 5702 803e aacc b13e 4681 7bbe 8d8a b33e
000000b0: 5986 f63e ecfc 023e 8213 73be fb30 a6be
000000c0: 198e afbe cbf8 c83d e7b5 853d 0c1e ffbe
000000d0: fdf8 dabe 9b00 bbbd c3a1 bcbc 8a5d e83e
000000e0: 8bf2 ad3d e85b 4f3e aa89 90be 9647 25bd
000000f0: 7709 c2bd a5a9 373e 7d74 513d e625 e03d
00000100: b817 da3d 35b5 523e c2ec a13e ccdb d8be
00000110: 2a26 86bd ccb2 923d f189 9ebe 3b2c ad3e
00000120: e2a4 46be f0d3 46be e077 043e 9a7c d63e
00000130: de0e b13e c00c c6be c9c6 983e 9424 8fbd
00000140: 003f 363e 4608 a2be 0cca a93e 358d 94be
00000150: 9aa8 89be f3db 6bbe d6d7 c4be f5d7 9cbe
00000160: 445c c73e 111a b5be ddba 1b3f 9308 c03e
00000170: 806c babe 2db8 863e c302 783e e023 6abe
00000180: 5a0c 053f 65ac b7bd b65f ddbe 01e2 8e3e
00000190: 6571 ea3d 9413 8b3e bc83 923e 9787 72be
000001a0: 9426 933d 5527 8bbe efea e0be 3339 bbbe
000001b0: 163a 2fbd 1dac 05bf b7de 95bd 3ea6 b3be
000001c0: 34c2 b5be 5fc6 d23d ce61 d9be 6296 a1be
000001d0: 77cc adbe 0280 8a3e c3eb 9c3e 89aa 1ebe
000001e0: 9b29 36be 51e2 e03d 3207 07bf db76 e5be
000001f0: 16fd 923e fe7a 1a3d 7b32 abbe 00ca 2b3e
00000200: 6aee 07be 2a28 ab3d 9208 f2bd 5a58 b3bd
00000210: df53 80be 1f2c e9be 47be 553e 406b 763b
00000220: 0872 1ebe 0c41 f43d 7f2f 35be 3a62 9b3e
00000230: 43e8 e6be 4378 443e e3e3 dbbe ca25 00bf
00000240: 3c46 cebe fea6 913e 637b 933e 36b7 b43e
00000250: f771 513e e9fa 7e3e f72a d9be ff12 373e
00000260: ee94 a33e 0d7b 3dbe 345b 823e 544d 763e
00000270: 486d b03e d70a 52bd ecea 463e 7dcb c3be
00000280: f9ab 9c3d acba 2bbe 3dd7 563e 6a62 b8be
00000290: 2db8 7d3e cb57 87be a595 903d 13e1 11be
000002a0: 85a9 75be caad bb3e 5d69 b4be 8449 e33e
000002b0: b00d a3bd 7207 9b3e a10e ac3e 030d 90ba
000002c0: 86cf d73c fb5d a73b 2eec 343e 9c1e c13e
000002d0: 3e69 87bc 9b9b 003d b1a4 643e b7ed 40be
000002e0: 6e44 97bd 45d5 863e 4dc8 8f3e 25ab a9bd
000002f0: 35fa c3be 56b4 42be 832e 01bf 1b97 843d
00000300: 239d abbe bec9 97bd f40f 1ebd 1aa4 fc3e
00000310: cdd0 9bbd 983a db3e da9d 39be 297f 8bbe
00000320: c7b6 88bc 5514 06be 7504 bd3d 515e 09be
00000330: aba8 c63d 0167 4cbd 663a f53e 70e5 d1bd
00000340: 2835 e5be 4486 8cbe d962 f53e 7606 233e
00000350: 1007 c3be 5d33 833e bbf5 823e cc45 abbe
00000360: 7df0 5bbe 45db 17be f12b d6be b426 3a3e
00000370: 97a3 bd3e ffb7 a13e 63d3 1dbd 4f95 26be
00000380: 4c70 50be 067f 503e 8897 f4be 6ff9 3bbd
00000390: bdc8 71bd f253 313e 1690 c03e 80cd 5a3e
000003a0: 1ba2 8fbe 00dd b53e 16fa 0bbf 645a 8fbd
000003b0: 37ef 003f e16a 923e 503f c6be 7be4 8abe
000003c0: e23c eebd 9409 bdbe afc3 60be eb8d db3e
000003d0: 570a 463e bdff dabe 5405 cc3d 9e6a a0bd
000003e0: d67a abbe a219 643d 2ecc 8c3e 16dc 97be
000003f0: beda 5a3e cf3b 1b3e 7345 4bbe 0491 b03e
-0.121388055 0.31828672 0.18630503 0.14294066 -0.38097924 -0.2364018 0.54282445 0.52848285
0.24526845 -0.092936024 -0.2907797 0.23242997 0.013008917 -0.11897211 -0.43474653 0.053849965
0.0054570935 0.200777 -0.49672753 0.08121234 -0.42781052 0.065904796 -0.24491292 0.082494184
-0.25586775 0.060580216 -0.028325778 -0.25495705 0.23252001 0.17653646 0.1733241 -0.44879764
0.20726883 0.40840325 -0.08765671 0.32483217 -0.23609394 -0.09416577 0.1340043 -0.027614426
0.25001785 0.3472646 -0.24561033 0.35066643 0.48149374 0.12791795 -0.2373791 -0.32459244
-0.342881 0.098130785 0.06528836 -0.4982761 -0.42768088 -0.09130975 -0.023026353 0.45383865
0.08493527 0.20249903 -0.2823003 -0.040351473 -0.094744615 0.17935808 0.051136483 0.109447286
0.10649055 0.20576937 0.31625944 -0.42355192 -0.06550248 0.07163009 -0.30964616 0.33822808
-0.19398835 -0.19416785 0.12936354 0.41891938 0.34581655 -0.38681602 0.2983916 -0.069893986
0.1779747 -0.31646937 0.33161962 -0.29013982 -0.26886445 -0.23033123 -0.3844592 -0.30633512
0.3893758 -0.3537145 0.60832006 0.37506542 -0.36410904 0.2631239 0.24219804 -0.22865248
0.5197197 -0.089684285 -0.43237084 0.27906802 0.114474095 0.27163374 0.2861613 -0.23684536
0.071850926 -0.27178445 -0.4392924 -0.36567077 -0.042780004 -0.5221575 -0.0731787 -0.3508777
-0.35499728 0.102917425 -0.42457432 -0.31560045 -0.33945057 0.27050787 0.30648622 -0.15494741
-0.17789309 0.109806664 -0.52745354 -0.44817242 0.28708714 0.03771495 -0.3343695 0.16776276
-0.13274541 0.0835727 -0.11818041 -0.08757086 -0.2506399 -0.45541474 0.20873366 0.0037600547
-0.15473187 0.11926469 -0.176939 0.30348378 -0.45099077 0.19186501 -0.429473 -0.5005766
-0.4028796 0.28447717 0.28805074 0.3529603 0.2045363 0.24900402 -0.42415592 0.1787834
0.31949562 -0.18503971 0.25460207 0.24052936 0.34458375 -0.05127987 0.19425553 -0.38241187
0.07649989 -0.16770428 0.20980544 -0.36012584 0.24777289 -0.26434168 0.070597924 -0.14246015
-0.23990448 0.36656028 -0.35236636 0.44392025 -0.07961595 0.30279118 0.3360491 -0.0010990206
0.026344072 0.005107639 0.1766822 0.37718666 -0.016529676 0.031398397 0.2232845 -0.18840681
-0.07386099 0.26334587 0.28082505 -0.08284596 -0.3827683 -0.19014105 -0.50461596 0.064741336
-0.33518323 -0.07411526 -0.038589433 0.4934395 -0.07608185 0.4281814 -0.18126622 -0.27245453
-0.016688718 -0.13093694 0.09229366 -0.13414885 0.097001396 -0.04990292 0.47896117 -0.1024884
-0.44767118 -0.27446187 0.47926977 0.15920433 -0.38091326 0.25625125 0.25578102 -0.33451688
-0.21478458 -0.14829738 -0.418304 0.18178827 0.37038872 0.3158569 -0.038531672 -0.16267894
-0.20355338 0.20360956 -0.4777186 -0.045892175 -0.05902933 0.17317179 0.3760993 0.21367455
-0.28053364 0.35520172 -0.54678476 -0.069996625 0.5036501 0.28597167 -0.3872018 -0.27127442
-0.11632706 -0.3692137 -0.21949647 0.42881712 0.19339882 -0.42773238 0.09961954 -0.078328356
-0.33492154 0.055688508 0.27499527 -0.296601 0.21372506 0.15159534 -0.19850712 0.34485638

fc1.bias f4 [32]
00000000: b5fa bb3d 1468 a83d 453c ba3d 5889 823d
00000010: 3def 9d3d 6d14 9f3c d077 523d 8f45 b93d
00000020: 5e61 2dbd f69b a93c 093a 993d 8f21 2b3c
00000030: b53f e13d d48d d43d 8a64 fb3d e28a eb3c
00000040: 6342 a23c de39 b63c 9e9c b03c 1613 893d
00000050: 72c3 603d cfc4 e23c 55af 713c ee93 fc3c
00000060: 7e6d 15bb 1086 1a3d 6f30 843d 4ada e03d
00000070: 9669 7a3d 928e 623d 93ae 12bb e222 413d
0.09178678 0.08222976 0.09093527 0.063738525 0.07711647 0.01941892 0.051383793 0.090464704
-0.042329185 0.02070425 0.074817725 0.010445013 0.10998479 0.10378614 0.12275036 0.028752748
0.019807046 0.02224439 0.021559056 0.066930935 0.05487389 0.027681736 0.014751275 0.030832257
-0.0022800858 0.03772551 0.064545505 0.10979135 0.06113585 0.055311747 -0.0022381886 0.047152407

fc2.weight f4 [32, 32]
00000000: adb4 e23e 8258 49bd 377d 62be 9dfa a53e
00000010: f2d9 8cbc caec 81bd bf91 d23e ca13 e4be
00000020: e2de 513d ee4b b33c a2a5 933e 59d5 c13e
00000030: 0fb8 ba3e 053d a0be 0210 7ebe ab2c d8bd
00000040: 3a32 31be 9797 a83e a38b a33e 1795 c7bd
00000050: 63ae 15bd aa36 9bbe 3147 38be c7b9 603e
00000060: 9006 063d 3ed6 933e e342 993d c251 973e
00000070: aadf 0c3f b1ca 423e 95b0 71be 18ff aa3e
00000080: f321 4abe 0309 dcbe e11d 3fbd 6d2c 16be
00000090: a068 ed3d 2ad0 31be fe73 ddbd a5f5 cb3e
000000a0: d093 cabe 8257 e4be b881 5a3d 10ba 8ebe
000000b0: d1a0 273e 8dd5 9c3e 3ae8 3d3e d91a fb3e
000000c0: 086b aabd a329 6abe 6bc8 7e3d f1f2 803e
000000d0: 4f5f de3e 0da6 bd3e 1e88 a33e 8237 71bd
000000e0: 753c 87bc 5354 ef3e e32d aebe b683 033e
000000f0: f924 acbe 7d52 d13e a064 1a3d 26ed 433d
00000100: 468f 87be abe9 11bf 8b34 d43e 8725 6dbd
00000110: f362 3dbe cca5 273e 5435 7e3e e6a7 a5be
00000120: f0da c4be 2e3f 85bd 2276 acbe 26cf 52be
00000130: 521d 903d adc4 113e 37c3 fc3d cc5f afbe
00000140: fedd 623e 11f3 d03b 92b9 2b3e d796 443e
00000150: 8b55 f43d d219 8fbd 2a72 cd3e 22c1 09be
00000160: d4fc a83c cf50 83be b32b d53c 5875 ba3e
00000170: 6ca1 4c3e 7be4 e33e fabe fbbd f1ae 01be
00000180: 2334 a03d d916 f8be 670a 253e c52f af3e
00000190: a5c2 b0be 8085 f03e 848a 88be 7d3e 9cbe
000001a0: 9574 f6be 9444 733e 008e 2ebe 4239 583c
000001b0: 88e0 4bbd 0599 93bd 4cd6 b23e 1640 783e
000001c0: 544b 153e f337 81be b9a6 e9bd 47cb ddbe
000001d0: bce8 c83e 90c9 b03e 269f 933e 8f30 eb3e
000001e0: f7fd 833e bd84 03be eb5d 5b3d cd3a b13e
000001f0: 76ff 04bf 079e 8b3e 4b6e 69be 8410 133f
00000200: 06f4 0c3e 57a7 953e f138 00bd 3efb c33c
00000210: e93d a3be ba4a 463d 428d a83d 3e0b 903e
00000220: 82d8 a33e 4919 98bd 820d e2bd 5ef6 c2bd
00000230: c02d ffba 3392 813d b361 113e ee1e 31bd
00000240: 473d 64be 2f2d 2bbc 2a43 d9bb 40f7 d13e
00000250: 01bc ce3e 1da6 fb3e c153 e8be 3291 eabd
00000260: a552 d4b9 5158 ef3d 0c0f 0f3e e1d0 bfbe
00000270: 3c63 ed3d a4eb 2b3e c471 393b 57cb f6bd
00000280: d509 c0be 5c4f ed3d 44b2 963e eb39 483c
00000290: 91f8 bc3d 05ad 403d 9722 58be ab01 a93e
000002a0: 6a41 3e3e 1f9c ab3e 0d9e 563b 0d73 ac3e
000002b0: 8f0e 543c 9a69 b2bc 1e16 6ebd 43d8 87be
000002c0: 0b16 303e 11df 2fbd 1c56 79be 1a17 7a3e
000002d0: 42f1 fd3e 8b28 ab3d fece 20be f341 00be
000002e0: 8357 77be 485d 3d3d 7fa8 99bd 3943 99be
000002f0: 662f 96be 01c0 64be 5d3d 87be 89ee 75be
00000300: 43f9 363d f2a0 97be 1597 d0bd 9e4e 72be
00000310: 64a0 683e 0d92 ff3e 21f8 a2bd a875 d83c
00000320: 60b0 a5bc 571c 9ebc 20cc 543d abfa 42bd
00000330: a3c7 d3bd 8a26 10be 03c8 8ebc d916 56be
00000340: ee37 a33e 78c4 983e d968 68be 98b4 aabe
00000350: d93f fe3d 8056 a43d a72a 263e 0e12 663b
00000360: 8464 bbbe bb5e 863e d838 a8bd 373e 82be
00000370: c27b 593e e34e 46bd 85de b33e 86b1 47bd
00000380: fd48 903e 3283 dabe cc8d 12be f232 bbbe
00000390: 3c0d 303e 3739 a7be 9d3c 783e 361c 8c3d
000003a0: 7f03 96be 8e82 8dbe e9ac a2be 5934 4bbd
000003b0: 70ec a53e ed72 a73e 1c24 1bbd 2d5d f83e
000003c0: 1698 b63c b51e bc3e 2d82 64be a7f5 18be
000003d0: 47c3 8d3c a58e 9cbc 631a c6bc be9e ab3e
000003e0: 6862 59be bace 4cbd 5cbf 8e3d 1051 c3be
000003f0: da62 bf3e 9d55 4b3e 0bad d73e 8e01 ca3e
0.4427847 -0.049156673 -0.22118078 0.32417765 -0.017193768 -0.06343992 0.4112682 -0.44546348
0.05123795 0.021886792 0.28837305 0.37858084 0.3646855 -0.31296554 -0.24810794 -0.10555395
-0.17304316 0.32928154 0.31942472 -0.097452335 -0.03654326 -0.30315143 -0.17995907 0.21945868
0.032721102 0.2887439 0.07483461 0.29554564 0.55028784 0.19022633 -0.23602517 0.33397746
-0.19739513 -0.42975625 -0.046659354 -0.14665385 0.11592221 -0.17364565 -0.108131394 0.3983585
-0.39565897 -0.44598013 0.053346366 -0.2787633 0.1636994 0.30631676 0.18545619 0.4904392
-0.08321196 -0.22867446 0.062202852 0.2518535 0.4343209 0.3704075 0.31939787 -0.058890827
-0.01650832 0.46744022 -0.34019384 0.12843212 -0.33621958 0.40883246 0.03769362 0.047833584
-0.26476496 -0.56997174 0.41446337 -0.057897117 -0.18494777 0.1637184 0.2482503 -0.3235466
-0.38448286 -0.06506191 -0.33683878 -0.20586833 0.070368424 0.14235182 0.12341922 -0.34252775
0.22154996 0.006376632 0.16770008 0.19198166 0.119303785 -0.06987347 0.40126163 -0.1345258
0.02062837 -0.2564759 0.026021814 0.3641765 0.19983453 0.44510254 -0.12292285 -0.12664391
0.07822444 -0.4845493 0.1611725 0.34216133 -0.34523502 0.46976852 -0.2666818 -0.30516425
-0.4813582 0.23756629 -0.17046356 0.013197245 -0.049774677 -0.072069205 0.3492912 0.24243197
0.14579517 -0.25237998 -0.11408753 -0.4331915 0.39240062 0.3452878 0.28832358 0.45935485
0.25779697 -0.12843604 0.053556364 0.34615174 -0.519523 0.27269003 -0.2279598 0.57447076
0.13764963 0.29229233 -0.031304304 0.023923513 -0.3188317 0.04841111 0.08230068 0.28133577
0.3200112 -0.07426698 -0.11037733 -0.09519647 -0.0019468591 0.063267134 0.14197426 -0.043242387
-0.22289 -0.010447784 -0.006630321 0.4100895 0.4037781 0.49150172 -0.453764 -0.11453475
-0.00040497366 0.11686767 0.13970584 -0.3746405 0.11591193 0.16789109 0.002829657 -0.12050503
-0.375075 0.11587402 0.2943288 0.01222084 0.09227098 0.047040004 -0.21106945 0.33009085
0.18579641 0.33517548 0.0032748014 0.33681527 0.012942924 -0.02177887 -0.05812656 -0.26532182
0.17195909 -0.042937342 -0.24349254 0.24422875 0.49598128 0.08357342 -0.15703961 -0.12525158
-0.24154477 0.046231538 -0.07502841 -0.299341 -0.29333037 -0.22338869 -0.26414004 -0.24016775
0.04467131 -0.2961498 -0.101850666 -0.23662803 0.22717434 0.49916115 -0.07957483 0.02642329
-0.020225704 -0.019300623 0.05195248 -0.047602337 -0.10340812 -0.14077201 -0.017429357 -0.20907153
0.31878608 0.29837394 -0.22696246 -0.33340907 0.12414522 0.08024311 0.16227208 0.0035105976
-0.36600125 0.2624415 -0.08213967 -0.2543809 0.21238616 -0.048415076 0.35130706 -0.048753284
0.28180686 -0.4267822 -0.14311904 -0.36562306 0.17192549 -0.3266084 0.24241872 0.06841318
-0.29299542 -0.27638668 -0.31772545 -0.04961047 0.3240695 0.3270487 -0.037876233 0.48508587
0.022289317 0.36742178 -0.22315283 -0.14937459 0.01730503 -0.019110987 -0.024182504 0.33519548
-0.21228945 -0.050001837 0.06970093 -0.38147783 0.37380105 0.19856878 0.4212421 0.3945431

fc2.bias f4 [32]
00000000: 1dba 003d 38c7 db3d 52e0 61ba d46b 093d
00000010: 864d b53c 9407 993d 9bd5 6c3d 6630 863d
00000020: e070 4a3c 64c7 743d fb1f 6c3d cab6 1e3d
00000030: 5ed9 ad3d db17 ec3c 832c 583d 5331 68bd
00000040: 3781 cc3d 0be7 5c3d 375c 903d 18d1 01bc
00000050: ac74 a53d 25ee 933d 5a53 2ebd 5763 9d3d
00000060: 9a00 403d 99db 963c ba41 293d 0211 15bc
00000070: 0cec 2d3d 5713 3d3d 6db2 453c c592 fa3c
0.03142749 0.10731357 -0.0008616495 0.0335501 0.022131693 0.074721485 0.057820898 0.065522
0.012356013 0.059760466 0.057647686 0.03874854 0.08488725 0.028819969 0.052776825 -0.056687664
0.09985583 0.053931277 0.070488386 -0.007923387 0.08078894 0.07223157 -0.04255996 0.07684963
0.046875574 0.01841526 0.041322447 -0.009098293 0.04246144 0.046161022 0.012066466 0.030587563

gru.weight_ih_l0 f4 [96, 32]
00000000: 6dcd 27be 5978 513e 4ba0 b83d a0e2 01bc
00000010: e856 ab3c 3dad 65bd 7d0d c93d b417 db3b
00000020: 5b4f 783d aa7b 65be b976 533d 78fb 873b
00000030: b84d aebb 3add 68bb 2682 cc3d cef4 edbd
00000040: ba06 01be 846d 98bd cd9d 21be bcba 923c
00000050: 5b78 683e 6e23 fb3c 1d47 e73d 1a3a c6bd
00000060: 903b d43d b036 66bc d075 a3bd 7d55 25be
00000070: 2faa f5bc 2e2b e53d 9530 c6bd c4ff 52be
00000080: 01ca 183d 2e7d 6dbc 5c25 c2bc da96 b9bc
00000090: e67c c53d 3cd7 0dbe abdf 0b3e 7cdd 823d
000000a0: f9be 0e3e f3b1 213d 7cf5 6ebd f9d6 bd3d
000000b0: 8101 633d fa9a 013e 11b2 97bb 5b75 ab3d
000000c0: a4c1 f83d e1e4 0b3e d8be 143e 54ef 143c
000000d0: 42bb a63e 48bb b6b7 0083 25be 6564 1b3d
000000e0: 9697 17be feb8 1c3e 6c11 96bd 30f3 433e
000000f0: cf6b 48bc 19ab 0b3e 3692 58bc 488b 933c
00000100: ca2a 863c 99ea 17be b3b3 88bd 9b84 babd
00000110: 197c e93d 9619 313d 0805 243d 228b 47be
00000120: 5980 ed3d 6e90 123e c0ee 443d d830 b53d
00000130: c3fa febd bd7a 833d 2167 eebd 1664 c63c
00000140: 5c1a c6bd cd27 243d 56a3 5fbd 2095 f2bd
00000150: b560 093e 2f69 2f3d cdd8 003c 1d2d 663d
00000160: f8fa 543e 8abf 9dbc eedd 30be ef0f 3c3d
00000170: 48e6 623d db00 8f3d 0d8c d3bd a954 8b3b
00000180: 733f 893d 96f1 cbbe 7360 2dbe b89a 21be
00000190: 2bb1 053b 9689 fd3c a23c 12be 3ee9 b1be
000001a0: cfa9 7fbd 79f5 c2bd 8c25 503e 6d9c 413d
000001b0: 1a2c 893e a7c1 4d3d d485 9dbe bdc1 63be
000001c0: dac6 10bd 6367 42be 1034 ce3d b4b8 c1bd
000001d0: 763a 523e 64f9 5fbd 8831 eebc 5f45 a93c
000001e0: 7a47 08bc 123f c83b 45da 49bd 4dd8 a1be
000001f0: e023 643e df82 a43d 1a4b fcbd 4f52 be3d
00000200: f52a 2a3e 9ad3 7abc 06f6 303e beff 9fbd
00000210: 7097 34be 07da 2cbe c72f f3bd e877 c237
00000220: 808e 50bd 4259 173e 36d1 fc3d 019d 5dbd
00000230: 32df 4c3e bec4 41be f42a 423d e692 c8bd
00000240: dfa5 02be 7c3b 19be 62e9 0b3e d4b9 84be
00000250: dffd 2f3d 9040 b93c 55d4 e1bd 7e63 f33d
00000260: ad69 bb3d 8bcc 8f3c ad99 1bbe e203 1f3d
00000270: 1b5b 053e d02b 1cbe e9b6 97bc a630 d73d
00000280: ce6d 14bc d7c3 7cbd f0c5 6b3e 8cc3 93bd
00000290: 1c27 7f3b b753 ad3c e6d6 cfbc 673e c43d
000002a0: acf5 61bd bde2 dd3a 49e8 773e 090e 0ebc
000002b0: f2ce 503d ffe3 933d 4ca0 a8bd 540e 003e
000002c0: beb9 4a3e 1999 4c3e 6f93 8b3e 0f20 b43d
000002d0: 472c 523e 1db5 353e e527 b8bd 39af a5bd
000002e0: 6268 723e 473c 163e 8323 1b3c baa3 b3bc
000002f0: ce2b 19bd e469 8f3e 76b4 233e 7625 c93d
00000300: 427b a4bd c3f2 6b3c e3e9 1f3e 4da3 263e
00000310: 51bc 673c 7f41 0d3e c41f 413e ad39 2c3c
00000320: caf5 ebbc 414c c1bd 89c7 4f3d 0000 683c
00000330: efd9 5bbd 1aa2 893e 19fd 053e b81e 47be
00000340: 1e73 f5bc edee 3dbc 27cb 073e 2eb9 00be
00000350: 656f 253e 358e cdbd 6467 d5bc 5a31 823e
00000360: 7d22 fe3d b263 2e3e 1ce5 ca3d 4042 133e
00000370: 9204 da3d e8b1 3d3d 17a2 443e 7575 863d
00000380: 6591 82bd fdc4 383d e04f 043d 2437 923d
00000390: 8de1 1cbe b580 1fbe bf22 b2bd b3ea 3fbd
000003a0: 4b5f 193d 5752 a43d ada5 20be cde9 94bd
000003b0: c111 98bb 95c4 adbc b90f 0d3d bafb 33bd
000003c0: ed03 723d 6da6 28bc db23 27be cdc4 1b3b
000003d0: 3a2d 6d3e 5f0e 8a3e 5e36 a93d eb82 2cbb
000003e0: 5c55 e6bd 9a59 d8bc d831 3ebe 9873 49bc
000003f0: 4df3 d2bd 2a10 313e 595d 1abd 2f42 0ebc
-0.16386957 0.20456065 0.090149485 -0.007927567 0.020915464 -0.056073416 0.09817026 0.0066861752
0.060622554 -0.22410455 0.051626895 0.0041498505 -0.0053193234 -0.0035532252 0.09985761 -0.116189584
-0.12600222 -0.074427634 -0.15782852 0.017911308 0.22702162 0.030656543 0.11292861 -0.09679051
0.10362923 -0.014051124 -0.07981455 -0.16145892 -0.029988376 0.111898765 -0.09677235 -0.2060538
0.03730202 -0.014495177 -0.023699455 -0.02265494 0.09642963 -0.13851637 0.13659541 0.06389901
0.13940038 0.039476346 -0.05833958 0.092695184 0.055421356 0.12656775 -0.0046293815 0.08371993
0.12146309 0.13661529 0.14525926 0.009090263 0.3256474 -2.17833e-05 -0.16163254 0.03793754
-0.14803919 0.15304944 -0.07327542 0.19135737 -0.012232735 0.13639487 -0.013218453 0.01801075
0.016377825 -0.14835586 -0.066749 -0.09107324 0.11400623 0.04323729 0.04004386 -0.19486669
0.11596746 0.14312908 0.048079252 0.08847207 -0.12450173 0.06419895 -0.11640764 0.024217647
-0.096729964 0.04007702 -0.05459913 -0.118448496 0.13415797 0.04282492 0.007864189 0.056195367
0.20798862 -0.019256372 -0.1727216 0.045913633 0.055395395 0.06982585 -0.10329447 0.0042520356
0.06701555 -0.39832753 -0.16931324 -0.15781677 0.002039979 0.030949395 -0.14280942 -0.34748262
-0.0624178 -0.095194764 0.20326823 0.04726832 0.2679146 0.05023351 -0.30766165 -0.22241874
-0.03534589 -0.18984751 0.10068524 -0.094590575 0.20530114 -0.054681197 -0.029076353 0.020662962
-0.008317823 0.006111034 -0.049280424 -0.31610337 0.2227931 0.08032774 -0.12319012 0.09293043
0.1661795 -0.015309239 0.1728135 -0.07812451 -0.17635894 -0.16880046 -0.11874347 2.3182438e-05
-0.05091715 0.14780143 0.12344591 -0.05410481 0.20007017 -0.18922707 0.047404245 -0.09793644
-0.12758587 -0.14964098 0.13663247 -0.25923026 0.04296672 0.022613794 -0.11026827 0.11884211
0.091510154 0.017553588 -0.15195341 0.038822062 0.13023035 -0.15251088 -0.018519836 0.10507326
-0.009059383 -0.061710205 0.23024726 -0.07215032 0.0038933223 0.021158082 -0.025371026 0.09582215
-0.05516593 0.0016928535 0.24209704 -0.008670338 0.05097861 0.07221221 -0.08233699 0.12505466
0.19797418 0.19980277 0.2726092 0.08795177 0.20524703 0.1774487 -0.08991984 -0.08090062
0.23672631 0.14671431 0.009468916 -0.021928657 -0.03739529 0.28010476 0.15986809 0.09821598
-0.08031322 0.014401141 0.15616564 0.16273232 0.014144019 0.13794516 0.18859774 0.010511798
-0.028803725 -0.094383724 0.0507274 0.014160156 -0.053674635 0.26881486 0.1308483 -0.19445312
-0.029962119 -0.011592609 0.1326109 -0.1257064 0.16155775 -0.100368895 -0.026050277 0.25428277
0.12408922 0.17030218 0.099069804 0.14380741 0.10645403 0.046312243 0.19202457 0.06565372
-0.06375388 0.045109738 0.032302737 0.071394235 -0.15320416 -0.15576442 -0.086980335 -0.046854686
0.037444394 0.080235176 -0.156882 -0.072711565 -0.0046407883 -0.021211902 0.034438822 -0.043941237
0.059085775 -0.010293585 -0.16322272 0.0023768425 0.23161784 0.2696409 0.08262323 -0.002632315
-0.1124675 -0.026409913 -0.18573701 -0.012295626 -0.10300312 0.17291322 -0.03768668 -0.008682772

gru.weight_hh_l0 f4 [96, 32]
00000000: c033 8dbc 4759 5d3c 78df d5bb acb9 2abe
00000010: 6851 6dbd c69f 12be b88b 52bd 1d30 3e3e
00000020: 6ce9 5f3d f972 87bd b1e1 c3bd 56de d8bd
00000030: 7451 473e d5d2 b2bb 8b40 343e a461 c63c
00000040: ea2d 393d ca03 30bd d18e a2bd 1082 bfbd
00000050: 795d 1abd b574 d9b9 d512 65bd 4ecb 063d
00000060: fcd9 babe 240a 3abd 40ed 25be 29a1 473e
00000070: 1241 23be d314 983d 4dcb 62be 168d 78bd
00000080: e007 fcbd 5bd5 1d3e 0fcb f8bd 49db 10be
00000090: 1c20 8e3c c685 763d 9012 1a3e 519e e5bc
000000a0: 336c d6bd bc56 d0bd b79f 8c3d a182 423e
000000b0: b21f 76bd 3ef1 9b3d b45e 993c 8ef3 203e
000000c0: 533d 10be a546 8abd 8a37 183e 6783 643d
000000d0: 3741 1c3e d22f 06bd 2cee e03d 6941 20be
000000e0: bcce e23d f1d8 4c3d 7d6f fdbd 636f e23d
000000f0: 919a 91bc a9b8 3fbc 35b6 06bd 0695 b83d
00000100: 3f60 37be 661a 0bbd fc99 f53d d9fa 9abd
00000110: 16f2 2bbd d9e0 143d 21f9 54bc 382b c43d
00000120: 74a9 e33d db64 3e3e 000b b1bd 92b1 a1bd
00000130: 44e8 85bd 3430 94bb b5ae d53c ac5b ab3d
00000140: cdc4 863d 8df2 08be 695c 11be e0ad c93d
00000150: a6fe 0c3e 9675 42bd d88b 113e 089f 543c
00000160: c12e c6bd 5866 1bbe 68dc da3d 4e1c 09bc
00000170: 9f8b a33c 0b8e f3bd b209 303e 7564 0c3d
00000180: 3faa 7ebd d71b 69bd 41d4 8dbd a761 17bd
00000190: f4ba 0cbe 5e78 aa3d eba5 333d 8b64 493d
000001a0: 38d0 6cbe 3725 253b 4829 493e dba0 c33d
000001b0: 13e6 dfbd 3d3f a5bd 79f9 1cbd d680 2abe
000001c0: 82a5 7c3d 9f72 bfbd 2b22 14be bf77 d73d
000001d0: 7ea3 53be 7c15 3d3e 0012 02bd 20c1 503e
000001e0: b0ef f33d 77f9 373d dcb5 083e a7a5 423e
000001f0: f57e ebba 984c 83be a04c c33a 051a 30be
00000200: 587f 64be 6635 943c f481 c5bd 6b76 a4bc
00000210: f4f9 cfbd 9384 05be 4a2e 203e 67e9 0dbe
00000220: 4c75 26bd 81ba fc3d 3c67 8ebd 4950 1f3e
00000230: 7ccc fb3c 375b 37be 1c33 1ebe 592b b8bd
00000240: be97 a2bd a2d9 23be 3909 003e 1ffa 47bd
00000250: 3f92 76bd 1d3a dd3d 5d0b 083e 727d 03be
00000260: f54e 99bc 01f0 baba 1dec 2e3e aba6 03be
00000270: c0d2 413c c948 c83d 50b2 4bbd b4a7 4abd
00000280: 4c8a 81bd 173d 0abe 9a4a 81be e067 d73c
00000290: 7b46 113d 4203 02be 5dd9 c3bd 2f18 90be
000002a0: 0e2a 603e f413 bd3d 64ae 01be 485d 77bd
000002b0: b67e 68be 6c9e e63c d06c 2d3d 2c59 97ba
000002c0: 2f47 2b3e e873 0ebe 1bef a93c d7c5 133e
000002d0: bf64 f73d d79f 52be c535 a6bd f6db dcbd
000002e0: bc7d 633e 5408 4c3e fe86 073c fc4c 2dbe
000002f0: 46d0 d23d 9643 363e af8a 293e fa76 b5bb
00000300: 10ca ed3d c919 363e 04bd 32be f260 92bd
00000310: 9afa 963c b42e eebc 05b4 693d 0597 51be
00000320: e70f 053e 058e c33c 4732 e43c bc2b 273e
00000330: 25f0 84bd 7639 c33b 79f9 3b3d ae69 253e
00000340: 3087 a2bc f204 12bd 2704 903e 6cd5 febd
00000350: d949 c23b 5ffe ffbd 3125 4bbe a9d6 273d
00000360: f809 063c c5ec 453b 5c20 67be 249d 16be
00000370: 4565 c33b 7efe 91ba 2f86 233e d742 d83c
00000380: a5e6 2ebe 92cd 483e 522a f5bb 4add 69be
00000390: f369 223d 5e96 9abe 6dd7 8e3d 229a 18be
000003a0: 39a3 4d3e 05ca 0abe ee3e 133e 53c0 823d
000003b0: 1ffb 06be b5d1 34be d6d3 983d eefe 2d3e
000003c0: 9454 dd3d 9f63 3cbe 3504 093d 1aa9 2a3e
000003d0: 261d 863c 91ad 053e 19c9 093e f9a7 8abe
000003e0: b0d4 433e 2ca9 b8bd 4dae 8f3c ddbd fa3d
000003f0: 961c 4d3e a4e6 a43d df9c f93c 8f74 833d
-0.01723659 0.013510055 -0.0065268837 -0.1667239 -0.057938963 -0.14318761 -0.051402777 0.18573041
0.054665968 -0.06613726 -0.095645316 -0.10589282 0.19464666 -0.005457262 0.17602746 0.02421648
0.045209803 -0.042972364 -0.07937396 -0.09350979 -0.0376868 -0.0004147642 -0.055926163 0.03290873
-0.36494434 -0.045419827 -0.16203785 0.19495071 -0.15942791 0.07425847 -0.22147866 -0.060681425
-0.123061895 0.1541342 -0.12148105 -0.1414615 0.017349295 0.06018617 0.15046144 -0.028029593
-0.10469856 -0.10172793 0.06866401 0.18995143 -0.06008882 0.07614373 0.018721916 0.15717909
-0.14085893 -0.067517556 0.14864936 0.055789378 0.15259252 -0.03276045 0.10982928 -0.15649952
0.11074588 0.05001158 -0.1237478 0.110564016 -0.017773898 -0.011701741 -0.03288861 0.09012799
-0.17907809 -0.033960722 0.11992261 -0.07567377 -0.041978918 0.036347244 -0.01299885 0.09578556
0.11116305 0.18593161 -0.08644676 -0.07895197 -0.06538442 -0.004522348 0.026084283 0.083670944
0.065805055 -0.13373776 -0.14195408 0.09847617 0.13769016 -0.04747542 0.14213502 0.012977369
-0.09676886 -0.1517576 0.106865704 -0.008368565 0.019964037 -0.11892327 0.17191198 0.03427549
-0.062174078 -0.056911316 -0.0692525 -0.036958363 -0.13743192 0.083237395 0.043859404 0.04916815
-0.23126304 0.0025199184 0.19644654 0.09552165 -0.10932555 -0.08068702 -0.038323853 -0.1665071
0.061681278 -0.09348034 -0.14466159 0.10520887 -0.20667836 0.18465227 -0.031755447 0.20386171
0.11910951 0.044915643 0.13350624 0.19008504 -0.0017966913 -0.25644374 0.0014900155 -0.17197426
-0.22314203 0.018091869 -0.09643927 -0.020075997 -0.10155097 -0.13038854 0.15642658 -0.13858567
-0.040639207 0.1234026 -0.06953284 0.1555797 0.030737154 -0.1790589 -0.15449184 -0.08992643
-0.07939099 -0.16000989 0.12503518 -0.04882252 -0.060198065 0.108021 0.13285585 -0.12840822
-0.018714407 -0.00142622 0.17082258 -0.12856548 0.011830032 0.09779508 -0.0497306 -0.04947634
-0.06325206 -0.13499866 -0.2525223 0.026294649 0.035467606 -0.12696555 -0.09562943 -0.2814345
0.21891043 0.092323214 -0.12664181 -0.060391694 -0.22704586 0.028151713 0.0423401 -0.0011546961
0.16726373 -0.13911402 0.020743897 0.14430939 0.12079763 -0.20568787 -0.081157245 -0.10784142
0.22215933 0.19925052 0.008271931 -0.16923898 0.10293631 0.1779922 0.1655681 -0.0055378648
0.11610806 0.17783274 -0.17454916 -0.07147397 0.018430043 -0.029075004 0.057056446 -0.20467766
0.12994348 0.023871431 0.027856005 0.16325277 -0.064911164 0.0059577776 0.045892213 0.16153595
-0.019839853 -0.035649247 0.28128168 -0.12443051 0.0059292135 -0.12499689 -0.19838406 0.0409762
0.008181088 0.003020094 -0.22570938 -0.14708382 0.005963 -0.0011138467 0.15969156 0.02639906
-0.17080171 0.19609669 -0.0074818516 -0.22838321 0.039651822 -0.30192846 0.06974683 -0.14902547
0.20081796 -0.13553627 0.14379475 0.06384339 -0.13181733 -0.17658122 0.074622795 0.16991779
0.108071476 -0.18397377 0.033451278 0.1666607 0.016371321 0.13054492 0.13455619 -0.27081278
0.19124103 -0.09016642 0.017539168 0.12243245 0.20030436 0.08051804 0.03047031 0.06418716

gru.bias_ih_l0 f4 [96]
00000000: 2928 553d ccef a6bd a153 9f3d 5eee 693d
00000010: 78f3 723d 2d99 2d3d 57c1 b03c 22f9 20be
00000020: 8fbd a1bd a349 5c3e b853 863a d1c6 2a3e
00000030: 1349 47be 55ab 483e c16d a8bd 35df a43d
00000040: 863d 003d c0c7 623e 3544 2c3e c858 63bd
00000050: bc5b 303e c4cf 2c3e 569b 23bd 7851 b33d
00000060: fbe8 56bd f04a 4b3e 3533 3bbc 426e 93bc
00000070: 0cd4 67bd e941 eb3d e5d7 513d 0308 84bc
00000080: 152d e0b9 6248 8abe 75e9 00be 7606 84be
00000090: 1ded 81be 5777 f2bd 65ac 56be ac2b 55be
000000a0: 7d05 8abe fd31 38bb 2ddf 1e3d d2d9 01be
000000b0: cfc8 22be 5563 35be c510 34be bb01 293d
000000c0: c913 37bc c7b0 97bd 7168 393e bf56 d3bd
000000d0: 74b8 febd 9b70 8cbe 9d73 dc3d 5765 bdbe
000000e0: 925b 82bd 95fa 88be cc71 9fbd 7226 57be
000000f0: b4de 60be d748 b9bd 9181 7fbe 4dd8 22bd
00000100: ce62 4dbd 6e19 96bd 709a 98bd fca2 3ebe
00000110: 7c4a 8abc 1aa5 00be 91a8 1a3e b140 1abe
00000120: 11e3 d03d 1424 67be bba4 453d 8f6d af3d
00000130: 235a 0dbe f731 8bbd 4114 fbbd a958 3bbe
00000140: 3263 ef3d 338a d53d 33b8 133e 0397 27bd
00000150: bd98 80bd 3a67 afbd 93d2 753d 75a8 c63c
00000160: 9d33 e6bd be3c 3a3d e7a6 17be 2b4d 163e
00000170: 7279 cdbd ed98 1d3e 998b 3ebc f03e cf3c
0.052040253 -0.081512064 0.07779623 0.05711209 0.05931422 0.042382408 0.021576567 -0.15720037
-0.078974836 0.21512465 0.0010248339 0.16677405 -0.1946147 0.19596608 -0.08224059 0.08050386
0.031308673 0.22146511 0.16822894 -0.05550459 0.17222494 0.16876131 -0.03994306 0.08755773
-0.05246828 0.19852805 -0.011425783 -0.017996911 -0.056598708 0.11487181 0.051231284 -0.016117102
-0.00042758198 -0.2700835 -0.12589057 -0.2578618 -0.25376216 -0.118391685 -0.20964201 -0.20817441
-0.26957312 -0.0028105967 0.038787056 -0.12680748 -0.15896915 -0.17713673 -0.17584522 0.041261416
-0.011174151 -0.074067645 0.18106247 -0.1031928 -0.124375254 -0.2742966 0.10764239 -0.3699138
-0.06365122 -0.2675368 -0.07785377 -0.2101076 -0.21959955 -0.09047096 -0.2495177 -0.03975706
-0.050143056 -0.07329069 -0.074513316 -0.18616861 -0.01688122 -0.12562981 0.15103365 -0.1506374
0.101995595 -0.22572356 0.048252802 0.085658185 -0.13803916 -0.067966394 -0.122597225 -0.1829554
0.11688842 0.1042675 0.14425735 -0.0409155 -0.062791325 -0.08564611 0.060015272 0.024250248
-0.11240313 0.045468085 -0.14809762 0.14677875 -0.100329295 0.15390368 -0.011629962 0.025298566

gru.bias_hh_l0 f4 [96]
00000000: d60f afbd c45b 363e e6b9 303e b658 8fbd
00000010: 1714 803b 1168 783e 85a9 5b3e 8d09 4b3d
00000020: 11fc 47bd b2b4 703e a61e 753e 9ff8 cd3d
00000030: bcfa b63d 8e07 df3d 2214 603d c129 0b3d
00000040: 34de b33d a689 abbd 5e56 323e 2b17 6bbd
00000050: bb66 58bc 607a f0bd 0a89 293e 93d2 2d3d
00000060: 945e fe3b 48b7 75bc ee97 173e 31fb 343e
00000070: 2889 eebd 6342 93bc aef5 61bc a9ed 533e
00000080: de09 50be 05e6 98be 86dc 3abe b530 c4ba
00000090: 48bd 3abe ce65 6cbd 6108 8abe 9554 82be
000000a0: 06d5 98be bc0e 5dbc d12d b7bd 3e10 67be
000000b0: af77 86be 5699 5bbd 93ce 81be cfd9 1ebe
000000c0: 2e2b 8ebe 92f1 10be 9467 193e d6a7 9fbd
000000d0: 37f1 d2bc fcfb 7cbe eec3 09be 7c5a 4dbe
000000e0: 09b0 cabd 5032 1bbd 5257 053e 9b5c 92be
000000f0: 67cf 84be 3ce2 5a3d ed93 8abc f30f 50bd
00000100: 6d09 103e b0e3 5dbd 61b8 d0bd cb9d 1a3c
00000110: e6c4 40bd 51ee 5ebd d751 0b3e 8ec1 d93d
00000120: 329b 633d cedf 2abd 7da5 2bbe b0c2 473e
00000130: 55bb 023e 9afa 4abc 1072 6e3c 1249 dd3d
00000140: 0c96 58bd 9968 e93d e124 513e d2b9 573d
00000150: da28 5bbe b675 47be 14a2 e6bd d519 27be
00000160: 900a 6e3d 9ed9 89bd 4052 9cbd efab 19bd
00000170: 0a39 ef3d 58c2 803d 7656 233e 38e4 27be
-0.08547942 0.17808443 0.17258415 -0.06999342 0.003908645 0.24258448 0.21451385 0.049569655
-0.048824374 0.2350643 0.23937473 0.10057186 0.089345425 0.10890113 0.0547067 0.033975367
0.08782616 -0.08375864 0.17415759 -0.05739514 -0.013208087 -0.11742091 0.16556183 0.042437147
0.0077627394 -0.014997311 0.1480405 0.17673947 -0.11647254 -0.017975992 -0.013791485 0.20696129
-0.20316264 -0.2986299 -0.18248186 -0.0014968129 -0.18236268 -0.057714276 -0.26959518 -0.25455156
-0.29850024 -0.0134922825 -0.08944286 -0.2256479 -0.26263186 -0.05361303 -0.25352916 -0.15512775
-0.27767318 -0.14154652 0.14980918 -0.07795684 -0.025749786 -0.247055 -0.13453647 -0.20054048
-0.09896857 -0.03788978 0.13021591 -0.28586277 -0.25939485 0.05343841 -0.01691624 -0.05079646
0.14066096 -0.054172218 -0.101914175 0.009437035 -0.047062777 -0.054426495 0.13605438 0.10632621
0.055567928 -0.041717343 -0.16762348 0.19507861 0.12766774 -0.01238885 0.014553562 0.10804953
-0.05287747 0.113969035 0.20424224 0.052667446 -0.21402302 -0.19478497 -0.11261383 -0.16318448
0.058115542 -0.0673096 -0.076328754 -0.037517484 0.11680801 0.06287068 0.15950951 -0.16395652

fc3.weight f4 [32, 32]
00000000: 728f 9e3d 8ea4 98be e779 193e 2ebd ecbd
00000010: b23d e53e fc88 483d 964c b7be 597b 913c
00000020: 088d d4be 6783 9dbe e054 a43e fe1c e23e
00000030: c041 7abd 3a78 a43e ce80 8abe 9aa4 d63e
00000040: 016f b73c 141f 973e 2575 493e 81cb 76be
00000050: 3ded a93e 8ffa a53e 3b95 2c3e 5629 6f3e
00000060: a89d d23e a6c4 e6be 6f0a eb3d 9457 a63e
00000070: 71d4 753e 0598 28be 2842 ddbc 295c 0cba
00000080: c3e2 233b ff0e 6fbe 7f9d 333c 2ae5 84be
00000090: 5922 9c3e c5b2 5b3d 0346 9bbe 70db bdbe
000000a0: a973 223e eadb 50be 358b bc3e c4bf 9abe
000000b0: 08e3 d63d f0c2 d23e fe51 dc3e 6960 513e
000000c0: e8ef f0be 7c4b db3d 4731 033f d3de 1ebf
000000d0: e452 143e 8a34 fc3d 4521 a4be 0afa 90bd
000000e0: 40f8 77be 36c7 9dbd 4d20 e4bd 541b 5f3e
000000f0: 21e0 593e 8eec eb3e 8dc3 c8be a389 cabe
00000100: 16e7 d3be 0b7a 2c3e 9aee 0ebe f334 083c
00000110: 96e2 c43e 000d c43e b63f 34be 09e7 87be
00000120: 5e79 263d 031a a53e 70fc 6ebe 20e5 f7bd
00000130: 7ba9 973e 662d babc 8878 923d 3b09 debe
00000140: 17ae 61bc ce1b c53e c3a6 173e b841 a03d
00000150: 2252 86be 97f0 a73e c9ef f63d eea3 cf3e
00000160: 70bc d6bc 6a78 5cbe b8f6 0fbd 205d 493e
00000170: 7964 953e 4e55 833e 8064 a73e aa1b 62bd
00000180: c60b 64bd 1714 adbe 5b40 5fbe 7bf6 0ebe
00000190: 97f0 adbe 6247 a93e 4ff5 a83e ace3 8d3e
000001a0: d6aa 9fbe 049c 12bf 696d eabe 8a2d 193e
000001b0: 0ff1 e43e d061 303e 3388 c93d c116 c03e
000001c0: 2946 52be 78ef ebbe 11bd 733e b36f c0bd
000001d0: db81 56be 8817 b2bc 371a c8be c90d 813c
000001e0: 4212 86be c237 54bd 7f0c 85be 5efe 993e
000001f0: 2968 38be f19f 9a3e 933a 99be c906 07be
00000200: fec0 09bf c632 d93e 9671 87be c158 62be
00000210: 17f8 e83d b769 5f3e b705 6fbe 3001 cfbe
00000220: 7209 873e 1384 2eba 2eca 7f3d be12 543e
00000230: 06e1 0cbf b97b a8be 27d9 d2be ee9e 56be
00000240: 8393 24be 348a debe 0560 a0be 01cf 263f
00000250: c747 c93e 9142 d43d 1f8f 193e bdd1 8e3e
00000260: 9bdd d0bd d12c 943e 41b8 343e 469e cfbe
00000270: 11a4 af3d a593 c83e d062 9c3e 498e d83e
00000280: e89d 18bf f36c 013f 4ab8 12be 4622 5fbe
00000290: cce7 a13d aa2f 25be 6168 d53e 9e59 51be
000002a0: e8dc fd3e f4a2 87be ed70 05bf eaf7 283e
000002b0: 4726 043d cb13 3ebd 26ee f9be 0314 c5be
000002c0: a910 1f3e a8f8 0dbe 9f34 cdbe 0dc0 303f
000002d0: ec4d 553e 70c1 103d 362f 0e3e 7fd9 eebe
000002e0: 5ff6 8b3e 5868 6ebe 1fa4 e33d 7988 52bd
000002f0: a4bf cc3c 4762 88be 0f0e 053f e3be 043f
00000300: b751 bdbe c64f 883e 1946 d3be 080a 8dbc
00000310: 0a53 343e 58e0 6e3e a8bc c93e 78b9 ad3e
00000320: 4cb1 0e3f 3579 d3be 7c58 fd3d a791 6f3d
00000330: 3233 083b 8e53 4f3e 6e83 c33e 1f74 e6be
00000340: 3f63 83be a5ba e2be 218a 2dbe 2ca9 093f
00000350: c4d7 8b3e 67c8 643d 1e7f cabe 26bd 88be
00000360: c67e e63e bc01 493e a222 103e e158 6fbe
00000370: 21c9 4e3e eb59 13bd b049 7a3e fe55 883e
00000380: b743 b43e d702 cdbd 8ca3 4ebe 6c06 573d
00000390: 59c7 3b3e d5f4 f73e a0f3 cabe 2c6c 383e
000003a0: d6ff 18be bced 173e 951c 4fbe e136 fabd
000003b0: c94c 61be 4be4 80be eb1c 5abe 4724 553d
000003c0: 5f22 a43d e62d 173e 9d90 393e 2498 0bbf
000003d0: 161c 93bd aa9f 7bbe 6498 cbbe b008 d8be
000003e0: 19ed e43b c735 8cbe edcb fbbe 4445 743d
000003f0: b7f7 bdbe 615d a43e f06f 833b 1c89 f3be
0.07742204 -0.29813045 0.14987908 -0.11559521 0.44773632 0.048958763 -0.35800618 0.017759012
-0.41513848 -0.30764315 0.32096004 0.44162744 -0.06109786 0.32122976 -0.27051395 0.41922456
0.022391798 0.29515898 0.19673593 -0.24101068 0.3318881 0.32417724 0.16853802 0.23355612
0.41135907 -0.45071906 0.114765994 0.32488692 0.24006821 -0.16464241 -0.027009085 -0.0005354309
0.0025006987 -0.23345564 0.010962843 -0.25956088 0.30494955 0.053637285 -0.30326852 -0.3708148
0.15864433 -0.2039639 0.36824957 -0.3022443 0.104925215 0.4116435 0.43031305 0.20446934
-0.47058034 0.10707757 0.51247066 -0.6205875 0.14484745 0.123147085 -0.32056633 -0.07078941
-0.24215794 -0.07704012 -0.111389734 0.21787769 0.21276905 0.46078914 -0.39211693 -0.39558133
-0.41387242 0.1684343 -0.13958207 0.008313405 0.3845412 0.38291168 -0.17602429 -0.26543453
0.04064309 0.32246408 -0.23338485 -0.12104249 0.2962149 -0.022726726 0.07151896 -0.43366417
-0.013774416 0.38497776 0.14809708 0.07825035 -0.26234537 0.32800743 0.12057454 0.40554756
-0.0262129 -0.2153031 -0.0351474 0.1966443 0.29178217 0.2565102 0.32693863 -0.055202164
-0.05567529 -0.3380439 -0.21801893 -0.13961212 -0.33972618 0.33062273 0.32999656 0.27712762
-0.31185025 -0.5726931 -0.45786598 0.14958778 0.44715163 0.17224813 0.09840431 0.3751736
-0.20534576 -0.46081138 0.23802592 -0.09396305 -0.20947973 -0.021739736 -0.390825 0.015753644
-0.26185805 -0.051810987 -0.25986096 0.3007688 -0.18008484 0.3020015 -0.299275 -0.13186182
-0.5381011 0.4242155 -0.26453847 -0.2210417 0.113754444 0.21817671 -0.23342024 -0.40430593
0.26374394 -0.0006657254 0.062448673 0.20710275 -0.5503086 -0.32906893 -0.411813 -0.20959064
-0.16071896 -0.43464816 -0.31323257 0.6515961 0.39312574 0.10364259 0.14996003 0.27894393
-0.10198518 0.28940442 0.17648412 -0.4055044 0.08576215 0.39175144 0.30544138 0.42296055
-0.59615946 0.5055687 -0.14328113 -0.21790418 0.0790554 -0.16131464 0.41681197 -0.20444342
0.495826 -0.2649151 -0.52125436 0.16500822 0.032263067 -0.046405595 -0.48814505 -0.3849183
0.15533699 -0.13864386 -0.4007921 0.69043046 0.20830506 0.035340726 0.13885197 -0.4665031
0.27336404 -0.23281991 0.11115288 -0.05139968 0.024993725 -0.2663748 0.51974577 0.5185377
-0.36976406 0.26623362 -0.41264418 -0.017216697 0.17609802 0.23327768 0.39401746 0.33930564
0.55739284 -0.4130341 0.12370393 0.058488514 0.0020782468 0.20246717 0.3818621 -0.45010468
-0.25661656 -0.44283023 -0.16947223 0.5377376 0.27313054 0.05585518 -0.39550108 -0.2670681
0.45018595 0.19629568 0.14075711 -0.23373748 0.20193912 -0.035974424 0.24442172 0.26628107
0.35207912 -0.10010307 -0.20179576 0.05249636 0.18337764 0.4842898 -0.39638996 0.18010014
-0.14941344 0.14836782 -0.20225747 -0.122174986 -0.22001947 -0.25174174 -0.21300094 0.05203655
0.08014368 0.14763603 0.18121572 -0.54529023 -0.07183091 -0.24572626 -0.39764702 -0.42194128
0.006986272 -0.2738478 -0.4917902 0.05963637 -0.37103054 0.32102492 0.0040111467 -0.47565544

fc3.bias f4 [32]
00000000: 3f8e 073d 06ed 9e3d 6e56 1bbd da75 f13d
00000010: d3d5 c43c 18ae ef3c 79cb 333d 5773 823d
00000020: 3a83 b83c f03d 4dbd 848b d93c 37fe b03d
00000030: ade1 85bd b4b7 893d faf5 763d 8e81 613d
00000040: d341 02bd 3d67 c43d 522b 123d ac59 b73d
00000050: 8dce 863d 197b 9f3d 9075 223d 94f0 f13c
00000060: 97da 813d b63d 023d 875f 3dbd f1da 7f3d
00000070: c99c 4c3b 43fa 883d 00fe 643c 5201 16bd
0.03309464 0.077600524 -0.037924223 0.117900565 0.02402774 0.029257819 0.04389522 0.063696556
0.022523511 -0.050107896 0.026555784 0.08642238 -0.06537185 0.06724492 0.060293175 0.055055194
-0.031801056 0.09590004 0.035685845 0.089526504 0.06582365 0.07787151 0.039662898 0.029533662
0.06340521 0.031797133 -0.04623368 0.06246466 0.003122138 0.06688359 0.013976574 -0.036622353

fc4.weight f4 [6, 32]
00000000: 6b2e a4bd 395e b13e 3677 99be 0623 ae3e
00000010: 9b6d 15be 7e2e 79be 1f4d d2bd 6c96 ddbd
00000020: 5ba6 40be 1abb ba3e 26bb 933e 8f6b e33e
00000030: 2505 ffbd ceea 83be 725a 7abe 8100 8cbe
00000040: 74c9 823e 1113 59be 003b 2dbe 7036 e5be
00000050: e3cf c9bd 8ee4 a93e fd42 573e 3e02 023e
00000060: 9d38 0dbe 3e40 c7be 1ac2 b83e b1cd 3f3d
00000070: 912a 34be 0134 8dbe 5ddd 40be 4c7e 4ebe
00000080: 1fc9 e7be 0886 9b3e 8b78 703e 42c1 d33e
00000090: 0f54 77bd 7480 c5be e431 b63c 92d8 2ebd
000000a0: 9d33 023d 9a3d c3be f699 503e f102 d1be
000000b0: dc2a 743e dceb 3cbe 3080 b33d b804 963e
000000c0: 2893 81be 7d39 903e 2c97 92bd 7139 88be
000000d0: 6c1b 0f3f 94a7 9c3e f574 bebe c114 01bf
000000e0: a1a9 fa3d c25e d4be d0d2 963e 809e aabe
000000f0: 8a13 6abe 1b6e 993e af80 253e b13d d4be
00000100: 8be9 aebe 4c34 1b3e b001 c1be 077a ac3d
00000110: f363 d9be 63e0 99be a536 efbd 513c b53d
00000120: d784 0ebe 7cbd 74be 82c2 9abe ccd5 ce3e
00000130: ae9d 7bbd 5430 a83e f8a4 fdbe 3e9c 9a3e
00000140: bba1 6c3e b1bf b2be 36ea c23e dd92 b7be
00000150: 4612 dabe a009 1fbe ed9a 30be 39bd b43d
00000160: 02df d73d 44a2 ddbe 21fd 673e 71db b23e
00000170: 9e43 a23e 9dbd 983e 83b0 f6bd 8fbc 2bbe
00000180: 1cdf d7bd c66d cd3e 6009 523e d45d 2b3e
00000190: 7d06 8fbc 176e 43be 9ca9 bcbe f471 543e
000001a0: 986d fc3e 4780 9a3c f8d4 f63e b647 3dbe
000001b0: 3da5 7bbe d3e7 fdbe d66e 05bf 37c1 3bbe
000001c0: 9305 d83e e617 343e 8baa 7d3e 9cdb 053e
000001d0: d1d4 643d 021d 563e d71c eabe 341f 453e
000001e0: 2424 9fbe 43da 12be 371d 8cbe ec08 293e
000001f0: ace5 aabe ba07 803e 97b6 c53e 9488 983e
00000200: c722 57be ad4e 23be 1616 593d a131 0cbf
00000210: 0764 793e 9c35 a73c 8bd8 b0be c5a6 06be
00000220: 4635 ffbe 6b22 863e ba45 f63c 7b65 803e
00000230: c774 413e 2993 b3be 9f1c dabd 8bc7 84be
00000240: 8c3f 1fbe 625a f6be c0a1 4d3e 981b 79bd
00000250: 1c98 a7be d974 c7be 1f24 d9be fa23 f1bd
00000260: 4250 1cbe 81c6 c93d 9006 2c3e 64fe 023e
00000270: 4fdc 43be 3301 8e3d fe1b 1c3c d053 b23e
00000280: 20b0 203e 1a01 a5be 44fc 25be bd80 023d
00000290: 19bb fd3e d590 e63e 8ceb f13e fee2 72be
000002a0: 5a53 bf3d d2e9 db3e 11e0 41be 0873 adbe
000002b0: 4f0f 50be 58e4 d93e b65f b93c 235e 0bbf
000002c0: 229b 623e 24f0 8a3e b66a cc3e 53ea a13e
000002d0: 6c50 15be a5e0 05bf 75ca c63e 25a0 21bc
000002e0: b43d 153e ebd5 ec3e a239 a83e 9d5d 873d
000002f0: 2869 8abe ec59 e4be 7237 4abc 4134 ae3e
-0.08016666 0.346422 -0.29973763 0.34011096 -0.14592592 -0.24334142 -0.10268616 -0.10819706
-0.1881346 0.36470872 0.2885372 0.44417998 -0.12452153 -0.2576508 -0.24448565 -0.27344134
0.25544322 -0.2119868 -0.16917038 -0.44768095 -0.09854104 0.33182186 0.21021648 0.12696168
-0.13791128 -0.389162 0.36085588 0.046827022 -0.17594363 -0.27578738 -0.18834443 -0.20165366
-0.4527063 0.30375695 0.23483483 0.41358382 -0.0603829 -0.38574564 0.022240587 -0.042687006
0.031787504 -0.38132936 0.20371231 -0.40822557 0.23844475 -0.18449348 0.08764684 0.29300475
-0.25307584 0.2816886 -0.0715774 -0.26606324 0.5590122 0.30596602 -0.37198606 -0.5042229
0.122393854 -0.41478544 0.29457712 -0.3332405 -0.22859016 0.29966816 0.1616237 -0.41453317
-0.34162554 0.15156668 -0.376966 0.08421712 -0.42459068 -0.30054006 -0.116803445 0.08849395
-0.13917862 -0.23900408 -0.30226523 0.4039749 -0.061429672 0.3284937 -0.49539924 0.30197328
0.2310857 -0.34911874 0.38069314 -0.35854235 -0.42592067 -0.15531015 -0.172466 0.08825154
0.10540582 -0.4328786 0.22655155 0.34933046 0.31692213 0.29832163 -0.12045386 -0.16771148
-0.105406016 0.40122813 0.20511389 0.16735011 -0.017459149 -0.19084965 -0.36848152 0.20746595
0.49302363 0.018859996 0.48209357 -0.18484387 -0.24574752 -0.4959093 -0.5212225 -0.18335424
0.42191753 0.17587242 0.24772088 0.13072056 0.05586702 0.20909503 -0.45725128 0.19250184
-0.3108226 -0.14341073 -0.2736604 0.1650731 -0.3337835 0.25005895 0.38615867 0.297917
-0.2100936 -0.15947981 0.05299958 -0.5476323 0.24354564 0.020411305 -0.3454021 -0.13149555
-0.49845332 0.26198134 0.030062545 0.25077423 0.18892203 -0.35073212 -0.1064999 -0.2593349
-0.15551585 -0.48115832 0.20081234 -0.06081733 -0.32733238 -0.38956335 -0.4241037 -0.1177444
-0.15264991 0.09852315 0.16799378 0.12792355 -0.1912701 0.069338225 0.009528158 0.3482957
0.15692186 -0.32227403 -0.16209513 0.031861056 0.49556807 0.45032373 0.4725002 -0.23719403
0.0934207 0.42951828 -0.18933131 -0.33876824 -0.2031834 0.42557025 0.022628646 -0.54440516
0.22129491 0.27136338 0.39925164 0.31624088 -0.1458146 -0.52295905 0.38826337 -0.009864842
0.14574319 0.46256956 0.3285647 0.06609652 -0.27033353 -0.44599855 -0.012342321 0.34024242

fc4.bias f4 [6]
00000000: 780e 933c 702e 4a3d e6dd 0c3d 4734 39bc
00000010: 7ea6 16be 96ae 0fbc
0.017951235 0.049360693 0.034391306 -0.011303968 -0.14711949 -0.008769652
