visualization/policy_nns/OSD_F/v040/agent_1.pt (torch, 42817 bytes, 12 tensors)

weight f4 [32, 28]
000000 4a 32 21 3e 73 50 c6 be 00 48 c2 3e 56 bc fd bd
       0.1574184 -0.38733253 0.37945557 -0.12389438
000010 70 9a cd 3e f2 98 39 be ec c5 8b bd 0e 3d e0 3e
       0.4015689 -0.1812475 -0.0682486 0.4379658
000020 d7 2c 8e 3e 30 07 db bd 04 31 24 be 3c 54 c2 bd
       0.27768585 -0.1069473 -0.16034323 -0.09488723
000030 10 cb 89 3e f2 bc de 3d 72 fb 11 bd f3 c7 21 3e
       0.26912737 0.10875882 -0.035640188 0.15798931
000040 c8 4c 2b bc 4f 0a 8d 3e 17 76 e9 be 5e d4 95 3d
       -0.010455318 0.27546927 -0.45597908 0.073158965
000050 e9 32 80 3e 5c b5 98 be 36 32 72 be 61 fb 40 3d
       0.2503884 -0.29825866 -0.23651966 0.047114734
000060 5c 78 c0 be ac 26 e1 bd 11 54 a5 be c5 10 6c 3d
       -0.37591827 -0.10993704 -0.322907 0.05763318
000070 1e f4 f4 3d ff 06 80 be b7 5d 61 bc ad 8a 85 be
       0.11960624 -0.25005338 -0.0137552535 -0.26082364
000080 8c 9a ab 3e 50 3a 26 3e fb ff 13 bf 8f 19 1f be
       0.33516347 0.16233182 -0.5781247 -0.15537094
000090 52 d2 ec 3d b3 a6 91 bd b5 0a d3 3d e3 19 97 be
       0.11563553 -0.071118735 0.103047766 -0.29511937
0000a0 ef 0d eb 3d 14 e4 8d be 27 14 1f be fd 3c a3 bd
       0.11477267 -0.27713072 -0.15535031 -0.07970617
0000b0 48 a5 ba 3e 23 ac c3 bc 1d 91 06 3f ba d2 97 3e
       0.36454225 -0.023885792 0.52565175 0.2965296
0000c0 95 70 8b be 8a 04 51 3e 5d 7d 09 3f 60 31 f9 bd
       -0.2723433 0.20411888 0.53706914 -0.12167621
0000d0 ac c9 9d 3e 4c 6f a9 3e 60 77 a9 3c be 90 de be
       0.30817926 0.33092725 0.020686805 -0.43469805
0000e0 65 11 a6 be ae e8 f9 3d bf 99 80 3e 28 2b 2c 3e
       -0.32435146 0.12202583 0.251173 0.16813338
0000f0 d3 29 65 3d 97 6a 52 3e 66 85 06 3f a4 fa 07 be
       0.05594809 0.20548473 0.525473 -0.13279206
000100 c3 90 30 3e c4 e1 9d bd 1d 4e 94 be 3a 90 4c be
       0.17242722 -0.07709077 -0.28965846 -0.19976893
000110 b3 63 f4 be 03 93 96 3d 37 22 4a be 9d 7b d2 be
       -0.47732314 0.07352259 -0.19739614 -0.41109934
000120 3e 7d be bd b0 72 3a 3e 1d 2c 25 3f 21 16 06 3e
       -0.09301232 0.18207812 0.64520437 0.13094379
000130 5d 3a a8 bd 75 ad 0f be d7 89 19 3f 1f b2 92 3c
       -0.08214257 -0.14031012 0.5997595 0.0179072
000140 13 ff 8c 3d 74 9e 8e 3e ce 29 11 be 56 c1 a6 bd
       0.06884589 0.27855265 -0.14176103 -0.08142345
000150 c7 be 93 3e 1d c9 1a 3d a5 b5 93 3d 7b 61 3e 3e
       0.2885649 0.037789453 0.0721238 0.18591873
000160 26 ab 2e 3e 90 26 40 3e 31 51 19 3f 3b ba e9 bd
       0.17057475 0.1876471 0.59889513 -0.11412474
000170 a3 3b fd be 06 d3 50 be a0 3b 90 bd f1 27 8c 3e
       -0.49459562 -0.20392999 -0.070426226 0.27374223
000180 24 af e7 3d ec 13 8b 3e ab 3f a5 be 02 91 e9 bc
       0.11312702 0.27163637 -0.32275137 -0.028511528
000190 90 50 b6 be 4b 12 a3 be 7c 5a c8 3e 96 e8 8e 3d
       -0.3560834 -0.31849894 0.39131534 0.06977956
0001a0 15 14 68 3e 3f e6 e5 3e b2 80 59 bd 6c bd bc 3d
       0.2266391 0.44902226 -0.05310125 0.09215817
0001b0 96 7c 01 3d 78 8a 68 3c a9 3e 93 be fe 25 0f 3e
       0.031612955 0.01419317 -0.28758743 0.13979337
0001c0 dd da 08 bd 47 b3 b3 3d ed d4 c0 3e bc 2b bf 3d
       -0.03341185 0.08774429 0.3766245 0.093345135
0001d0 f4 34 d5 3e 99 98 bf 3e f1 55 03 3e cc b9 87 be
       0.41641963 0.3742111 0.12825753 -0.2650894
0001e0 b4 d6 e0 bd 3b 23 dd 3d e6 02 08 bd f9 2c 64 bd
       -0.10978451 0.10797735 -0.03320589 -0.05570695
0001f0 14 f0 bf 3e 84 c2 90 3e 06 af 86 be 0a 36 44 be
       0.37487853 0.28273404 -0.26305407 -0.1916124
000200 4f 0a 8c 3d 65 84 d8 3e a6 92 7d be 71 46 15 3d
       0.06837904 0.4228851 -0.24762973 0.03644413
000210 65 90 c3 3e 85 d4 86 be 06 25 21 be fe 1e 1f be
       0.38196102 -0.26334015 -0.1573678 -0.15539166
000220 06 fb c8 be 79 bf cf bc 98 b6 11 3f b5 9a 41 3e
       -0.39254016 -0.025359856 0.5691924 0.18906672
000230 2b 45 75 bd b3 04 7e bd 0f 49 bb 3e dd 2a e4 be
       -0.059880417 -0.0620162 0.36579177 -0.44563952
000240 44 48 af 3d b1 e0 00 bf 43 1c 14 3f 47 68 df bd
       0.085587054 -0.5034285 0.57855624 -0.10908561
000250 0b 59 0e be 17 6f c4 3e aa 40 ed 3e ff d8 0b be
       -0.13901155 0.38366005 0.46338397 -0.13656996
000260 82 7c 9a 3c e1 24 aa be ed 93 d8 be d8 5a 4a 3e
       0.018858198 -0.3323126 -0.42300358 0.19761217
000270 de 77 9c be ab b5 98 3e cc 23 99 be 06 8d 8c 3e
       -0.305602 0.29826102 -0.29910123 0.27451342
000280 01 fc bf be ae c9 d2 bd 8d dd 84 be cd 5c d9 be
       -0.3749695 -0.102923736 -0.2595028 -0.42453614
000290 26 dd 15 3e 24 b4 77 3e c0 61 ae 3e 64 05 92 3e
       0.14635143 0.24189812 0.34058952 0.28519738
0002a0 7c 34 9a 3e 59 f6 f9 3d d2 c9 97 be 1d 10 40 be
       0.30118167 0.1220519 -0.29646164 -0.18756147
0002b0 e1 99 70 3d 9e 04 55 be ee 40 f9 be 58 46 9b 3e
       0.0587405 -0.20802543 -0.4868235 0.30327106
0002c0 60 57 53 3e 5a b5 8b be 11 fc a9 3e 9c e9 03 3e
       0.206388 -0.27286798 0.33200124 0.12882084
0002d0 51 3a 18 bd 30 e3 86 3b c7 dd 90 3e bc 65 25 3e
       -0.03716499 0.0041164383 0.28294203 0.1615209
0002e0 f5 79 22 3e 01 7d 20 3d f8 79 b0 bd fc df 0f 3f
       0.15866835 0.039181713 -0.08617014 0.5620115
0002f0 d7 ff 59 bd a0 10 69 3e 42 4f cb bd cd 92 d9 be
       -0.053222504 0.22760248 -0.099272266 -0.42494813
000300 23 c5 79 3e d1 11 77 be f9 d6 61 be 1d c4 b7 3d
       0.24391608 -0.2412789 -0.22054662 0.089729525
000310 b3 b1 a0 be f8 69 ac 3e 33 72 09 3f 8f 3c 4e 3e
       -0.31385574 0.33674598 0.5368988 0.20140289
000320 46 2e 6e be 4a f0 c5 be 79 1c 1c bf e1 4f 9c be
       -0.2325984 -0.38659889 -0.60980946 -0.30529693
000330 48 53 12 3e 6b 9f d0 bc 7c d7 89 3c 82 37 fe bd
       0.14289582 -0.025466641 0.016826384 -0.12412931
000340 42 de 04 3f 67 01 bb be ae ce af be 08 26 5f bc
       0.5190164 -0.36524507 -0.34337372 -0.013619907
000350 54 5e ca 3e e1 14 a2 bd a3 d9 84 be 88 6a fa 3d
       0.39525092 -0.079141386 -0.25947294 0.122273505
000360 3a b8 3c 3d 3a 9b 82 be a3 61 5a 3e 30 2b b3 be
       0.04607413 -0.25509053 0.21326308 -0.34993887
000370 4b dd 74 3e a3 3d 91 3e f1 c5 a8 be f5 3e 2a be
       0.23912542 0.28367338 -0.32963517 -0.16625579
000380 a3 cb 40 be 8c 3f c2 be 55 8f 89 bd c4 00 26 be
       -0.18827681 -0.37939107 -0.067167915 -0.1621123
000390 39 d8 f5 be 7c 7a 94 3e 54 6b 28 bd ba 47 a6 be
       -0.48016527 0.28999698 -0.04111798 -0.32476598
0003a0 1d 23 85 3e 14 1e 83 be f1 c9 0a 3f 6c 20 7a 3d
       0.26003352 -0.25608885 0.5421439 0.061066076
0003b0 fa fc ae 3e 08 10 88 3e f3 3c 85 be 72 00 c5 be
       0.3417738 0.2657473 -0.26023063 -0.38476902
0003c0 5c 40 d6 be 4f 4b 87 3e 47 11 44 3e 80 17 80 3d
       -0.41845977 0.26424643 0.19147216 0.06254482
0003d0 c9 c1 52 be 04 1d ba bd e0 67 9f 3e ed 05 98 3e
       -0.20581736 -0.090875655 0.31133938 0.2969202
0003e0 ee c1 e2 3e 47 f1 c5 3e 08 e1 ca be f8 11 2e 3e
       0.44288582 0.38660643 -0.3962481 0.16999042
0003f0 4f 07 9c be f2 c5 8c 3e 5e 29 d4 bc 56 93 6e 3e
       -0.30474326 0.2749477 -0.025898632 0.23298392

bias f4 [32]
000000 c3 21 8a 3d 79 1b 0f 3d 01 a4 2c 3d 24 a3 3a 3d
       0.06744721 0.03493831 0.042148594 0.04556574
000010 fc 32 96 3c 22 62 26 3b 42 ab 85 3d 40 e7 a1 3d
       0.018334858 0.0025388082 0.065268055 0.079054356
000020 24 d6 15 3d 36 98 d9 3d a6 e1 18 3d e4 c8 5b 3c
       0.036581174 0.10624735 0.03732457 0.013414595
000030 cb 53 d1 bc b5 da 3b bd c3 8d 32 3d 5a 2d ad 3d
       -0.02555265 -0.045862872 0.043592226 0.08455916
000040 80 08 22 3d 58 22 c0 3d 27 b8 c6 3d 13 78 94 bd
       0.039558887 0.093815506 0.09703093 -0.07249465
000050 07 8d d7 3d 00 8a e1 3c 57 95 cb 3d d1 c2 cc ba
       0.10524946 0.027531624 0.09940594 -0.0015622025
000060 df e3 c0 3c 10 95 f8 3c 2d 98 97 3d 65 3c c1 bc
       0.023546157 0.030344516 0.07402072 -0.023588369
000070 cb 6b 2b 3e 70 55 bc 3d 53 1c 0c 3c d5 a0 8c 3c
       0.16740339 0.091959834 0.008551675 0.017166534

weight f4 [32, 32]
000000 4c 18 a5 3d ca 97 2c be 6f 55 df 3e ab 8b 9d 3e
       0.08061275 -0.16854778 0.43619868 0.3077062
000010 ff 2b 8a be 37 77 97 3e 4a f3 b5 be 9f 3d 1a be
       -0.2698669 0.2958314 -0.35537177 -0.15062569
000020 1f 20 a2 3e 55 5d 9f 3e 35 af cd 3d 0a 76 db be
       0.3166513 0.31125894 0.10043184 -0.42863494
000030 c5 ff ee bc 74 b3 76 bc 1a 2e c1 bd 8e 10 ac be
       -0.029174695 -0.015057433 -0.09432621 -0.3360638
000040 2f 4b a6 be 5a 72 5d 3e 82 97 83 3e f4 3e 82 be
       -0.32479236 0.21625653 0.2570153 -0.25438654
000050 6e a6 d9 3e b6 e7 3e be c4 2d 85 be db 59 64 3d
       0.42509788 -0.18643078 -0.2601148 0.055749755
000060 3e 60 40 be 25 22 58 be 49 d9 9e 3e 59 7d 08 be
       -0.18786713 -0.21106775 0.3102515 -0.13329066
000070 34 8f 42 3d dc 83 3b 3e 6a 0d 4d be cb e7 c0 be
       0.04749985 0.18312019 -0.20024648 -0.37676844
000080 76 89 31 3e 48 c1 bd be 23 75 58 3e e0 51 53 bd
       0.17337593 -0.37061524 0.21138434 -0.051591754
000090 0d d5 bb 3e 33 9e 0b be 89 9b e8 bc 29 74 ef 3e
       0.36685982 -0.13634567 -0.028394477 0.4676831
0000a0 79 4e 11 3e 10 43 a9 be bd 9c bf be 32 9d af 3b
       0.14190091 -0.33058977 -0.3742427 0.0053593153
0000b0 2b 20 80 be b1 e2 b0 3e 91 cf a9 3e 16 09 ad be
       -0.25024542 0.34547952 0.33166173 -0.33795995
0000c0 0b 91 34 3d db 1a 8a be 5b 58 60 3e 40 92 3f 3e
       0.044083636 -0.26973614 0.21908705 0.18708134
0000d0 d6 ae 93 bd 35 0c 78 3d a8 0b e9 3e e9 fa b9 bd
       -0.07211082 0.060558517 0.45516706 -0.090810604
0000e0 21 5d d5 3e d1 2c 23 be a8 24 95 be 96 06 d1 be
       0.41672614 -0.15935065 -0.2912953 -0.40825337
0000f0 4f 8e 8e 3d 93 9d 07 3d 65 ab d5 3c 37 e1 86 be
       0.06960737 0.03310926 0.026082704 -0.263437
000100 92 ed 44 be cc ba cc 3e 6c a4 ac 3e 1a 4c ca 3e
       -0.19231251 0.39986265 0.33719194 0.39511186
000110 ff f9 aa be 30 7d a4 3e bc d1 16 be 32 4f 4e 3e
       -0.33393857 0.3212676 -0.14728445 0.20147398
000120 14 6e 72 bc 52 58 27 3d e2 25 8e be 0c 96 30 3e
       -0.0147967525 0.040855713 -0.27763277 0.17244738
000130 a0 40 0b 3d 6f 02 86 be 82 01 a6 be b2 3c 2a 3d
       0.033997178 -0.26173732 -0.32423025 0.04156179
000140 f2 29 cf be 8a 3e d7 3c f2 99 5b 3e f2 28 bb be
       -0.4046169 0.026274938 0.21445444 -0.36554676
000150 26 6c f0 3d bb 76 83 3d 35 57 c5 3e 0e a2 4f be
       0.11739378 0.064191304 0.38543096 -0.20276663
000160 28 85 b5 3c cc 30 a2 bd 83 04 d8 bd 2d ff c9 3e
       0.02215822 -0.079194635 -0.105477355 0.39452496
000170 60 a2 cc 3e 28 3c bf be e5 ba 14 3e e7 09 e2 bc
       0.39967632 -0.37350583 0.1452442 -0.027592612
000180 44 48 d9 3e 8f 10 e2 3d 65 57 f9 bd af 49 98 bd
       0.42437947 0.110383146 -0.12174872 -0.07435929
000190 92 b9 e0 3e a1 15 d1 be 74 c1 b6 bc ac ab 9b 3e
       0.4389158 -0.40836814 -0.022309043 0.30404413
0001a0 86 18 2d bd 85 e0 b4 3e a1 3f 23 be ac 93 92 3d
       -0.042259715 0.35327545 -0.15942241 0.071570724
0001b0 b3 05 7d be 87 bd 87 3e c0 cb bf be 72 54 83 bc
       -0.24709205 0.26511785 -0.37460136 -0.016031478
0001c0 60 3c a5 3d a2 47 fe 3c b2 d6 01 3f 02 54 c1 3d
       0.08068156 0.031040017 0.50718224 0.09439851
0001d0 e1 7b be bd 4a e2 14 3e 9f 24 0d 3e 2f 56 74 bd
       -0.09300972 0.14539447 0.13783501 -0.059652504
0001e0 93 10 4f be 3d a8 2a be 72 bb 95 be a6 94 69 be
       -0.20221166 -0.1666574 -0.29244572 -0.22810611
0001f0 31 6e a9 3e 09 22 c7 3e e3 11 f5 3e e5 6a 81 be
       0.33091882 0.38893154 0.4786521 -0.25276867
000200 69 79 8b 3d f7 84 52 bb 64 7c 82 be c1 e5 06 3f
       0.068102665 -0.003212271 -0.25485528 0.52694327
000210 f4 81 cc be a4 c5 86 3e e7 6c 25 be 6f fd 69 be
       -0.39942896 0.26322663 -0.16154824 -0.22850583
000220 78 28 3a be 98 32 16 3e f6 02 ab 3e c3 98 bb 3e
       -0.181795 0.14667737 0.33400697 0.36639985
000230 fa 70 8f 3e b2 49 28 3d 0b 52 46 bd f8 bf 2b 3d
       0.28015882 0.041085906 -0.048418086 0.041931123
000240 f9 69 c4 3e 49 fe fd 3e 66 fd aa be e4 28 56 be
       0.383621 0.49608067 -0.33396453 -0.20914036
000250 4a d4 01 3f 50 47 ea 3e ae de 6b bd 24 78 b9 3e
       0.5071455 0.45757532 -0.05758541 0.36224473
000260 03 24 3d 3e 15 f5 18 3e bb d5 54 3e b0 5d 96 be
       0.18470769 0.14937241 0.20784657 -0.29368353
000270 2e 88 0f 3e 92 36 80 3e 2e 5f 07 3e 25 d8 ce 3e
       0.14016792 0.25041634 0.13219902 0.4039928
000280 3c 48 cb be 70 74 98 be bb 25 83 3e 31 59 2b 3d
       -0.39703548 -0.29776335 0.25614724 0.041833106
000290 02 0f 00 bf 0f 30 bc 3e d5 70 89 3e ce a7 a6 be
       -0.500229 0.36755416 0.26843897 -0.325499
0002a0 7b ca f9 bd 82 bb af bd 42 31 c6 be 30 63 c6 3e
       -0.12196823 -0.08580686 -0.38709456 0.3874755
0002b0 f6 2e 95 bd 7f 64 4e 3e f8 bd 86 be 95 ad 95 3d
       -0.07284348 0.20155524 -0.2631681 0.07308499
0002c0 84 eb 87 3e e9 e2 b2 be 96 b0 45 be 50 f1 4d bc
       0.26546872 -0.34938744 -0.19305643 -0.01256974
0002d0 b0 3f 9c 3e 22 9e 84 be 19 60 16 be 13 d1 ae be
       0.3051734 -0.25901896 -0.14685096 -0.34143886
0002e0 bf 59 aa be 21 4c 91 be ab f1 ba 3d 04 92 f0 3e
       -0.33271596 -0.28378394 0.09128126 0.469864
0002f0 31 63 a7 be 15 a6 1f 3e f6 31 db 3d b6 69 ef 3d
       -0.32692865 0.15590699 0.10702889 0.11690085
000300 75 ef 8e 3e 45 ca 62 3e a0 93 85 3d 8e d1 6b 3d
       0.27917066 0.22147472 0.06522298 0.057572894
000310 0b b5 a7 bc f3 8f 51 be 7e f9 a1 be d7 bd 20 be
       -0.02047207 -0.20465069 -0.3163566 -0.15697418
000320 d5 9a 89 be d0 00 41 be 05 c4 68 3c 6a 64 2b be
       -0.2687594 -0.18847966 0.014206891 -0.16737524
000330 3e c6 ce be 39 9a cc be 4e 9d 51 3d b5 87 50 bd
       -0.40385622 -0.39961413 0.051175408 -0.05091067
000340 31 83 21 3e a0 50 c8 3e f7 12 03 be 0c 1a b0 bd
       0.15772702 0.39124012 -0.12800203 -0.08598718
000350 a6 32 27 3d bc 01 bd 3e a4 8a b2 3e 0c 5d de be
       0.040819786 0.36915386 0.348714 -0.43430364
000360 2b 49 c2 be 79 57 8b bd eb 94 ef bd 85 73 84 3e
       -0.37946448 -0.068037935 -0.11698326 0.25869384
000370 a2 c2 94 bd 66 0d 30 3d 9c a8 7e be 3f ec c3 be
       -0.07263686 0.042981528 -0.24869007 -0.3826618
000380 28 7f d7 bd 08 73 8c be d1 6b 27 3e f0 13 b2 be
       -0.105223 -0.27431512 0.16349722 -0.34780836
000390 01 f3 a4 3e e4 70 3c be 67 d2 b3 3d dd 86 0a 3f
       0.32216647 -0.1840244 0.087803654 0.54112035
0003a0 0a 77 bd bd ba 1b 8a 3c 5b b1 e4 3e d3 63 a5 3e
       -0.092512205 0.016858924 0.4466656 0.32302722
0003b0 19 d0 9b 3e 20 d3 e1 bd ff f6 c5 3e cf 93 a8 3c
       0.30432203 -0.11026597 0.38665006 0.020578293
0003c0 12 c8 db 3c cb a3 7f 3c 40 f4 b7 bc e4 bb 4d bd
       0.0268288 0.015603016 -0.022455335 -0.050228015
0003d0 0e e6 95 3e 29 64 b3 3e 42 c1 9e be 4c 2d 4d be
       0.2927708 0.35037354 -0.3100682 -0.2003681
0003e0 b5 0b 6c 3e d2 81 dc 3e 0e 89 26 3e f5 54 ba be
       0.23051341 0.43067795 0.1626322 -0.36392942
0003f0 ef 70 73 be e9 81 2a bc 78 19 f4 3e bd 43 b1 3e
       -0.2377355 -0.01040695 0.4767568 0.34621993

bias f4 [32]
000000 48 82 01 3d 8a 5e ad 3d 06 53 b9 3d 7e 5e 6c 3d
       0.031618387 0.084652975 0.090490386 0.057707302
000010 ea 99 67 3d d1 4c f4 b9 62 98 c7 bc c5 c3 e6 3c
       0.05654327 -0.0004659654 -0.024364654 0.028169522
000020 eb 9d aa 3c fe 77 65 3d 09 f8 8a 3d d0 7f 02 3c
       0.020827254 0.056022637 0.0678559 0.007965043
000030 0b b6 75 3d b1 ae b7 3d 60 16 5e 3d 06 04 86 3d
       0.059988063 0.089688666 0.054220557 0.06543736
000040 30 05 c7 3c 4f f4 df 3c 5c b3 6a 3c 7f da 9f 3c
       0.024294466 0.027338175 0.014324989 0.019513367
000050 8e 95 b7 3d 77 bf e8 3c 41 a1 a0 3c 1c 29 69 bc
       0.08964072 0.02841161 0.019608142 -0.014230993
000060 99 ff ce 3c 01 43 8a 3d 17 9b 88 3d 05 22 34 3d
       0.025268363 0.06751061 0.06670206 0.043977756
000070 96 d0 dd 3c b2 d3 6c 3c ff af 08 3d 09 43 91 3d
       0.027077 0.014454769 0.033370968 0.07092864

weight_ih_l0 f4 [96, 32]
000000 1f e1 89 bd ec 90 3e 3e bc c9 70 bc 2c 08 a0 3d
       -0.067323916 0.18609971 -0.014696535 0.07814059
000010 8b 9b 07 3e c6 ab e3 3c 27 66 14 3e b6 cd 5d 3e
       0.13242929 0.027791869 0.14492093 0.21660504
000020 b5 da a0 bd 20 af 8a 3d 59 34 2a be 99 8f 28 be
       -0.07854215 0.06771684 -0.16621532 -0.16461028
000030 33 43 36 3e ee cb 8d be 71 5e 8b 3b 6d 0c 51 3e
       0.17799072 -0.27694649 0.0042532017 0.20414896
000040 d3 ce 15 3e 43 12 02 bd 96 5d af 3d ce 1d 1b 3e
       0.14629678 -0.031755697 0.08562772 0.15148088
000050 51 76 a0 be 34 f4 a4 3e fc 6f 6f 3e 1f 75 9c bc
       -0.31340268 0.32217562 0.23382562 -0.019098816
000060 d6 e2 1c 3e 9a 2a db 3d 7e eb 61 3d 11 4c 6e bd
       0.15320906 0.10701485 0.055156223 -0.05817801
000070 80 ed 09 3e 84 b5 34 3e 89 86 72 3e 87 2c 2c 3e
       0.13469505 0.17647368 0.23684134 0.16813861
000080 f8 c0 3a 3e f7 d1 cc bb 14 55 e2 3b 09 bb d6 3d
       0.18237674 -0.0062506157 0.0069071148 0.10484893
000090 0b 9c b0 bd 66 7c ec bd c0 8b 84 3d 41 6e 4e 3e
       -0.08623513 -0.115471646 0.06471968 0.20159246
0000a0 cb 20 32 3d 45 68 4e be 0c 5e 05 3e e1 b6 4f be
       0.043488305 -0.20156963 0.13024157 -0.20284607
0000b0 5c 85 e1 3d 1f 78 0c be 24 b1 8f bd a6 04 9c 3e
       0.110117644 -0.13717698 -0.07016209 0.30472296
0000c0 c0 b9 fe 35 be 74 de 3d 44 12 4c 3d 18 7e da bc
       1.8978535e-06 0.108621106 0.049822107 -0.026671454
0000d0 df 4a 10 be cc 2a 7c 3d 96 36 fb 3c 1c d6 87 3e
       -0.14091061 0.06156425 0.030665677 0.2653054
0000e0 5b 9b 82 3d c2 d7 0a 3e 92 2e c2 3c 0f 27 46 3e
       0.06377288 0.13558868 0.023703847 0.19350837
0000f0 dd 72 d6 3d 8c b3 52 3e 7d 12 59 3d 9c b0 0b 3e
       0.10471127 0.20576304 0.052996147 0.1364159
000100 0e d2 8a 3c 06 ce 83 bd 2b e9 76 3d 10 a0 0c 3d
       0.016945865 -0.0643578 0.06028096 0.034332335
000110 bd 50 75 3e b3 f7 bb bd bd de 6d 3b ec 1f 1e be
       0.2395658 -0.09178104 0.0036296092 -0.15441865
000120 73 19 2c 3e d8 82 29 3e c1 a9 1a 3e 22 f2 81 3c
       0.16806583 0.16553819 0.15103818 0.015862528
000130 1c 9c 25 3e 91 66 0d 3e 1d 77 da 3d f7 e3 8c bc
       0.16172832 0.13808657 0.1066725 -0.017198546
000140 5f ec 04 3e eb 3f ba bd fb 19 c8 3d d7 18 da bd
       0.12980793 -0.09094223 0.097705804 -0.10649269
000150 b3 80 b2 3d 6d 35 75 3e a9 7b 43 be e0 97 00 be
       0.08715954 0.23946162 -0.19090141 -0.12557936
000160 a2 6f 19 3e ad 67 07 be 1a 1f 9e bd 79 c3 55 be
       0.14983991 -0.13223143 -0.07720776 -0.20875348
000170 47 19 08 3e 14 f3 ff bb c8 d3 b5 3d ec 5f 2f be
       0.13290893 -0.0078109596 0.08878285 -0.17126435
000180 d2 e3 d1 3d 46 92 93 3e d0 ea db 3d a6 10 65 3d
       0.102485314 0.28822535 0.10738146 0.05592408
000190 92 68 6b 3e a8 12 ba 3d cb 40 90 3d ab 09 87 3d
       0.22989109 0.0908559 0.07043608 0.06593641
0001a0 dd 83 6f bd fe 8f 94 bc fb 8e 9d bd d3 9c 98 bc
       -0.058475364 -0.018135067 -0.07693287 -0.018629467
0001b0 20 4c 45 3e b1 15 9d 3d ca a8 e8 bd 19 5f 8f 3e
       0.1926732 0.07670153 -0.11360319 0.2800224
0001c0 39 f1 14 3e c0 2f eb 3d 36 6b e2 3c 5f f0 93 3c
       0.14545144 0.11483717 0.027639013 0.018058954
0001d0 75 a9 09 3d 25 99 33 3e 3c 5a 76 3d fb 1c e8 3d
       0.033608872 0.17538889 0.060144648 0.113336526
0001e0 c9 65 0b 3d f1 22 0f bc 8b 9c 18 3d a8 49 16 3e
       0.034032617 -0.008736358 0.037258666 0.14676535
0001f0 22 a8 8c bd b6 a6 1c bb e3 bf 98 3d c3 55 6d 3e
       -0.06868006 -0.0023903078 0.074584745 0.23177247
000200 9b a0 78 3d a4 fa 89 3e ca 1c a6 3d 99 6a 5b 3e
       0.06070004 0.26949036 0.0811096 0.21427383
000210 0d ac c0 bd b7 43 1a bd f7 a9 7c 3e 8d e5 61 bd
       -0.09407816 -0.037662234 0.24674211 -0.055150557
000220 f0 25 cb bd 97 b7 23 3e 36 f8 87 3d d7 83 c8 bd
       -0.099193454 0.15988003 0.06639139 -0.097907715
000230 e3 fa ea bb 83 f4 c9 bd e7 93 03 3e cd 58 65 3e
       -0.0071710213 -0.0986109 0.12849389 0.22397156
000240 90 d7 2e 3e 30 37 0b bd 4c d3 27 3e bb 25 ab 3c
       0.17074418 -0.033988178 0.16389197 0.020892015
000250 06 8f 7a 3c 35 bd c0 3d a0 9f a7 3e 7d 66 bb bc
       0.0152928885 0.094110884 0.32738972 -0.022876019
000260 08 80 87 3d ac 76 5e bd 61 63 99 bd c5 19 d0 bc
       0.06616217 -0.054312393 -0.07489658 -0.025402913
000270 c3 15 4c bb 1b 69 1a 3d f5 e4 0b be 21 5f 98 3e
       -0.00311409 0.037697893 -0.13661559 0.29760078
000280 48 25 53 3d ce 06 2c bc 66 e5 e4 bd 6e 48 31 be
       0.051549226 -0.010499669 -0.11176567 -0.17312786
000290 37 a4 f3 3d 09 a1 1d be 73 43 38 3e f3 88 bc 3d
       0.11896556 -0.15393461 0.1799448 0.092058085
0002a0 ba 1c 5c 3e ee 0c 84 bd c7 65 4b be 5f 09 c8 3d
       0.21495333 -0.06447779 -0.19863044 0.097674124
0002b0 86 6b f4 bc 44 46 c1 bc 63 00 4a 3e 6e cf 37 3b
       -0.029836427 -0.023593076 0.1972671 0.0028047222
0002c0 8c 51 86 ba 58 96 44 bd e6 2f 1b be 06 bf 7e 3b
       -0.0010247692 -0.04799494 -0.1515499 0.0038871183
0002d0 50 62 be bd 8f 21 66 bd ca 95 3a bc 5a 0e 24 3e
       -0.09296095 -0.056184348 -0.011388252 0.160211
0002e0 b6 61 16 bd 82 3b 03 3e c9 b7 12 be 9f 0b 1e 3e
       -0.03671428 0.12815669 -0.14327921 0.1543412
0002f0 db 45 b8 bd 29 cc 63 3e 00 d7 7d bd 28 66 13 3b
       -0.08997699 0.2224585 -0.061972618 0.002249131
000300 05 db 59 3d 82 13 29 3e 48 1a 43 3e d1 73 18 be
       0.05318739 0.16511348 0.19052994 -0.1488793
000310 1f 7b 4d 3d 8d 23 2d bc d0 3d 8a 3d c0 59 09 3e
       0.050166246 -0.010567558 0.06750071 0.13413143
000320 76 9a ef 3c c7 f2 65 3c c2 c8 18 3e 63 13 3d 3e
       0.029248457 0.014034933 0.14920333 0.18464427
000330 ae 0c c4 bb 82 fb e6 3d 90 7f 36 3e b5 d3 da bd
       -0.005982957 0.1127844 0.17822099 -0.10684911
000340 bd a3 22 3e d3 98 60 bd 32 2a 60 3e 5d 56 38 bd
       0.15882774 -0.054833245 0.21891096 -0.045004237
000350 34 69 0e 3c e3 62 31 3d 59 d8 e1 3c 4f 88 73 bc
       0.008692075 0.043307196 0.027568983 -0.0148640415
000360 6b 04 57 3e 60 62 ea 3d 82 91 34 3e 8d 1e d5 bd
       0.20997779 0.11444545 0.17633632 -0.10406218
000370 f0 dd 40 3e 21 94 25 bd 18 83 8e 3e ab d8 94 bd
       0.18834662 -0.04042447 0.27834392 -0.07267889
000380 36 52 2d be b7 92 ca 3d dd 1a 37 be 22 56 3d 3d
       -0.16925892 0.09891265 -0.17881341 0.04622472
000390 af 97 b4 3d 9c 69 f3 3d 8c 21 90 3e 68 11 42 3e
       0.08817994 0.11885378 0.28150594 0.18951952
0003a0 56 7c d6 bd 5d 0d fe bd 0d 4f 02 be ea dd 93 be
       -0.10472934 -0.124048926 -0.12725468 -0.28880244
0003b0 15 b1 3d 3d 5e 58 ad be 05 01 3b be cf 89 88 3d
       0.046311457 -0.3385648 -0.18262108 0.0666691
0003c0 cf c3 2b 3e b1 90 da bd f4 30 62 3e 62 ba c7 3d
       0.16773914 -0.10672129 0.22088987 0.097523466
0003d0 12 b3 b6 be 3d fe 59 3e 37 0b 33 3e 99 1f 20 3e
       -0.35683495 0.2128839 0.17484747 0.15637054
0003e0 90 f5 2c be c8 6b 6e bd c0 5c a4 3d 00 4c 8c 3e
       -0.1689055 -0.058208257 0.08025503 0.27401733
0003f0 09 c1 8f 3d 79 61 e9 3d d2 40 e6 3b 48 d4 51 3e
       0.070192404 0.113955446 0.00702677 0.20491135

weight_hh_l0 f4 [96, 32]
000000 9f 2e 9f bc e1 1f 92 bc 8c e0 2a 3e 74 fb aa bb
       -0.01943141 -0.017837467 0.1668722 -0.005217964
000010 25 49 fd 3d da 38 30 be b2 b9 fc bb e4 0a 8d bd
       0.12367467 -0.17209187 -0.0077125663 -0.06886843
000020 40 b3 97 3d 7d d6 71 be 2d fc 91 3d 02 a8 9c bd
       0.07407236 -0.23616977 0.07128177 -0.076492324
000030 73 28 fe 3d fd 23 87 be da 96 6e 3a b0 df 09 3e
       0.12410059 -0.26394644 0.0009101458 0.13464236
000040 5b eb ea bd 3d 31 cc bc f4 b8 8a 3c 47 98 25 3e
       -0.11470672 -0.024925822 0.016933896 0.1617137
000050 de bd 92 be 10 2c 60 be a6 71 83 3d 81 48 04 be
       -0.28660482 -0.21891809 0.06418161 -0.12918283
000060 1d e9 1d be c5 a2 3e bd 26 f3 48 bd ae b3 8d 3d
       -0.15420957 -0.046541948 -0.04906001 0.06919037
000070 96 90 01 be aa 62 d8 3d 23 a5 84 3e 14 fc 92 3d
       -0.12652811 0.10565694 0.2590724 0.07176986
000080 dc af 74 bd 17 41 45 be 43 16 32 bc ec 3d f9 3d
       -0.059738025 -0.19263111 -0.010869565 0.12170014
000090 b5 38 c6 bd c5 bb b0 bd e1 af 4c 3d c8 05 31 3d
       -0.09678785 -0.08629564 0.04997242 0.043218404
0000a0 cf a2 aa be 71 74 28 3e 56 0e a6 3c aa ea 01 be
       -0.33327338 0.16450669 0.020270508 -0.12687173
0000b0 3c df 96 bb f8 60 4d be 7a f5 c2 bd 6a 88 15 be
       -0.0046042483 -0.20056522 -0.09519477 -0.14602819
0000c0 78 ee cf bd 45 79 77 3e 90 6f 8e bd 3d 94 1f be
       -0.10152906 0.24167354 -0.069548726 -0.15583892
0000d0 07 08 31 3e 3b f3 49 3e 04 fb 25 be 8f be 27 be
       0.17288218 0.19721691 -0.16209036 -0.16381286
0000e0 d3 59 bc 3e db 86 d1 3d 9a e5 d2 bd 0e 3c b8 bd
       0.3678728 0.102308 -0.10297699 -0.089958295
0000f0 30 95 22 bd 96 5b 03 3d 4d eb 63 3d 69 0b 8c 3d
       -0.039693058 0.032069765 0.055644322 0.06838114
000100 15 b5 41 be 20 39 3a 3e 1a c0 0b bd 28 4d 7c bd
       -0.18916734 0.18185854 -0.03411875 -0.06159702
000110 82 18 c0 3b 35 bc bf bd 39 54 0b 3a b7 c4 59 3c
       0.0058622966 -0.093620695 0.00053149794 0.013291529
000120 18 2e 63 3e 61 40 91 bd c0 72 2f be 57 f2 07 3d
       0.22185552 -0.070923574 -0.17133617 0.033190098
000130 dc 2a 5e be c5 5f 8d 3d 67 13 80 bd d5 4f 07 3e
       -0.21696037 0.06903032 -0.06253701 0.13214047
000140 98 f7 06 be a5 4b c5 bd e7 74 42 bd a8 04 81 3b
       -0.13180387 -0.09633569 -0.047474768 0.0039373226
000150 8d 4d 9a bd 0d 0c b0 3d 83 d6 fa 3d c1 03 45 be
       -0.07534323 0.085960485 0.12247946 -0.19239713
000160 46 58 19 3e 6b 46 c0 bd 80 21 55 bc dc f9 1f 3e
       0.1497508 -0.09388431 -0.013008475 0.15622658
000170 0c 21 61 bc be 80 27 be bd 58 b3 3d a6 5a 6b 3d
       -0.013740789 -0.16357705 0.0875716 0.057459496
000180 fc b9 ef 3c 1c 0c 81 3b 1d 34 49 3e 03 52 87 be
       0.029263489 0.003938211 0.19648786 -0.26429757
000190 d7 22 29 3d 69 8d 05 be 69 18 81 be 37 65 2c be
       0.04129299 -0.13042225 -0.25213936 -0.16835485
0001a0 40 31 41 bc 28 5d 93 be 02 22 76 3b e6 46 a5 bd
       -0.011791527 -0.2878201 0.0037556891 -0.080701634
0001b0 f4 28 3b be 39 7b 22 be 45 8a 32 be 6d c1 2d 3d
       -0.18277341 -0.15867318 -0.17435558 0.042420793
0001c0 97 9b 89 be d8 e3 9c bd f7 a5 e2 3c 28 94 d1 3d
       -0.26876518 -0.07660645 0.027667029 0.10233337
0001d0 b0 75 23 3d 9b c5 3e be 60 df ad 3e 42 20 74 3d
       0.039907157 -0.18630068 0.33959484 0.059601076
0001e0 0b da 65 be e6 5d d8 3c 89 b9 74 3b 34 13 05 3e
       -0.22446458 0.026411962 0.0037342033 0.12995607
0001f0 36 84 7b be 9a 41 65 be 42 a2 3b 3e 49 51 7b be
       -0.24562153 -0.22388306 0.18323615 -0.24542727
000200 be 56 51 bd 92 df b5 bc a5 e0 ce bd 9e 4e c4 3c
       -0.051108114 -0.022201333 -0.10101441 0.023963269
000210 14 8a be 3d b2 10 a7 bd 68 c3 84 be 6c 3d 6f be
       0.0930368 -0.08157481 -0.25930333 -0.23363274
000220 02 3e b0 3c b4 fe 67 be fa cb c4 bd 6c 5d 86 3d
       0.021513943 -0.22655755 -0.09609218 0.065607876
000230 a2 97 ff bd a7 26 b2 3c 7e fb 9e 3b fd 6f 29 3e
       -0.124800935 0.021746946 0.0048517575 0.16546626
000240 d4 27 e0 bd 53 60 ed bd 1f d1 1d 3e 18 a5 ec bb
       -0.109450966 -0.11590638 0.15411805 -0.007221829
000250 bd 36 a7 bd f6 73 f6 bc d7 0a cc 3d 08 7b 29 be
       -0.081647374 -0.030084591 0.09963005 -0.16550839
000260 03 ab 26 bd 27 00 1d 3d af 05 6e be 1d d6 99 bb
       -0.040690433 0.038330223 -0.23244356 -0.0046947137
000270 e8 ee 40 be 53 bf 23 3d db df 3f bc f3 50 fa 3c
       -0.18841136 0.039977383 -0.011711086 0.030556178
000280 45 f0 54 3e f8 db 43 3e 32 6d 01 be 59 61 4f 3d
       0.2079478 0.1912688 -0.12639311 0.050629947
000290 e6 ce 8f 3d 49 14 87 3d 79 fa 27 be 47 2e 9a bc
       0.070218846 0.06595666 -0.16404141 -0.018820895
0002a0 af 01 67 3e 47 3c 03 be 2d cf 9f 3d b9 4e de 3d
       0.22559236 -0.12815963 0.078031875 0.10854859
0002b0 4c dd f0 3d 5b 78 97 3c 90 5f 3f 3e cc 95 0c bd
       0.11760959 0.018490007 0.18688798 -0.034322545
0002c0 96 5a b4 3d 27 aa 85 3d 7e 59 c5 bd f6 6e e2 bc
       0.088063404 0.065265946 -0.0963621 -0.0276408
0002d0 96 9f a5 be 21 ae 8a be dd 51 41 3e 9f 6e 54 bd
       -0.32348317 -0.27085975 0.18878885 -0.05186331
0002e0 9f 0a 6f be 20 eb 3f be 06 e3 56 be 8c fe 2f 3e
       -0.23343895 -0.18742037 -0.2098504 0.17186946
0002f0 a6 95 d6 bc 70 de d3 3d fc bc 10 bd d6 9e 91 ba
       -0.026194405 0.10345161 -0.03533648 -0.0011109959
000300 99 d8 bc bd 2d 9d b2 3b 3e 8e 46 3d 72 d6 22 be
       -0.09221 0.0054508657 0.048475496 -0.15902117
000310 4a c7 10 bd 18 b2 26 3d 01 b7 8b 3d 1d c7 41 be
       -0.035346307 0.040697187 0.068220146 -0.18923612
000320 d2 fa 31 be 11 d7 3b be ad 0b 9e bd cb e0 27 3e
       -0.17380837 -0.1834376 -0.07717071 0.16394345
000330 b6 21 01 be c0 84 72 bd 25 23 36 bd 95 bb 6e bd
       -0.12610516 -0.05920863 -0.04446711 -0.05828436
000340 6a 52 52 ba ef 23 59 be 7b a7 83 3d c5 5e 73 3e
       -0.0008023145 -0.21205114 0.06428429 0.2376662
000350 e9 d0 3c 3e 0d 39 6e 3c 67 d5 58 3c 7f 95 4d be
       0.18439068 0.014539969 0.013234473 -0.2007656
000360 89 f2 2c 3e 55 6f 2b be 18 15 8f be 6d cd 8e 3d
       0.16889395 -0.16741689 -0.2794578 0.069727756
000370 58 0b d6 bd 4f a1 a0 bd 18 30 47 3e d7 f8 04 be
       -0.104513824 -0.07843267 0.1945194 -0.1298555
000380 27 ec 43 3e 89 41 e0 bb 87 05 43 3e d4 04 0b be
       0.19133054 -0.00684375 0.19045077 -0.1357606
000390 72 71 05 be 4c ca 34 be 30 42 cb bd b1 92 33 3c
       -0.13031557 -0.17655295 -0.09924734 0.010960267
0003a0 22 a3 16 be 29 d1 99 bd b1 8e 77 3d 25 c4 20 3d
       -0.14710668 -0.07510597 0.060438816 0.039249558
0003b0 a6 dc 9d 3b 73 d1 b8 bd 9b 00 af 3d c5 b7 8c 3d
       0.004817563 -0.09024324 0.08545037 0.06870989
0003c0 09 42 82 3d d6 84 8e bd 56 96 a9 3d 68 d7 03 3e
       0.063602515 -0.0695893 0.082806274 0.1287514
0003d0 67 17 3a bd 46 ab b9 3d d9 19 d7 bd 2a 55 50 bd
       -0.045432474 0.09065871 -0.10502977 -0.05086247
0003e0 0c 55 f4 bd 7e 22 6e bc d5 d8 0a 3e 41 21 3d be
       -0.11930284 -0.014534591 0.13559277 -0.18469717
0003f0 79 1b 20 3e f9 98 e8 bc fe 4e 67 3e 48 00 c5 bd
       0.1563548 -0.028393256 0.22588727 -0.09619194

bias_ih_l0 f4 [96]
000000 1f f4 ef 3d cb 56 11 bd 8b 2f 32 3d 7c eb c5 3a
       0.11716484 -0.035483163 0.04350237 0.0015100087
000010 1b ac 9c bd 8c d0 c5 3d 81 36 44 3d b1 8c c9 bd
       -0.07650014 0.09658918 0.04790354 -0.09841288
000020 1a 71 74 3e e3 2b 55 bd 44 ae d5 bd 53 fe 39 3e
       0.2387127 -0.052043807 -0.10433629 0.18163423
000030 93 ec 1f 3e 6d 2f f6 3d 1c 0f 17 be d4 62 90 bd
       0.1561759 0.120207645 -0.14751858 -0.070501
000040 77 bc 05 3e 73 d7 f8 3d ce 42 1b 3c 73 24 e2 3d
       0.13060175 0.12150469 0.009476377 0.110421084
000050 56 8d a6 3d 38 54 82 bd 16 b3 24 be ee 00 af 3d
       0.081324264 -0.0636372 -0.16083941 0.08545099
000060 8c fb 69 bd 3c b6 e0 3c b7 bc 08 3d 30 df 0b 3e
       -0.05712466 0.027430646 0.033383097 0.13659358
000070 ef 57 34 bc ee f4 2c 3e cf 42 27 3e ca 8b f0 3d
       -0.011007293 0.16890308 0.16334079 0.11745413
000080 54 8a 5c be cc dc 90 be b5 08 f8 bc 4e b3 98 3b
       -0.21537143 -0.28293455 -0.03027759 0.0046600467
000090 4a a1 85 be b2 3c 1a be 04 15 a1 bc 3c be 08 bd
       -0.26099616 -0.15062216 -0.019663341 -0.033384547
0000a0 9c 8f 91 be 42 0e 57 3d 1b f6 a0 3d 08 60 82 bd
       -0.28429878 0.05250383 0.07859441 -0.06365973
0000b0 22 4e 35 3e 16 34 2f bd 22 d3 39 be d6 e4 66 be
       0.17705587 -0.042774282 -0.18146947 -0.22548231
0000c0 a9 63 7e 3d cb a3 df bd f8 83 41 3d 0b 23 2b 3c
       0.062106762 -0.10919913 0.047244996 0.010445367
0000d0 04 a3 4a 3e 1a 56 89 3d 14 6d 0e be 10 b9 7c 3b
       0.19788748 0.06705876 -0.13908798 0.0038562454
0000e0 94 ac a2 bc b4 d6 fd bd 02 73 6f bc c2 d4 fd 3b
       -0.019857682 -0.12394467 -0.014614822 0.00774631
0000f0 e7 c5 52 be c3 fd 25 be 31 3e 1e be 47 ec 13 bd
       -0.20583306 -0.16210084 -0.15453412 -0.036114004
000100 39 4f 7d bd 9b 94 65 be 3b 20 41 bd 46 49 c3 bd
       -0.06184313 -0.2241997 -0.047149878 -0.0953546
000110 b3 0d 3c 3e ee ba 36 be 6f df 48 bd e8 c4 7e bd
       0.18364601 -0.17844746 -0.049041208 -0.062199503
000120 13 bb b1 bd 32 b4 b7 bd 12 44 8b bd 71 36 a7 3d
       -0.0867826 -0.089699164 -0.06800093 0.08164681
000130 ab 9a 3c bb f2 3a c7 bd 8b 72 f6 bd f1 53 db 3c
       -0.0028778713 -0.0972804 -0.12033566 0.026773425
000140 ca 50 79 be 19 8d 06 bd f7 22 80 bd d6 56 28 3e
       -0.24347225 -0.032849405 -0.06256669 0.16439375
000150 c6 5e 6d 3c 98 a0 a1 3c 7f 80 3d 3d 66 4e f3 3c
       0.014487928 0.019729897 0.04626512 0.02970047
000160 22 fd 6b bd 06 eb ae bd e1 34 de bd f3 62 28 bd
       -0.057614453 -0.08540921 -0.108499296 -0.04110999
000170 88 b2 c3 bc ad 39 22 be 38 79 93 3d e9 90 9b bd
       -0.023888841 -0.15842314 0.07200855 -0.07595999

bias_hh_l0 f4 [96]
000000 0d 39 5e 3e a6 a8 c9 3c 61 7c b2 3d ce aa 56 3e
       0.2170145 0.02461655 0.0871513 0.20963594
000010 e9 98 3e bd c0 a6 f7 3c c6 c8 11 3e b7 4a 0d be
       -0.046532545 0.03023088 0.14236745 -0.13798033
000020 55 7b 84 3d e6 e1 a2 bd 99 68 05 3e 97 f5 1d 3c
       0.06468836 -0.07953243 0.13028182 0.009641073
000030 82 02 27 3e e6 d3 00 3e d1 34 8f bd 8a bf 09 3d
       0.1630955 0.12580833 -0.06992496 0.03362993
000040 43 60 58 3e 92 c9 39 3e 4c 81 32 3e 34 f1 87 bd
       0.21130471 0.18143299 0.17432135 -0.06637803
000050 be d7 41 3e 17 a3 94 bd b1 49 8a bd 3e 7a a7 3d
       0.18929955 -0.072576694 -0.06752337 0.08177613
000060 10 a9 cf bd 79 47 a6 3c 48 f7 c8 3d 03 49 9a 3d
       -0.10139668 0.020297753 0.0981279 0.07533457
000070 77 60 49 3e 27 93 03 bd 60 a0 8b bd 7a c7 39 be
       0.19665705 -0.032122757 -0.068176985 -0.181425
000080 47 ca 8a be 80 2a 58 be f9 07 5c be 54 6a db bd
       -0.2710745 -0.21109962 -0.21487416 -0.1071364
000090 4b 69 88 be fe 23 8d be 00 32 d5 bd 47 b9 0d 3d
       -0.26642832 -0.27566522 -0.10409927 0.034600522
0000a0 d1 42 20 3d 80 2e 48 bc ee 26 39 3d 99 bd 24 be
       0.03912622 -0.012218118 0.045203142 -0.16087951
0000b0 83 6f 5d 3d 96 24 7f be c2 bb a2 3a 6d fc 3e 3d
       0.054061424 -0.249163 0.0012415575 0.04662745
0000c0 ce e5 03 be 4b fa 1a be 66 2c 39 be 27 b0 d4 bd
       -0.12880632 -0.15134542 -0.18083343 -0.10385161
0000d0 2d 80 00 3e 72 46 a8 bd ac 70 83 be 3c 78 d1 bd
       0.12548895 -0.082165614 -0.256719 -0.10228011
0000e0 6b 01 a1 bd 23 6d ab bd b2 e7 ad 3b 23 70 c7 3d
       -0.078615986 -0.083704256 0.0053071612 0.09738185
0000f0 71 02 40 bb f8 44 37 3e 89 3b 19 be ce 6f f2 bd
       -0.002929833 0.17897403 -0.14964117 -0.11837731
000100 79 c4 d8 3c cf 95 77 bd fb 70 15 be 74 62 22 bc
       0.026460873 -0.060445603 -0.1459388 -0.009911168
000110 07 36 45 3e 65 2b 29 bd 0b 3a ac bd 52 9a 14 be
       0.19258891 -0.04130115 -0.08409508 -0.14511994
000120 ab 92 75 bc 4f e5 4c be 7d 2a 4e be 4c 77 87 bd
       -0.014988582 -0.2000935 -0.20133395 -0.06614551
000130 c3 51 08 3e 5e 9e 25 be e3 53 4b be 33 39 25 3c
       0.1331244 -0.16173694 -0.19856219 0.010084438
000140 38 b0 f0 bd d0 a9 01 3e b6 e8 ab 3d ff df 29 3d
       -0.11752361 0.12662435 0.083939955 0.041473385
000150 68 2a 13 bd c9 7a 11 3e 26 27 3e 3e 37 b9 43 3e
       -0.035929114 0.14206995 0.18569621 0.19113623
000160 a5 44 8d bd 5a a2 e6 bd 2d 8f b6 3d 4f 65 8e bd
       -0.068978585 -0.11261435 0.08914027 -0.06952917
000170 bb 28 87 3d 88 ac ba bc 75 8f 94 3d a4 30 ee bd
       0.065995656 -0.022787347 0.07253925 -0.11630371

weight f4 [32, 32]
000000 d0 30 0d bf 02 51 ac be 30 3d 82 3e 39 47 76 3e
       -0.55152607 -0.33655554 0.25437307 0.24050607
000010 bb 21 bb bc 6e 84 af 3d f6 7a c1 3e 4f 54 f3 3e
       -0.022843232 0.08570181 0.37789124 0.4752526
000020 94 a8 8d be a3 a9 cd bd 67 19 47 be b3 2a 1b be
       -0.27667677 -0.10042121 -0.19443284 -0.15153007
000030 8d 1a 89 3e 3c 65 9c be 35 a6 5d 3d 38 ab 1c be
       0.2677807 -0.30545986 0.054113586 -0.1529969
000040 91 db d4 be 43 7a 9d 3e 27 3d a7 bd fd 25 f9 be
       -0.41573766 0.3075734 -0.08165961 -0.48661795
000050 3c ed 3a be 44 dd e0 3e d2 ec d8 be 70 4c 2a 3d
       -0.1825456 0.43918812 -0.4236818 0.041576803
000060 ba e5 08 3e 64 b6 48 3e 84 e2 09 3e 90 fd f2 3d
       0.13368884 0.19600827 0.13465315 0.118647695
000070 6f 19 b1 3e 49 2e 02 3e 25 c4 3a 3e 5c 5a a2 3e
       0.34589717 0.12712969 0.18238886 0.31709564
000080 19 aa c8 be 12 a8 61 3e be d3 7e bd 29 46 16 3e
       -0.39192274 0.2203677 -0.06221365 0.14675201
000090 90 74 39 be ba 2c e0 b9 53 7f 25 bd 3d 06 20 3d
       -0.18110871 -0.00042757933 -0.04040463 0.03906845
0000a0 1e 5f cf be 0b 44 df 3d e8 f1 b7 3e ca e9 c8 be
       -0.40502256 0.1090165 0.35926747 -0.39240867
0000b0 c5 ac 6a be 19 ce 6e bd 77 7c 60 3e b1 19 9b 3e
       -0.22917469 -0.05830202 0.2192248 0.30293038
0000c0 81 69 88 be bf 39 03 3f 22 07 2f 3d 60 83 95 3e
       -0.26642993 0.5125999 0.04273141 0.29201794
0000d0 c3 71 79 3e 61 b5 c5 be 2b ad 4c be f0 b4 e7 be
       0.24359803 -0.38614944 -0.19987933 -0.45255232
0000e0 aa dc 0f 3e 8c d6 bc be 86 3c 40 3e 1d 0f 3b 3d
       0.1404902 -0.36882436 0.18773088 0.04566871
0000f0 8f 06 33 bd 6f 84 73 3e e9 6a 1f bd f6 34 bd 3e
       -0.043707427 0.23780988 -0.038920317 0.36954468
000100 7d fb b9 be ad 76 80 3d 96 e0 ba 3e 7d 5d bf be
       -0.36324683 0.062726356 0.3649947 -0.37376013
000110 b0 80 d7 3e e9 60 1f 3c 52 27 96 bd 55 03 ed 3d
       0.42090368 0.009727695 -0.073317185 0.11572901
000120 15 23 51 3e 6c e0 82 3e 62 ea ba be 0c 99 93 3d
       0.20423539 0.25561845 -0.36506945 0.07206926
000130 99 88 d1 3d bf 93 b8 3e 1c 9e c8 be a8 1f c5 be
       0.10231132 0.3605022 -0.39183128 -0.38500714
000140 44 6b f6 3c 40 ca d3 3e 83 67 49 be 96 98 91 3e
       0.030080445 0.41365242 -0.19668393 0.28436726
000150 a4 78 69 3e f9 f8 ab 3e ad 9e a8 3e d8 0a 49 3d
       0.22799927 0.3358839 0.3293356 0.049082607
000160 4f e4 32 bd 87 13 f8 3d 9d 3c ad 3e 3c 8a 90 be
       -0.043674763 0.121130995 0.33835307 -0.28230464
000170 ea 42 71 be de 39 2e 3e 0e 2f 7f be 64 9a 90 3e
       -0.23560682 0.17014262 -0.24920294 0.2824279
000180 55 16 7c be 96 4f d6 bd 5e 7f 7d be e3 0c 85 bd
       -0.24617894 -0.104643986 -0.24755618 -0.064965986
000190 b1 02 1f 3e 9d 42 d8 3e 72 86 ca 3d 33 d4 84 be
       0.1552837 0.42238322 0.09888925 -0.25943145
0001a0 20 48 5f bc d6 bc 89 be 99 ff 3d 3d 29 fa 56 be
       -0.013628036 -0.26901883 0.046386335 -0.20993866
0001b0 f0 b4 c2 3e 91 6b bf 3e aa 12 c2 3e 68 71 d2 be
       0.3802867 0.37386754 0.37904865 -0.41102147
0001c0 d7 be 68 be e1 29 bf bd 34 9f 32 be 13 3a ec be
       -0.2272905 -0.0933416 -0.17443544 -0.46138057
0001d0 01 37 59 be 0f b3 a4 3e 27 23 49 3c ba 1b b1 be
       -0.21212389 0.3216786 0.012276447 -0.34591466
0001e0 3f 11 98 be 69 c7 a2 be 28 2d 28 3e 2a 9d e1 bd
       -0.29700658 -0.31792763 0.16423476 -0.11016305
0001f0 55 98 cc 3e ff 52 af 3e c3 3f a5 be 86 96 eb 3e
       0.3995997 0.34243008 -0.3227521 0.46013278
000200 c0 e1 87 be b5 32 df be c0 2a 29 3e bd 62 6c 3d
       -0.2653942 -0.43593374 0.16520214 0.05771135
000210 ea 7b 99 be eb 12 cc be 1e 4f ab be d7 16 ee 3e
       -0.2997735 -0.39858183 -0.334588 0.465018
000220 64 0d 9b be dd 12 45 3e 60 3c ad 3e 8c 98 20 bb
       -0.30283654 0.19245477 0.33835125 -0.0024504988
000230 04 0e 72 be a1 4b 8d 3e 22 22 30 be 06 7b 84 bd
       -0.23638159 0.27596763 -0.1720052 -0.06468777
000240 63 82 c6 be 3f c4 d1 3e 59 76 8c 3e 37 ea 85 bd
       -0.38771352 0.40970036 0.27434042 -0.065388136
000250 64 ab ea 3e 69 07 a7 3d 61 02 a5 be fd 24 db be
       0.45833886 0.0815571 -0.32228377 -0.42801657
000260 4c 56 af 3e 58 23 a2 be 63 1d 60 be 01 6b f3 bd
       0.34245527 -0.3166759 -0.2188621 -0.11885644
000270 c4 41 07 3f de 1f 10 be c9 0e 49 be d0 bf 3a 3e
       0.52834725 -0.14074656 -0.19634546 0.18237233
000280 d9 4d e5 3e a7 68 80 be 63 90 b2 be f2 c4 e2 be
       0.44785956 -0.25079843 -0.34875783 -0.44290882
000290 48 74 c6 3e 81 f8 4d 3e 16 30 8f be 71 f8 29 bf
       0.3876059 0.20114328 -0.27966374 -0.66394717
0002a0 46 96 f0 3e 1e 93 b6 be dd 42 f0 be 8f c8 8a be
       0.4698965 -0.35659117 -0.46926013 -0.2710614
0002b0 9f bf 47 3e ce 47 fc 3e c8 3d 06 3f 09 7a 8f 3e
       0.19506691 0.49273533 0.5243802 0.28022793
0002c0 53 6a 81 3e 47 31 19 be 3d 44 de 3e 1b 6e 0f 3e
       0.2527643 -0.14960204 0.43411437 0.14006846
0002d0 db 9f 4c 3e 7c a4 38 3e 51 55 e5 3e 1b 54 5e 3e
       0.19982855 0.18031496 0.44791654 0.21711771
0002e0 e6 f9 22 bf 50 19 bf 3e c1 f4 b0 bd cf 91 3c 3e
       -0.63662565 0.37324 -0.08640433 0.18414997
0002f0 b3 d2 5a 3e 9f a5 8d be 44 85 95 be c9 e3 09 bf
       0.21369438 -0.2766542 -0.29203236 -0.538632
000300 a4 3e 7f 3c 07 5d 96 3e 33 71 9a be 91 86 c0 be
       0.0155788995 0.2936785 -0.3016449 -0.37602666
000310 ab 36 76 3e d6 89 72 be e8 66 c7 3e 02 9c 32 bf
       0.24044292 -0.23685393 0.389457 -0.697693
000320 c0 e3 78 3e 31 a0 8c 3e fc 1a 5e be 40 b2 90 3e
       0.2430563 0.27465966 -0.21689981 0.28260994
000330 ba 2f 5c 3e 57 e4 c3 3e ac 68 16 3e 39 b9 d8 3e
       0.21502581 0.38260147 0.14688367 0.42328814
000340 ca 8c 43 be 0b e8 8c bd 46 98 43 3e ca af 18 be
       -0.19096676 -0.06880196 0.19101056 -0.14910808
000350 f3 e7 08 3e d9 14 5f 3e 2d 7c 5e bc 56 ae af be
       0.13369732 0.21785296 -0.0135794105 -0.34312695
000360 9f 61 b7 be 22 3e 7e 3e 4d be be be 4d 9a d9 3c
       -0.35816666 0.2482839 -0.37254563 0.026562834
000370 6e 72 f5 be a7 17 d0 be 3f 5c ce be ea f9 4d be
       -0.47938865 -0.40643045 -0.40304753 -0.20114866
000380 dc 3f fd 3e 4e d0 25 be 37 92 77 3d fb 61 6f 3e
       0.49462783 -0.16192743 0.060442176 0.2337722
000390 e0 5a f0 3e 1d 1e 8b 3d 49 81 a8 3e 86 99 77 be
       0.46944332 0.06792853 0.32911137 -0.24179658
0003a0 35 ef 83 be 17 5b 2c be c0 06 63 be a0 26 a1 3e
       -0.25768438 -0.16831623 -0.22170544 0.3147478
0003b0 00 f4 a8 bd 5f 87 e2 3e ca b3 3a 3e 34 ed 97 3e
       -0.08249664 0.44243905 0.18232647 0.2967316
0003c0 62 46 3a be bc 98 89 be 8c 8a 0b 3e 9f ab 64 be
       -0.18190911 -0.2687434 0.1362707 -0.22331093
0003d0 bb 7d e1 be cd f0 3f 3e 7e 8d 80 bd 74 5f 06 3e
       -0.44041237 0.18744202 -0.062769875 0.1312235
0003e0 07 78 20 bf 23 26 de be f4 15 ec bd 0c 02 8b 3e
       -0.6268315 -0.4338847 -0.11527625 0.2715
0003f0 8b a1 8b be 2d e8 df bd 7e dd 63 3e b6 e4 26 be
       -0.27271685 -0.10932956 0.22252461 -0.16298184

bias f4 [32]
000000 c2 7b c5 3d 9e 53 21 3d ad 17 b1 bb 53 81 de bc
       0.096427456 0.039386384 -0.0054044337 -0.027161276
000010 99 65 26 3d 39 22 51 bc 59 93 9e 3c ef 57 22 bc
       0.040624235 -0.012764507 0.01935737 -0.00990866
000020 f7 4c 17 bd 58 6c 92 3d e1 cd ca 3d 4e 01 9e 3d
       -0.036938634 0.07149571 0.099025495 0.077150926
000030 1c 8c f4 3c 98 f6 11 3e 93 05 dc 3b e8 79 bd 3d
       0.029851966 0.14254224 0.0067145317 0.092517674
000040 6a 03 86 bc 6b 3c 3a bc 9f 90 dd 3d 57 d4 e6 3c
       -0.01635905 -0.011366944 0.108186 0.028177423
000050 8f 91 08 3d 96 79 b0 3d c0 4f 6f 3d b8 2a 9c 3c
       0.03334194 0.08616941 0.058425665 0.019063339
000060 55 ea 66 bc 09 7b 41 b9 8d a5 e5 3b ed db a3 bc
       -0.014093955 -0.00018451748 0.0070082606 -0.02000233
000070 c4 39 81 3d 3d b5 06 bc e3 f6 a2 3c 07 92 75 3d
       0.06309846 -0.0082219215 0.019893115 0.059953716

weight f4 [6, 32]
000000 88 b3 9f be 67 a3 49 be 0b e5 92 be 12 05 f4 bc
       -0.3119166 -0.1969124 -0.2869037 -0.029787574
000010 7a 0b 58 3e 5a 5b 21 be c2 ea 97 be 3f b6 f8 bd
       0.21098128 -0.15757504 -0.29671293 -0.12144136
000020 49 39 d9 3d be 09 90 3e b1 e9 2e be e2 b9 e9 be
       0.106066294 0.28132433 -0.17081334 -0.4564963
000030 84 c8 a6 be 73 5f d2 be ac 67 68 3e 01 55 85 3e
       -0.32574856 -0.41088447 0.22695798 0.26041415
000040 2b 1c 9f 3e 5a 5d 88 3e 66 65 96 3e 17 d6 47 bd
       0.31076178 0.26633722 0.29374236 -0.048788156
000050 3c 1c 23 be 99 4e 8c be 52 dd 26 3e 46 da b7 be
       -0.1592874 -0.27403715 0.16295364 -0.35908717
000060 f1 f8 32 be 47 d6 d0 3d e5 de a4 bd 12 a1 30 be
       -0.17477776 0.1019712 -0.08050326 -0.17248943
000070 8a 24 80 be 7e 0b 86 3e c1 ff d1 bd 7c d1 ad 3e
       -0.25027877 0.26180643 -0.10253859 0.33948886
000080 75 17 56 be 05 b7 85 be 4c 63 93 3e 98 e2 46 be
       -0.20907386 -0.26116195 0.28786695 -0.19422376
000090 11 5e a7 3d 8c 84 cf be 22 24 e7 be 3a c5 88 bd
       0.081722386 -0.40530813 -0.45144755 -0.06678243
0000a0 87 a0 bd 3e 73 5b cc be 31 40 4c be b2 e1 b1 bd
       0.37036535 -0.3991352 -0.19946362 -0.08685626
0000b0 84 38 f3 be 2a 42 98 3e 55 a5 0f bd 7d 04 e2 3d
       -0.47504056 0.2973798 -0.035069782 0.11036012
0000c0 a0 aa 67 3e 0f 2b 4f 3d 22 16 11 3f 22 96 16 bd
       0.22623682 0.050578173 0.56674397 -0.03676427
0000d0 77 6b 12 3e 5f 6a d7 3d d5 03 67 3e 23 d9 5e 3e
       0.14298807 0.105183356 0.22560056 0.21762519
0000e0 69 9c ef bc 28 8c 94 be ec 1e 78 be 8f 64 a1 be
       -0.029249387 -0.2901318 -0.24230546 -0.31522033
0000f0 a4 b0 3d 3e 10 a6 4f be 24 7b 42 3e fc bd ea 3e
       0.18524414 -0.20278192 0.18992287 0.45848072
000100 6c 6d b6 bd 35 44 36 3d 68 db 9a 3e 30 94 d8 3e
       -0.08907589 0.04449864 0.3024552 0.42300558
000110 21 03 c1 3e b5 0b 75 bd 2d c1 82 3c c3 0e 6b 3e
       0.376977 -0.059825618 0.015961254 0.2295485
000120 ee 72 7c 3e 53 d2 7c be 70 4a 0c bb 35 72 bd be
       0.24653217 -0.24689607 -0.0021406673 -0.37001196
000130 3e 8b 7a be 9f 23 f2 be ec 9c 9a be 6b 1b 98 be
       -0.24467179 -0.47292802 -0.30197847 -0.29708418
000140 98 c4 91 3e bd 17 55 3e 46 78 17 3e 45 f5 e4 be
       0.28470302 0.20809837 0.14791974 -0.44718376
000150 f6 7c 7d 3d 7a 99 f7 be b0 54 96 3e 61 e4 1b 3e
       0.06188675 -0.4835928 0.29361486 0.15223838
000160 5b dd 96 3e 73 bb 8b be 8e 24 5c 3e 1e 5a b1 3d
       0.29465756 -0.2729145 0.2149832 0.086597666
000170 7d cd f0 be a3 fa 8a 3e ab 9a 4b 3e 85 a9 13 3e
       -0.47031775 0.27144346 0.1988322 0.14420135
000180 27 68 6a 3e f7 f3 71 3e 33 72 ae 3d 27 c7 bd 3e
       0.22891293 0.23628221 0.085178755 0.37066004
000190 99 2a ed 3e ea 45 f5 bd 71 5d 4b 3e 1d e5 48 3d
       0.46321562 -0.11976226 0.19859864 0.049046624
0001a0 05 9d 65 3d 0b 79 d0 3e c4 7b 32 3e 75 c0 c1 be
       0.05605795 0.40717348 0.17430025 -0.37842146
0001b0 3c ae 73 3e dd 69 03 3e eb 67 e9 3d a3 9c e2 3e
       0.23796934 0.12833352 0.11396774 0.4426013
0001c0 2a 48 53 be 7d ca e5 be 91 2c 0e 3d be da 4a be
       -0.20632997 -0.4488105 0.03471047 -0.19810006
0001d0 0a 69 da be cc cc ea be 0a 18 e3 3e b7 35 80 3e
       -0.42658263 -0.45859373 0.44354278 0.2504098
0001e0 cd c7 19 3e 9d 61 c1 be af 9e 5a be de bc 61 be
       0.15017624 -0.37769786 -0.21349595 -0.22044703
0001f0 39 dd 87 3e 37 3c 00 be 29 95 8a 3e bb c0 82 bc
       0.26535967 -0.1252297 0.27066925 -0.015961042
000200 38 30 83 3e 96 5c 47 be 7d e1 8d 3e 19 18 3b 3e
       0.25622725 -0.19468912 0.27711096 0.18270911
000210 94 8d 23 be 61 35 46 3e ca 87 51 bd 2f 3e 98 be
       -0.15971977 0.193563 -0.05115489 -0.29734942
000220 cf 10 d5 3d 1d 54 a3 3d b7 ee c7 bd 9d 60 f6 3b
       0.104035966 0.07975028 -0.09762328 0.0075188414
000230 47 48 98 bd 1f d0 0b 3e 9b 80 e4 be fb 4e bb bd
       -0.07435661 0.1365361 -0.44629368 -0.09145924
000240 9a 9c 50 3e c1 9a d2 be 8f 70 53 be 6a 4d 79 3e
       0.20372239 -0.41133693 -0.20648406 0.24345937
000250 9e c6 e9 be 56 17 3a 3e e9 e4 a2 be c9 cc 42 3e
       -0.45659345 0.18172964 -0.3181527 0.19023432
000260 20 9b 79 be 80 c2 68 3e c9 36 8f 3e 46 80 57 3e
       -0.24375582 0.22730446 0.27971485 0.21045026
000270 68 45 d9 be ea 2b a1 bd aa 46 ae 3e 31 12 d2 bd
       -0.42435765 -0.07869704 0.34038287 -0.10257376
000280 51 11 db be 99 e2 8f be af b3 95 bd 31 dd 6e 3d
       -0.4278665 -0.28102568 -0.073096626 0.058316413
000290 a7 a2 91 be 07 d8 12 3f c5 09 fb 3e ed 2b fe 3e
       -0.28444406 0.5736088 0.4903089 0.49642888
0002a0 b0 a6 e5 bd e8 89 b1 3c 35 17 9c be ae 64 e7 3d
       -0.11213434 0.021672204 -0.30486456 0.112985
0002b0 c3 fa d6 bd ff e2 24 bf 84 88 b6 3d 7f 5a 07 bf
       -0.10497048 -0.6440887 0.08912757 -0.5287246
0002c0 34 0f 11 3e 5a 1c fa bd 47 e6 e5 be f3 f2 f5 3e
       0.14165956 -0.12212439 -0.4490225 0.48036918
0002d0 16 ac 85 3c 79 28 5e bc f4 e9 df be 8f 84 32 be
       0.016317409 -0.013559454 -0.4373318 -0.1743338
0002e0 be fb 5f 3e 8e 40 8d 3e cb 8b 45 3e b7 da d3 bd
       0.21873376 0.27588314 0.19291608 -0.10344451
0002f0 79 cc 1f 3e ed 4a 0d 3f 77 f4 01 3f 45 a0 79 be
       0.15605344 0.5519245 0.5076365 -0.24377544

bias f4 [6]
000000 13 cc 1a bd f4 5e da 3d 0d dd 21 bd 76 a2 3e 3d
       -0.037792277 0.10662642 -0.03951745 0.046541654
000010 20 cd b1 bd 64 41 f3 3b
       -0.086817026 0.0074235667
