visualization/policy_nns/OSD_F/v040/agent_3.pt (torch, 40129 bytes, 12 tensors)

weight f4 [32, 6]
00000000: dd9b f03d df55 c6be 5a9e 1e3e 6b7b e4bd
00000010: 1d22 a6bd 7b96 253e f590 be3e c30a be3e
00000020: 61b3 a53e 4613 5e3d 8b33 c4be a2f1 143f
00000030: a890 983e be8c 75be 87b1 51bd 9288 443e
00000040: 3307 d13e 8596 0dbf c615 e43e 08cf 8abe
00000050: 9272 a8be 10df 64be 1b7b 91be af85 be3e
00000060: d7e7 cb3d a73f c23d fab8 c23e bc3d 103f
00000070: 377f 76be 25ce fbbe e741 0dbf 3aa9 db3e
00000080: cea7 bebe aec7 ab3e 4a1f 15bf c099 da3e
00000090: 2422 03be 3766 1a3e 2795 e03e 5773 06bf
000000a0: bc9c b93e 341c a63e 23f7 e8be c23a c53e
000000b0: 10cf d3bd 10d3 c73e 334a 173d f766 ea3d
000000c0: 2e4a fcbe d5f1 223f a419 06bf 57da 8abe
000000d0: 460e c33e d26f 1abf 3cd8 0a3f 989a 113f
000000e0: a44c c6be 3540 d13e afef 553e dd13 033d
000000f0: 1b97 afbe b45b 483e 1de7 15be e7ef 64be
00000100: 0477 aabe db07 a9be ceae 4c3d adb1 0e3f
00000110: 0ec7 e63d f8a4 153f 186f 84bd 0506 943e
00000120: 9640 053e ce78 47be 07cb 8fbe 2582 753e
00000130: 56c4 cabd fd2e f73e 58c3 c9be 0391 debe
00000140: 1c94 e03e 0cd5 84be 03c8 203f 5ee4 c63d
00000150: 9972 4abe 4223 2a3f 8741 d3be bf85 19bd
00000160: d66e 513e 3c7e 223c c10c 14be 033d 0e3f
00000170: 7096 b63d 7cf4 ed3e 79d2 06bf 694b d23e
00000180: 7afb 3b3e d94d 043f c5ce bebe a8b1 163f
00000190: bf9d e43e 0e69 a73c 84dd d33d c339 a13e
000001a0: 5c8f 163f a45e 9d3e 29a6 7b3c 33e4 38bc
000001b0: 5e39 333f b787 ab3e 94f6 1d3f 6568 05be
000001c0: 5d1e 09be 412b 6b3e f6f2 fd3e a54d 0fbe
000001d0: 6092 a73e 7e9c ebbe 8738 20be 37da 173f
000001e0: 923b 0cbe 6c58 0abd 972a 6fbe 6d2e 35bd
000001f0: 8e41 ed3e ad5b 1d3f ef8c 0f3f 885c ddbe
00000200: 4f86 b0be 9dcc 0dbf 4be8 afbe 553b 863e
00000210: c3dc 723e d819 773e 928c e93e 4acb 9c3d
00000220: 8e3b b43e 1706 363e fda0 0fbf 0d94 e13e
00000230: a27b 5bbe a09f a9be 62ca 793e ff4e 21be
00000240: 7636 3e3f 1424 7e3e 98b6 c9bc 71d8 2b3e
00000250: 352e fdbe c2a4 fc3e 2094 593d cb80 be3e
00000260: 78c8 393e e9c1 cd3e 45f0 1cbf 4e38 d53d
00000270: 7b70 3c3e 979e d13e d989 ffbe f1fa 9e3d
00000280: 5829 afbd f375 afbe be7a a73e 826c b93e
00000290: acd5 94bc a2fc f8be 5c1a 053f 63b4 713d
000002a0: 24e0 c4bd 5e17 bf3e b049 3ebe 3b3a 9e3e
000002b0: 470f 513e 67ad 053f cf67 11bf f440 99be
000002c0: e948 0abe 3555 32be 5d0f 04bf 4bce c9be
000002d0: 7ca9 ae3e 6dd8 a93c a901 f53e 7b0f 003f
000002e0: 8ba1 a73e c160 ce3d 00fc 5abe a1d4 023f
000002f0: e8ae d03d c055 0c3f 337f 8c3d d7d0 f1be
0.117484786 -0.3873739 0.15490094 -0.111563526 -0.08111975 0.16170685 0.37219968 0.37117586
0.32363418 0.0542176 -0.38320574 0.581812 0.29797864 -0.2397947 -0.051194694 0.19192722
0.40825805 -0.553078 0.44547862 -0.27111077 -0.3289991 -0.22350717 -0.28414235 0.37211367
0.09956329 0.09484797 0.3803175 0.563442 -0.24071966 -0.49180713 -0.55178684 0.42902547
-0.372374 0.3355078 -0.5825087 0.42695427 -0.12805992 0.15078054 0.43863794 -0.52519745
0.3625239 0.32443392 -0.4550105 0.3852139 -0.103422284 0.39028215 0.036935996 0.1144542
-0.49275345 0.63650256 -0.52382874 -0.27119705 0.38096827 -0.60326874 0.542362 0.56876516
-0.38730347 0.408693 0.20892213 0.032001365 -0.34294972 0.19566232 -0.14638944 -0.2235714
-0.33293927 -0.33013806 0.049971394 0.5573986 0.112684354 0.5845485 -0.06466502 0.28910843
0.13012919 -0.19479677 -0.28084585 0.23975427 -0.09900729 0.48278037 -0.39406848 -0.4347001
0.43862998 -0.25943792 0.62805194 0.09711526 -0.19770278 0.6646005 -0.4126093 -0.037481066
0.20452437 0.009917792 -0.1445799 0.55561846 0.089154124 0.4647559 -0.52664906 0.41073158
0.1835765 0.51681286 -0.37267128 0.5886483 0.446516 0.020435836 0.10344985 0.3148938
0.588125 0.30736268 0.01535944 -0.011284876 0.7000941 0.3350198 0.61704373 -0.13028105
-0.13390489 0.22965719 0.49599427 -0.13994463 0.32728863 -0.46017832 -0.15646563 0.59317344
-0.136946 -0.033775732 -0.2335609 -0.04423373 0.46339077 0.6146801 0.5607442 -0.43234658
-0.3447747 -0.5539034 -0.34356913 0.26217142 0.23717026 0.24130952 0.4561506 0.07655962
0.35201687 0.1777576 -0.56105024 0.44058266 -0.21433881 -0.33129597 0.24393609 -0.15752791
0.7430185 0.2481845 -0.0246232 0.16781785 -0.49449316 0.4934445 0.05311978 0.37207636
0.18142879 0.40187004 -0.6130412 0.1041113 0.18402283 0.40941307 -0.49909857 0.07762707
-0.085528076 -0.34269676 0.32710832 0.36215597 -0.018168293 -0.48630244 0.51993346 0.05900992
-0.09613064 0.37322515 -0.18582797 0.309038 0.20415984 0.52217716 -0.56799024 -0.29932368
-0.13504376 -0.17415316 -0.5158594 -0.39415202 0.3411368 0.020733083 0.4785283 0.5002362
0.32740435 0.10077048 -0.21385193 0.51105696 0.10189611 0.54818344 0.06860199 -0.47229645

bias f4 [32]
00000000: 67cc 1b3e 3643 45bd d85c 213e fe17 3b3e
00000010: d530 873d 4703 ab3d c2ef 113e 7032 aebb
00000020: bdaf 0cbd 6dfe babd 6e8d de3d 7355 0abd
00000030: 87d5 6a3e 4848 10bc 1373 0ebd 2dbe d63c
00000040: bc5e af3c a3c1 87bc 4021 983d 18ac b33d
00000050: 987d ec3c 5217 993c 78bb 35bd 62b6 3c3e
00000060: 23f6 953d 6d88 3a3e f48a 16bc 5b1b 0f3b
00000070: b1ba 813d 1b66 ff3e ca0e 37bd 6216 093e
0.15214692 -0.0481598 0.15758073 0.18270871 0.06601111 0.083502345 0.14251617 -0.005316071
-0.034347285 -0.09130559 0.10866819 -0.033772897 0.22933017 -0.008806296 -0.034777712 0.02621373
0.021407478 -0.016571825 0.07428217 0.08773059 0.028868482 0.018687878 -0.044368237 0.18428949
0.073223375 0.18216105 -0.009188402 0.0021836373 0.06334437 0.49882588 -0.04469184 0.13387445

weight f4 [32, 32]
00000000: ee33 fc3e b1c1 243e d5b2 c4be c3f6 af3e
00000010: 0428 afbe e0e2 923e f739 1dbe c9f2 9ebe
00000020: 88f8 a63e 68c7 20bd 809b a33d b1a5 a3be
00000030: 55ed e03e cae6 e3bd 9e24 733e fa17 98be
00000040: 2b60 93be 66ec c03d 146a d53e 3183 b23e
00000050: 5c39 a03e 847b a8bd d765 093e 8c16 de3c
00000060: 4df4 763e 291d d63d 1d74 9e3e 86f6 c6be
00000070: cca4 d53e fd86 f53e 9896 3abe 417f c03d
00000080: 87a3 cc3e 0caa c73e d6cc 83bd 1a87 e5bc
00000090: e407 10be 96f4 973e 18cf 1bbc b5fc 42bc
000000a0: 5bee c8be f37d 34be db73 b43d b6e7 9abe
000000b0: 932f efbe 796d 623e c934 70be ef2c 92be
000000c0: 1fa1 e8be a828 c53e 68d8 d73d 6106 f73d
000000d0: e8e7 0d3e 7038 acbe 757f f7bd aee0 a13e
000000e0: e563 463e 09b6 23be 843c 14be e635 d6bc
000000f0: 00c3 a5bd da57 b8be 4998 d83e eceb a43e
00000100: 812e 90be caec 013f 36d1 d4be 3b0c 2cbd
00000110: dbaf 913b 217c 8d3d 05fc af3e 03d9 2d3e
00000120: 25b3 8c3e 3e86 90be aa4a e1bd 89b7 a53e
00000130: 3dbd 77be 3bc5 bebc 954c 1c3e 6548 793e
00000140: bb1a 6fbe 9397 f93e 0b07 ea3e 2754 37be
00000150: 2c09 793e 4c0b 1e3e 8b73 bb3e 1dbf c9be
00000160: cf0f 10be 3efe 873e 57aa a0be 4c41 86be
00000170: fd5d 95be 3f84 35be 6e72 8fbe 1f6d 713d
00000180: 36c7 ae3e 658c 6abc f971 4c3e 4fe3 fb3e
00000190: bb08 8bbe f152 b3be a797 d53e 0dfa 14ba
000001a0: d6dd c33e 8c1b 043e 15cc a53c ce83 a7be
000001b0: 58b1 7c3e ae66 b2be 24cb 1d3e ee90 d9be
000001c0: bf20 913e fc9b d5bd eddf e63d 0bfa d9bd
000001d0: ce4c 54be 6574 c8bd 22d0 2cbd 664a 083f
000001e0: 2caf ffbc ed68 153e 179b ab3d 0446 c73e
000001f0: 48ed a93d c74e 2d3e 4fbb bd3e 214a be3e
00000200: 20bc 30be 4207 9d3e 1938 8d3d f53c eabe
00000210: ec5c 9b3d f08b 353e 641d 1cbe 8cee efbd
00000220: d2e0 7f3e 5937 9e3c 8dc0 173e 08fe 9c3e
00000230: 34bd a6be bd65 d53d 039e 823c 2d0a 2c3e
00000240: dd4f 0cbe 0fa2 fa3e 8d8b 8a3e 68b3 183e
00000250: e1d9 3a3e 20f9 85be 00a5 a83e 6f72 dd3e
00000260: 6e22 f33c e458 2bbe f35f 2a3d fe39 81bd
00000270: 7edf 89be 55e4 263d 5825 bb3e f7a7 76be
00000280: b995 c3be 7bc6 a7be dd88 9abe 8014 683b
00000290: 4fde af3d 85c0 c6bd 4cb5 edbb d2cf 5ebb
000002a0: 3726 07be cd23 a5be 9307 febe d355 4abe
000002b0: 39c6 c2bd dc5c e53d adf6 123e 3a05 e53d
000002c0: 63b2 cd3c 2f35 bcbe db8f a83d e19d dfbe
000002d0: eac3 05bf 4f16 e03d 64c7 ab3e ca9c c53d
000002e0: 7494 85be 3503 e43c b8fd c03e 27c2 e73e
000002f0: f6b7 82be 3192 0abf 2bcd a0be 6c61 083e
00000300: 1452 bb3e 3b19 f93d 7e38 58be c70b cf3e
00000310: 4bc1 86be f2d6 90be 8425 e83d 34a7 07be
00000320: 512c 03bd 2926 dd3e 7826 3fbe a763 783e
00000330: bc64 b03e 9014 8fbe f923 e73a 00ad a0bc
00000340: d532 11be 444f af3e 45d3 db3e 6301 fa3e
00000350: 2836 593e 1e71 4b3e fd2c ec3d 79db c7be
00000360: 9c6a d13e 7e77 fc3c 5f57 c0be a044 b5be
00000370: 8ec7 e53e c61f a53e 4106 383b b401 22be
00000380: c2a6 923e 6716 653e c84b debe 1d14 1cbe
00000390: e4d3 aabb a19e 92bd 3a5c e8bd 8201 b23d
000003a0: de29 8fbe b09b 5a3d 947c c63e 27d8 f73e
000003b0: b544 8dbc f0a1 9abe 7529 ca3e 8a80 96bd
000003c0: 3ee1 183b cc3f fd3d 5d0a 033f f930 8ebe
000003d0: 6998 6a3e 5e97 47be 74a6 a33e 16c9 7dbe
000003e0: af8d ed3d 362f 1fbe d55c 98be 87e9 6c3c
000003f0: 3df7 753e 728c 053e 6ae3 89be 4f48 9bbe
0.4925837 0.16089512 -0.38417688 0.34367952 -0.34210217 0.28688717 -0.15354143 -0.31044605
0.3261149 -0.03925267 0.07988644 -0.3196235 0.4393107 -0.11128004 0.23744437 -0.29705793
-0.28784308 0.094200894 0.41682494 0.34865716 0.31293762 -0.08226684 0.13417755 0.02711036
0.24116631 0.104547806 0.30947962 -0.38859957 0.41727293 0.4795455 -0.1822151 0.09399272
0.3996851 0.38996923 -0.06435554 -0.028018523 -0.1406551 0.29678792 -0.009509824 -0.01190107
-0.3924435 -0.17626171 0.0881116 -0.30254906 -0.46715984 0.22112073 -0.23457636 -0.28549907
-0.45435426 0.3850758 0.10539323 0.120617636 0.13857996 -0.33636808 -0.120848574 0.3161673
0.19374044 -0.1598741 -0.1447621 -0.026148748 -0.08093834 -0.36004525 0.42303684 0.32211244
-0.2816048 0.50751936 -0.41565865 -0.04200385 0.0044460124 0.06908441 0.34371963 0.16977315
0.27480426 -0.2822742 -0.11000569 0.3236659 -0.24193282 -0.023287406 0.15263589 0.24344023
-0.2335004 0.48748454 0.45708498 -0.17903195 0.24319905 0.15433997 0.3661159 -0.3940362
-0.1406853 0.2656116 -0.3137996 -0.26221693 -0.2917327 -0.17726229 -0.2801699 0.058941957
0.3413636 -0.014315699 0.19965352 0.4919686 -0.27155098 -0.35024217 0.41717264 -0.00056830124
0.38255185 0.12901133 0.020238915 -0.32717746 0.24677026 -0.34843963 0.15409523 -0.42493385
0.28345296 -0.10430142 0.11273179 -0.10643395 -0.20732424 -0.097878255 -0.04219068 0.53238523
-0.031211458 0.14590807 0.083791904 0.38920605 0.08297211 0.16924582 0.37056968 0.3716593
-0.17259264 0.306696 0.068954654 -0.45749632 0.07586083 0.17729163 -0.15245587 -0.11715421
0.24988106 0.019313501 0.14819546 0.3066256 -0.32566226 0.10419796 0.015944486 0.16800757
-0.1370234 0.48951766 0.27059594 0.14912188 0.18247177 -0.2616663 0.32938385 0.43251368
0.029679503 -0.16733128 0.04159541 -0.06309889 -0.26928324 0.0407451 0.3655193 -0.24087511
-0.38200167 -0.32768616 -0.30182543 0.003541261 0.08587324 -0.09704689 -0.0072542783 -0.0033998382
-0.13198172 -0.32253876 -0.49615154 -0.19759302 -0.09510464 0.11199352 0.14351912 0.111826375
0.025109475 -0.36759326 0.08230563 -0.4367514 -0.52252066 0.10941755 0.3355056 0.09649046
-0.26089823 0.02783356 0.37693572 0.45265314 -0.25530976 -0.5412932 -0.3140653 0.13318413
0.36586058 0.121630155 -0.211153 0.40438673 -0.26319346 -0.2828899 0.113352805 -0.13247377
-0.032024685 0.43193176 -0.18667018 0.24256764 0.34451854 -0.27945375 0.0017634622 -0.019613743
-0.14179547 0.34240162 0.42934623 0.48829183 0.21212065 0.1986737 0.11532018 -0.39034632
0.4090165 0.030818697 -0.3756666 -0.3540392 0.4487881 0.32250804 0.00280799 -0.15820962
0.2864285 0.22371827 -0.43417192 -0.15242048 -0.0052132476 -0.07159162 -0.11345716 0.08691694
-0.2796163 0.05337113 0.3876692 0.484071 -0.017244676 -0.30201674 0.39484754 -0.07348736
0.0023327614 0.12365684 0.5118769 -0.27771738 0.22909702 -0.19491336 0.3196293 -0.2478374
0.115992896 -0.15545353 -0.29758325 0.014459974 0.24020095 0.13041857 -0.26931316 -0.30328605

bias f4 [32]
00000000: fa73 963c 2f88 0fbd 56f8 8b3c 6ce2 d83d
00000010: 8ccd 8dbd 7e2d 34bd 56d0 013c 8747 d93b
00000020: 5f56 3dbd 39e2 ae3e 21a1 5b3e f7c8 7b3d
00000030: 08de 68bd 1dd8 88bd 85af 8c3d 3980 863d
00000040: 0b2f 13be aa69 753e dedd d63d c836 efbb
00000050: 3fb7 843e 28dc d5bc 270c d0bc fb55 2c3e
00000060: 65e5 b53d 9a3b 523d afe0 353d f83c 23bd
00000070: 2991 d33d c05f 053c df78 963d d936 ecbc
0.018365849 -0.035041984 0.01708619 0.105900615 -0.069239706 -0.043988697 0.007923206 0.006630841
-0.046224948 0.3415697 0.21448185 0.061470952 -0.05685237 -0.06681845 0.06869415 0.06567425
-0.14373414 0.23966089 0.104915366 -0.0073002316 0.25921056 -0.026105955 -0.02539642 0.16829674
0.08881644 0.05132637 0.044403728 -0.039853066 0.103304215 0.008140504 0.07347273 -0.028834747

weight_ih_l0 f4 [96, 32]
00000000: 7bc7 f73d f63e 85be 1274 993c 0a2d a9bd
00000010: 6ae5 543d 8ffb 86be b306 de3d e4fb 093e
00000020: 1504 0f3e 56c6 3f3e 17d3 b03b a5cd 933e
00000030: adbc 093e fd62 9ebd 916f a5bc 1fdd 383e
00000040: 0982 72bd 1dc2 223e 2153 f63d a5d9 0fbc
00000050: c448 113e a95b 67bc 1746 a43c 6cf8 4a3e
00000060: 3dd1 1c3d 765e 9dbd 5e1e 97bd 4b68 8ebc
00000070: ac09 6ebd a29d 08be 233e 9ebd dc87 eebc
00000080: 5173 d13c c116 f3bd b2cc 08be 36ee 32be
00000090: 7b43 39bc 62b6 983c 0585 9d3e 2f0f 343e
000000a0: abb9 6d3e d1e0 d63d a02c ad3b 8060 3f3d
000000b0: 7228 0d3d d0cc ea3d 90e8 163e d7d0 473d
000000c0: eb00 1cbe 7aa4 6a3e c942 a13e 663f fcbc
000000d0: 147f dcbd 2a40 f33d 59db f83d e6c0 853e
000000e0: c361 d33d 277b 913b 47d0 a73c 8a3d 293d
000000f0: 14da b33d 793e 763e 12d4 00be 2e35 60be
00000100: 31d1 cabb 9cc2 983c 867c 003d 36f7 8b3d
00000110: 1059 8fbc 392f 61bd f874 8e3e 5ec2 b0bd
00000120: b2d3 873d ae31 923d 2823 033e 5f4b 703e
00000130: 2961 0a3e 37c5 6e3d f2a5 813e 971c 46be
00000140: c70e 1dbe 5fe5 3b3d e67c 863e 151d cb3d
00000150: 1f07 9f3d f47b 893e e529 5b3e ae89 143d
00000160: 8b39 a63d 708b 74bc 33d2 8a3e c974 fabc
00000170: d599 85bd 285a cb3d a431 083e 02ff 9b3d
00000180: e8b3 7d3e 5140 e43d de96 46bd f99e 2d3e
00000190: 1be1 213d 3800 afbd 2495 5e3d eb3e 6c3e
000001a0: 0e22 ffbb e393 04bd 935d 9d3b f914 b33d
000001b0: ecb0 a23e 17ad 343e 4579 443e dcfd 6e3d
000001c0: bae3 8cbc 2865 b63d 50f6 313e ae81 a03d
000001d0: f967 3f3e aad5 44bd e463 8f3e 5784 6e3e
000001e0: 8449 233e d689 303e 26f7 d4bd 48c9 14be
000001f0: 91e2 753e d7eb 2ebd d468 3a3e 3b11 8cbd
00000200: 3c94 4d3d 96a3 633d 61bb 6ebe 87be d73d
00000210: eafd 213d 4c19 dcbd dc8c 99bc e6dd 693e
00000220: 79cf 823c 0ba0 353e 4cde 983e a4f0 823e
00000230: 37cd 6b3e 76bc e93d 9009 9d3e 2d85 393e
00000240: 32d0 9ebd e927 763e 9d32 3a3e edc8 9ebd
00000250: b95e a93e 0bb0 913c 386b 2b3e ca01 713e
00000260: d5f3 73bc cb39 4f3e fac3 a63b c221 ef3a
00000270: e951 413d 9c02 523e d38b 2b3e a439 ad3e
00000280: 63ec ea3c 34e2 f53a 9561 2dbd aca9 eb3c
00000290: d16f d33c 5b47 0dbe 3ab5 4f3c ebd6 8a3c
000002a0: 83ef 54bd 496d 62bd 5dda 3f3d 1d77 6cbd
000002b0: 2458 763d b5bb acbc 4db4 013c d8aa 8e3d
000002c0: 72ff b93d 4b64 923c 356e e2bd 95f3 1f3d
000002d0: bdca 3abe 117c 07be 8c7c 73be 903a 953d
000002e0: 262c 12be f6c1 003b 4d3f 22bd 9032 223e
000002f0: 239c 20be 0f2c d7bd 7af4 a13d 1842 95be
00000300: 7093 2fbc 04d0 313e 23fd 373e 35c9 4f3d
00000310: 1032 a7bc e10d 903d 52a1 3f3e 8a4a 283e
00000320: 8292 543e 5916 13be dcb7 b83d 8e93 99bc
00000330: 0f7f 80bd 0d29 0d3e b7d6 91bd 546e e4bd
00000340: 3254 4cbe fe4e d5bd 43fd c53d 0d5f 3a3e
00000350: 2164 07be be29 f43d 7033 edba 5ac0 1c3c
00000360: ec4b b03c 9b69 02be d90a d73d b1b0 7e3d
00000370: e2d9 943b db2b c23d d429 743e 8631 093d
00000380: 48ea b5bd 0876 51be d9f3 0abe c6d7 a43d
00000390: 9cdf a33d 5a5a d33d 1dd9 8d3d 7a0a 313d
000003a0: b681 adbd 2620 5a3d 3195 71bd 47d6 083e
000003b0: 89d3 8fbd 3278 d13c cea9 843d f769 103d
000003c0: 4489 88bd 8359 03be b037 ab3c f393 e8bd
000003d0: 8f75 ab3d 4216 17be 282b 05bb 7381 4cbe
000003e0: 381b c7bd 734b 483c 77fa 103e 4032 8cbd
000003f0: 70af e4bc 64b6 573d a891 963e bf77 8e3c
0.12098595 -0.26024598 0.018732104 -0.08260544 0.0519766 -0.263638 0.108411215 0.13474995
0.13966401 0.18728003 0.0053962576 0.28867832 0.1345088 -0.07733724 -0.0201948 0.18053101
-0.059206042 0.15894361 0.12027574 -0.008779918 0.14187914 -0.014120975 0.020052953 0.19821328
0.038285483 -0.076840326 -0.07378839 -0.017383715 -0.058114693 -0.13341382 -0.077266954 -0.029117517
0.025567682 -0.11869574 -0.13359335 -0.17473683 -0.0113075925 0.018641654 0.30765548 0.17583917
0.23215358 0.10492099 0.0052848607 0.04672289 0.0344624 0.11464846 0.14737153 0.04878315
-0.15234725 0.22914305 0.31496266 -0.03079195 -0.10766426 0.11877473 0.12151212 0.26123732
0.10321381 0.0044397297 0.020485057 0.041318454 0.087818295 0.24047269 -0.12580898 -0.21895286
-0.0061894883 0.018647484 0.031368755 0.06834261 -0.017498523 -0.054976676 0.27823615 -0.086308226
0.066321746 0.07138382 0.1280638 0.23466252 0.13513626 0.058293547 0.2532192 -0.19346844
-0.15337668 0.045873042 0.26267165 0.09917656 0.0776503 0.2685238 0.214027 0.036264114
0.08116444 -0.014925823 0.27113494 -0.030573266 -0.06523482 0.09929305 0.13300186 0.07616998
0.2477566 0.1114508 -0.048483722 0.16955175 0.039521318 -0.085449636 0.05434145 0.23070876
-0.007786042 -0.0323676 0.0048024147 0.087442346 0.31775606 0.17644154 0.19186886 0.058347568
-0.017198432 0.08906013 0.17379117 0.078372344 0.18692006 -0.04805533 0.28005898 0.23292671
0.15946013 0.1724008 -0.10398702 -0.14529908 0.2401221 -0.042705383 0.18204051 -0.06839224
0.050190195 0.05557593 -0.23313667 0.10534387 0.039548792 -0.107470125 -0.018743925 0.22838554
0.015968071 0.17736833 0.298571 0.2557422 0.23027502 0.11412899 0.30671358 0.18117209
-0.07754554 0.24038662 0.1818337 -0.07753167 0.3308008 0.01778414 0.1674012 0.23535839
-0.014889677 0.2023689 0.00508928 0.0018244314 0.047197256 0.20508808 0.16752557 0.3383304
0.028677171 0.001875943 -0.04232939 0.02876743 0.025810154 -0.13796751 0.012677485 0.016948184
-0.05198623 -0.055280004 0.046839107 -0.057730783 0.06014265 -0.0210856 0.007916522 0.069661796
0.090819255 0.017870089 -0.110561766 0.039050657 -0.18241401 -0.13230921 -0.2377798 0.072865605
-0.14274654 0.001964686 -0.03961115 0.158396 -0.15684561 -0.105064504 0.07907958 -0.29151988
-0.010716304 0.17364508 0.17967658 0.050728995 -0.020409614 0.07033897 0.18713883 0.16434684
0.20759013 -0.14363994 0.090194434 -0.018747117 -0.062742345 0.13785191 -0.07121032 -0.11153856
-0.19953993 -0.10415457 0.096674465 0.18200321 -0.1322179 0.11922024 -0.0018096995 0.009567345
0.021520577 -0.12735598 0.10500116 0.062180225 0.004542575 0.09481021 0.23844081 0.033494495
-0.08882576 -0.20455182 -0.13569583 0.08048968 0.080016345 0.103199676 0.06926177 0.04322288
-0.08472006 0.053253315 -0.05898017 0.1336299 -0.07022769 0.025570009 0.064777 0.035257306
-0.06666806 -0.12827115 0.020900577 -0.11356344 0.08372032 -0.14754584 -0.0020319913 -0.19971256
-0.097219884 0.01222502 0.14158045 -0.06845522 -0.027915686 0.052664176 0.29408002 0.017391084

weight_hh_l0 f4 [96, 32]
00000000: a347 47be 4260 d6bd e36a 55bd f45d 613e
00000010: e7ee 913e 6fb7 febd cc04 2f3d 4f98 37be
00000020: df49 65be 102a 6f3e cbd5 d23c d259 95bd
00000030: 3af1 5f3e 3171 0e3d a09c 43bd 5470 66be
00000040: f602 71be 514a 06be ad61 3cbe 7302 47be
00000050: f743 383e 744c 64be ecff 90bb 1f7f 643e
00000060: 2583 ccbd 02a1 d5bc c20e 63bd 01a5 c23a
00000070: de24 643e 327c c4bd ca49 6bbe a8e4 72be
00000080: 5eaf 5ebe b952 293e 295a d8bd f16d 9bbe
00000090: 080c 573e 9d90 1dbd 0901 28be e294 e43d
000000a0: 6ec5 173e d3df 213e 01e9 4f3e ca37 ca3d
000000b0: bfb1 b63d 5635 2ebe d1e5 423d e2cf 073e
000000c0: 9c8f a8bc 20f7 3cbd 5bd3 1abe 747e 94be
000000d0: 27c7 28be 89bf 0c3e 583c c9bc def0 f5bc
000000e0: 5b84 193d c73f 183d 8aa9 803e edcb 083e
000000f0: dc17 54bd 11a6 553d 5bd6 61bd bfd5 0dbe
00000100: 3761 17be f08a b03c fd8c 90bd 0681 84bc
00000110: 86ac 8abc 5b32 143e 4d74 103e 1859 b9bd
00000120: 7255 5abd c9e0 3b3d d75b 04be 79a2 d93d
00000130: 1764 623e fad4 833d f449 4b3e ad23 b0bd
00000140: e0c9 c03d 0d7c 753b aa97 603b 5b7e 31bb
00000150: f1c1 123e f3be 333d b7a3 55be cec1 6f3e
00000160: 7635 dbbc 1ce3 3f3d bae2 abbd 63f5 703d
00000170: f5c2 6b3e de88 1abc f10a e8bd 7a7e d43d
00000180: f070 d4bd 77fb 763d 8d70 ae3c c7b5 79be
00000190: 3cb1 723c 97f1 cd3d 7365 ccbd ca98 98bd
000001a0: 2bc9 4a3e 468b e3bd 34ab 4f3e 7bb5 88be
000001b0: 8c91 183e f2cc e53d 93aa 4a3e 8aad 91be
000001c0: b1fb 51be 5843 1bbd b5dd 56be ade7 693e
000001d0: 7662 503d e21c e03d c4bc 83bd 3c4d a83e
000001e0: 8d75 84be d750 493e 2d9e 8cbe 319e 81be
000001f0: bab3 493e 7ff9 e4bd 66ff 39be 4b43 2a3e
00000200: d749 7dbe 5621 2e3c 1bb3 0bbe 4fca 5c3e
00000210: 12bd 1a3e 71cd 483e 6218 91bd 5b3b f8bd
00000220: 54b6 af3c cdf3 613e d47f 293e 260e 1ebe
00000230: 1f29 f1bc 3085 63be 2559 ee3d 2b3c 13be
00000240: 317c 1e3d 9d37 2dbe d67d c2bd 0731 a4be
00000250: 92f8 94bb c5a2 ffbd 0441 7e3d 9a58 923d
00000260: 00dc b5bd cc4a 93bd 62ad 433c 2fb4 37be
00000270: 1903 913e 75d4 14bc 02b2 75bd 6611 bfbe
00000280: aa61 5bbd 0a11 eb3d 6a56 23be 86e1 6e3e
00000290: a70c 003e 4127 8ebe 8eb1 f03d 2d2d 833e
000002a0: 8b3a dabd 0bbb 363c abfa 05be e23c 7c3c
000002b0: 5ee5 49bc 08b8 0bbe 9d0a b23d 2145 c83d
000002c0: 7b21 693e 8b6e cd3d d06f 72bc 3c78 b93d
000002d0: c1b2 86bd 6e89 573d bd6f 843e 42bd aebd
000002e0: 1994 dfbd a147 8bbe 9fc4 a53d 4977 2bbe
000002f0: ef55 2ebe c91c 763c fa31 08be ec49 9dbc
00000300: d224 dcbc 6b9c 2dbc a250 41bd 9152 953d
00000310: ba12 203d 80fa 433d 9b30 0f3c 44c6 84be
00000320: 48c6 6fbd 3b70 01bd 3834 363d 4f80 ee3c
00000330: 4dd7 6b3e b4e4 e93d 1df0 bbbd 404f 26be
00000340: 99e0 bdbd 2a48 11be e848 e33d 2d84 dabd
00000350: 78a9 4d3e 291a 2dbe 2ee4 83bd 14c9 403e
00000360: 669f 87be e15a 833e 5dab 60be 9a50 cfbd
00000370: 98e5 433e 59bb 113d 257e 6fbe 99cc ba3d
00000380: e61a 273d 862a b23c e7e2 4c3d f3d7 6fb9
00000390: a53c 26bd 03e5 97bd 1907 7f3d 87c4 e4bd
000003a0: 4989 643d 6204 15be 89b3 133e 8184 69be
000003b0: 1019 3c3e 241f 973d 9a60 c5bd 48b5 50be
000003c0: 052b 3abd 002a 2fbe be60 61be aa2b 633d
000003d0: b309 793d 1a77 a9bd f336 30be 5a2a ee3d
000003e0: 17ae 8bbe fff6 3d3e ab33 cdbd a2bb 033e
000003f0: 1f07 6a3e 6aca 053e 87ee be3d ce22 8038
-0.19460921 -0.104675785 -0.05210389 0.22008497 0.2850258 -0.12437331 0.042729184 -0.17929195
-0.22391461 0.2335589 0.02573671 -0.072925225 0.21869364 0.034775916 -0.04775679 -0.22503787
-0.23536286 -0.13114287 -0.18396635 -0.19434528 0.17994677 -0.2229479 -0.0044250395 0.22314118
-0.09985951 -0.026077751 -0.055433996 0.00148502 0.22279689 -0.09594001 -0.22977367 -0.23720038
-0.21746585 0.16535462 -0.10564072 -0.30357316 0.21000683 -0.038467992 -0.16406645 0.1116121
0.14821407 0.15808038 0.20303728 0.09873922 0.08920621 -0.17012534 0.04758245 0.13262895
-0.02057629 -0.046134114 -0.15119688 -0.29002726 -0.1648222 0.1374494 -0.024564907 -0.030022081
0.03747974 0.037170198 0.25129348 0.13359042 -0.051780567 0.052160326 -0.055136066 -0.13851069
-0.14783178 0.021550626 -0.070581414 -0.016174804 -0.016927969 0.14472334 0.14106865 -0.090501964
-0.053304143 0.04586867 -0.12925659 0.10626692 0.22108494 0.064371064 0.1985243 -0.086005546
0.094135046 0.0037457973 0.0034270086 -0.002708337 0.14331795 0.043883275 -0.20863234 0.23413774
-0.02675889 0.046847448 -0.08392854 0.05882777 0.23023589 -0.009432046 -0.11330212 0.10375686
-0.103731036 0.06029841 0.021293903 -0.24385749 0.014812764 0.10055845 -0.099802874 -0.07451017
0.19803302 -0.11110549 0.20280153 -0.2670096 0.14899272 0.11220731 0.19791631 -0.28452712
-0.20506169 -0.03790602 -0.20983012 0.22842284 0.05087515 0.10943009 -0.064324886 0.32871425
-0.25870934 0.19659744 -0.2746443 -0.25316003 0.19697466 -0.111804 -0.18163833 0.16627233
-0.24735199 0.010628065 -0.13642542 0.2156155 0.15111187 0.1960962 -0.07084729 -0.12120696
0.021449246 0.22065659 0.16552669 -0.15435085 -0.029438553 -0.22218776 0.11638097 -0.14378421
0.038692657 -0.16915746 -0.094966576 -0.32068655 -0.0045462335 -0.12482218 0.062073722 0.07145806
-0.08879852 -0.07192001 0.011943193 -0.17939828 0.28322676 -0.009083857 -0.059984215 -0.3731796
-0.053559937 0.11477859 -0.15950933 0.23328218 0.12504826 -0.27764323 0.11752616 0.25620404
-0.106556974 0.011152993 -0.13083903 0.015395375 -0.012322752 -0.13644421 0.086934306 0.0977881
0.22766678 0.1003085 -0.014797166 0.09056136 -0.06577063 0.052621298 0.258665 -0.08532192
-0.10916919 -0.27203086 0.08094143 -0.16744722 -0.17024969 0.015021511 -0.13300315 -0.019200288
-0.026873026 -0.010596375 -0.047196038 0.07291139 0.03908036 0.047846317 0.008739616 -0.25932515
-0.058538705 -0.031601172 0.044483393 0.029113917 0.2303135 0.11420575 -0.09176657 -0.16241169
-0.09271354 -0.14187685 0.1109789 -0.10669742 0.20084178 -0.1690451 -0.06440006 0.18826705
-0.264888 0.25655273 -0.2194037 -0.101227954 0.19130552 0.03557906 -0.23387964 0.09121055
0.040797137 0.021748792 0.05002108 -0.00022873264 -0.04058518 -0.074167274 0.06226263 -0.11170297
0.055794988 -0.14552453 0.14423956 -0.22804452 0.18368936 0.073789865 -0.09637566 -0.20381653
-0.045451183 -0.17105865 -0.2200956 0.055461563 0.060800266 -0.0827467 -0.17208461 0.11629172
-0.27281258 0.18551253 -0.100196205 0.12864545 0.22854279 0.13065496 0.09322839 6.1099985e-05

bias_ih_l0 f4 [96]
00000000: c389 6b3e 476c 71bd 127a 1d3e 7ad9 bb3d
00000010: da65 7d3e 4e5a df3c b864 143e 9fe6 153e
00000020: a785 4d3e 0397 913e 86fe 13bd 0c49 b3bc
00000030: 3540 953c 075c ccbd dece 08be f8da 203d
00000040: f0df 3e3e 0efd a53d 0d56 043e d15b 9bbd
00000050: 3dbd aa3c 2bde f4bd dd82 073d 069b 463e
00000060: 5d96 af3e eb1c 283e 23b6 cd3d b7b2 98bd
00000070: 10ce aa3e 4ffc 443c ba45 b53d fb56 353d
00000080: 3a3b 54be 35e8 05bf ebc8 c1be 65b1 0f3d
00000090: 86e4 0abf 2879 f9be 3350 8c3d b3af 9fbe
000000a0: 2f25 08be 262c 0abf d385 7fbd 9af0 cbbe
000000b0: 9805 e03d ac5b 03be 1fdf 80bd c27d 0e3e
000000c0: ba25 483d 59e7 2d3c 01ac 85bd 04c8 81be
000000d0: d923 40bd b428 f0be f478 8abe d522 3e3d
000000e0: 5384 f6be fba6 d13d b4d0 e3be 08a9 71be
000000f0: 922d ecbe cf8a 01be 341b 39be d928 80be
00000100: 99e5 c2bd 4072 a63e edea 4ebe f5f3 4cbe
00000110: 53fd 803e 5c6c 8b3e 6185 34be 73eb 953d
00000120: 28a4 3b3e a409 d3bd 8fcc 77be c25f 56be
00000130: 9620 bbbd 2e77 ee3d eca1 bd3d cbf4 0fbd
00000140: a809 1f3e 70a2 67bd ddf5 b8bd 942b 323d
00000150: f808 f5bc 7a57 19be c162 48be 4205 703d
00000160: e393 85bd 6c27 54be c6d8 e93d 416c 9dbd
00000170: 06bf 613e 6056 563d e293 963e e0ab 193e
0.2300177 -0.058941152 0.15378597 0.0917234 0.24745885 0.02726474 0.14491546 0.14638756
0.20070516 0.28435525 -0.036131404 -0.021885417 0.018219093 -0.0997849 -0.13360164 0.039271325
0.18640113 0.08104907 0.12923451 -0.07585872 0.020842189 -0.11956438 0.033083785 0.19395074
0.34294406 0.16417281 0.100445054 -0.07455962 0.33360338 0.012023046 0.0885119 0.044272404
-0.20725718 -0.52307445 -0.378486 0.035081286 -0.5425495 -0.48725247 0.06851234 -0.31188735
-0.13295434 -0.53973615 -0.062383484 -0.39832002 0.10938567 -0.12827939 -0.06292557 0.1391516
0.048864104 0.01061424 -0.06526948 -0.25347912 -0.046909187 -0.46906054 -0.27045405 0.046419937
-0.4814783 0.10236927 -0.44495165 -0.23599637 -0.46128517 -0.12650608 -0.18076783 -0.25031164
-0.095164485 0.3250904 -0.20206805 -0.20014937 0.2519327 0.2723111 -0.17629005 0.07320299
0.1832434 -0.10304573 -0.24199127 -0.20934966 -0.09137075 0.116438255 0.092594 -0.035145562
0.15531027 -0.056551397 -0.0903127 0.04349859 -0.029911503 -0.14974776 -0.19568922 0.058598764
-0.06522348 -0.20718163 0.114182994 -0.076866634 0.22045526 0.052328467 0.294097 0.15006971

bias_hh_l0 f4 [96]
00000000: d2c5 60bd d398 6a3d c96d 3d3e 54f8 4a3e
00000010: 681e 3b3e fbf4 1a3e 00a9 963d 6170 35bd
00000020: d9f9 713e b380 2e3e bf47 173e 07dc 683b
00000030: a4c8 413c c9a6 fe3d 3d7a ea3c 7503 863c
00000040: f7c4 d23d c3b4 8dbd 0574 453e 0d69 b1bc
00000050: 3924 ee3d fc89 d1bd 0430 213a c462 3d3e
00000060: 771d 6e3e f7cd 3c3e 8b60 903d 2f52 633e
00000070: 4205 603e 255c 013e 14e1 86bd 5437 92bc
00000080: ab23 3bbe 8641 ddbe 6beb e7be 9449 773d
00000090: 3a6d a3be d9b4 b3be 1f06 3bbe a386 133c
000000a0: 9ca9 8ebe 2c09 9bbe e35f 9bbe f448 38be
000000b0: 4f0a 083e b138 c5be 7e66 ec3b 54fb e3bd
000000c0: 5630 1dbe 7078 eabd 493b 79be 0cee 81be
000000d0: 0d23 6ebe 8e0a f2be ec22 5ebe d147 37bd
000000e0: 5486 f2be 0ae5 a2ba 289c 86be 888c 7cbd
000000f0: 28bf 45be b8c4 61be fef9 85be 3eb1 ba3c
00000100: e0d2 f43d f8ec 8a3c f278 8fbe 0127 fabd
00000110: c9e9 183d dd0f 5f3e e7dc 73be e71f 86bc
00000120: 4c74 0e3e 67bb 1e3e fae4 3ebe 226e 67bd
00000130: bbe1 123d feeb 1c3e fff4 ab3c 21e7 f73d
00000140: 3404 223e 0c76 f7bd 76e5 6a3d 9c08 0f3e
00000150: c18a 163d f45d 6f3d 8a60 78be 8af1 00be
00000160: d87d 7ebd 668a 6fbd e79a 7abd 567c 96bd
00000170: 37af 383e 136f 42bd 5c26 053e 4470 2b3d
-0.054876156 0.05727465 0.18498911 0.19821292 0.18273318 0.15132515 0.07356453 -0.044296626
0.23630466 0.17041282 0.14773463 0.0035531537 0.011827622 0.124341555 0.02862274 0.01635907
0.10291474 -0.06919243 0.19282539 -0.021656537 0.11628003 -0.102313966 0.00061488175 0.18494707
0.23253427 0.18437944 0.07049664 0.2219932 0.21877006 0.12632807 -0.06585899 -0.017848648
-0.18275325 -0.43214053 -0.45296797 0.060372904 -0.3191927 -0.35098913 -0.18264054 0.009004268
-0.27863777 -0.30280435 -0.30346593 -0.1799658 0.13285182 -0.38519815 0.0072143665 -0.111319214
-0.1535047 -0.11448753 -0.24339022 -0.25376928 -0.23255558 -0.47273678 -0.21693009 -0.044746224
-0.4736811 -0.0012427878 -0.26291013 -0.06165746 -0.19311202 -0.22047698 -0.2616729 0.022789594
0.11954284 0.016958699 -0.2802196 -0.12214471 0.03733233 0.21783395 -0.23814736 -0.016372634
0.13911551 0.15501176 -0.18642035 -0.056501515 0.035859805 0.15324399 0.020990847 0.12104631
0.15821916 -0.120830625 0.057347737 0.13968128 0.03675342 0.05843921 -0.24255577 -0.1259214
-0.062131733 -0.058481596 -0.061182883 -0.07347934 0.18035589 -0.04746921 0.13002914 0.04185511

weight f4 [32, 32]
00000000: 8bd7 c3be 6f69 a13e 7315 413e 5e56 a23e
00000010: cc50 2e3f 5154 733e 43e0 ed3d efea e23d
00000020: 22a8 52be 812c 003c 7da1 793e 0217 18be
00000030: 710a c6be 3ffc 4ebe 0b77 2e3e 5da8 29be
00000040: d74d ad3e 7e04 9c3d 68aa bbbe 2f20 40be
00000050: caf2 073e b88f 2a3e 0016 f5be e0b1 4fbe
00000060: 7d75 d7be 5555 c5bb e7ed 55be 5ef3 543e
00000070: a932 903e 9ae8 be3e 5f34 e03c bedc 113e
00000080: e6ea a53e 9773 983e df62 9abe b0bd 3d3f
00000090: e977 bdbe dd3b bbbe 5b52 b83e fd0e 393d
000000a0: ea33 babe 81a7 a8bd cf81 dabd 3306 a1bd
000000b0: b080 a7be 2001 cfbe 3ef6 a33e 93c2 dcbe
000000c0: b13c af3c 210b 1abe 6203 943b 4880 a5be
000000d0: 7742 e13b 72d9 3a3e 217e a13d 7f2d f23e
000000e0: 5ad8 21bf a32c 303e d6fb 7ebe 247c 61be
000000f0: 3d41 823e 079d 2d3e b1c0 98bc 3870 963d
00000100: a112 01bf d75f c43c 9ca6 73bd c3c5 a53e
00000110: 4309 b03e 8dbb 803e 77c6 b9be 878d 073f
00000120: 1acc 5dbe b13e 303f 8e82 6c3d cc12 52be
00000130: f42f bbbe 641d 08bf 08e8 d23e 4dd2 813e
00000140: 1a5b d8bd c73e 85bd 7d68 6a3e ac49 04bf
00000150: be89 b93d 9a2a 6ebe 0136 013d ba50 dbbe
00000160: fb36 b0be 48e6 18bf b88b 833c fc90 8f3e
00000170: d78d c03e 0638 c1be 102d 023c ec2e 29bf
00000180: d8c5 3fbe 2b91 3f3c 4e91 c4be a093 363d
00000190: 2f74 573e 4031 9abe 4ab3 a7be 2ae5 b73e
000001a0: b2d0 a9be 2410 e73b da1b 30be a192 a8bd
000001b0: 0159 be3e 63db d0be 25cb 25be 7872 d0bd
000001c0: a30d fbbe 7b99 ba3e d376 19be e5a8 a3be
000001d0: 65f1 803e 4448 283e b7f5 1cbf 856f 9fbe
000001e0: f361 133e 9fc5 913e f77b 413e 94a7 de3e
000001f0: 2651 b03b e4da c2be 387b ddbd 5fb7 4f3e
00000200: ced4 d3be f945 a83e 12e5 bbbe 9599 7fbe
00000210: 37ae 86be 212d dd3e 681d f9be c9b5 67be
00000220: 33b3 6e3e 31cb 843e 910b c13e 9767 073d
00000230: 9702 05bd ac04 01bf a0ef 1e3e b2af 3d3c
00000240: 6da8 953e 1f7c f3be 73d5 793d 4bdf c0be
00000250: bcb6 03bf c4ae b63e 84e1 063f 486c 893d
00000260: 6351 3d3d dcee 273b d81b ecbd b37c c2bd
00000270: 6aec e0ba f54e 32be 07c2 733e ccbd 793e
00000280: 0248 e4be 87d7 77bc 3448 e6be d7e8 8cbe
00000290: 56ca 3e3e aca2 3a3d e7ec 1d3d b010 3e3e
000002a0: b58c cf3e 8b90 5fbe 49ed 903e dd0d 99bd
000002b0: 376c e23e d207 cebe 220a 833e 6ba1 a2be
000002c0: 174f 86be f0a0 223e 5d31 e6be 420f 1d3d
000002d0: 1e47 fabe a65c da3e 5a6f 783e f1d1 743e
000002e0: afc7 fe3d 99d9 763e d7e2 c13e e20b 32bd
000002f0: 90f0 88be f07e e5be e7e4 7cbe 0fd7 d0bd
00000300: e381 f9bd 610e c43e eeb3 09be a733 dc3e
00000310: cf10 fb3e a69a 253d f938 bebe 0a68 53bd
00000320: 7f29 f3bc 5e62 1a3d 3a15 98be 9f22 ff3e
00000330: 339d af3d c9f1 833e 9547 f13d df9f aebd
00000340: 9478 1abe ecad c2be 70f2 d6bc a297 87be
00000350: d254 edbe c8e6 02bf 083f a23e e63b c1be
00000360: 81ac fbbe 0fe0 8abe 06f4 c9be 8146 bdbe
00000370: 70b1 093e 97c7 adbd 4abb 083e 0929 803e
00000380: 9876 383e e353 8fbe 2ac0 5abd b854 d33d
00000390: 8e4c 2abe debe ca3d 7f90 3a3e aa70 7dbe
000003a0: 8580 e1be e557 553e c9e5 7e3e 8829 5cbd
000003b0: ad69 d83e fd96 c33e 6855 c83e a1e2 babe
000003c0: b0b1 063e 4c48 90be 57d2 eabe 16af 433e
000003d0: 1588 da3e d1b2 8bbe 258c 08be b96f d73e
000003e0: 84d3 d83e cb96 243f 0c7e bc3e dd8e d43e
000003f0: 8b8d 6d3e c6df a8be 241a dcbe bffb 4bbe
-0.38250384 0.31525752 0.18855838 0.31706518 0.68092036 0.23762633 0.1161504 0.11079966
-0.2057195 0.007823111 0.24378009 -0.14852527 -0.3867984 -0.20213412 0.17037599 -0.16568132
0.3384845 0.07618044 -0.36653447 -0.18762277 0.1327621 0.16656387 -0.47868347 -0.20282698
-0.42081824 -0.0060221353 -0.20891534 0.20795962 0.2816365 0.37286836 0.027368722 0.14244363
0.32405776 0.29775688 -0.30153558 0.74117565 -0.37005547 -0.3656911 0.36000332 0.04518031
-0.36367732 -0.08235074 -0.1066929 -0.078625105 -0.32715368 -0.40430546 0.32023805 -0.43117198
0.021391245 -0.15043308 0.004517005 -0.32324433 0.0068743783 0.18247011 0.07885385 0.47300336
-0.6322075 0.17204528 -0.24900755 -0.22020012 0.25440398 0.16954432 -0.01864657 0.07345623
-0.5041905 0.023971481 -0.059485063 0.32377443 0.34382066 0.2514309 -0.3628423 0.5295033
-0.2165989 0.6884566 0.057741694 -0.20514983 -0.36560023 -0.53169847 0.4119265 0.2535576
-0.10564251 -0.065061145 0.22891422 -0.51674914 0.09059475 -0.23258439 0.031545643 -0.42835027
-0.34416947 -0.5972638 0.016057834 0.28040302 0.37608215 -0.37738055 0.007945314 -0.6608722
-0.18727815 0.011692326 -0.3839211 0.04457438 0.21040414 -0.301157 -0.32753974 0.35917026
-0.33167034 0.0070514847 -0.17198125 -0.08231092 0.3717728 -0.4079238 -0.16190775 -0.10178083
-0.49033841 0.3644522 -0.14986734 -0.31964794 0.2518417 0.16433817 -0.6131243 -0.3113977
0.14392833 0.28471085 0.18894945 0.43487227 0.0053807674 -0.38057625 -0.10814518 0.20284794
-0.41373295 0.32865885 -0.36698204 -0.2496093 -0.2630479 0.43198493 -0.48655248 -0.2262794
0.23310547 0.25936273 0.37704137 0.033057775 -0.032473173 -0.50397754 0.15521097 0.011577534
0.2923006 -0.47555634 0.060994577 -0.3767036 -0.51450706 0.3568021 0.5268786 0.06710106
0.046220195 0.002562455 -0.11528748 -0.09496441 -0.0017160301 -0.17412932 0.23804484 0.24388808
-0.44586188 -0.015127069 -0.44976962 -0.27521393 0.18631873 0.045565292 0.038556006 0.18561053
0.40537038 -0.21832483 0.28306034 -0.07473347 0.44223186 -0.4024034 0.25593668 -0.31763777
-0.26232216 0.15881705 -0.44959536 0.03834463 -0.48882383 0.4264881 0.24261227 0.23908211
0.124404304 0.24106444 0.37868378 -0.043468364 -0.26746035 -0.44823408 -0.24696694 -0.10197269
-0.12182977 0.3829222 -0.13447544 0.43008158 0.4903626 0.040430687 -0.37152842 -0.05161289
-0.029682873 0.037691467 -0.29703695 0.498311 0.08574905 0.25770405 0.11781231 -0.08526587
-0.1508506 -0.38023317 -0.02623865 -0.26482874 -0.46353775 -0.51133394 0.31688714 -0.3774101
-0.49155048 -0.27124068 -0.39443988 -0.36967853 0.13446593 -0.08485334 0.13352695 0.25031307
0.1801399 -0.27993688 -0.05340592 0.10318893 -0.16630766 0.09899686 0.18219183 -0.24750009
-0.44043365 0.2083431 0.24892344 -0.053750545 0.42268124 0.38201132 0.3912766 -0.3650103
0.1315372 -0.28180158 -0.45863602 0.19109759 0.42681947 -0.27284864 -0.13334711 0.42077425
0.42348874 0.6429259 0.36814916 0.41515246 0.23198526 -0.32983226 -0.42988694 -0.19920252

bias f4 [32]
00000000: 0fe4 1f3e 8259 ef3d b78b d03d 6313 8fbb
00000010: 1019 e23d 972b 443d fd4c f63d f55d 2b3d
00000020: 49ce a73c 9094 813e 6d05 af3c 7389 febc
00000030: 873a d03c 496f 963e b0d4 e13c b144 143e
00000040: 3b48 a73d 651a c93d fbb1 cc3d 8255 893e
00000050: 6d5a 333d 6c81 003e 2f84 f93d 3916 fabc
00000060: 3656 3f3d b660 0c3e a2d7 4a3d 2fb6 223d
00000070: 667f 0f3e 1928 2d3c b055 183e ca9e 943d
0.15614341 0.11686994 0.101828985 -0.0043663247 0.110399365 0.047893133 0.12026403 0.04183765
0.020484107 0.25308657 0.021364892 -0.0310714 0.025418533 0.2938178 0.027567238 0.14479329
0.08168074 0.098194875 0.099948846 0.2682305 0.04378741 0.1254937 0.12183415 -0.030528175
0.046713077 0.13708767 0.04952205 0.039724525 0.14013442 0.010568642 0.14876437 0.07256849

weight f4 [7, 32]
00000000: e0ab d9be b4e2 3cbe 8ed3 d8be 8185 983d
00000010: 3986 433e 127a b8be 6f99 c5be a59d 46be
00000020: 2cd4 cebe 8080 e1be bd0e e6bd c8a2 113e
00000030: 0bb0 01be fad9 96be dddf 0abd b260 4fbe
00000040: 6185 56be 4c46 d1be e051 5abe ed9f e43c
00000050: 4f88 62be da5b 14be c78b 113e 5d50 ac3e
00000060: 5160 8c3e be95 153e 3758 6e3e 1ec5 903d
00000070: 917d 4dbe 1257 ac3d c373 31be f3c9 c0bd
00000080: 1837 2dbe 6f65 0e3f 97bc d23e 28a8 88be
00000090: b694 b13d 59f1 da3e dd19 80bd 9151 75be
000000a0: ecd2 b7be c329 1e3e 1468 2ebe 32aa 1ebf
000000b0: ac82 5b3e 295c 52bf ae8a 073f e403 3fbd
000000c0: 64e2 903d d5fa b7be 3bed 21bd be39 d1be
000000d0: 79f9 043f 0a72 1bbe aa76 0f3f 7b56 b3bd
000000e0: 0dca 9cbe 08f1 273e 1763 b7be 8b51 8b3e
000000f0: 19c6 31bf 6073 8d3e b435 22bf 024b 2cbe
00000100: fc32 0fbf 69d2 d6bc 5fbc febe 6ee7 f9be
00000110: c932 5fbe bfc4 9bbe 6f23 933e 5972 9e3e
00000120: 1ded ef3c 6524 20bf 96bd 823e 23b6 f63c
00000130: a69b 65be 34d4 11bf 3e25 9e3e 6582 983e
00000140: e0c9 aa3e 82b4 fdbd ba22 4abe 6e73 4dbe
00000150: 9477 2abe 200a e43d fc73 fb3e 9db3 bdbd
00000160: f096 073f 04d9 643d 1fd8 0bbe 202a a3be
00000170: d998 16bf fd16 57bd 7a16 553e ad78 093f
00000180: 3525 013f 2aca 87be 0f81 ee3e cd3f df3e
00000190: 8d35 0ebf eebc 78be 7382 d4be 1968 c63e
000001a0: d270 f23e e3f6 39be dafa b13e e7f0 733e
000001b0: 717a e83e 4f4c 65be 579a c3bb adb2 36bc
000001c0: 78cb cd3e 65d0 003f ae98 193c 2976 ffbe
000001d0: 8acf a7bd 8aab 9b3d 2479 8fbe 6fff ef3e
000001e0: d634 d4be 7d83 3ebd 86fa a53e 8277 083f
000001f0: 41ab d6be 0fc9 183f c1fa d3be 4b95 f03d
00000200: 943a ee3e c4c0 81bd 07aa 0a3f b3a1 0bbe
00000210: c911 b63c 9906 293d 4c93 963e 9dfc e9be
00000220: b08c d0bc a2c7 9f3e d0c3 ecbd 1bc6 36be
00000230: 4e5a 03bf 1a0b ac3d f18f 6dbe 32f7 adbe
00000240: 7bb1 143e f1ff e13e 8103 943c 8799 ff3e
00000250: 37e5 3abe cabb f23e b79d d6be 049d dfbe
00000260: 9c54 08bf 0029 2f3f 9df0 733e 81f4 b3bd
00000270: 8afb e93e bdba 64be 5b1c 1fbe 1af6 bebd
00000280: 5cfd 9e3d 6eb3 a73e e11f 12bf 472b 2c3e
00000290: fbd2 84be 53a6 debe 40d5 92bc 271f 4abe
000002a0: 2ece abbc fa5f c33e ebeb ccbe 3b0e 48be
000002b0: 24b5 13bd 4e62 0c3f db23 bcbe 41ca 2d3e
000002c0: 9c20 493e a5e1 a3be 5f5a 8bbe 7888 e13e
000002d0: fe33 7fbe 46e6 83be bace e4be 5748 c6be
000002e0: e104 173f 739f 03be de16 06be b932 2dbf
000002f0: 0022 2cbe f0d6 aabd c539 933e c821 583c
00000300: b6bd 9abe b69a d9be e6ca 0cbf 6ea5 863e
00000310: 424c 47bc 5538 123f 5eaf 90be 8950 853e
00000320: f08d c8be 997a 803e 96b2 edbe 3a66 8e3e
00000330: 10a2 9d3e 116a ee3d 43f2 08bf 85bf 0b3f
00000340: 21ce adbe c78d 083e bad4 09bf c808 dc3e
00000350: e6c7 dfbe 527a a0be 4a68 263d 7b59 7cbe
00000360: 0581 03be 6df3 b6be 482f 4f3e d3e6 043c
00000370: c09d ddbd 0e0f a2be 2ccf e0bd 4cad e8be
-0.42513943 -0.18445855 -0.42348903 0.07447339 0.1909417 -0.36030632 -0.38593623 -0.19396074
-0.4039625 -0.4404335 -0.1123328 0.14222252 -0.12664811 -0.29463178 -0.0339049 -0.2025173
-0.20949318 -0.40873945 -0.21320295 0.02790829 -0.2212231 -0.14488164 0.14213477 0.33655062
0.27417234 0.14607903 0.23275839 0.07068847 -0.20067431 0.08415045 -0.17329316 -0.09413519
-0.16915548 0.55623525 0.41159508 -0.26690793 0.086709425 0.4276226 -0.06254933 -0.23956896
-0.35903108 0.15445618 -0.1703189 -0.6197845 0.21436566 -0.82171875 0.52945983 -0.04663457
0.070744306 -0.35933557 -0.03953288 -0.40864366 0.51943165 -0.15180221 0.5604044 -0.08756729
-0.30622903 0.1640054 -0.35817787 0.2721065 -0.694429 0.27627087 -0.63363194 -0.16825488
-0.5593717 -0.026223378 -0.4975309 -0.4880938 -0.21796717 -0.30423543 0.2873797 0.30946615
0.02928787 -0.62555534 0.25535268 0.030116146 -0.22422656 -0.5696442 0.3088779 0.29786983
0.33357143 -0.12387945 -0.1973981 -0.20063564 -0.16647178 0.11134744 0.49111927 -0.09262774
0.5296469 0.055871025 -0.13656662 -0.31868076 -0.58826977 -0.052512158 0.20809355 0.5369976
0.504474 -0.26521426 0.4658284 0.43603364 -0.5555046 -0.24290821 -0.41505775 0.38751295
0.473517 -0.18160586 0.34761697 0.23822366 0.45405915 -0.2239239 -0.0059693265 -0.011150998
0.40194297 0.50317985 0.009374781 -0.49894837 -0.08193882 0.07601078 -0.2802211 0.46874568
-0.4144656 -0.046512116 0.32417697 0.53307354 -0.4192753 0.5968179 -0.41402248 0.117472254
0.46529067 -0.06335595 0.5416569 -0.13635902 0.022225277 0.041266058 0.29409254 -0.4570054
-0.02545771 0.31206995 -0.11560786 -0.17849009 -0.5130967 0.08400555 -0.2319944 -0.33977658
0.14520828 0.4414058 0.018068077 0.4992182 -0.18251501 0.47408897 -0.41917202 -0.4367448
-0.53254104 0.68421936 0.23822255 -0.0878687 0.45699722 -0.2233686 -0.1553816 -0.09324284
0.07763168 0.3275408 -0.57079893 0.16813384 -0.25942215 -0.4348627 -0.017923951 -0.19738446
-0.020972338 0.38159162 -0.4002374 -0.19536678 -0.03606142 0.548375 -0.36746106 0.16971685
0.19641346 -0.3200809 -0.27217385 0.4404943 -0.24922177 -0.25761622 -0.4468897 -0.38727066
0.5899182 -0.12853794 -0.1309466 -0.6765552 -0.16809845 -0.08341777 0.28755012 0.013191648
-0.30222863 -0.42500848 -0.549971 0.26298088 -0.012164177 0.57117206 -0.28258795 0.26038006
-0.3917079 0.25093535 -0.46425313 0.27812368 0.30787706 0.11641324 -0.5349466 0.5458911
-0.33946326 0.13335334 -0.5384022 0.4297545 -0.43707198 -0.31343323 0.0406268 -0.24643509
-0.12842186 -0.35732594 0.2023288 0.008111673 -0.10821104 -0.3165211 -0.10977015 -0.45444715

bias f4 [7]
00000000: 0656 aebd e6c7 12bd 2e66 fdbc 91b8 08be
00000010: 06e2 023e ee88 c53d 4426 433d
-0.085125014 -0.03583517 -0.030932512 -0.13351656 0.12781534 0.09645258 0.047643915
